data/trained_models/base_k_a_snn.pth (torch, 118734 bytes, 5 tensors)

fc1.weight f4 [64, 374]
0	0xbd8d5719	-0.06901378
1	0xbb614f0e	-0.0034379396
2	0xbcae6eaa	-0.021293003
3	0x3b544825	0.0032391634
4	0x3c6eecfd	0.01458287
5	0xbc1481c0	-0.009064138
6	0x3d318c6c	0.043346807
7	0xbd80fdde	-0.06298421
8	0xbd878da5	-0.066188134
9	0xbc94c591	-0.018160613
10	0xbd8db9bc	-0.06920192
11	0xbdaf826f	-0.085698
12	0x3ca646dd	0.020297462
13	0xbd9fd9f6	-0.078052446
14	0xbd02f43a	-0.031971194
15	0xbd3492aa	-0.044085182
16	0xbc2935d3	-0.010327774
17	0xbc0f5179	-0.008747452
18	0xbd26ba3b	-0.040704947
19	0xbca86333	-0.020555114
20	0xbd99e78c	-0.07514867
21	0x3d7051a7	0.05867162
22	0xbd34c60c	-0.044134185
23	0x3c3816a2	0.011235865
24	0xbd4bd068	-0.0497593
25	0x3cc315fb	0.023814192
26	0x3c609a90	0.013708726
27	0x3be48826	0.006974238
28	0x3d42d80e	0.047569327
29	0x3cd61b97	0.026136203
30	0x3a9b5d83	0.001185343
31	0xbd44dd06	-0.048062347
32	0xbcd0e478	-0.025499567
33	0x3d19c937	0.03754541
34	0x3cab907f	0.020942925
35	0xbc19bf9e	-0.009384064
36	0x3d1a3e11	0.037656847
37	0x3cb1a1f3	0.021683669
38	0xbcb8d215	-0.022561112
39	0xbd2df47f	-0.042469498
40	0x3c28dad1	0.010306076
41	0xbcee05a9	-0.029055433
42	0x3c34f210	0.01104404
43	0xbd2250f3	-0.03962798
44	0x3d73713c	0.05943416
45	0xbd49b096	-0.04924067
46	0x3ce57f17	0.028014703
47	0xbd1f9987	-0.038964774
48	0x3c30ac92	0.0107833315
49	0x3c131023	0.008976015
50	0x3d4d195c	0.050073013
51	0x3c159c85	0.009131555
52	0xbb547bfa	-0.0032422529
53	0xbd7d553d	-0.061848868
54	0xbcb67dd3	-0.022276795
55	0xbd679857	-0.056541767
56	0xbd396fc4	-0.045272604
57	0xbce2f3be	-0.027704116
58	0xbcd50f6f	-0.026008336
59	0xbd0b78e1	-0.034050826
60	0xbba11ae3	-0.004916535
61	0xbbc21ee9	-0.005924095
62	0x3d85f30b	0.065404974
63	0x3d073fce	0.033019833
64	0xbc44356b	-0.011975626
65	0xbd180869	-0.037117396
66	0xbce7c7ab	-0.028293451
67	0x3b50b1d2	0.003184427
68	0x3cb185d5	0.021670261
69	0xbc22a680	-0.009927392
70	0x3c69cc84	0.014269952
71	0x3be74ece	0.007058955
72	0xbd887ca6	-0.066644
73	0xbb378923	-0.0028005324
74	0xbd867a3d	-0.06566284
75	0xbcb87fd6	-0.022521894
76	0x3cccbd46	0.024992596
77	0xbd81a66a	-0.06330569
78	0xbb92ab43	-0.0044759824
79	0x3c4edc50	0.012625769
80	0xbd23017a	-0.03979633
81	0x3c1fe742	0.009759726
82	0xbb41a4d1	-0.00295477
83	0x3c6058a1	0.013693006
84	0x3cdcda1f	0.026959477
85	0x3cd233cf	0.02565947
86	0xbcbe0948	-0.023197785
87	0xbd00ccdd	-0.031445373
88	0xbc3c61af	-0.011497899
89	0x3d275216	0.040849768
90	0x3d15e1d6	0.036592327
91	0xbceaf43a	-0.02868091
92	0xbc5e0a7d	-0.013552305
93	0x3c3b448f	0.01142992
94	0xbd315947	-0.043298032
95	0x3b0d0363	0.0021516911
96	0xba5a5ce1	-0.000832988
97	0x3afa03c1	0.0019074605
98	0xbd83262b	-0.06403764
99	0xbd999a3c	-0.07500121
100	0xbd35bf6b	-0.044372004
101	0x3d194ae4	0.037424937
102	0xbd99e701	-0.075147636
103	0xbd428357	-0.047488537
104	0xbd1d5685	-0.03841259
105	0xbc7829c6	-0.015146678
106	0x3cf17baa	0.029477913
107	0x3c09472c	0.008378785
108	0xbca0be01	-0.01962185
109	0xbb2906d3	-0.002579142
110	0xbcb0dc83	-0.021589523
111	0xbd284fc3	-0.04109169
112	0x3d005cfc	0.031338677
113	0x3c3b761f	0.0114417365
114	0x3c3cc907	0.011522538
115	0xbc8dce45	-0.017310271
116	0xbd0d2ac7	-0.034464624
117	0xbcf2863e	-0.029605027
118	0x3d062e78	0.03275916
119	0xbaf279ef	-0.0018499474
120	0x3cb385f8	0.021914467
121	0x3cf98eb7	0.03046356
122	0xbb8d12c3	-0.004305215
123	0x3a522ae1	0.0008017254
124	0x3d04b8a0	0.032402635
125	0xbcaf6a6c	-0.02141305
126	0xbd20ccbf	-0.03925776
127	0x3baac42b	0.0052113733
128	0x3bcc60c3	0.006237121
129	0xbca23783	-0.01980186
130	0x3c5b8385	0.013398056
131	0xbd20636f	-0.039157327
132	0xba4ec4ca	-0.00078876
133	0xbbcce031	-0.0062523116
134	0x3d18e97e	0.03733205
135	0xbd4eb4dc	-0.05046545
136	0xbd29b931	-0.041436378
137	0xbd3addf2	-0.04562182
138	0xbc2466b2	-0.01003425
139	0xbbdde7c1	-0.006772012
140	0xbd8f174a	-0.06986864
141	0x3d4a13e6	0.049335383
142	0xbc914200	-0.017731667
143	0x3c5a620b	0.013329039
144	0xbc83d0bc	-0.016090743
145	0xbd7b25d4	-0.061315373
146	0xbd25caf9	-0.040476773
147	0xbd878e74	-0.06618968
148	0xbd02f89f	-0.031975385
149	0x3cb7e0fd	0.02244615
150	0xbd0740db	-0.033020835
151	0xbbe3ab51	-0.0069479127
152	0x3d4deb9e	0.05027353
153	0xbd5ade1f	-0.053434487
154	0xbd3ec198	-0.046571344
155	0xbc9f5ad1	-0.019452484
156	0xbcb17fb8	-0.021667346
157	0xbd7b83fe	-0.061405174
158	0xbd47ac2c	-0.04874818
159	0x3c75baf5	0.014998187
160	0x3cd468b3	0.02592883
161	0x3d33d28c	0.043901965
162	0xbd3e93dd	-0.046527732
163	0xbb975373	-0.004618102
164	0xbbf337d0	-0.007422425
165	0x3c814905	0.015781889
166	0xbc928899	-0.0178874
167	0xbd21c8d8	-0.03949818
168	0x3b7c2bf1	0.003847834
169	0xbba6594b	-0.0050765625
170	0xbd4a34bc	-0.049366698
171	0x3d1e7c52	0.03869278
172	0xbc0745a3	-0.008256349
173	0xbd355fa7	-0.044280674
174	0xbd441cb8	-0.04787895
175	0x3c9a7f19	0.018859433
176	0x3b022be3	0.0019862584
177	0xbd448895	-0.047981817
178	0xbd3b8aeb	-0.04578678
179	0x3c106e1f	0.008815317
180	0x3d3232a2	0.04350532
181	0xbd3bf6e3	-0.045889746
182	0x3a839ee3	0.0010041859
183	0xbceb43e6	-0.0287189
184	0x3d08ec98	0.03342876
185	0x3c3c5337	0.011494449
186	0x3cc5ac37	0.02412997
187	0xbcd551e8	-0.026040033
188	0x3c2c5ab3	0.010519671
189	0xbd506ae2	-0.05088318
190	0x3cf1c47b	0.029512635
191	0xb98caec3	-0.00026833088
192	0xbd42ee68	-0.047590643
193	0xbcf28d15	-0.029608289
194	0xbcbf6e7d	-0.023368115
195	0x3c0ee2e7	0.00872109
196	0xbc080ba3	-0.008303556
197	0xbbbb1edb	-0.0057104654
198	0x3bf8845d	0.0075841383
199	0xbbd9eb2c	-0.006650349
200	0xbd0efb95	-0.034907896
201	0xbd4580c3	-0.0482185
202	0xbd051740	-0.032492876
203	0xbd14f7ed	-0.036369253
204	0xbd86c219	-0.0657999
205	0xbc7b34c5	-0.015332405
206	0x3ce44d72	0.02786896
207	0xb980be53	-0.00024555865
208	0xbc27d012	-0.010242479
209	0xbd2bffc8	-0.04199198
210	0xbd1a3d43	-0.03765608
211	0x3d0d843c	0.034549937
212	0x3c9b43e1	0.018953266
213	0xbc0eea3a	-0.008722836
214	0xbcb1064b	-0.021609446
215	0x3d37c54f	0.044865903
216	0xbca88b02	-0.020574097
217	0xbbbe3c10	-0.0058055
218	0xbd3b0eb8	-0.045668334
219	0xbd5bdb5b	-0.05367599
220	0xbd933fb9	-0.071898885
221	0xbc988c99	-0.01862173
222	0xbc23de94	-0.010001797
223	0x3cb0d8e3	0.021587795
224	0x3ae5aa01	0.0017521979
225	0x3ce33dff	0.027739523
226	0x3c7d9fdd	0.015480009
227	0x3d31e924	0.04343523
228	0x3d17e05f	0.03707921
229	0xbcac39da	-0.02102368
230	0xbd324b45	-0.043528814
231	0xbca75b47	-0.020429267
232	0xbc827f09	-0.015929716
233	0xbc520d32	-0.012820529
234	0x3c3f4a97	0.011675498
235	0xbcf32cc4	-0.029684432
236	0xbd02bfb9	-0.031921122
237	0x3cc3f40f	0.023920087
238	0xbd8d88d3	-0.06910863
239	0x3b9cb4eb	0.0047823093
240	0xbce27c18	-0.027647063
241	0xbc33c5bc	-0.0109724365
242	0xbc9dadd8	-0.019247934
243	0x3c8a5296	0.016885083
244	0x3c912f41	0.017722728
245	0xbd99c15d	-0.07507584
246	0x3c95fa24	0.018307753
247	0x3d319c94	0.043362215
248	0xbae8d1e1	-0.0017762744
249	0x3c94a92f	0.01814708
250	0xbbd5f425	-0.0065293484
251	0x3d63b090	0.055588305
252	0x3d027880	0.0318532
253	0x3d2008d4	0.03907092
254	0xbd1e2329	-0.03860775
255	0x3d19591e	0.037438504

fc1.bias f4 [64]
0	0x3d404717	0.046942797
1	0xbc225894	-0.009908814
2	0x3d824a24	0.063617975
3	0x3d83a234	0.06427422
4	0xbc06f573	-0.008237231
5	0xbd7fc8c0	-0.06244731
6	0x3b0dfc88	0.0021665413
7	0x3d7742e4	0.060366526
8	0x3d080c1b	0.03321467
9	0x3d078f38	0.03309557
10	0x3d0fb858	0.035087913
11	0x3c3ce29a	0.011528635
12	0x3989a832	0.00026255992
13	0x3cb5a922	0.022175375
14	0xbd2625a1	-0.04056323
15	0x3bfe485c	0.0077600908
16	0x3b38f6d1	0.0028223286
17	0x3d3804ce	0.044926457
18	0x3d8b894e	0.06813298
19	0x3c3bba55	0.011457999
20	0x3d8e9f0b	0.06963929
21	0x3cac5bd4	0.02103988
22	0x3d3caf4c	0.046065614
23	0xbc80fe38	-0.015746221
24	0x3bd84eaa	0.0066011744
25	0xbc2b6a06	-0.01046229
26	0x3d26d914	0.040734366
27	0x3c252e54	0.010081846
28	0x3cdb3c86	0.026762258
29	0xbc0952c3	-0.008381548
30	0x3d5f9bc8	0.054591924
31	0x3d73f475	0.059559304
32	0x3c0bb633	0.008527326
33	0xbcceda5a	-0.025250603
34	0x3d143361	0.03618181
35	0xbd4dd62f	-0.05025309
36	0x3d6162a2	0.055025704
37	0x3c3c0643	0.011476102
38	0x3ccfa754	0.025348343
39	0xbd57ae87	-0.052656677
40	0xbb55d832	-0.0032630083
41	0x3c995e16	0.018721621
42	0xbcc0419c	-0.023468785
43	0xbbcb50ef	-0.0062047164
44	0xbbbed4fb	-0.005823729
45	0x3d0d7bb7	0.03454181
46	0x3cf8c8bd	0.030369157
47	0x3be60321	0.007019416
48	0xbd14127f	-0.03615045
49	0xbc168b57	-0.009188495
50	0x3d3b490b	0.045723956
51	0xb9d64a84	-0.0004087278
52	0x3d070dfa	0.032972313
53	0x3c9b9e98	0.018996522
54	0xbd630621	-0.055425767
55	0x3d4d666a	0.050146498
56	0x3ce90841	0.028446319
57	0xbce44548	-0.027865067
58	0x3aedadc5	0.0018133452
59	0xbd838cb6	-0.06423323
60	0x3b14a7a8	0.0022682939
61	0x3cff4cf5	0.031164626
62	0x3d50e3fe	0.05099868
63	0x3be4972c	0.006976029

fc2.weight f4 [64, 64]
0	0x3d126f22	0.035750516
1	0xbd7d3e50	-0.061827004
2	0xbdb66586	-0.08906083
3	0xbc81b40b	-0.015832921
4	0x3cd937e9	0.026515918
5	0xbde2de93	-0.11077609
6	0x3a833a00	0.0010011792
7	0xbd252862	-0.040321715
8	0x3d835a22	0.06413676
9	0x3de2b45f	0.11069559
10	0xbd88c869	-0.0667885
11	0x3d12d651	0.03584892
12	0x3d57e714	0.052710608
13	0x3e006bd3	0.12541132
14	0x3bc873d7	0.006117325
15	0xbd2d80ff	-0.04235935
16	0xbdf42642	-0.119213596
17	0xbd02b408	-0.031909972
18	0x3dfd1a1e	0.12358497
19	0xbdc21042	-0.09475757
20	0x3db19320	0.0867064
21	0x3d9a9576	0.07548039
22	0xbd8d6f39	-0.0690598
23	0xbcf5dff4	-0.030014016
24	0x3da86ca5	0.08223847
25	0x3db26634	0.087109
26	0x3dd605b1	0.10450304
27	0x3dab9529	0.083780594
28	0xbc7bfe0a	-0.015380392
29	0xbc4d5e56	-0.0125346985
30	0xbc9a272b	-0.018817505
31	0xbddcc23e	-0.10779236
32	0x3df9cd6b	0.121973835
33	0x3d21b063	0.039474856
34	0xbd0db135	-0.034592826
35	0x3c879b51	0.016553553
36	0xbd945253	-0.072422646
37	0xbda24d31	-0.07924879
38	0xbdfaae3e	-0.12240265
39	0xbdb74730	-0.08949125
40	0xbd86e738	-0.0658707
41	0xbd5c1dbe	-0.0537393
42	0xbba9c062	-0.0051804045
43	0x3d1d6ca8	0.0384337
44	0x3ccbf3b1	0.024896475
45	0xbdbfabdc	-0.093589514
46	0x3cdf98eb	0.027294597
47	0xbddc7abb	-0.107655965
48	0xbdae5fc4	-0.085143596
49	0x3dbdfa29	0.0927623
50	0xbd6e3516	-0.058156095
51	0x3c349b11	0.011023299
52	0x3de90b8d	0.11379156
53	0x3d691e37	0.05691358
54	0x3c47be69	0.012191393
55	0xbcca061c	-0.024661116
56	0x3d615a8e	0.055018
57	0x3c148d9f	0.009066968
58	0x3d73f2db	0.059557777
59	0xbd06c4d4	-0.032902554
60	0x3becc344	0.007225426
61	0x3dd7f16a	0.10544093
62	0x3de67e4d	0.11254559
63	0xbdffeb52	-0.12496056
64	0x3cedd5ac	0.02903255
65	0x3ddfa308	0.109197676
66	0xbdcf241f	-0.101143114
67	0x3da16c1a	0.07881947
68	0xbc3cf51b	-0.011533047
69	0x3c985cc6	0.018598925
70	0x3b8c94a9	0.0042901826
71	0xbb7cf5d8	-0.0038598683
72	0xbdd2b055	-0.10287539
73	0x3dd85071	0.10562218
74	0xbe16e94e	-0.14737436
75	0xbdd83422	-0.105568185
76	0xbde641fe	-0.11243056
77	0x3c85f5d8	0.016352579
78	0x3d54c295	0.05194338
79	0xbd56c743	-0.052436125
80	0x3d09013f	0.033448454
81	0xbbd2f7ed	-0.0064382465
82	0xbbaa7aee	-0.0052026426
83	0x3dd91f65	0.10601691
84	0x3db6a512	0.089182034
85	0x3d3dec8b	0.046368163
86	0xbc86eddc	-0.016470842
87	0xbaa9b4d2	-0.0012947565
88	0xbdf71cf8	-0.12066072
89	0xbd430242	-0.047609575
90	0x3c082961	0.008310647
91	0x3da7a9ff	0.08186721
92	0x3d532dba	0.05155728
93	0x3d8d9e10	0.06914914
94	0x3db151a6	0.08658151
95	0xbd6b33d4	-0.057422474
96	0xbd8c0e30	-0.068386436
97	0x3a10b7ea	0.00055205694
98	0xbd5e9109	-0.054337535
99	0x3dcfa359	0.10138578
100	0xbdfde7aa	-0.12397702
101	0xbdc94337	-0.09827273
102	0xbd66a008	-0.05630496
103	0xbbd428e2	-0.0064746
104	0xbe024350	-0.1272099
105	0x3dac310b	0.08407792
106	0xbd8bcb0b	-0.06825837
107	0xbdca30c2	-0.09872581
108	0x3d24e29b	0.04025517
109	0xbdc85ed2	-0.097837105
110	0xbdd4a660	-0.10383296
111	0xbd3a3380	-0.04545927
112	0x3deb2694	0.114819676
113	0x3daa94bf	0.08329152
114	0xbd37a981	-0.044839386
115	0xbe170196	-0.14746699
116	0xbaa3846c	-0.0012475378
117	0xbca86743	-0.020557052
118	0xbe060aa5	-0.13089998
119	0x3da5ddfc	0.08098981
120	0x3cfba668	0.030718997
121	0x3dd563d2	0.1041943
122	0xbe09b165	-0.13446577
123	0xbde14d45	-0.11001066
124	0xbdb41f33	-0.08795013
125	0xbdb678c6	-0.089097545
126	0xbdb068e6	-0.08613758
127	0x3dade7ef	0.084915034
128	0x3da3b62e	0.079937324
129	0xbdedfbce	-0.116202936
130	0xbe0097d5	-0.1255792
131	0xbce2bcae	-0.02767786
132	0xbdebadff	-0.115077965
133	0xbcbf6dba	-0.023367751
134	0xbcb701bd	-0.022339696
135	0x3d72da91	0.059290472
136	0x3da86dc1	0.08224059
137	0xbdb4954d	-0.08817539
138	0x3dbce84d	0.09223995
139	0xbdf3ffe3	-0.11914041
140	0x3dd893f1	0.105750926
141	0x3d7b777c	0.061393246
142	0xbb8e6ed8	-0.0043467097
143	0x3da66322	0.08124377
144	0xbdd96dfe	-0.106166825
145	0xbd8bb901	-0.06822396
146	0xbe06744e	-0.13130304
147	0xbdf5de4b	-0.1200529
148	0xbd368454	-0.04455979
149	0x3dba9161	0.0910976
150	0xbce4a7f9	-0.027912127
151	0x3d76a14e	0.060212426
152	0x3cdea607	0.027178777
153	0xbdb577f7	-0.08860772
154	0xbda2c450	-0.079476
155	0x3c9c4e41	0.019080283
156	0x3dc17c85	0.09447578
157	0xbdf95d15	-0.12175957
158	0xbda66973	-0.081255816
159	0x3d456d54	0.048199967
160	0x3dd9bf0e	0.10632144
161	0xbdbe3c6e	-0.0928887
162	0xbd6b5c86	-0.057461284
163	0x3d6ee69c	0.058325395
164	0xbb8ede21	-0.004359976
165	0xbc1a7ec5	-0.009429638
166	0x3c09ecf9	0.008418315
167	0x3d814abb	0.06313082
168	0xbd7628c4	-0.06009747
169	0x3d89281c	0.066971034
170	0x3daf1b02	0.08550073
171	0xbc3f0e90	-0.011661187
172	0xbdcd2055	-0.100159325
173	0xbd63a377	-0.055575814
174	0x3db68f5a	0.08914061
175	0xbdb49090	-0.088166356
176	0xbdad75a3	-0.08469703
177	0xbda7230b	-0.08160981
178	0xbb684b50	-0.003544528
179	0x3d61729c	0.05504094
180	0x3b8a0ba8	0.0042128153
181	0x3b851334	0.004061127
182	0x3d81b495	0.063332714
183	0x3c9d8e92	0.019233022
184	0x3d2b63e8	0.041843325
185	0x3de38846	0.111099765
186	0x3dbbe294	0.09174076
187	0x3cb585ec	0.022158585
188	0x3d8e1841	0.0693822
189	0xbd4bad6f	-0.049725946
190	0xbb79be6c	-0.0038107885
191	0xbc2fcdc5	-0.010730212
192	0xbe07cb28	-0.13261092
193	0x3d97d7df	0.07414221
194	0x3c78787d	0.015165445
195	0xbd467e4d	-0.048460294
196	0xbe121a00	-0.1426773
197	0xbca9a1aa	-0.02070697
198	0xbd502302	-0.050814636
199	0x3db9bf5d	0.09069703
200	0x3bad1336	0.005281831
201	0x3d9dfa14	0.07713714
202	0xbd81450c	-0.06311998
203	0xbe137f65	-0.14404066
204	0xbdd8dbff	-0.10588836
205	0x3c284a24	0.010271583
206	0xbd57d854	-0.05269654
207	0x3d578b55	0.05262311
208	0xbc4b7679	-0.012418383
209	0x3d599ec9	0.053129945
210	0xbdce06fd	-0.10059927
211	0xbd2f85f2	-0.04285235
212	0x3cc702c6	0.024293315
213	0xbde439a7	-0.11143809
214	0xbdf1471e	-0.11781143
215	0x3dc5bae0	0.09654784
216	0x3cb59f87	0.022170795
217	0x3d460d90	0.048352778
218	0xbd6699cb	-0.056299012
219	0xbd267e1a	-0.040647604
220	0x3d43411c	0.047669515
221	0x3ca5ea56	0.020253342
222	0xbdd1d713	-0.102461
223	0x3cc4a940	0.024006486
224	0xbdd96a0e	-0.106159315
225	0xbded68b2	-0.11592235
226	0xbde75f06	-0.11297421
227	0xbd4f30e2	-0.050583728
228	0xbdc918a4	-0.09819153
229	0xbd3ba5be	-0.04581236
230	0xbc845129	-0.016151981
231	0xbd96d17b	-0.07364174
232	0xbe0e2004	-0.138794
233	0xbd1c3262	-0.038133986
234	0x3d1ca698	0.038244814
235	0x3d6067a2	0.054786332
236	0x3d7c1fb5	0.061553676
237	0xbdcb6b2e	-0.09932552
238	0xbdc42d04	-0.095788985
239	0x3cd5e9f6	0.026112538
240	0x3da8a7cf	0.08235132
241	0xbd232fac	-0.039840385
242	0xbc9b771e	-0.018977698
243	0x3d86e346	0.06586318
244	0x3aac878a	0.0013162952
245	0xbd1e5650	-0.038656533
246	0xbd26b064	-0.040695563
247	0x3d7a0b21	0.06104577
248	0x3daf4e27	0.08559828
249	0xbd44c0dc	-0.048035488
250	0x3a930294	0.0011215978
251	0x3dbfb5cd	0.093608476
252	0x3da7086f	0.081559055
253	0xbdb29947	-0.087206416
254	0x3be5f224	0.007017391
255	0xbdd35eb8	-0.103208005

fc2.bias f4 [64]
0	0x3c4591e9	0.0120587135
1	0xbe035ed8	-0.12829149
2	0xbcf3ab6f	-0.029744832
3	0xbdafe28d	-0.08588133
4	0x3db9c9e6	0.09071712
5	0x3d80dffc	0.06292722
6	0x3dc35add	0.09538815
7	0xbd0afb16	-0.03393086
8	0x3ddffbee	0.10936724
9	0x3bb779f8	0.0055992566
10	0xbd3dd499	-0.046345327
11	0xbc968369	-0.018373208
12	0xbd31f1ce	-0.043443494
13	0x3e0c217c	0.13684648
14	0x3dce2942	0.10066463
15	0x3db48b9b	0.0881569
16	0x3df61d63	0.12017324
17	0xbd343e69	-0.04400483
18	0x3dfe0213	0.124027394
19	0xbcede3c2	-0.029039267
20	0x3d8a407f	0.06750583
21	0xbc8f562e	-0.017497148
22	0x3b1e5050	0.0024156757
23	0xbd907c8c	-0.070550054
24	0x3d00077e	0.031257145
25	0x3d4fc151	0.05072147
26	0x3db2b19e	0.08725284
27	0x3c94dbf2	0.018171284
28	0xbbc9e71c	-0.0061615836
29	0xbc7a4504	-0.015275244
30	0x3e0afc07	0.13572703
31	0x3d9c95cf	0.07645761
32	0xbe0bf491	-0.13667513
33	0x3cc1d1d3	0.023659622
34	0x3df3fb89	0.11913211
35	0xbd919ae4	-0.07109621
36	0x3d92c31c	0.071661204
37	0x3e06c84c	0.13162345
38	0x3c44e38d	0.012017143
39	0x3d925b0c	0.07146272
40	0xbd74c042	-0.059753664
41	0x3d08aced	0.03336804
42	0xbd9f5ce7	-0.077813916
43	0xbdd1b307	-0.10239225
44	0x3e1098fa	0.14120856
45	0xbd37e9ee	-0.044900827
46	0x3cfc93ab	0.030832132
47	0x3d961103	0.073274635
48	0x3c8fba16	0.017544787
49	0xbd5b8254	-0.053591087
50	0xbd8f9320	-0.07010484
51	0xbd6e3c99	-0.05816326
52	0x3db1bd9e	0.08678745
53	0xbdaf1981	-0.08549786
54	0x3d2ae9c6	0.04172685
55	0x3e184a42	0.14872077
56	0xbd3238b4	-0.043511108
57	0xbc03075a	-0.007997358
58	0xbd8a1fb7	-0.067443304
59	0xbd18cc58	-0.037304252
60	0xbdb99088	-0.0906077
61	0x3cf8dbf4	0.03037832
62	0xbc09b665	-0.008405303
63	0x3ae15eee	0.0017194429

fc_out.weight f4 [1, 64]
0	0x3ccc3a0e	0.024930026
1	0xbda01280	-0.078160286
2	0x3bbbdc8f	0.0057330797
3	0xbd918ae9	-0.07106573
4	0xbda3b2f4	-0.07993117
5	0x3e0730f0	0.13202262
6	0xbdb83d75	-0.08996097
7	0xbcf68711	-0.030093702
8	0x3e19a2e8	0.1500355
9	0x3da6e0a8	0.081483185
10	0xbcbfc9d1	-0.023411663
11	0xbdb484a9	-0.088143654
12	0x3de7d0da	0.11319132
13	0x3e1518cb	0.14560239
14	0xbc11c90d	-0.008898032
15	0xbd162d4a	-0.036664285
16	0x3cec0eea	0.028815705
17	0xbbf6eba1	-0.0075354134
18	0x3d0e9eb2	0.034819312
19	0x3d3cca56	0.0460914
20	0x3e113a96	0.14182505
21	0xbd8f0ed5	-0.06985251
22	0xbda013ab	-0.07816251
23	0x3dc8361f	0.09775948
24	0xbd1abb3b	-0.037776213
25	0x3df0a15f	0.11749529
26	0x3dd56e45	0.10421423
27	0x3d944c32	0.072410956
28	0x3dc1caca	0.09462507
29	0x3d214b2c	0.03937833
30	0x3d138763	0.036017787
31	0x3d74f745	0.059806127
32	0xbdb2220f	-0.086979024
33	0x3da91008	0.08255011
34	0x3d1fcaa9	0.03901163
35	0xbdc4d611	-0.096111424
36	0xbd696951	-0.056985203
37	0x3d5579ed	0.05211823
38	0x3df7fe04	0.121089965
39	0xbdc462b7	-0.09589141
40	0x3daf9606	0.085735366
41	0x3d66b5d9	0.056325767
42	0x3dc5676d	0.096388675
43	0xbdd161c1	-0.10223723
44	0x3ca62d34	0.020285226
45	0x3dc376c1	0.09544135
46	0xbcfe11de	-0.03101438
47	0x3d8aeefb	0.06783863
48	0x3d52c7d9	0.05146012
49	0xbc166973	-0.0091804145
50	0x3e0d0da0	0.13774729
51	0x3da60aa6	0.081075
52	0x3de7705d	0.113007285
53	0x3dc50d79	0.0962171
54	0xbd472b64	-0.048625365
55	0x3db0dc6e	0.086357936
56	0xbdcefe2d	-0.10107074
57	0x3d835d89	0.06414325
58	0x3d911be0	0.07085395
59	0xbd97533f	-0.07388925
60	0xbdb79d65	-0.089655675
61	0xbde78836	-0.11305277
62	0x3e17d1cd	0.14826126
63	0x3d8f7818	0.07005328
