data/trained_models/base_mu1_a_snn.pth (torch, 118778 bytes, 5 tensors)

fc1.weight f4 [64, 374]
000000 3e 17 24 3d 49 e3 fe bc 3b cc 1b bc 9e e9 c0 3c
       0.040061228 -0.031114237 -0.009509142 0.023548897
000010 c8 69 01 bd a4 11 7f bb a8 96 a0 3b 4d c5 f8 bb
       -0.03159502 -0.0038920427 0.004900772 -0.0075918795
000020 b7 4c 08 3d 0d 41 dc 3c 9b 7f fb 3c 74 b3 63 3d
       0.033276286 0.026886487 0.030700495 0.05559106
000030 61 44 51 bd fa 8e 6c 3d 9a 32 47 3d 13 1a 1c 3c
       -0.0510906 0.05775354 0.04863224 0.009527701
000040 51 08 29 3d 5c a9 f8 3c 30 81 bd bb 4c 3c f5 bb
       0.041267697 0.030354194 -0.0057832226 -0.0074839946
000050 50 7f 67 bd 8b c7 60 bb 26 c5 f6 bc 0b ce 88 3c
       -0.0565179 -0.0034298624 -0.030123305 0.016699811
000060 e2 56 15 bd 70 19 00 3c 6f 46 5c 3d 4a f2 4f 3d
       -0.03645981 0.007818565 0.05377811 0.050768174
000070 94 32 1a bc e2 0b a5 bc 8f 14 b6 bc 2c 7c 14 bd
       -0.009411473 -0.020147268 -0.0222266 -0.036251232
000080 ff 58 15 bd 4d 9a 98 3a da cc fe bc ba 30 1b 3c
       -0.036461826 0.0011642665 -0.03110354 0.009472067
000090 e1 d5 ca bc a5 45 ff 3c 3e 92 c8 bc 01 16 dc 3c
       -0.024760189 0.031161139 -0.024483796 0.026865961
0000a0 52 e2 45 bc a4 89 7c bc c4 af 13 3d 6c c9 52 3d
       -0.012077885 -0.015413675 0.036056295 0.051461622
0000b0 53 d4 79 bc 36 da 45 bd aa ed 06 bd 9c 66 04 3c
       -0.015248376 -0.048303805 -0.032941498 0.008081105
0000c0 88 b8 9b 3a a7 26 39 3d de 9c 9e bc b3 55 07 bd
       0.0011880556 0.045202877 -0.01936191 -0.033040714
0000d0 90 46 77 3d f2 88 70 bc d6 ce 5c 3d ef 76 17 bc
       0.060370028 -0.014681088 0.05390819 -0.009244665
0000e0 76 ef d0 3c 25 b2 01 bd e4 f8 46 bd 12 10 a0 3c
       0.025504809 -0.031664032 -0.048577204 0.019538913
0000f0 bc c6 d9 ba ca 1f 80 3c 77 26 19 bc 66 d7 f5 3c
       -0.0016615014 0.015640158 -0.00934755 0.030009937
000100 01 61 2e bd fa 10 50 3d d4 5c 5d 3c 1b ac 11 bb
       -0.04257298 0.05079744 0.0135109015 -0.0022227827
000110 84 30 da 3b 57 d8 fa bb 6b a4 00 bc 69 0e 42 3d
       0.0066586155 -0.0076551843 -0.0078517 0.047377024
000120 ed be c0 ba c2 94 9b bc f2 84 04 bd 98 90 b3 3c
       -0.0014705338 -0.018991832 -0.03235335 0.021919534
000130 d7 92 29 bd 33 e5 af bc b0 17 5e 3c a0 ec b2 3b
       -0.041399803 -0.021471595 0.013555452 0.005460337
000140 a0 87 76 3d 4d 80 f7 3c 86 1b b7 bc 78 6d 5b bd
       0.060187936 0.030212546 -0.022351991 -0.053571194
000150 50 32 86 bc 34 2d b4 bc ba aa 27 3c a4 42 02 3d
       -0.016381413 -0.02199421 0.0102335755 0.031801835
000160 5a 5e 8e 3c 86 19 f4 bc a8 70 80 3b d8 26 27 bc
       0.017378975 -0.029797327 0.0039196797 -0.010202132
000170 14 40 51 bc 2f 70 f0 bc a9 91 11 3d 0b 9b 2c 3d
       -0.012771625 -0.029350368 0.035539303 0.042140048
000180 9a 7c be 3c 12 56 e4 3c 13 48 df 3c b8 85 b7 3c
       0.023252774 0.027873073 0.027256047 0.02240263
000190 b5 17 c0 bc 3c a1 13 bd 76 79 b4 3b cc 83 73 bb
       -0.023448804 -0.036042437 0.0055076433 -0.0037157414
0001a0 a3 71 3e bc 7a e0 19 bd 14 51 5f 3c c9 9f 28 bd
       -0.011623773 -0.037567593 0.01363017 -0.041168008
0001b0 30 4f 20 bd 98 36 47 bd 27 15 fc 3b 98 64 7b 3c
       -0.03913802 -0.04863605 0.0076929512 0.015343808
0001c0 14 35 cd bb 8b 22 38 3d 1c 87 fc 3b b0 69 b6 bc
       -0.006262431 0.044954818 0.007706536 -0.022267193
0001d0 00 b4 33 bd 22 30 fe ba b1 aa 18 3d b2 44 36 3d
       -0.043872833 -0.0019393007 0.03727216 0.044499107
0001e0 51 2e 9d 3c 06 95 0d 3c cb 36 4a 3d 2a 58 fc 3c
       0.019187124 0.008641487 0.04936866 0.030803759
0001f0 4b 00 d3 bc 81 dc 12 3d dc 43 11 bd a2 e3 3f bd
       -0.025756976 0.03585482 -0.035465106 -0.046847947
000200 81 e0 20 3d 55 4e 31 3d 55 a1 b7 bc 6f a3 28 3c
       0.039276604 0.043287594 -0.022415796 0.010292872
000210 9e 57 83 bc ab b8 c7 bc b5 32 32 3d d0 f9 83 bc
       -0.01603299 -0.024380049 0.04350539 -0.01611033
000220 64 bb 5f bc 37 c3 d9 3b b6 47 83 3d 48 6e 23 3c
       -0.013655517 0.006645586 0.06410162 0.009975024
000230 c2 bb ae 3c e9 66 8f 3b 45 5c ec 3c 7f 59 82 3c
       0.021329764 0.0043762815 0.028852591 0.015911816
000240 e8 ca 88 3c 5f e4 d9 3b 62 d5 9e 3c a8 85 06 bc
       0.016698316 0.0066495384 0.019388858 -0.008210577
000250 43 0d b5 3b 20 5c 48 bc a8 53 54 bc 08 c7 57 3c
       0.0055252626 -0.012228996 -0.012959398 0.013170011
000260 57 6c 43 3d 6f 74 06 bd 62 2e b4 3c f0 53 a1 bc
       0.047710743 -0.032825883 0.021994773 -0.019693345
000270 8a 91 76 bc 28 54 49 3d 20 d9 03 bc 5b 43 1d 3d
       -0.015049348 0.049152523 -0.008047372 0.038394313
000280 ee 84 ea 3c e1 d5 4b bd a4 32 94 bc 5a 6c fe 3c
       0.028627839 -0.049764518 -0.018090554 0.031057525
000290 82 84 9a bb d4 55 ef bc 0e 2d 87 3c f8 ce 12 bd
       -0.004715503 -0.02921573 0.016500976 -0.035841912
0002a0 86 23 bb 3c 44 87 3a bc 20 ef f7 bc 9c 4b 7e 3b
       0.022844087 -0.011384789 -0.03026539 0.003880239
0002b0 96 8b d6 3c 4f 87 37 3d b8 ae 40 3c 28 d4 14 bd
       0.026189607 0.044806775 0.011760406 -0.03633514
0002c0 90 00 13 bb fc 7e 44 3d 82 f8 23 bc 27 f1 c0 bc
       -0.0022430755 0.047972664 -0.010007979 -0.02355249
0002d0 00 9b 0b ba ad d0 18 bd df 7f c0 bc 02 c9 f7 3c
       -0.0005325526 -0.037308384 -0.023498474 0.030247215
0002e0 ce 75 99 3c be eb 9c bc 0d 5c 11 3d c6 13 d5 3c
       0.018732931 -0.01915538 0.035488177 0.026010405
0002f0 2c 42 60 3b f8 34 e6 bc 36 64 3b bd 83 3b 0f 3d
       0.003421913 -0.02810143 -0.045749865 0.034968864
000300 e5 5e f3 bc 85 dc 46 3d 4c f0 ff 3b 69 de 36 bd
       -0.029708335 0.048550148 0.007810628 -0.0446457
000310 bf a8 24 3d e2 8e f0 3c e8 9a 03 bd fa bf 0f 3c
       0.04019999 0.029365007 -0.032130152 0.008773798
000320 9b 34 13 3b 6d 6e 29 bd cd 6d 19 3c 43 89 86 bc
       0.0022461775 -0.041365076 0.009364557 -0.016422873
000330 d7 27 ff 3b 38 d7 c1 3c 7c 6c 1b 3d 3f d1 d6 bb
       0.0077867317 0.023662195 0.037945256 -0.006555706
000340 8f 2f 4f bd 94 cc a9 3c dc b9 2f bd fe b9 3e bd
       -0.050582465 0.020727433 -0.04290186 -0.046564095
000350 59 34 11 3d fe bc 69 bd fd 1c 17 3d 15 88 1b bc
       0.035450313 -0.057065003 0.03689288 -0.009492894
000360 88 69 9c 3b ce 96 60 3c 8d 6c 06 bd 32 cd b0 bc
       0.0047733225 0.01370783 -0.032818366 -0.02158222
000370 2d 82 12 bd 49 55 08 3d cc e0 30 3d 54 ff 44 3b
       -0.035768677 0.03328446 0.043183133 0.0030059414
000380 52 f7 be bc 5c 83 3f 3c 8a 0c d8 3c 27 9e ec bc
       -0.02331129 0.011689033 0.026373167 -0.028884007
000390 66 aa d1 bb ec c6 7d bb c5 f9 6f bc 6e 14 16 bd
       -0.006398487 -0.0038723303 -0.014646952 -0.036640577
0003a0 19 ee 01 3d d5 81 32 3d b9 13 4e bd de ac 3c 3d
       0.03172121 0.04358085 -0.050311778 0.046063296
0003b0 4d 21 2e bd ae 2d b7 3c e9 e6 95 3d d4 68 31 3c
       -0.042512227 0.022360649 0.07319433 0.010828216
0003c0 dc 3f 73 bc 78 b2 a6 bc 29 a0 68 bc 95 94 04 3d
       -0.014846768 -0.020348772 -0.014198341 0.03236826
0003d0 68 6c 98 bb a6 f6 64 3d dc 75 02 3c 67 d7 3f 3d
       -0.004651595 0.055899285 0.00796267 0.046836283
0003e0 e0 6d 81 ba 9b 43 a7 bc ea ea 22 3c dd d6 19 bd
       -0.0009874664 -0.020417979 0.009943703 -0.037558425
0003f0 1f 1a 00 bd b1 e0 21 3d e1 13 0d 3d ad 76 50 3d
       -0.03127491 0.039520923 0.034442786 0.050894428

fc1.bias f4 [64]
000000 62 ba 01 bd 97 7f 10 bc 13 d8 63 3d af c7 e3 bc
       -0.03167189 -0.008819482 0.055625986 -0.027805177
000010 0c c4 64 3d 3f b8 79 bd b2 12 0c 3d 09 18 81 3d
       0.055851027 -0.060966726 0.034197517 0.063034125
000020 31 10 1e bc 3e 09 13 3c 11 3e 77 3c 51 d5 67 3c
       -0.009647415 0.0089743715 0.015090481 0.01414998
000030 da 4a a7 bc da 12 4c 3c fc 16 b9 3c fd f1 a0 bc
       -0.020421434 0.012455666 0.022593968 -0.019646639
000040 3d a1 1f 3d 5e 3b df bc f9 16 13 bd a4 f6 16 3c
       0.03897213 -0.027249988 -0.03591058 0.009214077
000050 ac 41 15 3d f1 67 2a 3d 7d 6b fa 3b f0 18 18 bc
       0.036439583 0.041603032 0.007642208 -0.009283289
000060 00 00 45 bd 7b 21 0e bd 84 15 85 bc e0 b0 20 bd
       -0.048095703 -0.0346999 -0.016245611 -0.03923118
000070 62 68 39 39 04 a6 cf bc 74 fa a9 3b da 2a 64 3d
       0.0001768186 -0.025347717 0.005187327 0.05570493
000080 7f 34 64 bd a4 71 28 3c 56 d5 80 bc a9 9e 93 3c
       -0.055714127 0.010281 -0.015726727 0.018019991
000090 c3 37 6b bd 1b 99 bf 3c 9f 5b de 3c 63 e4 a9 3c
       -0.057426225 0.023388436 0.027143298 0.020738786
0000a0 39 73 6d bc 1f 9d 98 bc 6a c8 af bc 3e 76 43 bd
       -0.014492803 -0.018629609 -0.02145787 -0.047720186
0000b0 5c 41 1b bc b4 d4 83 bb 5e ed 21 3d b1 46 eb bc
       -0.009476032 -0.004023159 0.03953301 -0.028720232
0000c0 c5 38 c6 bc 86 9b cf 3c a6 aa 38 3c b7 ad e4 3c
       -0.024196992 0.025342714 0.0112711545 0.027914865
0000d0 e8 c0 63 3d 8d 98 45 3d d9 73 07 3c 30 ee aa 3b
       0.05560389 0.048241187 0.008267366 0.0052163824
0000e0 df e5 5b 3c 09 7a 84 3d f6 f3 55 3d 0c 19 34 bb
       0.013421505 0.06468589 0.052234612 -0.002748075
0000f0 00 77 6d 3c c0 12 e1 bc 5f 01 a1 3c aa a3 5f bd
       0.014493704 -0.027474761 0.019653974 -0.05459944

fc2.weight f4 [64, 64]
000000 34 e2 c6 3d a2 ce f6 3c bb b9 4d bd fa 39 9f bd
       0.097111136 0.030127827 -0.050225955 -0.0777473
000010 71 34 bf bd dd b0 05 bc 08 63 42 bd 51 f8 e1 3d
       -0.09336174 -0.008159843 -0.047457725 0.11033691
000020 5c a4 1c bd b3 55 57 3c 67 24 c8 bd a5 ed f1 bd
       -0.038242683 0.013142991 -0.09772568 -0.11812905
000030 a7 b8 61 bc 3b 11 b5 3d b5 32 ba 3d 9b e7 d1 bd
       -0.013776935 0.08841177 0.09091703 -0.10249253
000040 1c 61 f0 bd ad 12 b3 bd 02 9d f3 bd 53 c2 d0 3c
       -0.11737272 -0.087437965 -0.11895181 0.025483286
000050 6d 69 30 3c 9c ce ff bd d7 52 77 bd b7 48 d7 3d
       0.010767323 -0.124905795 -0.060381737 0.10511916
000060 18 ba 89 bc d3 6f c9 3d 2f 7d ed 3c 16 b3 da bd
       -0.01681237 0.09835782 0.028990356 -0.10678689
000070 6e a0 8a bd c7 fd 63 3c 3c e4 c0 3b b4 64 36 3c
       -0.06768881 0.013915486 0.0058865827 0.011132408
000080 f7 0f 07 be fd fd 2f be 36 f6 bb 3c b8 8b 93 bd
       -0.13189684 -0.17186733 0.022944551 -0.072043836
000090 42 a5 ec bb a2 1e 05 3c da db 88 3d 0b f4 8f 3d
       -0.0072218487 0.008124979 0.06682558 0.070289694
0000a0 30 63 ca bd c2 1c c6 bd 53 30 78 bd 49 ef ca bd
       -0.098822 -0.09673454 -0.06059296 -0.09908921
0000b0 86 ed 42 bd f6 f0 80 bd 6c 6d 05 be 0d 0f cd 3d
       -0.0475898 -0.0629596 -0.13030022 0.10012636
0000c0 01 60 94 bc 3d 3b ca 3d 62 68 bf 3c 04 fd e5 3c
       -0.018112184 0.0987458 0.023365203 0.028074749
0000d0 22 2f b4 3d c2 6c 88 bd a6 f7 0e bc 8b 7c ad bc
       0.08798052 -0.06661369 -0.008726036 -0.02117755
0000e0 2c ee c9 bc 21 0b 9d bd 04 f7 45 3d b5 0b fc bd
       -0.024649702 -0.07668138 0.048331276 -0.123069204
0000f0 1b d1 68 3d 30 25 18 be 71 40 e5 3d b4 0c 85 bc
       0.056840044 -0.14857936 0.11193932 -0.016241409
000100 c2 f9 d2 3d d0 24 7a bc b5 71 c1 3d 9d b6 2b be
       0.10301544 -0.015267566 0.09445516 -0.1676888
000110 8b 41 1a be bd f3 97 3d e8 be 4d bd 15 84 ed bc
       -0.15064065 0.07419536 -0.05023089 -0.028993646
000120 88 60 0c bc 50 9c 64 bc 48 11 92 bd 34 84 ab bb
       -0.008567937 -0.013953283 -0.071322024 -0.0052342657
000130 ec f3 b0 3d 47 f8 14 3e 85 0b b2 bd 3c d9 40 3b
       0.086402744 0.14547835 -0.086936034 0.0029426357
000140 d2 f6 ad bd 1b ce 32 3d 6b 31 0a bc bd 05 d0 3d
       -0.08494343 0.04365359 -0.008434634 0.101573445
000150 bb 15 9f bc 68 7f 97 3d 47 eb e5 bb 20 5c 38 be
       -0.019419542 0.07397348 -0.0070165726 -0.18003893
000160 f5 ca 50 3c 7c 05 15 3c fd bf 94 3d 50 d8 85 bd
       0.012743701 0.009095546 0.07263181 -0.06535399
000170 78 f5 93 3d 61 d9 14 3e 98 a1 2e 3d 9f ea 76 3d
       0.07224554 0.14536048 0.042634577 0.060282346
000180 db 9f 11 3e c4 95 b6 3d 7b 72 32 3d 17 da f8 3d
       0.14221136 0.08915284 0.04356621 0.12150972
000190 ef 41 9c 3d f5 5d 1c be b4 b1 8f bc e6 f4 51 3c
       0.07629763 -0.15270217 -0.01754079 0.012814736
0001a0 b9 90 61 bd 9c b9 d3 bd 53 52 0c 3d 82 86 c9 bc
       -0.05506966 -0.103381366 0.034258198 -0.024600271
0001b0 37 51 00 be 08 03 8f bd eb d4 f4 3d 15 50 88 bd
       -0.12530981 -0.06983 0.119546734 -0.066558994
0001c0 14 71 0e bc ab 26 a8 bd 0a d8 0a 3e db 1f b7 bd
       -0.008693952 -0.082105 0.13558975 -0.08941623
0001d0 65 78 8e bd 93 b7 ef 3b 81 17 75 3d 1a d0 f0 bd
       -0.06956557 0.007315585 0.05983687 -0.11758442
0001e0 34 72 4f bd b4 06 5e 3d 3f 9b 53 3d 36 26 57 3d
       -0.050646022 0.05420561 0.051661726 0.052526675
0001f0 e9 97 7f 3d a5 3f 84 bd a7 84 c6 bd d2 e2 c0 3d
       0.062400732 -0.06457452 -0.0969327 0.094182625
000200 35 99 91 bd b5 a9 09 3d 02 fc 0b 3e ce d3 33 3e
       -0.071093 0.03360911 0.13670352 0.17561266
000210 95 29 b3 3d 39 22 da bd eb a1 fd 3d b3 75 09 bd
       0.087481655 -0.10651059 0.12384399 -0.033559512
000220 56 27 b3 3d f4 e7 02 3e bf 14 f6 3b 8c be 5e bd
       0.08747737 0.12783796 0.0075097973 -0.05438094
000230 d6 be 9b 3c ad 22 e6 3d b8 99 d0 bd fb 0c bc bd
       0.019011896 0.11237083 -0.101855695 -0.09182163
000240 4c 6e 74 3d 32 77 fd 3c 40 bf 40 bd 36 59 d8 bd
       0.0596755 0.030940626 -0.04705739 -0.10563891
000250 31 56 fc 3d 8c 7b 2e 3d 9a cf 7d bd 30 5c 11 3c
       0.12321127 0.042598292 -0.061965562 0.008872077
000260 71 02 03 be 7d d2 6e 3c 2d 0d 1e bd 23 7c 10 be
       -0.127939 0.0145765515 -0.038586784 -0.14109854
000270 dd ae 98 bd 8c 47 1e be 85 c7 fa bd ab 76 97 bd
       -0.074552275 -0.1545698 -0.122450866 -0.07395681
000280 e7 18 c0 bc 01 97 34 3e 48 ce 36 be 78 e8 ef 3d
       -0.023449374 0.17635728 -0.17852128 0.11714262
000290 df a7 8d 3c f9 bf 2f 3d 28 83 40 bd 83 3e ee bc
       0.017291961 0.04290769 -0.04700008 -0.029082542
0002a0 b5 5e 0c 3e c4 3a 84 bd 7f 96 d5 3d cc f0 f1 bd
       0.13708003 -0.06456521 0.104290955 -0.118135065
0002b0 85 a9 a9 bd c9 84 9e bd 8c 94 9c bd 98 36 bf bd
       -0.082842864 -0.077401705 -0.076455206 -0.09336585
0002c0 e7 b4 ac 3d ac 17 96 3d f3 49 d7 3d 9a 5b 21 3d
       0.08432942 0.07328734 0.105121516 0.039394
0002d0 06 24 32 3d e7 ac 9b 3d cf 6e 43 bd fa 63 a3 bc
       0.043491386 0.07601338 -0.047713097 -0.019945133
0002e0 62 58 15 be 3d 9c 86 3d fe 3d 12 bd cf a8 dc ba
       -0.14584497 0.06572769 -0.03570365 -0.0016834977
0002f0 3d 45 37 3d 84 4f 43 3d da 3d 65 3d 3c 0a e6 3c
       0.044743765 0.047683254 0.05596719 0.028081052
000300 9d 45 ac bd 60 93 f5 bc 49 52 8a bd f3 1b 93 3c
       -0.08411715 -0.0299775 -0.06753976 0.017957663
000310 35 61 79 bc 3d 02 5a bd 5c a7 32 3d be 80 0f 3d
       -0.01522093 -0.05322479 0.043616638 0.035034887
000320 4a 41 03 3e 02 e6 87 bc e6 0e a0 bc d7 c9 64 bd
       0.12817875 -0.016589168 -0.019538354 -0.055856552
000330 aa a1 1d bc 00 95 d5 3d ea b5 21 3d ce ec ad bc
       -0.009621063 0.1042881 0.039480127 -0.021231081
000340 db a1 07 3e 81 12 e1 3d 1b 6c 17 bd ff 67 c0 3d
       0.13245337 0.109898575 -0.03696833 0.09394836
000350 f3 26 05 be c4 f6 73 3d 24 7b 09 3e 0e 26 05 3d
       -0.13003139 0.059561506 0.1342588 0.032506995
000360 4f 37 05 3e 18 fa d8 bd f4 3a 83 3d 82 58 ab 3d
       0.1300938 -0.105945766 0.06407729 0.08366491
000370 78 e3 a7 3d 2c 39 39 3e 6f 6a be 3d e2 67 9f bc
       0.08197683 0.18088216 0.09297644 -0.019458715
000380 40 6e 13 bd 9b 37 fd 3d d9 d2 c1 3d ef 82 c2 bd
       -0.035993814 0.123641215 0.09464044 -0.0949763
000390 29 5e 2c bd ff ad 98 3c 6f 2b 9d bb ca 68 4e bb
       -0.042081986 0.018637655 -0.0047964375 -0.0031495565
0003a0 49 3e 1d 3e c4 4c 38 3d 8b 92 c9 3b ce 14 10 3d
       0.15355791 0.044995084 0.0061515025 0.03517609
0003b0 4f 7d a9 bd 5d cb a3 3b bd 9e 14 3e 21 fc d7 bc
       -0.08275854 0.004998608 0.14513679 -0.026365342
0003c0 70 79 a2 3d 37 67 06 3e 7f 0c 8d bd 1c 6f 85 bc
       0.079333186 0.13125311 -0.06887149 -0.016288333
0003d0 71 90 fa bc de 76 9e bd 78 a4 10 3c b8 1b bf 3d
       -0.030586453 -0.07737516 0.008828275 0.09331459
0003e0 d2 31 40 3c 13 32 d4 3c 44 ac c2 3d 1d ef 26 3d
       0.011730628 0.025902783 0.09505513 0.04075538
0003f0 26 63 66 3d 64 e8 24 bd f1 74 13 be 68 0f 34 3c
       0.0562469 -0.040260687 -0.14400078 0.010990001

fc2.bias f4 [64]
000000 64 24 a5 bd 6d 92 75 3d fe 95 0a bd 16 e3 47 3d
       -0.080635816 0.059954096 -0.03383445 0.04880055
000010 43 8c 5e bd 9a 13 0a bd e9 c2 73 3c 5b e5 a9 3c
       -0.054332983 -0.0337101 0.014878013 0.020739248
000020 46 49 e0 bd e3 75 d4 3c 43 1f 8c 3d cb eb 8a bd
       -0.10951476 0.025935119 0.068419 -0.06783255
000030 4d ee 15 3e 34 51 73 bd f0 9f f9 bd 1f 8d 14 3e
       0.14641686 -0.059403613 -0.12188709 0.14506958
000040 98 b7 75 3d 1d 1c 1f 3e 4d 12 1d bd 00 39 4c 3d
       0.05998954 0.15538068 -0.03834753 0.049859047
000050 6b d6 cb 3d ce e6 a3 3c 27 49 ac 3d fa 44 00 ba
       0.09953006 0.020007517 0.0841239 -0.0004893091
000060 f4 09 e9 bd 98 ad 97 bd 22 14 fc 3a be 23 bd bd
       -0.113788515 -0.07406157 0.0019232074 -0.09235333
000070 5d 79 4c bd 2f a9 aa 3d 0c 24 1d 3e 6a a9 89 bd
       -0.04992043 0.083330505 0.15345782 -0.06721766
000080 42 15 3b 3d 02 0b 82 3d 1f 86 53 bd f9 f5 be 3c
       0.04567457 0.06349756 -0.05164158 0.023310648
000090 ef 27 c1 bd 2c 33 a3 3d 7c e7 d3 3d 15 3b c6 3d
       -0.09431445 0.07968745 0.103468865 0.09679238
0000a0 00 0c a2 3d e4 00 68 3d 51 7c 31 39 b7 b2 00 3d
       0.07912445 0.056641474 0.00016926347 0.031420436
0000b0 46 6c 3a bc f4 02 98 bd 4d ec 34 3d f4 1b d5 3d
       -0.011378353 -0.07422438 0.044170666 0.10405722
0000c0 a4 26 ed 3d 89 6b 1b bd 2f 8e dd 3d cb 85 ad bc
       0.11579636 -0.03794435 0.10818135 -0.021181962
0000d0 d0 6d 8f 3d f7 f2 ab bd 9a b5 0b 3e c2 36 70 3c
       0.07003367 -0.08395951 0.13643494 0.014661493
0000e0 61 54 a4 bb 02 7d 3c 3d e3 44 b7 bc 0e e9 80 3c
       -0.0050149416 0.046017654 -0.022371715 0.01573613
0000f0 50 e1 22 bc 09 11 25 bd 68 83 40 bd bb fe af 3d
       -0.009941414 -0.04029945 -0.04700032 0.08593508

fc_out.weight f4 [1, 64]
000000 ca 94 99 bc fe d6 cd 3c e3 46 c8 bd 02 78 1f 3e
       -0.018747706 0.02512693 -0.097791456 0.15573123
000010 73 73 85 bd 44 7e b9 bd 19 f4 fb bc c0 2a b6 bd
       -0.06516161 -0.090572864 -0.030756043 -0.08894873
000020 e5 af 58 bd 3b 77 0f be ef 85 2f be 47 c8 b2 3d
       -0.05290212 -0.14010327 -0.17140935 0.08729606
000030 fa 3c df bd 2c c7 09 be 7a c0 e8 3d 30 75 2c 3e
       -0.10900302 -0.13454884 0.11364837 0.16841578
000040 f1 45 d3 3d 75 31 11 3e 6a 0a 9a 3d 91 64 f8 3d
       0.10316075 0.14179023 0.075215176 0.121285565
000050 d1 da af 3d 77 56 dd 3d 8e 9c c3 bd 6c 41 1a b9
       0.08586658 0.108075075 -0.09551345 -0.00014710956
000060 d8 4b c5 bd c2 ab 05 bd 45 2d 9d bd e4 c0 31 3e
       -0.09633607 -0.032634504 -0.0767465 0.17358738
000070 b8 bd 29 bd 57 20 95 3d 89 67 e5 bd b0 32 0b bd
       -0.041440696 0.07281559 -0.112013884 -0.033983886
000080 7d 60 f1 bc 09 4c 06 be de 78 02 3e 17 39 ea 3d
       -0.029464955 -0.13114943 0.1274142 0.1143667
000090 f2 0e 98 bd 49 92 14 3e de 21 db 3d 92 eb cb 3d
       -0.074247256 0.14508928 0.10699819 0.09957041
0000a0 b0 de 2c bd 01 f7 c2 3d 98 b3 f4 bd f0 e7 be 3d
       -0.04220456 0.095197685 -0.11948317 0.09321582
0000b0 01 ca d6 3d a0 da 23 3e 93 a6 ad bd 57 87 a4 3d
       0.10487748 0.16001368 -0.08479037 0.080336265
0000c0 82 84 8e bd 77 d5 6c 3d e8 9a c0 bd 6a 08 1b 3e
       -0.069588676 0.057820763 -0.09404546 0.15139928
0000d0 bf c4 f9 bc 42 f1 05 be 9f bb ed 3d 1d 95 78 bd
       -0.030489324 -0.13080314 0.116080515 -0.06068908
0000e0 22 b2 a1 3c 12 53 cd 3d 23 81 b1 bd e2 56 1b 3e
       0.01973826 0.1002561 -0.08667209 0.15169862
0000f0 34 23 74 3d c4 12 1c bd 81 2a d5 bc 2b 9b 31 3e
       0.059603885 -0.038103834 -0.026021244 0.17344348
