data/trained_models/base_cp_c_snn.pth (torch, 25060 bytes, 5 tensors)

fc1.weight f4 [64, 8]
0	0x3e2b38a5	0.16720827
1	0xbe1b9961	-0.15195228
2	0x3cd3a0d0	0.025833517
3	0x3c139b40	0.009009182
4	0xbdc14b3c	-0.09438178
5	0x3e5af901	0.2138405
6	0xbd964f67	-0.073393635
7	0x3c5049a9	0.012712874
8	0x3d8261fb	0.063663445
9	0xbd54d13e	-0.05195736
10	0x3e437bd3	0.19090204
11	0xbe8f96b2	-0.2804466
12	0xbed4157a	-0.41422635
13	0xbed03ab0	-0.40669775
14	0x3d9375a7	0.07200175
15	0x3e64f0fa	0.2235755
16	0xbea08611	-0.31352285
17	0xbe9304ce	-0.28714603
18	0x3dda9bf3	0.10674276
19	0xbe437aaf	-0.19089769
20	0xbd9183b3	-0.07105198
21	0x3dd67ffe	0.10473631
22	0xbe713249	-0.23554339
23	0xbe055e45	-0.13024242
24	0xbe56b301	-0.20966722
25	0xbebe40fe	-0.3715896
26	0xbe8463c8	-0.25857377
27	0x3e622e3f	0.22087954
28	0xbecdc4df	-0.40189263
29	0x3e720876	0.2363604
30	0xbe91845f	-0.28421304
31	0xbe628feb	-0.22125213
32	0x3e820c31	0.25399926
33	0xbe068ce7	-0.13139687
34	0xbe792588	-0.24330723
35	0xbdf20559	-0.11817426
36	0x3c1ddcc2	0.009635152
37	0xbe1a846c	-0.15089577
38	0xbcc7183c	-0.024303548
39	0xbe6582ac	-0.22413129
40	0xbe49f1fb	-0.19721214
41	0xbe9c0d04	-0.3047868
42	0x3e4682c0	0.19385815
43	0x3dfdf031	0.123993285
44	0x3d711947	0.058861997
45	0x3e599d11	0.21251322
46	0x3e6c01d1	0.23047568
47	0xbdd9d26d	-0.10635839
48	0x3d32e55e	0.043675773
49	0xbe60a2b4	-0.21937066
50	0x3da1e21a	0.079044536
51	0x3e950768	0.29107213
52	0xbcda8a8d	-0.026677394
53	0xbdc5e4e9	-0.09662802
54	0xbe2f3411	-0.17109706
55	0x3e94b4ff	0.2904434
56	0x3c355836	0.011068394
57	0xbebfe8b3	-0.37482223
58	0xbea710c4	-0.3262998
59	0x3d4ac4e8	0.04950419
60	0xbd308ed8	-0.043104976
61	0xbec3ba3a	-0.38228017
62	0xbeb99c72	-0.3625217
63	0xbd1bc79e	-0.038032167
64	0x3cc494e5	0.02399678
65	0xbddb88af	-0.1071943
66	0x3de3e095	0.1112682
67	0xbd7f4993	-0.062326025
68	0x3dcdf72a	0.100569084
69	0x3ebb8d4f	0.36631247
70	0x3dd810a4	0.10550049
71	0xbe44a97e	-0.19205281
72	0xbd8e2bb8	-0.069419324
73	0xbd7ad4d5	-0.06123813
74	0xbe87ce0d	-0.26524392
75	0xbd37fca1	-0.04491866
76	0xbe68817e	-0.22705647
77	0xbe349d8a	-0.17638221
78	0xbe03a874	-0.12857229
79	0x3e9e8d83	0.3096734
80	0x3e0765d4	0.13222438
81	0xbe6863ff	-0.22694395
82	0x3d9cbc73	0.07653131
83	0x3e202b99	0.15641631
84	0x3eac818f	0.33692595
85	0xbd4271e7	-0.047471907
86	0x3e9a24e1	0.3010626
87	0xbdf3c673	-0.119030856
88	0xbe632080	-0.22180367
89	0xbdac1dee	-0.08404146
90	0x3e997498	0.29971766
91	0x3e6e764d	0.23287316
92	0x3d0e24e9	0.03470317
93	0xbde8fc67	-0.11376267
94	0x3d88d768	0.066817105
95	0x3d040cb8	0.032238692
96	0x3df974b7	0.12180465
97	0xbdc54dc3	-0.096339725
98	0xbe920e6b	-0.28526625
99	0xbeacba39	-0.33735827
100	0x3e4c7c50	0.19969296
101	0xbe4c7c5b	-0.19969313
102	0xbec9b03c	-0.3939227
103	0xbecde4d0	-0.40213633
104	0x3e9d5fc7	0.30737135
105	0x3ec57310	0.38564348
106	0xbdae0048	-0.084961474
107	0x3de3b98c	0.11119375
108	0xbe00c77d	-0.12576099
109	0x3e15802a	0.14599672
110	0xbe3fdb74	-0.18736058
111	0xbe8d58ce	-0.27606815
112	0xbe9020ff	-0.28150174
113	0x3c49953d	0.012303648
114	0x3e25ecc0	0.16203594
115	0x3e6a2550	0.22865796
116	0x3e133928	0.14377272
117	0x3e6a62a0	0.22889185
118	0x3dff11d2	0.12454571
119	0x3e0c8ab6	0.13724789
120	0x3ddbdb8d	0.10735235
121	0xbe1ca439	-0.15297021
122	0xbe80500f	-0.2506108
123	0xbe96e56f	-0.2947192
124	0x3ea022e2	0.31276613
125	0xbd5bb037	-0.05363485
126	0xbe9ce61a	-0.30644304
127	0xbe469562	-0.19392923
128	0x3eaafcc0	0.33395958
129	0x3c2314cf	0.009953692
130	0x3e4ee590	0.20204759
131	0x3da767e6	0.08174114
132	0x3ec3ade4	0.38218606
133	0x3cf56ad4	0.029958166
134	0xbd00bd93	-0.031430792
135	0x3e1e23b8	0.15443313
136	0x3e8f909f	0.28040025
137	0x3de5c58a	0.11219318
138	0xbe1c9983	-0.15292935
139	0x3e7b2dd5	0.24529202
140	0x3d8fd229	0.07022507
141	0x3eabe2bc	0.33571422
142	0xbe06ae08	-0.13152325
143	0x3e27b621	0.1637807
144	0x3e5f6b3f	0.21818255
145	0xbe8bf297	-0.2733352
146	0xbe01322b	-0.12616794
147	0x3deca7ba	0.11555429
148	0xbc54e9da	-0.012995208
149	0xbe927765	-0.28606716
150	0x3e95f2e9	0.29286888
151	0xbe5afa11	-0.21384455
152	0x3e15f3dd	0.14643808
153	0x3d7a0ad4	0.061045483
154	0xbdcf79d6	-0.1013066
155	0xbe036616	-0.12831911
156	0x3d408927	0.0470058
157	0xbea3c8f8	-0.31989264
158	0xbd95a63c	-0.07307097
159	0xbebca44e	-0.36844105
160	0x3e30b6ed	0.1725728
161	0x3e3bf860	0.18356466
162	0x3d23cdd7	0.039991226
163	0xbd29aab9	-0.04142258
164	0xbe23c673	-0.15993671
165	0xbd5b175a	-0.053489067
166	0x3e4358bf	0.19076823
167	0xbe1b3310	-0.15156198
168	0x3dcd542e	0.100258216
169	0x3e87ff07	0.26561758
170	0x3deee7f3	0.116653346
171	0xbe91c12d	-0.28467694
172	0xbe8f774f	-0.28020713
173	0xbebf2b65	-0.37337795
174	0xbe61f723	-0.22066931
175	0x3d92d6ee	0.07169901
176	0x3dbaf9b1	0.09129656
177	0xbe4c22c3	-0.19935136
178	0xbe4cf0b4	-0.20013696
179	0x3eaba2c8	0.3352263
180	0xbdae39cb	-0.08507117
181	0x3ead4d12	0.33847862
182	0xbea89f6b	-0.32934126
183	0xbd81de4e	-0.063412294
184	0x3e4fb6cc	0.20284575
185	0xbe949aeb	-0.29024443
186	0x3c0a97f3	0.008459079
187	0x3e2cdd16	0.16881213
188	0xbc78b932	-0.015180873
189	0x3e790cc9	0.24321283
190	0x3e903165	0.28162685
191	0x3e37f6a4	0.1796518
192	0x3e9bc8d0	0.30426645
193	0xbd8c593e	-0.06852959
194	0xbe50b4a7	-0.20381413
195	0xbe0d9233	-0.13825302
196	0x3d858d8b	0.06521138
197	0xbe305ad6	-0.17222151
198	0x3d72aa82	0.05924464
199	0xbc5d527b	-0.013508434
200	0x3e6dd82b	0.23226993
201	0x3e923b63	0.28560933
202	0xbe087390	-0.13325334
203	0xbcbcc4c3	-0.023043042
204	0xbc005fb2	-0.007835316
205	0x3ea41a0f	0.3205113
206	0x3ca270c5	0.019829163
207	0x3e06fcde	0.13182399
208	0xbd0712a1	-0.03297675
209	0xbe8e9199	-0.27845457
210	0xbe1b15b9	-0.15145005
211	0x3c9b30c3	0.01894415
212	0xbe90b7eb	-0.28265318
213	0xbec57aac	-0.38570154
214	0xbe6bd4fd	-0.23030467
215	0xbeb0749d	-0.3446397
216	0xbe4d97e7	-0.20077477
217	0xbe60fb4b	-0.2197086
218	0xbcf569e6	-0.029957723
219	0xbcb3757e	-0.02190661
220	0xbe0fae61	-0.14031364
221	0x3d7256c6	0.059164785
222	0xbda19358	-0.07889432
223	0x3e6cac83	0.23112683
224	0x3e8b360f	0.2718968
225	0xbe3e31c9	-0.18573679
226	0xbe180a45	-0.14847668
227	0xbe8e2946	-0.27765864
228	0xbe1ae520	-0.15126467
229	0xbd66bbda	-0.056331493
230	0xbe269533	-0.16267852
231	0xbe1a9801	-0.15097047
232	0xbe38ec3c	-0.18058866
233	0x3d099857	0.03359255
234	0x3cc67551	0.024225863
235	0x3e53e09c	0.2069115
236	0x3e4616f6	0.19344696
237	0x3debb9d0	0.1151005
238	0xbcdc572d	-0.026897037
239	0x3e4df705	0.20113762
240	0xbe42d7ae	-0.19027588
241	0xbe1d927b	-0.15387909
242	0xbe9198b2	-0.2843681
243	0xbcec2c48	-0.028829709
244	0xbebf10f5	-0.37317625
245	0xbd1d3029	-0.038376007
246	0xbe9bcfa9	-0.3043187
247	0xbe83170b	-0.25603518
248	0xbed9dd3c	-0.425516
249	0xbe863ab9	-0.26216677
250	0x3dc3a5e3	0.09553125
251	0x3e0e1a52	0.13877228
252	0xbeb82384	-0.35964596
253	0x3e3d61dc	0.18494362
254	0x3dfd90be	0.12381123
255	0x3da8e03b	0.082458936

fc1.bias f4 [64]
0	0x3c8408ab	0.016117414
1	0xba6de63a	-0.0009075139
2	0x3c8f53f2	0.017496083
3	0xbc5e3719	-0.013562941
4	0x3ce1da6c	0.027569972
5	0xbc986bea	-0.018606145
6	0xbbf1954a	-0.007372533
7	0xbc12fa50	-0.008970812
8	0xbb2b4fdb	-0.0026140127
9	0xbb36c8d2	-0.0027890694
10	0x3d0a2432	0.033725925
11	0xbc63736a	-0.013882497
12	0xbca7a42c	-0.020464025
13	0xbc695523	-0.01424149
14	0x3c80d294	0.015725411
15	0x3b586ecc	0.0033025024
16	0xbd08b0f9	-0.0333719
17	0x3c093eb0	0.008376762
18	0x3a7455dc	0.00093206554
19	0xbcbff74b	-0.023433348
20	0x3c2ad9b6	0.010427883
21	0x3d1a9d26	0.037747525
22	0x3d0eb136	0.03483697
23	0x3c8e6e5c	0.017386608
24	0xbb1118a7	-0.0022139938
25	0x3c2a3472	0.0103884805
26	0xb9d39408	-0.00040355348
27	0xbc15eced	-0.009150726
28	0x3baee55a	0.0053373994
29	0x3cd9ed14	0.026602305
30	0x3c3be56e	0.0114682745
31	0x3c2b0f2e	0.010440631
32	0x3c3c57f8	0.011495583
33	0xbca0e602	-0.019640926
34	0xbc8c05d9	-0.017092632
35	0x3b75b030	0.003748905
36	0xbc2ef48b	-0.010678421
37	0xbb73e268	-0.0037213806
38	0x3c827b53	0.015927946
39	0x3c9fde40	0.019515157
40	0x3bdc8f3f	0.0067309435
41	0x3cb83bcf	0.022489456
42	0x3c159081	0.009128691
43	0x3cb33946	0.021877896
44	0xbcc24217	-0.023713155
45	0x3d18db98	0.037318796
46	0x3b98efd8	0.0046672635
47	0xbbfcaa70	-0.0077107474
48	0x3c9bda78	0.019025072
49	0x3ccd09d0	0.025029093
50	0xb9c8905e	-0.00038254535
51	0xba80ad82	-0.0009817334
52	0xbce2c896	-0.027683537
53	0x3c513fe8	0.012771584
54	0xbce6aa0e	-0.02815726
55	0x3c1c6f1e	0.009547977
56	0xbc32c80c	-0.010911953
57	0x3d0f8c57	0.035045948
58	0xbc801e55	-0.015639463
59	0xbb30ee70	-0.0026997589
60	0x3cce8c5b	0.025213411
61	0x3cbaad71	0.022787781
62	0xbc1a1013	-0.009403246
63	0x3cd9cec0	0.026587844

fc2.weight f4 [64, 64]
0	0x3dd2a9c5	0.10286287
1	0x3d05e150	0.032685578
2	0xbdd5819c	-0.10425112
3	0xbd973ff8	-0.07385248
4	0x3d826e49	0.063686915
5	0xbdf0e1be	-0.11761807
6	0xbda2df7f	-0.07952785
7	0x3cc931b1	0.024559828
8	0xbdb0850b	-0.08619126
9	0xbd41c895	-0.04731043
10	0xbd1845cd	-0.037175942
11	0xbda5e092	-0.08099474
12	0xbd2dcfaa	-0.042434372
13	0xbdc49550	-0.095987916
14	0x3e03800e	0.12841818
15	0xbdbe3d48	-0.09289032
16	0xbdcf1171	-0.101107486
17	0x3dc0abb7	0.09407752
18	0x3cbbacaf	0.02290949
19	0x3d8dc750	0.069227815
20	0xbd53fae1	-0.05175293
21	0x3d01b422	0.03166593
22	0xbcfc6a6b	-0.030812463
23	0xbbe98ceb	-0.0071273944
24	0x3d8d10f5	0.06888
25	0xbc892c93	-0.016744887
26	0xbdf05948	-0.11735779
27	0x3cfb2308	0.030656353
28	0xbd82dc97	-0.063897304
29	0xbd244250	-0.040102303
30	0xbe00e63d	-0.12587829
31	0xbd6c2a5f	-0.057657596
32	0x3ca829c9	0.020527737
33	0x3c72aae1	0.0148112485
34	0xbdae106b	-0.08499225
35	0x3dcd9f20	0.10040116
36	0x3d19da9f	0.03756201
37	0x3daaa30d	0.08331881
38	0x3d203720	0.03911507
39	0x3b501032	0.0031747934
40	0x3d4c2661	0.04984129
41	0x3dce842a	0.10083802
42	0xbdda7fba	-0.10668893
43	0xbd21cd6c	-0.039502546
44	0xbd99e636	-0.075146124
45	0xbd1932f2	-0.0374021
46	0xbd6aa82a	-0.05728928
47	0x3dee5325	0.11636952
48	0xbc8e6560	-0.017382324
49	0xbdb55918	-0.08854884
50	0x3d50472f	0.050849136
51	0xbd5fd776	-0.05464884
52	0xbc9011fd	-0.017586702
53	0xbd8edc66	-0.069756314
54	0xbd05cdfe	-0.032667153
55	0xbce1e59c	-0.027575307
56	0x3dce26e8	0.100660145
57	0xbd394fc8	-0.0452421
58	0xbd41cf52	-0.047316857
59	0xbd2681d6	-0.040651165
60	0xbd7f704d	-0.062362958
61	0x3d3e052f	0.046391662
62	0xbdbe71b0	-0.09299028
63	0x3de5b93b	0.112169705
64	0xbd385769	-0.045005236
65	0xbc8a7646	-0.0169021
66	0xbdf369c3	-0.11885407
67	0xbdc50498	-0.09620017
68	0xbd0a2972	-0.03373093
69	0xbd944bc7	-0.07241016
70	0x3d871c4a	0.065971926
71	0xbd8954ab	-0.06705602
72	0x3dbd1a5e	0.09233545
73	0xbcd8dacc	-0.026471518
74	0x3cef691d	0.029224927
75	0xbd270f1b	-0.04078589
76	0x3ce90f64	0.028449722
77	0x3d829cc2	0.063775554
78	0xbdff676c	-0.12470898
79	0x3d24a6aa	0.040198006
80	0xbd6c1aa2	-0.057642587
81	0xbd339f00	-0.043852806
82	0x3d82416d	0.06360135
83	0xbada9e4b	-0.0016679255
84	0xbd8933bb	-0.0669932
85	0xbda01b7c	-0.07817742
86	0x3dd7cbe3	0.10536935
87	0xbd2a27f2	-0.041542
88	0x3dad6443	0.08466389
89	0x3c0358fe	0.008016823
90	0x3d9619c7	0.073291354
91	0xbde1b9b4	-0.11021748
92	0xbd8ef340	-0.0697999
93	0x3da50e2e	0.08059345
94	0xbc0dff23	-0.008666786
95	0x3d91fed6	0.07128684
96	0x3d57c2ee	0.052676134
97	0xbd1d9544	-0.03847243
98	0xbdd8277f	-0.10554408
99	0xbd56cded	-0.05244248
100	0x3db6a3c0	0.089179516
101	0xbd892a16	-0.066974804
102	0xbdf6ab56	-0.120443985
103	0x3de6e67c	0.1127443
104	0x3d13b34a	0.036059655
105	0xbd9fbd9d	-0.07799838
106	0x3dc3a2ca	0.09552534
107	0xbd1aab15	-0.037760813
108	0xbdd45d8d	-0.10369406
109	0x3c859716	0.016307395
110	0x3dbfa52b	0.09357675
111	0xbdfff11d	-0.124971606
112	0xbcc675e8	-0.024226144
113	0x3dd2afb5	0.1028742
114	0xbda9985b	-0.082810126
115	0x3df91766	0.12162666
116	0xbcb4619f	-0.022019206
117	0xbe04dc6e	-0.12974712
118	0xbd2b0392	-0.04175145
119	0xbde9bd9d	-0.11413119
120	0x3d215f7f	0.039397713
121	0xbdaa2280	-0.083073616
122	0xbdfddcf9	-0.12395663
123	0xbc744767	-0.014909602
124	0xbc37a999	-0.011209869
125	0xbd374655	-0.04474481
126	0xbdf704c6	-0.12061457
127	0xbd82d661	-0.06388546
128	0x3c5a1c21	0.0133123705
129	0xbca06c5f	-0.019582925
130	0xbe1315c1	-0.14363767
131	0xbdfe54d3	-0.12418523
132	0x3cd3e680	0.025866747
133	0xbd81fefd	-0.06347463
134	0xbd9e4be6	-0.0772932
135	0x3dbfddb7	0.093684606
136	0x3d23caf8	0.039988488
137	0xbb8b9df2	-0.004260772
138	0x3d0fe0e5	0.035126586
139	0xbe0142e2	-0.1262317
140	0x3d7af0ce	0.061264805
141	0x3dc68709	0.09693725
142	0x3d5c934c	0.05385141
143	0x3da72e2e	0.08163105
144	0xbdedcf77	-0.116118364
145	0xbcc224e7	-0.023699237
146	0xbdb42ece	-0.0879799
147	0xbe0c55db	-0.13704626
148	0xbc2c0576	-0.010499349
149	0xbdf133cb	-0.11777457
150	0xbbdd529e	-0.0067542335
151	0xbe06b84b	-0.1315624
152	0x3d4f9809	0.0506821
153	0x3daff599	0.08591766
154	0x3bc5ed9b	0.0060402877
155	0xbdfd855f	-0.12378954
156	0xbd040280	-0.032228947
157	0x3da1c249	0.07898385
158	0x3d04219f	0.032258626
159	0xbb518c86	-0.0031974628
160	0x3d05db38	0.032679766
161	0x3b30b189	0.0026961288
162	0xbd7e8341	-0.062136892
163	0xbdc0139f	-0.093787424
164	0xbd74b6a2	-0.059744485
165	0xbdaea584	-0.08527663
166	0xbd72b943	-0.05925871
167	0x3da41402	0.08011629
168	0x3d97eb94	0.0741798
169	0xbc96c3ba	-0.018403877
170	0xbbd8d92e	-0.0066176867
171	0x3d2e58a7	0.042565014
172	0x3cb86910	0.022511035
173	0xbd1b9f44	-0.037993684
174	0x3d61f80a	0.05516819
175	0x3dd58d3d	0.1042733
176	0xbd4de707	-0.050269153
177	0xbd9e886e	-0.07740866
178	0x3d23a548	0.039952546
179	0x3caea198	0.021317288
180	0xbd2e03e5	-0.042484183
181	0xbd8a32f9	-0.067480035
182	0x3d9106de	0.07081388
183	0xbdfc9806	-0.12333684
184	0x3cbd795c	0.023129158
185	0xbdf34d02	-0.118799224
186	0xbde9622b	-0.11395677
187	0xbbb437f8	-0.005499836
188	0xbcaf1d60	-0.021376312
189	0xbd5db14b	-0.054124158
190	0x3d974d49	0.07387788
191	0xbc959376	-0.018258791
192	0x3d9f2437	0.07770579
193	0xbbc94929	-0.0061427546
194	0xbdac3f9b	-0.08410569
195	0x3d388dfb	0.045057278
196	0x3d6dd04e	0.058059983
197	0x3dd59690	0.10429108
198	0x3ca3b834	0.019985296
199	0xbddec077	-0.108765535
200	0xbd830b32	-0.0639862
201	0x3c30552e	0.010762496
202	0xbca1d01b	-0.019752553
203	0xbda70909	-0.0815602
204	0x3c828bf8	0.015935883
205	0xbd1759fd	-0.036951054
206	0x3da9456c	0.08265194
207	0x3dec89bb	0.115497075
208	0xbb9fda99	-0.004878354
209	0x3de4c690	0.11170685
210	0x3dabc44f	0.08387052
211	0x3dd4427c	0.103642434
212	0xbd24befe	-0.040221207
213	0x3dc36041	0.09539843
214	0xbda8fb9d	-0.082511164
215	0xbd069a2b	-0.03286187
216	0xbc9ed00d	-0.019386316
217	0x3d3f28df	0.046669837
218	0x3da18b36	0.078878805
219	0x3df6f4c6	0.120584056
220	0x3d0ed7fc	0.034873948
221	0xbd99bfc2	-0.07507278
222	0xbdd33a1b	-0.10313817
223	0xbdb3ec03	-0.0878525
224	0x3ca5b12e	0.020226087
225	0xbded4811	-0.11586011
226	0xbc989da4	-0.018629856
227	0x3c931fd9	0.017959522
228	0x3dbf3bcb	0.093375765
229	0xbbc0c14b	-0.0058824173
230	0xbd99025a	-0.07471152
231	0xbdd66f0e	-0.10470401
232	0x3c77ed1b	0.015132214
233	0xbda3e2ba	-0.08002229
234	0xbd6dc4ff	-0.0580492
235	0x3d85c85d	0.06532357
236	0x3dc1d624	0.09464672
237	0xbdb35533	-0.08756485
238	0x3dee5c60	0.11638713
239	0x3d9df57c	0.07712838
240	0x3dcae7f3	0.09907522
241	0xbd4f6df4	-0.05064197
242	0x3da10cbe	0.078637585
243	0xbce0224b	-0.027360102
244	0x3dd90091	0.10595811
245	0x3d2c0d01	0.04200459
246	0xbd06a73a	-0.032874323
247	0x3ce68251	0.028138312
248	0x3d766501	0.06015492
249	0x3d2b6303	0.04184247
250	0x3dede250	0.11615431
251	0x3d8d41f8	0.06897348
252	0xbd740913	-0.059578966
253	0xbc595a4b	-0.013266156
254	0xbc40d5ca	-0.011769721
255	0x3d7c3e1f	0.06158268

fc2.bias f4 [64]
0	0x3daeab13	0.085287236
1	0x3c96aea4	0.018393822
2	0xbd82987f	-0.063767426
3	0xbd9703da	-0.073737815
4	0x3cb33a82	0.021878485
5	0x3d0f5ea2	0.03500236
6	0xbb1b5e92	-0.0023707491
7	0xbba29d1d	-0.004962577
8	0x3dd45aea	0.10368903
9	0xbdaa1b60	-0.083060026
10	0x3d3ec91c	0.04657851
11	0x3db0408b	0.086060606
12	0xbd16f713	-0.036856722
13	0x3b479663	0.0030454628
14	0x3d71367b	0.058889847
15	0x3de0d908	0.109788954
16	0x3c559c28	0.013037719
17	0xbb3c5076	-0.0028734482
18	0xbe046084	-0.12927443
19	0x3c5d5aed	0.013510448
20	0x3c90adfa	0.017661083
21	0x3dffca55	0.12489764
22	0xbd022622	-0.031774648
23	0x3c19a85c	0.009378519
24	0xbdc17666	-0.09446411
25	0xbdd55630	-0.104168296
26	0x3d7460d2	0.059662648
27	0x3d5df859	0.05419192
28	0x3e0f9d11	0.1402476
29	0xbdb2acc2	-0.08724357
30	0xbdad9585	-0.08475784
31	0xbdaa6aff	-0.08321189
32	0xbda937b7	-0.0826258
33	0xbd35bd52	-0.044370003
34	0xbc32eca2	-0.0109206755
35	0xbc88d7c6	-0.016704451
36	0xbdd50e4a	-0.10403116
37	0x3ce3ece8	0.027822927
38	0xbdcd112b	-0.1001304
39	0xbde2e592	-0.11078943
40	0x3c10c374	0.008835662
41	0x3dbdf213	0.092746876
42	0xbd8c3957	-0.06846874
43	0x3d883822	0.066513315
44	0x3da11a73	0.07866373
45	0x3de0faf1	0.10985363
46	0xbcc0e003	-0.023544317
47	0x3db06f50	0.08614981
48	0x3db547a7	0.08851557
49	0x3d19ca09	0.03754619
50	0x3cb499ba	0.022045959
51	0x3da0d2aa	0.07852681
52	0xbd60e316	-0.054904066
53	0xbccebb22	-0.025235716
54	0x3da05ed4	0.07830587
55	0x3d464c21	0.048412446
56	0x3d1da72e	0.038489513
57	0xbd81ccdb	-0.06337901
58	0x3cf083a0	0.029359639
59	0xbd0fdf8a	-0.035125293
60	0x3d5d5916	0.054040037
61	0xbd356deb	-0.04429428
62	0xbd10d8a6	-0.035362862
63	0x3d10f7d7	0.03539261

fc_out.weight f4 [1, 64]
0	0x3deb43fc	0.11487576
1	0xbdc310ec	-0.09524712
2	0xbd7ad8a8	-0.061241776
3	0x3db4b6bd	0.08823917
4	0xbdcece99	-0.10097999
5	0x3dc2c5b2	0.09510364
6	0xbd9ec60b	-0.077526174
7	0xbda680c7	-0.08130031
8	0x3dc648a8	0.09681827
9	0x3ddd55d1	0.10807384
10	0x3ada23b4	0.001664272
11	0xbdfd67cd	-0.12373314
12	0xbdf2b098	-0.11850089
13	0xbde9d26b	-0.11417087
14	0xbdd1e72b	-0.1024917
15	0x3d0d440a	0.034488715
16	0x3cafde9e	0.021468457
17	0xbd8b0543	-0.06788113
18	0xbd257833	-0.040397834
19	0x3dd9dfe0	0.10638404
20	0x3d4de1d2	0.050264187
21	0x3de1dc86	0.1102839
22	0x3cd2f07e	0.025749441
23	0x3caa12bf	0.020760892
24	0x3d4c00e4	0.049805537
25	0xbdbb75ef	-0.091533534
26	0xbb628537	-0.0034564266
27	0x3d411af4	0.047144845
28	0x3da5b488	0.08091074
29	0x3d25bc9a	0.040463068
30	0x3d310ec2	0.043226965
31	0xbdca7ddc	-0.09887287
32	0x3dedbe5d	0.116085745
33	0xbd4b98c6	-0.049706243
34	0x3e1ba07c	0.15197939
35	0x3cd00450	0.025392681
36	0x3d855917	0.06511133
37	0x3c073de1	0.008254499
38	0x3c47b5d0	0.012189344
39	0xbdea6c22	-0.11446406
40	0xbd8af2ab	-0.067845665
41	0xbb47476d	-0.0030407563
42	0x3e06c6f5	0.13161834
43	0xbd8bfeca	-0.068357065
44	0x3ded415d	0.11584733
45	0x3df5bc62	0.11998822
46	0x3de7a3a6	0.1131051
47	0xbb39b4cb	-0.002833652
48	0xbdff54ce	-0.12467347
49	0xbdaf2ee6	-0.08553867
50	0x3df5649e	0.11982082
51	0xbd8e3f72	-0.06945695
52	0xbce79538	-0.028269395
53	0x3dfe356d	0.12412534
54	0xbd4bb34c	-0.049731538
55	0x3e035b07	0.12827693
56	0x3dea1fda	0.114318565
57	0x3c9774cc	0.01848831
58	0x3cd650f2	0.026161645
59	0xbcfb8cea	-0.030706841
60	0x3d779c2c	0.06045167
61	0xbd578938	-0.052621096
62	0x3dc0bcbf	0.094110005
63	0xbda5c30c	-0.08093843
