data/trained_models/base_mu2_b_kan.pth (torch, 138786 bytes, 12 tensors)

net.0.coeff f4 [64, 10, 5]
00000000: 9675 31bd 3916 f73c a71e 453d 0802 1dbc
00000010: b1c6 1abc b12b 1b3c 3860 2ebe f1a7 053e
00000020: 4133 693d cda0 12bb 959a 9cbd d67a 39bd
00000030: e54c 0a3e 6f4c 5b3e 5903 e2bd 7a2b b63c
00000040: 8e89 43be 15d8 9abd 34ab d33d bf07 5dbe
00000050: b16d 16bd 93f1 3b3e fdcc 253e 8972 1b3c
00000060: ed0b b63d f3ff 8ebd 1386 5c3d b7f0 e1bd
00000070: f665 7f3c 6103 333e 25db 1fbe a137 afbb
00000080: 5b10 e1bc 94bc 653c fedd 69bd 3f30 163e
00000090: 7b23 913d f47e 523d 04a0 503e b889 043e
000000a0: bb9f fcbc b9c2 12be 7d17 14be bacd 3ebd
000000b0: 875a 373c 6509 b3bc e01b 05bd be5a 00be
000000c0: 04ef 723d ae22 513d ca1b 203d c665 4fbc
000000d0: 8be6 ff3d f919 863d 06d7 8b3d f2e1 1a3e
000000e0: 4d29 ad3d 16a2 4cbd b575 c23c c22d afbd
000000f0: 8a48 373e 9ab2 3c3e b9a0 9cbd b7ac d8bd
00000100: 0b1e 133e 0df7 f53d 4908 023e 493d c23d
00000110: 6e2b 003e 2d54 aa3d f21c 31be ada3 8c3d
00000120: 7ca1 d03d 9675 ce3c e909 aebd b81e 84bc
00000130: 0f43 93bc b4ca c13d 0b7b 1e3e b0fa 46bc
00000140: 037c 663e 9138 743d fc1a 97bd c381 a6bc
00000150: a597 313d bd3f 2ebd afbd d2bc 390d a63d
00000160: c12f 933d 4c89 693e c80a 28b9 3dac 2fbd
00000170: 7754 493d 2368 b93d 6b80 743d bedd 9c3e
00000180: 5c30 f7bd ac26 66bd 94cb 80bd a2a2 bcbd
00000190: 94f7 da3d d686 8bbe 8937 babc 2f68 a0bd
000001a0: c64a 183d 5220 36bc 7310 26be e13d 7b3d
000001b0: 42c6 443e 5b5e 473e a219 98be fad9 12bd
000001c0: 2ff6 f73c 0a08 99be 8fc5 363d 06a7 6ebd
000001d0: c004 3b3e 5930 df3a 955e 93bd 2cb5 fd3d
000001e0: c01b ee3d 4d2a c6bc e9fb 2abd 6654 eb3d
000001f0: c622 623e 1a7c 173e 5173 fd3c be96 9b3d
00000200: dc53 61bd 679f f03d bde4 043e c6a0 59be
00000210: 1080 ae3d 7bbf e83c 0829 0eba 2c51 f6bc
00000220: 4ee7 dfbd 1b03 f2bb aded 093d 05a9 003e
00000230: 5fdb 1c3e 8e04 88bd 310b 303a 363a 13be
00000240: 7ccf f13d 6030 f6bd b9d6 abbd 06f3 cd3d
00000250: a3e3 653d 0969 cfbd e302 fabc 73b5 99bd
00000260: 64e1 51be 455b c4bc 238b 91bd 0d1b c83c
00000270: 0d48 80bd ada8 9b3c 59bd 04be bfa8 b0bd
00000280: 1d28 913d 5923 85bd 3d9a 263d 1714 2ebd
00000290: c949 3e3d 84a0 9f3d 3f0a 6bbe 0b23 0d3d
000002a0: a4f1 ccbd 1566 0a3e 16fd 32be b989 003e
000002b0: 3544 babd f32a 38bd 3dd3 803d 604a 0dbe
000002c0: 693e 9fbd 4c33 ebbc d3d4 fe3c d12b 2fbc
000002d0: e946 d83d e330 e53d 979e 583d 0223 2cbe
000002e0: c6f9 d0bc 38fa 83bd ff74 4abd 1552 ba3b
000002f0: 8731 5ebd 54e5 78be e720 33be 4b29 eabd
00000300: 893f fabc 83e1 dabd 21f3 99bd 7fe4 4bbd
00000310: 07e4 d43d 46dd 623c 94d4 d0bd 290c 1ebd
00000320: 8d4c 02bd 87a5 53bd b196 3fbc 817b 29bd
00000330: 5f0b e33d 48a5 00be 2271 133b cb4d 5e3d
00000340: 6e2f 123d 98cd cbbc 16ed c8bc 36f2 fe3c
00000350: f57c 383e 77a0 713d 3c58 20bd c030 b13d
00000360: 65ee 92bc 7bfc ddbd d6db dbbd a10b 73be
00000370: 9f96 04bd 07cd 55bd 6867 383d abff 5bbd
00000380: bf13 5cbc 9f25 4a3c 0b2a bc3d 93bb ca3c
00000390: 87be 02bc 4555 263d 8929 3ebe a430 643d
000003a0: 094c 4e3b 066e 5e3d 88d0 aa3d 076f 60be
000003b0: 2b5b a73c 7ecb 95bc b3a7 e8bd 987a cebd
000003c0: ad40 193e debc 6f3d 29e7 80bd af90 febc
000003d0: 58cf c8bb 9944 32be 8e4d 96bb 8cb0 f6bd
000003e0: d2cd 9bbd 15c3 15bd 781a 13be 6967 19bc
000003f0: 852c 083d 05b9 22bc 1290 f93c b157 b23c
-0.04332503 0.030161964 0.048124935 -0.009583004 -0.009446786 0.009470866 -0.17028892 0.13052346
0.056933645 -0.0022373677 -0.07646672 -0.04528316 0.13505895 0.21415876 -0.11035795 0.022237528
-0.19095442 -0.075607456 0.10335389 -0.21584986 -0.036725704 0.18353872 0.16191478 0.0094877565
0.088889934 -0.06982412 0.0538388 -0.11032241 0.015588274 0.17481758 -0.15610941 -0.0053472077
-0.02747362 0.014022011 -0.057096474 0.14666842 0.070868455 0.051390603 0.20373541 0.1294316
-0.030837884 -0.14332093 -0.14462085 -0.046582915 0.011191017 -0.021855066 -0.032497287 -0.12534615
0.059309974 0.051058464 0.039089 -0.012658542 0.124951445 0.06547923 0.06828122 0.15125254
0.08455143 -0.049959265 0.023737768 -0.085536495 0.17898765 0.18427506 -0.07647843 -0.10579818
0.14366929 0.12010012 0.12698473 0.094843455 0.12516567 0.083168365 -0.17296198 0.06867156
0.10187051 0.025202554 -0.08497984 -0.01612793 -0.017976312 0.09462491 0.15476625 -0.0121447295
0.22508244 0.05962426 -0.07378194 -0.020325547 0.04335751 -0.042541254 -0.025725214 0.08107991
0.07186843 0.22806281 -0.00016025745 -0.04288887 0.049152818 0.09053066 0.05969278 0.30637926
-0.12069771 -0.056189224 -0.062888294 -0.09210707 0.10691753 -0.2725131 -0.02273156 -0.078323714
0.037180685 -0.011116104 -0.16217212 0.06133831 0.19216254 0.19469588 -0.29707056 -0.03585241
0.030268757 -0.29888946 0.044622 -0.058264755 0.1826353 0.0017027959 -0.071957745 0.123880714
0.11626387 -0.024190092 -0.041744146 0.11490707 0.22083578 0.14793435 0.030938776 0.07597111
-0.055011615 0.117491536 0.12977882 -0.21252736 0.0852052 0.028411618 -0.0005422984 -0.030068003
-0.1093279 -0.007385624 0.03367393 0.12564476 0.15318058 -0.06641494 0.0006715535 -0.14377674
0.11807153 -0.120209455 -0.083905645 0.10056119 0.056125294 -0.10127456 -0.030518955 -0.07505312
-0.20496136 -0.023969302 -0.07106616 0.024426961 -0.062637426 0.01900133 -0.12962855 -0.08625936
0.07087729 -0.06500883 0.040674437 -0.042499628 0.046457086 0.07794288 -0.22953127 0.034457248
-0.10007027 0.13515504 -0.17479357 0.12552537 -0.09095041 -0.044962835 0.062902905 -0.13797903
-0.07775576 -0.028710984 0.031107342 -0.010691599 0.105604 0.11190965 0.052885618 -0.1681023
-0.025509726 -0.0644421 -0.049427982 0.0056860545 -0.05424645 -0.24306232 -0.1749302 -0.11433657
-0.030547874 -0.10687544 -0.07517076 -0.049778458 0.10395055 0.013846701 -0.10196796 -0.038585816
-0.031811286 -0.05167153 -0.0116936425 -0.041377548 0.11086153 -0.1256305 0.0022497852 0.054273408
0.035689764 -0.024878308 -0.024527114 0.031121355 0.18016417 0.05899092 -0.039146647 0.086518764
-0.017935941 -0.108391725 -0.1073529 -0.23734905 -0.032370206 -0.052197482 0.04502049 -0.05371062
-0.013432442 0.012338071 0.091877066 0.024747645 -0.007979996 0.040608663 -0.18570532 0.05571045
0.0031478426 0.054304145 0.083405554 -0.21917354 0.020429214 -0.01828551 -0.11360111 -0.10081977
0.14966078 0.058529727 -0.0629409 -0.03107485 -0.006128233 -0.1740898 -0.004586882 -0.120453924
-0.076076165 -0.036562998 -0.14365566 -0.009363034 0.033245582 -0.009931807 0.030464206 0.02177033

net.0.scale f4 [64, 10]
00000000: a42e 803f 3d26 803f 8e2f 803f 25a0 7f3f
00000010: 672f 803f 822f 803f 932f 803f 9ea0 7f3f
00000020: 5c2f 803f 3d2f 803f b040 803f ca7e 7f3f
00000030: a940 803f aa40 803f c07e 7f3f 257f 7f3f
00000040: a640 803f a640 803f 9f84 7f3f a540 803f
00000050: 2741 803f 1841 803f 2441 803f e97d 7f3f
00000060: 1a41 803f 1941 803f 1a41 803f 1a41 803f
00000070: 1941 803f dc7d 7f3f a67d 7f3f a97d 7f3f
00000080: 1041 803f 1841 803f ae7d 7f3f ad7d 7f3f
00000090: 1b41 803f b07d 7f3f ae7d 7f3f a17d 7f3f
000000a0: cb1f 803f cebe 7f3f 44bf 7f3f c11f 803f
000000b0: 18bf 7f3f 8b1e 803f e7bf 7f3f c3bf 7f3f
000000c0: d51f 803f e4bf 7f3f 3141 803f 657d 7f3f
000000d0: 627d 7f3f 627d 7f3f 607d 7f3f 3341 803f
000000e0: 617d 7f3f 677d 7f3f 687d 7f3f 5e7d 7f3f
000000f0: 4541 803f 907d 7f3f 8a7d 7f3f 4441 803f
00000100: c87d 7f3f 877d 7f3f 8c7d 7f3f 7f7d 7f3f
00000110: 807d 7f3f 6141 803f ee40 803f 3f7e 7f3f
00000120: 347e 7f3f 4e7e 7f3f 3c7e 7f3f f240 803f
00000130: f040 803f f540 803f ed40 803f 5d7e 7f3f
00000140: 8d8d 7f3f 4539 803f 5139 803f 4839 803f
00000150: 828d 7f3f 4539 803f 6939 803f 4339 803f
00000160: 4539 803f 898d 7f3f f13f 803f d07f 7f3f
00000170: eb7f 7f3f e73f 803f eb3f 803f f53f 803f
00000180: ca3f 803f ea7f 7f3f e97f 7f3f e47f 7f3f
00000190: f57c 7f3f 8541 803f 8e41 803f 8641 803f
000001a0: 2c7d 7f3f 8541 803f 8541 803f 057d 7f3f
000001b0: f47c 7f3f 8641 803f 9241 803f d57c 7f3f
000001c0: d77c 7f3f 9041 803f d57c 7f3f 8f41 803f
000001d0: 9141 803f d57c 7f3f 9241 803f 9241 803f
000001e0: 9a7e 7f3f 747e 7f3f f17e 7f3f 907e 7f3f
000001f0: d240 803f 807e 7f3f 797e 7f3f d840 803f
00000200: f140 803f 857e 7f3f 69b0 7f3f 0727 803f
00000210: 2627 803f a9b0 7f3f 5f26 803f cf26 803f
00000220: 33b1 7f3f 2627 803f 43b1 7f3f 2627 803f
00000230: 7f7d 7f3f 677d 7f3f 5541 803f ad7d 7f3f
00000240: 6e7d 7f3f 6941 803f 5041 803f 5041 803f
00000250: 677d 7f3f 5641 803f de8c 7f3f e339 803f
00000260: 9f39 803f 9839 803f e28c 7f3f e28c 7f3f
00000270: e48c 7f3f 9639 803f 1b8d 7f3f ea8c 7f3f
00000280: 7a41 803f fe7c 7f3f fb7c 7f3f fe7c 7f3f
00000290: 6d41 803f d8a4 7f3f 107d 7f3f 7841 803f
000002a0: 7441 803f f77c 7f3f 8441 803f e17c 7f3f
000002b0: 8441 803f 8341 803f 8241 803f e77c 7f3f
000002c0: e77c 7f3f e37c 7f3f e07c 7f3f e37c 7f3f
000002d0: 6e7d 7f3f 5241 803f 4d41 803f 6241 803f
000002e0: 6d7d 7f3f 5341 803f 4f41 803f 807d 7f3f
000002f0: 5141 803f 5441 803f 553a 803f a48b 7f3f
00000300: 423a 803f 3c3a 803f 3d3a 803f a38b 7f3f
00000310: 8f98 7f3f a08b 7f3f 3c3a 803f 3b3a 803f
00000320: e380 7f3f 9b3f 803f fa80 7f3f dd80 7f3f
00000330: 983f 803f 993f 803f ad3f 803f e280 7f3f
00000340: a43f 803f 9d3f 803f d2c5 7f3f 6b1b 803f
00000350: 39c6 7f3f 881c 803f 3f1c 803f 611c 803f
00000360: 43c6 7f3f 701c 803f 821c 803f 911c 803f
00000370: 6309 803f 5909 803f 30ed 7f3f 2fed 7f3f
00000380: 5009 803f 5a09 803f 5e09 803f 2ded 7f3f
00000390: 32ed 7f3f 5e09 803f ef80 7f3f 563f 803f
000003a0: f080 7f3f 903d 803f f380 7f3f 713f 803f
000003b0: ff80 7f3f 6e3f 803f 623f 803f 6680 7f3f
000003c0: d77c 7f3f d57c 7f3f 9241 803f d67c 7f3f
000003d0: d57c 7f3f d67c 7f3f 9241 803f d57c 7f3f
000003e0: 8d41 803f 9241 803f d640 803f e240 803f
000003f0: 017d 7f3f ce7d 7f3f 177e 7f3f b140 803f
1.0014234 1.0011669 1.0014513 0.99853736 1.0014466 1.0014498 1.0014518 0.9985446
1.0014453 1.0014416 1.0019741 0.9980284 1.0019733 1.0019734 0.9980278 0.9980338
1.0019729 1.0019729 0.9981174 1.0019728 1.0019883 1.0019865 1.0019879 0.998015
1.0019867 1.0019866 1.0019867 1.0019867 1.0019866 0.9980142 0.998011 0.9980112
1.0019855 1.0019865 0.99801147 0.9980114 1.0019869 0.9980116 0.99801147 0.9980107
1.0009702 0.9990052 0.99901223 1.000969 0.9990096 1.0009321 0.99902195 0.9990198
1.0009714 0.99902177 1.0019895 0.9980071 0.99800694 0.99800694 0.9980068 1.0019897
0.9980069 0.99800724 0.9980073 0.9980067 1.0019919 0.9980097 0.9980093 1.0019917
0.998013 0.99800915 0.99800944 0.99800867 0.9980087 1.0019952 1.0019815 0.9980201
0.99801946 0.998021 0.99801993 1.001982 1.0019817 1.0019823 1.0019814 0.9980219
0.99825364 1.0017477 1.0017492 1.0017481 0.998253 1.0017477 1.001752 1.0017475
1.0017477 0.9982534 1.0019513 0.998044 0.9980456 1.0019501 1.0019506 1.0019518
1.0019467 0.99804556 0.9980455 0.9980452 0.99800044 1.0019995 1.0020006 1.0019996
0.9980037 1.0019995 1.0019995 0.9980014 0.9980004 1.0019996 1.002001 0.99799854
0.99799865 1.0020008 0.99799854 1.0020007 1.0020009 0.99799854 1.002001 1.002001
0.99802554 0.9980233 0.9980307 0.99802494 1.0019782 0.998024 0.99802357 1.0019789
1.0019819 0.9980243 0.99878556 1.001191 1.0011947 0.99878937 1.001171 1.0011843
0.9987976 1.0011947 0.99879855 1.0011947 0.99800867 0.99800724 1.0019938 0.9980114
0.99800766 1.0019962 1.0019932 1.0019932 0.99800724 1.0019939 0.9982432 1.0017666
1.0017585 1.0017576 0.99824345 0.99824345 0.9982436 1.0017574 0.99824685 0.9982439
1.0019982 0.998001 0.9980008 0.998001 1.0019966 0.99860907 0.99800205 1.001998
1.0019975 0.99800056 1.0019994 0.99799925 1.0019994 1.0019993 1.0019991 0.9979996
0.9979996 0.99799937 0.9979992 0.99799937 0.99800766 1.0019934 1.0019928 1.0019953
0.9980076 1.0019935 1.0019931 0.9980087 1.0019933 1.0019937 1.0017802 0.9982245
1.0017779 1.0017772 1.0017773 0.99822444 0.9984216 0.99822426 1.0017772 1.001777
0.9980604 1.0019411 0.9980618 0.99806005 1.0019407 1.0019408 1.0019432 0.99806035
1.0019422 1.0019413 0.99911225 1.0008367 0.9991184 1.0008707 1.000862 1.000866
0.999119 1.0008678 1.00087 1.0008718 1.0002865 1.0002853 0.99971294 0.9997129
1.0002842 1.0002854 1.0002859 0.99971277 0.99971306 1.0002859 0.9980611 1.0019329
0.9980612 1.0018787 0.99806136 1.0019361 0.9980621 1.0019357 1.0019343 0.99805295
0.99799865 0.99799854 1.002001 0.9979986 0.99799854 0.9979986 1.002001 0.99799854
1.0020005 1.002001 1.0019786 1.0019801 0.99800116 0.9980134 0.9980177 1.0019742

net.0.base_weight f4 [64, 10]
00000000: 66c8 9d3d 0c9b ab3d 08a4 ef3b 9666 313e
00000010: 4777 c53c f8fc c83c ec54 353e 8b5d 4f3c
00000020: 9818 973d 8fb5 a3bc 8152 72bc 93a7 313d
00000030: ec11 82bc a596 1fbc ec10 87bb d7cd 03bb
00000040: 8fff 23be 49e8 443e 7479 03be 87c5 8a3c
00000050: 1b73 463c e5f2 02be 57db 093c ba96 a63d
00000060: 8228 f3bd 9da7 d0bd d0a7 873d 5011 a63d
00000070: 38c2 1abe 4412 7abd a8a5 7fbb e4af e23d
00000080: e0ef 283e ea9b 813d 42ca 0e3e fdf0 bcbc
00000090: 621b 603d de2f 18be ed92 2fbc f387 d53c
000000a0: f3e2 703d acc2 d33d 8e7c 82bd a113 013e
000000b0: c150 e93d 44c3 cf3c 8f9f 053d 4919 84bd
000000c0: 8dae 603d 4dae 63bd a2fe 143c ef2f a7bd
000000d0: c344 bcbd d546 65be a50f 4fbe a7e6 35be
000000e0: 65a5 51bd 24d2 88bd 0fc3 e83d 0c83 2a3c
000000f0: efa4 10be a630 f03c a615 98bd 5a64 873d
00000100: dfdc c53d a515 f6bd 2f1b e43c 4d26 01be
00000110: d49a 7b3d 25b5 13be d6b1 86bd 034b 6abd
00000120: 54ae e9bd 276b 50bd 81ad 363e 5c0e d6bb
00000130: 9d7c 0c3e b391 91bd b22c 23bd 9439 a9bc
00000140: 66b9 7f3c fa49 203d f14b 953c dedd 8f3d
00000150: d2c3 033e 863f 26bc a105 05bd b140 693e
00000160: cc88 293b c801 b0bd 3624 c7bd 11df 35bd
00000170: 87b9 88bc 76b3 05be f1fc ea3d ffdb 5a3c
00000180: 8410 d2bc cbde 0f3e ba0a 453d 43db aa3d
00000190: 3b22 623d 4ce5 68bd a657 a8bc 07ad 623e
000001a0: efdd 1bbe f9f1 db3d 3916 7cbd fdc5 4dbd
000001b0: d96d b23b f403 26be e4bf 24bd 47e2 213e
000001c0: 289d 113c dcdb fabd 899d d7bd acb6 9e3c
000001d0: 66d6 403d 726a 11bd 5121 b53d 2dbb 853b
000001e0: aaea 9a3d cfbe ee3d c21e 9b3d 36a1 16be
000001f0: 4cd4 8ebc 7b11 573b 0604 b6bc f8c5 413e
00000200: c7d8 dabd 099b 033e eda1 083e 2857 d0bd
00000210: 33f8 c8bd a6dc 973d 5663 1cbe 5a7e b4bc
00000220: 25ca 7c3d c6f9 f2bc 49c4 5abc befa 853d
00000230: 32b7 f4bc b43f c4bc 63c6 fbbd dc5b e53d
00000240: d50f 26be eb5f 3bbd 548f 483d 067e eabd
00000250: 6166 0a3e 7897 c0bd 1bde 51bd bb34 f8bc
00000260: 97fa 713d c76f cbbb b43e f53b e9fa 4f3d
00000270: b494 963d f97e e5bd 1dae 60be e3dd 05be
00000280: d238 9bbc 6f6f 193e a7b9 9d3b b517 cd3d
00000290: 2ed1 76bd 7c4d 4e3e f955 e43d 82f0 113d
000002a0: 98fe 813d 0a6c c53d 9397 0dbd a39b 16bd
000002b0: 75fb 8abd cc34 9b3c 79ea 183e 5e05 b93b
000002c0: 02a5 8dbc 2229 aabd e1cd b03d b876 6bbc
000002d0: 2300 623e fec8 98bd f36d 933a c636 813c
000002e0: e70a 2b3e 77b6 13be 7bce b63d 56c7 393d
000002f0: 90d1 a03c 9dc9 c9bd af92 38bc e08c 8fbd
00000300: c6bc 9d3c 6b94 fc3d 619b f93c 9882 85bd
00000310: ea0a 3f3e 4774 bc3d 2026 273c 95f3 0cbd
00000320: 4adb 51bd e625 18bd 90ef 05bd ef3b e8bd
00000330: 6166 d1bd 9075 4e3d c59e 183d 0028 57bc
00000340: 8bc3 08bd 46e7 e7bd e455 7b3d 7b77 b63c
00000350: fa32 eebc 0b06 d3bd 3f04 733d 29c9 36be
00000360: 8192 9ebc c65d 73bd 9109 2fbe 4f34 8c3c
00000370: ba0d 233c 53a8 0bbd c5fe 6f3d 2ad5 c8bc
00000380: 14a2 52bd 66aa 07bc 6658 9fbd b683 c53c
00000390: aa83 06be 1f5b b1bd 7a75 cd3c c292 523d
000003a0: be2a 743c 2ebc 823a e16b 57bd b55d 9cbc
000003b0: d65c ffbc 6b96 9e3d a75f cebd 10ed 88bb
000003c0: 217f 723d 0fc3 643e 5456 243d ba39 bf3c
000003d0: 7858 953d 2768 163d 7be3 aabd b83f e43d
000003e0: c8b5 373d afbe 5bbe 84be 053b 5c29 653e
000003f0: ed91 01be 5457 cbbd f2a5 193d 8c1d de3d
0.077042386 0.08379182 0.007313255 0.1732429 0.024104727 0.024534687 0.17708176 0.01265658
0.07377738 -0.019984035 -0.014790178 0.0433727 -0.015877686 -0.009740506 -0.0041218903 -0.0020111704
-0.16015457 0.19229235 -0.128393 0.016939892 0.012112404 -0.1278797 0.008414111 0.081342176
-0.118729606 -0.1018822 0.066238046 0.08108771 -0.15113151 -0.061052576 -0.003900865 0.11068705
0.16497755 0.06328566 0.13944343 -0.02306413 0.054713614 -0.1486201 -0.010716182 0.026065802
0.058810186 0.10339865 -0.06371413 0.12605144 0.11392356 0.025361665 0.03262287 -0.06450135
0.054853965 -0.055586148 0.009093912 -0.081634395 -0.09192803 -0.22390302 -0.20220812 -0.17763768
-0.051183123 -0.06680706 0.113653295 0.010407221 -0.14125417 0.029320072 -0.07426004 0.066109374
0.096612684 -0.12015847 0.027844993 -0.12612267 0.061426952 -0.1442457 -0.06576888 -0.057200443
-0.114102036 -0.05088344 0.17839624 -0.0065324735 0.13719411 -0.07107868 -0.039837547 -0.020657338
0.015608167 0.03913305 0.018224688 0.0702474 0.12867668 -0.010146981 -0.03247607 0.22778584
0.002586889 -0.0859409 -0.097237036 -0.044402186 -0.016690029 -0.1305674 0.11474026 0.013358115
-0.02564264 0.14049833 0.048105933 0.08342602 0.055208426 -0.0568593 -0.020549607 0.22136317
-0.1522138 0.10739512 -0.06154463 -0.050237644 0.005445224 -0.16212445 -0.040222064 0.15808974
0.008887567 -0.12248966 -0.10528094 0.019374214 0.047079466 -0.035501905 0.08844245 0.004081151
0.0756429 0.116574876 0.07574226 -0.14709935 -0.017435215 0.0032816816 -0.022218715 0.18923175
-0.10685878 0.1285211 0.1334302 -0.10172874 -0.09812965 0.07415132 -0.15272269 -0.022032905
0.061716218 -0.029660117 -0.013352462 0.06541966 -0.02987251 -0.023956157 -0.12293699 0.111991614
-0.16216977 -0.04574577 0.048964813 -0.11449818 0.13515617 -0.0940389 -0.051237207 -0.030298581
0.05907687 -0.0062083933 0.0074842814 0.050776396 0.073525816 -0.11205859 -0.21941419 -0.13072924
-0.018947992 0.14983915 0.0048133912 0.100142874 -0.060258083 0.20146745 0.111492105 0.035629757
0.06347388 0.096397474 -0.03456838 -0.03676952 -0.06786243 0.018946074 0.14933194 0.005646392
-0.017290596 -0.08308627 0.08633018 -0.0143715665 0.22070365 -0.07460211 0.0011247977 0.015773188
0.16703378 -0.14425074 0.08926102 0.045356117 0.019631177 -0.09852908 -0.011265441 -0.07009292
0.019255053 0.12332996 0.030469598 -0.065190494 0.18656507 0.09201866 0.010201961 -0.034411985
-0.05123452 -0.037145518 -0.032699168 -0.113395564 -0.10224605 0.050405085 0.03726079 -0.013132095
-0.03338961 -0.11323409 0.06136121 0.02227377 -0.029077042 -0.10303887 0.05933022 -0.17850174
-0.019356968 -0.0594156 -0.17093493 0.017114786 0.009952003 -0.034096073 0.058592577 -0.024515707
-0.0514241 -0.008280372 -0.077805325 0.024110656 -0.13136163 -0.08659958 0.025080431 0.05140949
0.014902769 0.0009974295 -0.052593116 -0.019087652 -0.031172197 0.07743534 -0.10076838 -0.0041786507
0.05920327 0.22340034 0.04012139 0.023342956 0.07292265 0.03672042 -0.0834417 0.11144966
0.044851094 -0.21459459 0.0020407746 0.22379059 -0.12653323 -0.09928766 0.037511773 0.10845479

net.0.grid_points f4 [5]
00000000: 0000 00c0 0000 80bf 0000 0000 0000 803f
00000010: 0000 0040
-2.0 -1.0 0.0 1.0 2.0

net.2.coeff f4 [64, 64, 5]
00000000: e037 92bc 7426 09bd 2288 0f3b da0c 153b
00000010: 1749 42bd 09d2 af3d 1542 11be 30dc 1a3e
00000020: 1f63 193d e68d 833d 2603 83bc 9034 b6bd
00000030: a2c3 89bd 58ae 10bd 9b45 fbbd 1cbe 49bd
00000040: 08f8 efbc 05ac f63d 1c07 a0bd 26c3 77bd
00000050: 0447 b43c df46 c43c e7e3 1ebd 6455 5dbe
00000060: de01 d1bd e78a 40bd 98c3 113d 7ddc babd
00000070: 77cd 6ebe 3508 a7bd 9fa2 dc3d ab59 29bd
00000080: 1dcf fe3c 59ee a9bd 4168 a3bd 398e 0b3d
00000090: 31e0 9a3a dd59 073e 1188 3d3d c90e 863e
000000a0: b249 8ebd 044c cebd cb99 3a3e 7a55 86bc
000000b0: f179 a23d 4d9c ca3c b1bb 253d d463 dfbc
000000c0: 1d95 debd 2aeb 073c e901 1e3d 2613 a33b
000000d0: 8455 803d 147f 2ebd 97a2 823d ed9f 063e
000000e0: e109 d13c 7295 04be 9a77 23bd a3fd 0e3e
000000f0: 2fe7 0b3d 0446 23be d0fd bc3c aded 77bd
00000100: 01f4 393e 9198 4d3d 7010 2c3e fb27 143d
00000110: 9bfa 233e b0f1 c43a fcf1 573c 095a a83c
00000120: 8787 4c3d 7d2b 8cbd 067f 88bd f15f 0fbd
00000130: 83eb 0a3e d599 3c3c 3ce9 1dbd 9bc3 d0ba
00000140: 73a0 a7bc 88b7 af3d 850f 2cbc 7fa3 c03c
00000150: d614 72bd fd9e aebd ca22 453e bb8a 123c
00000160: 6c10 e3bd 782d 48bc 49e1 07be ce96 733d
00000170: fd21 69bd 9732 463e 4bb5 e23c c3a3 0e3e
00000180: b106 b03d 42bf fabc a1d4 eb3c 4b37 a6bc
00000190: 71e9 e03d 1a21 893c 2811 2f3e 38e5 45bd
000001a0: a106 c3bd 81f8 8f3d 97a9 6fbc d04a f3bc
000001b0: 225a a83c bfa1 27ba 6322 503a eef8 d2bd
000001c0: d86f 68bd a2d1 be3d db25 0c3c 7177 fabd
000001d0: 9c57 d5bd a63b 023e a41f 0c3d 499c 51bd
000001e0: 997a afbd f40e 263e 6d0e 773d 0881 d5bd
000001f0: 5233 af3d 2472 b6bd 638d 5fbe c5de df3d
00000200: 3f07 903c 962d 403d f5db 0abc 3720 fe3d
00000210: 5753 3a3d 09b1 943e 34fb 74bd 08c9 393e
00000220: e7e1 0ebe 35f2 cbbc c276 6bbd b601 633b
00000230: af11 cf3d 44fa d7bd 37f3 1e3d 07b2 ddbd
00000240: 9b11 9fbd 44f5 013d 1d17 12bd 0647 33bd
00000250: 419c 833e 27af 4fbd 2690 963c e1d8 56bc
00000260: 7bbc 21be ce55 f13c b1f3 3ebe 61b2 c03d
00000270: 1241 abbd 8ef0 55bd a15a b33c caff c83d
00000280: fe70 ed3d c2a1 33bc 9097 06be 3c16 41be
00000290: 05c0 41be 01b6 72be fcb1 ccbd 5044 8abd
000002a0: 1df6 8bbc d7bf d73d 072e a9bc 943b 8fbc
000002b0: 170f 323c 9a2b 39be c668 c3bc 254e 073d
000002c0: 1197 bd3d ff1b e3bc 9b20 793e e9d4 0f3d
000002d0: 2fe0 de3d 92bc 98bc 329d ecbc 8985 b63c
000002e0: c67d 81bc c735 c33c 47a4 413d 349a 35bb
000002f0: 1f6f 043e c4a9 6dbd e311 1a3d 97a8 68bd
00000300: 6f09 bdbc 3d11 8fbd bb2e 6a3b 5f8e 9b3d
00000310: 3eba 61be 19d4 fb3d 2766 f33b 4fa6 fdbc
00000320: 9ef9 5dba 2557 0d3e 1e00 d9bc cb53 96bd
00000330: afa2 c2bd 8507 0cbd 2ebd b63d 2696 133d
00000340: 01ca 8d3d 4653 1a3e ded8 b5bd 2c19 52bd
00000350: 5969 8a3d e5f8 10bd 4376 3dbd 99ac 253d
00000360: 696a da3c 4ad9 55bd 3c71 e3bd 15a6 313d
00000370: e94e b33d 7143 63bd d61f 4bbc 4f5e 13bd
00000380: d641 cdbd 49f4 253d f02d 5d3d e187 53bd
00000390: b60e 78bb 15c3 403d 2e86 d53b 3992 e6bc
000003a0: 0e72 243d 6618 013c 7106 e93c 8b32 523e
000003b0: 5c2b 09be c6ef 74bc 26de e3bd 8430 80bc
000003c0: 3de6 8fbc 9615 82be 5c0f 3cbe a693 1c3e
000003d0: 4fac 5dbd 7b13 cabd 070f 753c 9e97 81bd
000003e0: fcaa 71bc 6e73 de3d ca7d 013d 49cd e63d
000003f0: 12dd 7d3d d1de e23c 6a63 83bd 9e2f d2bd
-0.017848909 -0.033483937 0.002190121 0.0022743256 -0.047432985 0.08584983 -0.14185365 0.15123057
0.037448045 0.06423549 -0.015992712 -0.08896744 -0.06726767 -0.035322517 -0.122691356 -0.049253568
-0.029293075 0.12044529 -0.07813856 -0.060488842 0.02200652 0.023959575 -0.038791563 -0.21614605
-0.10205434 -0.047007468 0.035586923 -0.09124086 -0.23320566 -0.08155862 0.10773205 -0.04134528
0.031104619 -0.08297414 -0.07978869 0.03407118 0.0011816082 0.13217874 0.04627234 0.26183155
-0.0694765 -0.100730926 0.1822273 -0.01639818 0.07933415 0.024732733 0.0404622 -0.027269281
-0.10868285 0.008295814 0.03857604 0.004976648 0.06266311 -0.04260166 0.06378668 0.13146944
0.025517406 -0.12947634 -0.039908983 0.13963942 0.03415602 -0.15944678 0.023070246 -0.0605294
0.18159486 0.050194327 0.16803145 0.03617094 0.16013567 0.0015025642 0.013180252 0.020550745
0.049933936 -0.06844232 -0.06664853 -0.035003606 0.13566403 0.011511286 -0.038552508 -0.0015927436
-0.02046225 0.08579928 -0.010501747 0.023515461 -0.059101902 -0.08526418 0.19251552 0.008944209
-0.110871166 -0.012217872 -0.13269533 0.05946999 -0.05691718 0.19355236 0.027674338 0.13929658
0.08595026 -0.030608777 0.028787913 -0.020290038 0.109820254 0.016739417 0.17096388 -0.048314303
-0.09522749 0.0702982 -0.014627836 -0.02969876 0.020550791 -0.00063946465 0.00079396943 -0.10301386
-0.056747288 0.09317328 0.008553947 -0.12229813 -0.10417101 0.12718067 0.034209862 -0.051174436
-0.085683055 0.16216642 0.060316492 -0.104250014 0.085547104 -0.08908489 -0.21831279 0.10931162
0.01758158 0.046918474 -0.008475293 0.12408488 0.045489635 0.29041317 -0.05980988 0.18143094
-0.13953362 -0.024895767 -0.057486303 0.003463847 0.10110795 -0.10545781 0.038806166 -0.10824972
-0.0776703 0.031728044 -0.035666574 -0.043768905 0.2570515 -0.050704148 0.018379282 -0.013113231
-0.15794556 0.02945986 -0.18647648 0.09409023 -0.083620206 -0.052231364 0.021893801 0.09814413
0.11593817 -0.010963859 -0.13143754 -0.18856138 -0.18920906 -0.23702241 -0.09994885 -0.06751311
-0.01708513 0.105346374 -0.02065183 -0.017484464 0.0108678555 -0.18083039 -0.02385367 0.03303351
0.09257329 -0.02772331 0.24328844 0.035115156 0.108826034 -0.018644605 -0.02888355 0.022280471
-0.015807044 0.023829354 0.047275808 -0.002771032 0.12933014 -0.05802323 0.037614714 -0.056801405
-0.023075787 -0.0698571 0.003573342 0.075955145 -0.22043702 0.12296314 0.007427949 -0.030963091
-0.0008467677 0.13802774 -0.026489314 -0.07340201 -0.09503686 -0.03418686 0.08922802 0.036031865
0.06923295 0.15070829 -0.08879255 -0.051293537 0.06758375 -0.035393614 -0.04625536 0.040447805
0.026662068 -0.052209176 -0.11105582 0.04337128 0.08755285 -0.05548424 -0.012397727 -0.03597861
-0.10022323 0.04051617 0.053998888 -0.051643256 -0.0037850565 0.047061045 0.0065162396 -0.028145896
0.040147834 0.007879352 0.028445454 0.20527093 -0.13395447 -0.014949745 -0.11126356 -0.015648134
-0.01756584 -0.25407094 -0.18365234 0.15290698 -0.054119404 -0.09866997 0.014957196 -0.06327747
-0.0147502385 0.1086186 0.031614102 0.11269624 0.061978407 0.027694138 -0.06415446 -0.102629885

net.2.scale f4 [64, 64]
00000000: 6c41 803f dd7c 7f3f 8e41 803f dd7c 7f3f
00000010: 9041 803f 9041 803f fe7c 7f3f df7c 7f3f
00000020: d87c 7f3f 8c41 803f e57c 7f3f 8c41 803f
00000030: 8241 803f db7c 7f3f e27c 7f3f 7641 803f
00000040: fc7c 7f3f de7c 7f3f 5e7f 7f3f 8d41 803f
00000050: e77c 7f3f da7c 7f3f d57c 7f3f ed7c 7f3f
00000060: 9041 803f f57c 7f3f de7c 7f3f 9141 803f
00000070: 0f7e 7f3f 9041 803f 8041 803f 8f41 803f
00000080: 8f41 803f 8f41 803f f77c 7f3f 8641 803f
00000090: 9041 803f ee7c 7f3f 9041 803f e57c 7f3f
000000a0: 8e41 803f e27c 7f3f e97c 7f3f 8f41 803f
000000b0: 9041 803f 9141 803f e07c 7f3f 8841 803f
000000c0: 8e41 803f 8e41 803f dd7c 7f3f 7941 803f
000000d0: 0d7d 7f3f 9141 803f db7c 7f3f 8d41 803f
000000e0: 2041 803f 8841 803f 9041 803f e87c 7f3f
000000f0: 9141 803f fc7c 7f3f 9041 803f 9141 803f
00000100: 0c7d 7f3f 8b41 803f 8e41 803f f47c 7f3f
00000110: 8f41 803f df7c 7f3f 8c41 803f 8f41 803f
00000120: e47c 7f3f 9141 803f ee7c 7f3f 797d 7f3f
00000130: eb7c 7f3f f67c 7f3f 8e41 803f 8141 803f
00000140: f67c 7f3f e77c 7f3f 8741 803f 8641 803f
00000150: 037d 7f3f 9041 803f e07c 7f3f 8941 803f
00000160: dd7c 7f3f 8c41 803f 8d41 803f da7c 7f3f
00000170: e67c 7f3f eb7c 7f3f 8641 803f e27c 7f3f
00000180: 7741 803f 8c41 803f db7c 7f3f 8841 803f
00000190: ee7c 7f3f e27c 7f3f 8e41 803f 8e41 803f
000001a0: 0540 803f a67d 7f3f e07c 7f3f e97c 7f3f
000001b0: 117d 7f3f 8e41 803f 8a41 803f 8f41 803f
000001c0: e07c 7f3f 8f41 803f 8941 803f d87c 7f3f
000001d0: 8841 803f ed7c 7f3f e17c 7f3f 8e41 803f
000001e0: f47c 7f3f 8f41 803f 3741 803f e87c 7f3f
000001f0: 8a41 803f 5541 803f 8e41 803f 8b41 803f
00000200: b67e 7f3f 2b3d 803f d77c 7f3f 9041 803f
00000210: e47c 7f3f 9041 803f 8741 803f e97c 7f3f
00000220: e07c 7f3f 9041 803f e17c 7f3f 8481 7f3f
00000230: f17c 7f3f 9041 803f f97c 7f3f 9041 803f
00000240: 9041 803f e87c 7f3f de7c 7f3f 8f41 803f
00000250: eb7c 7f3f dd7c 7f3f db7c 7f3f 8a41 803f
00000260: dc7c 7f3f e87c 7f3f 8c41 803f 767d 7f3f
00000270: 8e41 803f f77c 7f3f dd7c 7f3f 2b7d 7f3f
00000280: 8141 803f e57c 7f3f e67c 7f3f e37c 7f3f
00000290: 307d 7f3f 9241 803f e27c 7f3f ec7c 7f3f
000002a0: 8441 803f e57c 7f3f e27c 7f3f 0f7d 7f3f
000002b0: e47c 7f3f ed7c 7f3f 8e41 803f f47c 7f3f
000002c0: fa7c 7f3f 027d 7f3f 6f3f 803f 007e 7f3f
000002d0: 8941 803f 8f41 803f 9041 803f 8e41 803f
000002e0: 9041 803f 8d41 803f e17c 7f3f 8741 803f
000002f0: 5241 803f f17c 7f3f 567d 7f3f 8941 803f
00000300: 8f41 803f 8e41 803f 6041 803f 5b41 803f
00000310: 9041 803f 4141 803f dc7c 7f3f 8e41 803f
00000320: 9041 803f d87c 7f3f e07c 7f3f da7c 7f3f
00000330: 8e41 803f 8e41 803f dd7c 7f3f 217d 7f3f
00000340: dd7c 7f3f 8f41 803f df7c 7f3f f67c 7f3f
00000350: 8c41 803f db7c 7f3f f37c 7f3f 8e41 803f
00000360: 9041 803f 8e41 803f 8f41 803f 6e41 803f
00000370: 9041 803f eb7c 7f3f 8b41 803f d87c 7f3f
00000380: 237d 7f3f 8f41 803f 9141 803f 8f41 803f
00000390: e67c 7f3f 8b41 803f 7741 803f 9141 803f
000003a0: f27c 7f3f db7c 7f3f 9041 803f 457d 7f3f
000003b0: 8a41 803f dc7c 7f3f 8c41 803f db7c 7f3f
000003c0: 9141 803f 8e41 803f 9041 803f 057e 7f3f
000003d0: 8f41 803f 7b41 803f dc7c 7f3f 9141 803f
000003e0: 8e41 803f e07c 7f3f 923d 803f 8d41 803f
000003f0: 177d 7f3f e37c 7f3f 9041 803f ea7c 7f3f
1.0019965 0.997999 1.0020006 0.997999 1.0020008 1.0020008 0.998001 0.99799913
0.9979987 1.0020003 0.9979995 1.0020003 1.0019991 0.9979989 0.9979993 1.0019977
0.99800086 0.9979991 0.9980372 1.0020005 0.9979996 0.99799883 0.99799854 0.99799997
1.0020008 0.99800044 0.9979991 1.0020009 0.99801725 1.0020008 1.0019989 1.0020007
1.0020007 1.0020007 0.99800056 1.0019996 1.0020008 0.998 1.0020008 0.9979995
1.0020006 0.9979993 0.9979997 1.0020007 1.0020008 1.0020009 0.9979992 1.0019999
1.0020006 1.0020006 0.997999 1.0019981 0.9980019 1.0020009 0.9979989 1.0020005
1.0019875 1.0019999 1.0020008 0.99799967 1.0020009 0.99800086 1.0020008 1.0020009
0.9980018 1.0020002 1.0020006 0.9980004 1.0020007 0.99799913 1.0020003 1.0020007
0.9979994 1.0020009 0.998 0.9980083 0.99799985 0.9980005 1.0020006 1.001999
0.9980005 0.9979996 1.0019997 1.0019996 0.9980013 1.0020008 0.9979992 1.002
0.997999 1.0020003 1.0020005 0.99799883 0.99799955 0.99799985 1.0019996 0.9979993
1.0019978 1.0020003 0.9979989 1.0019999 0.998 0.9979993 1.0020006 1.0020006
1.0019537 0.998011 0.9979992 0.9979997 0.9980021 1.0020006 1.0020001 1.0020007
0.9979992 1.0020007 1.002 0.9979987 1.0019999 0.99799997 0.99799925 1.0020006
0.9980004 1.0020007 1.0019902 0.99799967 1.0020001 1.0019938 1.0020006 1.0020002
0.9980272 1.0018667 0.99799865 1.0020008 0.9979994 1.0020008 1.0019997 0.9979997
0.9979992 1.0020008 0.99799925 0.99807 0.9980002 1.0020008 0.9980007 1.0020008
1.0020008 0.99799967 0.9979991 1.0020007 0.99799985 0.997999 0.9979989 1.0020001
0.99799895 0.99799967 1.0020003 0.99800813 1.0020006 0.99800056 0.997999 0.99800366
1.001999 0.9979995 0.99799955 0.99799937 0.99800396 1.002001 0.9979993 0.9979999
1.0019994 0.9979995 0.9979993 0.998002 0.9979994 0.99799997 1.0020006 0.9980004
0.99800074 0.9980012 1.0019358 0.99801636 1.002 1.0020007 1.0020008 1.0020006
1.0020008 1.0020005 0.99799925 1.0019997 1.0019934 0.9980002 0.9980062 1.002
1.0020007 1.0020006 1.0019951 1.0019945 1.0020008 1.0019914 0.99799895 1.0020006
1.0020008 0.9979987 0.9979992 0.99799883 1.0020006 1.0020006 0.997999 0.99800307
0.997999 1.0020007 0.99799913 0.9980005 1.0020003 0.9979989 0.9980003 1.0020006
1.0020008 1.0020006 1.0020007 1.0019968 1.0020008 0.99799985 1.0020002 0.9979987
0.9980032 1.0020007 1.0020009 1.0020007 0.99799955 1.0020002 1.0019978 1.0020009
0.99800026 0.9979989 1.0020008 0.9980052 1.0020001 0.99799895 1.0020003 0.9979989
1.0020009 1.0020006 1.0020008 0.99801666 1.0020007 1.0019983 0.99799895 1.0020009
1.0020006 0.9979992 1.001879 1.0020005 0.99800247 0.99799937 1.0020008 0.9979998

net.2.base_weight f4 [64, 64]
00000000: 4255 16be ce23 35be c0e1 333d ddf3 50bd
00000010: cb60 02be d952 333c 0c8c f23c 83c3 c73d
00000020: c656 493d e0df 88bd edcd b3bd 1817 bcbb
00000030: 2ff8 5ebe 5d6f 2fbe f0c2 323e 40d1 053e
00000040: 996a 9cbd a810 34bd 0604 73bd a8a3 fabc
00000050: 291a 76bd a5fd b63d e380 933d 19a5 bfbc
00000060: 91fc 88bd da0a 19bd f7cb de3d 1fc3 813d
00000070: 335c 92bd d6c5 a6bd 2614 e8bd f942 413d
00000080: 513f 6e3d f74b dcbd b46d 973d d85b 28bd
00000090: 9ec6 d0bd 0409 bbbd cab0 703d 5116 0fbd
000000a0: 76d2 d7bb 80ab 863d 6980 693e 41d0 b8bc
000000b0: e9fc ac3d 97ff 0f3e 9056 c03c 9707 113e
000000c0: dbd1 13be 3245 d43d 4f7b 3abe 8b2a 043d
000000d0: 984c 63bd 8281 123e ee67 093c 6bdd 9a3d
000000e0: 1b2d c8bb 161c 8dbd 0206 c9bc de26 5abe
000000f0: 9b14 15be 6bba 12be c20f e3bd a851 79bd
00000100: 6f32 973d e536 413e bea5 ed3c 5ba2 0abd
00000110: 51e4 153d 101b dc3d 4217 9e3c 560b c6bd
00000120: b4e7 273d 81ec 503d 2f7d 803d b5ac 243d
00000130: 7c55 0e3c 193a 8e3d 851c 84bc 3bb7 ec3b
00000140: 429d 8f3d 06ab 6c3d a8f4 9cbd b8c1 e9bc
00000150: 448d 11be 06c1 e23d 5aa2 01be 8f10 b53d
00000160: 8767 ac3d 0b10 313d 888b d3bd 162c 56be
00000170: d68a bf3d ac50 b5bd 8f81 de3b 9114 523d
00000180: bcd1 35bd 00fb 24bb cc4b b13d 5074 1cbe
00000190: 128b adbd 22fe 0a3e f117 8a3d 90bb cb3c
000001a0: 5878 053d 041e 303d 7cb8 00be a667 563c
000001b0: 3b4e d9bd ab5a d13d 1f11 bd3d 7c76 493e
000001c0: 949b 30be 6d64 aebd 87b7 5abb bf3e 813d
000001d0: 52d0 3a3d c57a e2bc 4c02 28be 22db 5fbd
000001e0: c7cb 29be debe 5ebd 9062 5dbd e8f7 2dbd
000001f0: ddbf 4f3d 28a6 5cbd 2bfb 97bc feca 463d
00000200: aa7b dcbd 772c 02bd de91 703d 97bd 6fbb
00000210: ba22 fcbd b9c9 afbd 2e3e 04bd eea5 1ebd
00000220: fa32 bcbc 27b4 0a3d 3e02 8d3d 8157 47be
00000230: ae68 db3b dc33 4f3d fc4a f23b 0d20 863e
00000240: 8c1b 673e a50f 613d 8386 9dbc 3d8d a9bc
00000250: 5686 28bb a012 3fbe 26c5 aebc de06 983c
00000260: ec51 3b3d 70ec b83d 90ae e63d aa64 f23d
00000270: 3d62 15bc 36bd 243c 6a3f 403d bf28 8abe
00000280: 2957 1b3d e7fd 9ebd fe36 0a3e 7385 c53d
00000290: 0230 1bbe 4bc1 1f3e 4c56 56bd 5270 08bd
000002a0: 600e b8bd 516e babd e421 003d 247a a7bd
000002b0: 5328 e3bc d48d 0abc 807f 22be 241b d2bc
000002c0: 30d0 94bd 3455 153e 182c 17be baee a1bc
000002d0: 6d80 e63d a9f2 71bd 0032 46bd 33e0 d0bd
000002e0: e694 1d3e 37ce aabd 1923 6b3d 07cd dfbd
000002f0: 7316 3fbe 7042 ac3d 4b7f 1fbb d663 80bd
00000300: 32c8 23bd f8a6 59bd 3bed 82bd 9a66 68bd
00000310: 1df1 08be a666 2a3b 7ece b1bd 5485 193d
00000320: 74de bf3d a7ac 933d 01bb 813d 60c8 b43c
00000330: e8fb 6b3e 5ef9 a23d cf36 c53d 0ab1 8c3c
00000340: d060 94bd 8c1d 1f3c 17ec 9e3d 0aa7 853d
00000350: 1505 97bd ee84 88bc ef8e 153e fc3e 9ebd
00000360: 83ac 8a3e a140 babd 42b4 133e 7ec6 2dbd
00000370: 4603 143e e88d 5ebe 22b3 88bd 7340 ae3d
00000380: fa26 cabd a603 0a3d 71fb 103d 2f63 bebc
00000390: 4367 b93d 138c 0b3e 7711 25be 12ee 363e
000003a0: 838a 693e d5a4 073e ae0b 80bd 818a 113d
000003b0: 0a40 c5bc c18e 01be 944f 813d 3212 563e
000003c0: 8caf 0c3e fdc3 e3bc 1e48 6bbd b7e0 183e
000003d0: 7d9e 7dbd cef5 bfbc 4e53 6c3d 89d3 92bd
000003e0: 8fd3 473e 48b0 183d d240 473d 83e1 0fbd
000003f0: 4486 febc 2e73 9e3c 57b5 71bd 30f2 a6bd
-0.14680961 -0.1768944 0.043916464 -0.051013816 -0.12732236 0.010945045 0.029607795 0.09754088
0.04915502 -0.06683326 -0.087795116 -0.0057400577 -0.21774362 -0.17132325 0.17457175 0.13068104
-0.076375194 -0.043961197 -0.05933001 -0.030595616 -0.060083542 0.089350976 0.072023176 -0.023394154
-0.06688798 -0.037363864 0.10878747 0.063360445 -0.07146492 -0.08143203 -0.11331968 0.04718301
0.058165852 -0.10756677 0.07393971 -0.041103214 -0.10194133 -0.09132579 0.05876235 -0.034933392
-0.006586368 0.0657568 0.22802891 -0.02256024 0.08446676 0.14062344 0.023478776 0.14163052
-0.14435522 0.103647605 -0.18211101 0.032267135 -0.055492967 0.14307216 0.008386595 0.075617634
-0.0061088926 -0.068901226 -0.024538998 -0.21303889 -0.14558642 -0.14328925 -0.1108699 -0.06086889
0.07382666 0.18868597 0.029009696 -0.03384624 0.036594693 0.10747349 0.0192982 -0.09670131
0.040992454 0.051006798 0.06273877 0.04020377 0.008687373 0.06944675 -0.01612688 0.007223991
0.070124164 0.05778029 -0.07663852 -0.028534755 -0.14214045 0.110719725 -0.12659588 0.08841049
0.08418184 0.04322819 -0.10329348 -0.20915255 0.09352653 -0.088532776 0.006790347 0.051289145
-0.04438947 -0.0025174022 0.08657035 -0.15278745 -0.08473791 0.13573506 0.06742848 0.02486971
0.032585472 0.042997375 -0.12570375 0.013086235 -0.106106244 0.10222372 0.09231781 0.19674104
-0.17246848 -0.085152484 -0.003337355 0.06310796 0.045608826 -0.027646432 -0.16407126 -0.05465234
-0.16581641 -0.054381244 -0.054049075 -0.04247275 0.050720084 -0.053869396 -0.018552383 0.048533432
-0.107657745 -0.031780686 0.05873286 -0.003658151 -0.12311311 -0.085833974 -0.03228586 -0.03873246
-0.022973526 0.033863213 0.06885193 -0.19466974 0.0066958284 0.050586566 0.0073941927 0.26196328
0.22569102 0.05494656 -0.01922918 -0.02069723 -0.0025714836 -0.18659449 -0.021334242 0.018557962
0.045732424 0.09029472 0.11263764 0.118356064 -0.00911766 0.010054877 0.046935476 -0.26984212
0.03792492 -0.07763272 0.1349754 0.09644594 -0.15155032 0.15601079 -0.052328393 -0.033310242
-0.08987117 -0.091030724 0.03128232 -0.08177593 -0.027729189 -0.008456666 -0.1586895 -0.025647707
-0.07266271 0.14583284 -0.14762914 -0.019767154 0.11254964 -0.05906931 -0.048387527 -0.101990126
0.15388831 -0.083401136 0.05740652 -0.10927778 -0.18660907 0.084111094 -0.0024337347 -0.06269042
-0.039985843 -0.05313775 -0.06392904 -0.056738473 -0.13373227 0.0026001125 -0.086819634 0.037480667
0.093686014 0.07210665 0.06334496 0.022068202 0.23045313 0.07957719 0.096295945 0.017174263
-0.07245028 0.009711634 0.07759874 0.06526001 -0.07374016 -0.016664948 0.14605306 -0.07726857
0.2708474 -0.09094358 0.14424232 -0.042425625 0.14454374 -0.2173382 -0.06674792 0.085083865
-0.098707154 0.033694886 0.035396043 -0.023240654 0.09052899 0.13627653 -0.16119944 0.17864254
0.22806744 0.13246472 -0.06252228 0.03553248 -0.024078388 -0.12652113 0.063140064 0.20905378
0.13738841 -0.027803415 -0.057441823 0.14929472 -0.061918724 -0.023432638 0.057696633 -0.071692534
0.19514297 0.03727749 0.0486458 -0.035127174 -0.031069882 0.019342031 -0.05901083 -0.08151662

net.2.grid_points f4 [5]
00000000: 0000 00c0 0000 80bf 0000 0000 0000 803f
00000010: 0000 0040
-2.0 -1.0 0.0 1.0 2.0

net.3.coeff f4 [1, 64, 5]
00000000: ef8c 1c3d 7c44 4b3d 6638 103e be7c 45bd
00000010: 27b6 e73d f35c 7fbd f7b8 4abd 3cd9 5ebd
00000020: 4bb6 c73d fe07 013e 7919 a53e cb8f 9dbd
00000030: 2070 0ebe 844d 083b 23e5 623d 4e8a cdbc
00000040: 5194 debd e38a 183e ae44 adbd 281e 773d
00000050: 1ca1 623c f0d6 04bd 126c 56bb f884 31bc
00000060: 6bc4 d2bd 0068 80bd 53ec 12be 7343 ba3d
00000070: 90e3 ba3c 72a6 333d cf4a 503e 9cc5 ebbd
00000080: b77c 4fbc 7f3c 193e acad f03d a5ce 3d3e
00000090: 49ef 543d d3b8 f3bd 4298 f1bc f9bd 22bd
000000a0: 7453 373c 8878 50bd d636 263d dafd aebc
000000b0: f7d6 d3bd 0905 16be 400a 8dbd 7a98 f6bc
000000c0: 8140 983a 24a0 e2bc 5c1d debc 6976 de3d
000000d0: 4450 a4bd c1f1 28bd 2fe6 c2bc cdfa 063e
000000e0: 56cb cebd f6a4 fbbc 6f47 a3bc 0cfd b43d
000000f0: 59ee 3d3c fddf 2f3e cca8 9cbd 8d5e 793d
00000100: ee15 803d 550e 9cb8 3617 b63d 21be 42bd
00000110: 0f5e 2b3d 034b 2e3c 0f22 59be 4b45 7b3d
00000120: e6fb 44ba 272c 743d 39a6 b1bc bb14 863d
00000130: 97f9 303c d7f5 5c3e 9deb 053e 8318 043e
00000140: 7ef4 67bd 967e f53d c191 0bbe 864f 163e
00000150: 49ac 063d c78e 173e 2363 643d 855c d0bd
00000160: bbcd f23c e9bd b5bd 5d5c 1a3c f8ca 593d
00000170: 72d3 1a3d 3f57 75bd b724 a3bc 2143 0d3e
00000180: 788b 28bc 08dc 75bd b0a0 ccbd 9420 343c
00000190: 4df8 a63d 4172 2fbe 9c5f 113e a72b 253e
000001a0: af42 6d3c 1137 903c b926 9c3d d31f 5fbd
000001b0: 38bd 40be 9480 763d 5fce e43c 81a7 603d
000001c0: a732 bebc d519 aa3b ed8a 123e dc38 9abd
000001d0: 2ef6 b7bd 8de5 a63d 9b17 213d 71e1 dc3b
000001e0: 1dbc bc3d 821c 023d 6537 003d ca02 2cbb
000001f0: ee1f 5ebe 0beb 253d bb71 8fbd 27eb d63d
00000200: 349b cf3d 1de6 10bd 868f 513e 2f2a d03d
00000210: 24d4 f1bc f447 8dbc 01a5 2bbd f911 0fbd
00000220: d337 0ebd 0db1 2dbd 7ea4 86bd 926a 88be
00000230: 2e3c 763d 0514 143d 92cf debb 5eb0 d93b
00000240: d825 1bbe 2fc1 013d 6ffa 923e 881d db3c
00000250: 26dc 46bc e96e 213e 78fc 403c 0c6d 583e
00000260: ae2a e73d 0d43 91bd 7cdb 403d 9d21 19be
00000270: 8d34 283d 6cee c7bc c20f dabd 91f3 223d
00000280: c724 293e 6b34 b8bd e82f 0fbd ff1e 443e
00000290: b4fd b63d 81bb 1e3d 91de 1ebe fed9 033d
000002a0: 4968 b53c 9927 59bd 4394 e5bc 64c8 0e3e
000002b0: 800e ca3d 2d1e 1fbe 3672 df3d f23d 953c
000002c0: 79b0 133e 5efa bb3d fa0e 743d a39a dcbd
000002d0: 9900 513d 36fe 78bd 5e80 4d3d f777 92bd
000002e0: e30f c63c 9774 943c e37c 703d e4e7 143c
000002f0: 0ab1 10bc 5864 50bd 5366 26be d30a eabc
00000300: ec5e 9dbd 3ff6 fabc e7ea ddbd 4470 ca3d
00000310: 303c 07be 3192 c93d 940d f5bd 807e 2a3d
00000320: d97a f8bd 4744 8bbd 1539 9a3c 2a2e 043d
00000330: 7485 afbc 8abd b7bd b2cd af3d 6e30 90bc
00000340: 6054 80bc 61bc 06bd e30f b1bd 8a8f 043e
00000350: 65ba 40bc 8d48 12be d32d fabd 7f0e ec3c
00000360: 25e6 30bd c62d 00bd 2aca 0b3e 9164 07bd
00000370: 4bf4 76bd bd0c 9d3d 9b70 56bc 747b 103d
00000380: 7a5a 9aba 3ab9 3abc 24ff f63d a5aa 28bd
00000390: c655 533d 8d36 abbd 9529 183c 205b 9d3d
000003a0: ef45 8cbc 0b80 eebd 69bb 283d 4e01 9dbe
000003b0: d39d 29be fd58 63bd 2c3c e53d c3b7 433e
000003c0: 6522 073e fc02 143e 2523 fbbd 8092 1ebe
000003d0: 8ed5 493d 5d61 0c3d e336 d43d 26e6 b33b
000003e0: 234a 9c3d 346f 5f3e 7fa0 03be 2fd6 75bc
000003f0: 614a cbbd a5ef 423d 7b96 f5bc fee4 3a3e
0.038220342 0.04962586 0.14084014 -0.048214667 0.1131404 -0.062344503 -0.049492802 -0.05440639
0.097515665 0.12600705 0.32245997 -0.07693442 -0.1390996 0.0020798156 0.055394303 -0.025090363
-0.10868133 0.14896731 -0.08460365 0.060331494 0.013832357 -0.032431543 -0.0032718224 -0.010834925
-0.1029137 -0.062698364 -0.14347963 0.09094896 0.022813588 0.043859906 0.20341037 -0.115123
-0.012664012 0.14964484 0.11751875 0.1853586 0.051986013 -0.11900487 -0.029491547 -0.039731953
0.01118933 -0.050896198 0.04057964 -0.02136128 -0.10343736 -0.14650358 -0.06886721 -0.030102003
0.0011615903 -0.027664252 -0.027113609 0.10862429 -0.08023122 -0.04124618 -0.0237914 0.1318161
-0.10097377 -0.030718308 -0.019931523 0.08837327 0.011592471 0.17175288 -0.07649383 0.060881186
0.06254183 -7.441329e-05 0.08891146 -0.047544602 0.04183775 0.010638001 -0.21204399 0.06134538
-0.00075143424 0.05961242 -0.021685706 0.06546923 0.010801694 0.21578155 0.1307816 0.12899975
-0.05662965 0.11987035 -0.1362982 0.14678773 0.032879148 0.14800559 0.055758607 -0.10173897
0.029639116 -0.08874113 0.009421435 0.05317208 0.037799306 -0.059897657 -0.019914968 0.13795139
-0.010287158 -0.06002429 -0.09991586 0.010994095 0.08152828 -0.17133428 0.14196628 0.16129933
0.014481231 0.017604383 0.07624573 -0.05447371 -0.18822181 0.060181215 0.027930437 0.054847244
-0.023217512 0.0051910677 0.14310808 -0.07530376 -0.08982502 0.08149252 0.039329153 0.006740742
0.09215567 0.03176547 0.03130283 -0.002624678 -0.21691868 0.040507358 -0.07004114 0.104940705
0.101370245 -0.035375703 0.20464906 0.10164296 -0.029520102 -0.017246224 -0.041905407 -0.03492925
-0.034721207 -0.042405177 -0.06574343 -0.26643807 0.060115986 0.036151905 -0.0067996467 0.006643339
-0.15151155 0.031678375 0.2870669 0.02674748 -0.012137448 0.15764965 0.011778943 0.21135348
0.112874374 -0.07092867 0.047084317 -0.14954229 0.04106574 -0.02440568 -0.10647537 0.039783064
0.16517936 -0.08994373 -0.034957796 0.19152449 0.08935109 0.038753036 -0.1551459 0.032190315
0.022144454 -0.05301628 -0.028024798 0.1394363 0.09866047 -0.15538855 0.10910456 0.018218014
0.14422788 0.09178613 0.059584595 -0.10771682 0.05102596 -0.06078931 0.05017125 -0.07151788
0.024177497 0.018122 0.05871285 0.00908849 -0.008831272 -0.050876945 -0.16249971 -0.028569615
-0.076841205 -0.030634997 -0.1083582 0.09884694 -0.13206553 0.09842337 -0.119654804 0.041624546
-0.12132806 -0.06800132 0.018826047 0.032270588 -0.02142594 -0.089716986 0.08584155 -0.017601218
-0.015665233 -0.032894496 -0.08645608 0.12945381 -0.01176319 -0.14285488 -0.122157715 0.028815506
-0.043188233 -0.031293653 0.13651338 -0.033054892 -0.06029157 0.07668445 -0.013088371 0.035273984
-0.0011776232 -0.0113967005 0.12060383 -0.041178364 0.05159547 -0.08360014 0.009287258 0.07683396
-0.01712319 -0.11645516 0.041194353 -0.30665058 -0.16564111 -0.055504788 0.111931175 0.19113068
0.13196714 0.14454263 -0.12262563 -0.15485573 0.049275927 0.03427254 0.10362031 0.0054900823
0.07631328 0.21819764 -0.12854193 -0.015004679 -0.09926296 0.047591824 -0.029978981 0.18251416

net.3.scale f4 [1, 64]
00000000: 047d 7f3f 9041 803f 4241 803f 5640 803f
00000010: 7841 803f 0c7d 7f3f bb80 7f3f 8c41 803f
00000020: af3f 803f 9041 803f 8441 803f 9241 803f
00000030: 3141 803f 7c90 7f3f 6d7d 7f3f e17c 7f3f
00000040: 5341 803f 7941 803f f57c 7f3f 5b41 803f
00000050: 7180 7f3f 6941 803f 9a86 7f3f 007d 7f3f
00000060: e97c 7f3f 6088 7f3f f17e 7f3f 8941 803f
00000070: 5581 7f3f 337d 7f3f 807d 7f3f 2141 803f
00000080: 1540 803f 007d 7f3f eb7c 7f3f 087d 7f3f
00000090: e07c 7f3f 1d41 803f 8e41 803f 0941 803f
000000a0: ea7c 7f3f 9241 803f 827e 7f3f 287d 7f3f
000000b0: d47f 7f3f d27d 7f3f 0e7d 7f3f 8b41 803f
000000c0: 7341 803f ff7c 7f3f 8741 803f 1241 803f
000000d0: a79b 7f3f 307d 7f3f 297d 7f3f 6041 803f
000000e0: 7541 803f ee3f 803f 187d 7f3f e97c 7f3f
000000f0: 9241 803f 7641 803f b53f 803f 537d 7f3f
0.99800134 1.0020008 1.0019915 1.0019634 1.001998 0.9980018 0.998058 1.0020003
1.0019435 1.0020008 1.0019994 1.002001 1.0019895 0.9982984 0.9980076 0.99799925
1.0019935 1.0019981 0.99800044 1.0019945 0.9980536 1.0019962 0.9981476 0.9980011
0.9979997 0.99817467 0.9980307 1.002 0.9980672 0.99800414 0.9980087 1.0019876
1.0019556 0.9980011 0.99799985 0.9980016 0.9979992 1.0019871 1.0020006 1.0019847
0.9979998 1.002001 0.9980241 0.9980035 0.99804425 0.9980136 0.99800193 1.0020002
1.0019974 0.99800104 1.0019997 1.0019858 0.9984688 0.99800396 0.99800354 1.0019951
1.0019976 1.001951 0.9980025 0.9979997 1.002001 1.0019977 1.0019442 0.99800605

net.3.base_weight f4 [1, 64]
00000000: 6b78 e8bc 4413 b6bd c1f8 9bbc 197a 44be
00000010: 2cb0 3a3d eaed 163d f2d2 95bd 4e22 553d
00000020: c216 ec3d 22c3 2d3b c2e0 03be ee96 a2bc
00000030: 64ea a23d 8644 b73d f41b a63d eb3f dcbd
00000040: 2117 623d 7708 5a3d 5fc8 20be be06 49bd
00000050: ea43 083e 311a 1a3e 8846 413e 2001 3fbd
00000060: d404 043e 29e1 e13d 8183 7dbd 635e d7bc
00000070: 10c9 163d 5259 313d b428 7c3d 03fb 0a3e
00000080: 1ea4 dd3c 15a9 9c3b 2fe7 ec3c e4b7 b9bd
00000090: e65f 0dbe 4e89 1bbd c137 f0bd eaa8 b43d
000000a0: 7be6 16be e867 acbd c1df 983d 4dcc d6bc
000000b0: e59d 9a3b b197 643c dd32 9fbb cbc9 a2bd
000000c0: 61eb 1b3e ad35 22be 2247 14be d0d3 fabc
000000d0: 5adc 833c 4fef 823d bf14 203c 1348 513e
000000e0: 3707 913d c182 163d 941c 0ebd 2d4b d93c
000000f0: 4f0c c2bd 450a 683e 42fb 89bd 94a4 e33d
-0.028377732 -0.088903934 -0.019039514 -0.19187202 0.045578167 0.036847986 -0.07315625 0.05203467
0.11527778 0.0026514013 -0.12878707 -0.01984736 0.07954863 0.08948617 0.081108004 -0.10754379
0.05519784 0.05323073 -0.15701436 -0.049078695 0.13307157 0.15049054 0.18874562 -0.046631932
0.12892467 0.11029274 -0.06189299 -0.026290124 0.036812842 0.043298073 0.061562255 0.13572316
0.027055796 0.0047808983 0.02891883 -0.090682775 -0.13806114 -0.03797274 -0.11729384 0.0882128
-0.14736359 -0.08418256 0.07464553 -0.026220465 0.0047185295 0.013952182 -0.0048583583 -0.07948645
0.15226509 -0.15840788 -0.1448026 -0.030618578 0.016096283 0.06393301 0.009770571 0.2043765
0.07081454 0.03674579 -0.034695223 0.026525104 -0.09475004 0.22660168 -0.06737377 0.11115375

net.3.grid_points f4 [5]
00000000: 0000 00c0 0000 80bf 0000 0000 0000 803f
00000010: 0000 0040
-2.0 -1.0 0.0 1.0 2.0
