data/trained_models/base_mu2_b_snn.pth (torch, 118778 bytes, 5 tensors)

fc1.weight f4 [64, 374]
000000 f6 2b 0c bd 4a 71 3f bd 35 6d 26 bd d9 36 fa 3c
       -0.034221612 -0.0467389 -0.04063149 0.030543732
000010 ac c0 51 3d 6d 99 69 3a 75 c1 05 bd da 67 b5 bc
       0.051209137 0.0008911107 -0.032655198 -0.022144247
000020 71 27 35 3d 73 2c 28 3c bf 9b 7b 3c 51 27 a1 3c
       0.044227067 0.010264504 0.015356957 0.019672068
000030 83 2c 10 3d 74 fd ad bc 7e ad 11 bd bb ff ac bc
       0.0351987 -0.02123902 -0.035565846 -0.021118036
000040 07 93 20 bd 02 f3 da bc bb 47 b2 bc 7e 5b cd 3c
       -0.039202716 -0.026727203 -0.02176272 0.025068041
000050 77 1b a7 bb b9 b9 50 3d f5 65 d9 bc 1c d6 b9 bc
       -0.0050997096 0.05095837 -0.026537875 -0.022685103
000060 c4 5c 95 bc 5f 37 52 3d 21 25 0f bd b4 43 0d bd
       -0.01823271 0.051322337 -0.03494752 -0.034488395
000070 4a 0a 1a bc 0a 0a fc 3c 8f fe f4 bc 1c 6d b1 3c
       -0.009401867 0.030766506 -0.02990654 0.021658473
000080 fc 86 d8 3c 6d 19 26 bd 36 18 18 bd 90 7f 95 bb
       0.026431553 -0.04055159 -0.037132464 -0.004562326
000090 e3 e3 cc bc 9b 50 2f bd 5a c5 a6 bc 38 78 2d 3c
       -0.025011009 -0.04280148 -0.020357776 0.010587744
0000a0 66 d6 3f 3d 39 8b 2d 3d 9a 0c 7e bc c7 1e 0d bd
       0.046835326 0.0423691 -0.015505934 -0.03445318
0000b0 eb 44 95 3c 6a 0f ca 3c cd 31 4e 3d 1b 7f b5 bc
       0.01822134 0.024665553 0.050340462 -0.022155335
0000c0 37 57 2e bd 17 7b 11 bd a8 4a be bc 52 b5 ce bc
       -0.042563643 -0.03551778 -0.023228958 -0.025232945
0000d0 7b 05 b3 3b de 03 cd 3c 61 46 f4 3c e4 fe e7 3c
       0.0054633 0.025026258 0.029818716 0.028319784
0000e0 9b 6d 74 3c 64 ae 02 3d d5 89 30 bd 10 92 3b bd
       0.01491871 0.031904593 -0.043100197 -0.045793593
0000f0 f8 42 85 3c 90 03 87 3c a2 ef 47 3d 21 19 30 3d
       0.016267285 0.01648119 0.048812516 0.042992715
000100 31 f2 01 bd 0e 70 04 bd 76 a0 0b 3d b8 0c 19 3d
       -0.031725112 -0.032333426 0.034088574 0.037365645
000110 57 e7 b7 bc b7 57 0d bd e8 e3 90 3c e5 12 90 3c
       -0.022449179 -0.03450748 0.0176868 0.017587135
000120 fc f1 f3 bc 6e 59 e8 3c 2e 02 86 3c e2 a8 85 bb
       -0.029778473 0.028362956 0.016358461 -0.0040789703
000130 6f 47 0b bd 07 17 df bc 53 fd 48 bd c8 a4 cc bc
       -0.03400367 -0.02723266 -0.049069714 -0.024980918
000140 36 1b 22 3d eb a0 6f bc e0 05 a9 3c 20 d7 8f bc
       0.03957673 -0.014625768 0.020632684 -0.017558634
000150 0e b8 87 bb dc 4c a9 3c f1 c9 26 bd 29 52 10 3d
       -0.004141814 0.020666532 -0.04071993 0.035234604
000160 0b 43 c4 bc 80 7c 83 bc 62 f4 47 bd 2c 16 ff 3b
       -0.02395775 -0.016050577 -0.048817046 0.0077846255
000170 ae f8 47 bd 94 90 ce 3b 54 5d be 3c be f5 0a bd
       -0.048821144 0.006303856 0.023237862 -0.033925764
000180 d4 9b a2 3c 7e bb e4 3c 39 7f e2 bc 37 2f bf bb
       0.019849695 0.027921434 -0.027648555 -0.005834486
000190 8b 44 f8 3c 1e 70 f5 3c 9f 53 b9 3a 98 2d b3 3c
       0.030306121 0.029960688 0.0014139301 0.021872327
0001a0 1b 8d df bb 1a 60 40 3d e7 94 b5 3c 4c c5 63 ba
       -0.006822241 0.04696665 0.022165729 -0.00086887623
0001b0 a7 1f 3b 3d 14 76 87 3c e2 6b 12 bb ea 92 c8 3c
       0.045684483 0.016535796 -0.0022342135 0.024484117
0001c0 0f f6 46 bd c8 76 7d bc 14 82 89 bc 6c 6b ba bc
       -0.048574504 -0.015470214 -0.016785659 -0.0227563
0001d0 3c d5 51 bb 59 c4 9f bc 2f f5 fa bc 01 bf 1b 3d
       -0.0032017967 -0.019502806 -0.03063449 0.038023952
0001e0 51 1b c7 bc db 00 21 bd 2b f2 3b bd 18 7e 79 3c
       -0.024305018 -0.039307456 -0.045885246 0.015227817
0001f0 23 98 d4 bc a4 f6 c2 bb f8 43 a7 bc 6d 72 42 3d
       -0.02595145 -0.005949812 -0.020418152 0.047472406
000200 de 0a b7 3c 6f 15 3a 3d f3 ff 4a bd 6b ca fb ba
       0.022344049 0.045430597 -0.0495605 -0.0019210106
000210 8c a7 45 bd 73 6e 38 bd 92 b0 ef 3c 08 45 a8 bc
       -0.04825549 -0.045027208 0.029259 -0.02054073
000220 65 b7 e6 bc 4a 9d cf 3c 36 3c 27 bd 56 51 a4 3b
       -0.028163621 0.025343556 -0.040828906 0.005014579
000230 51 6c 01 3d 6c 1a 16 3d 7f 76 38 bd 98 78 4b 3c
       0.03159744 0.03664629 -0.04503488 0.0124188885
000240 e9 0c fd 3c 80 67 a2 bb 18 6c 4b 3c 48 59 29 3d
       0.030889945 -0.004956186 0.012415908 0.04134491
000250 6b c2 0f bd 7c 58 61 3b 78 bc d6 bc d4 89 89 bc
       -0.03509752 0.0034385016 -0.026212916 -0.016789354
000260 e4 9a dd bc 74 38 9a bc 59 1e 3b bd fc 90 d3 b9
       -0.027051397 -0.018825747 -0.04568324 -0.00040353078
000270 80 50 06 bd 06 9f f8 bc e4 88 62 bc 22 a8 3c bd
       -0.032791615 -0.030349266 -0.013826583 -0.04605878
000280 3d 23 0f 3d b6 82 a0 bc 84 2d 4a 3d f6 6a 2c bc
       0.034945715 -0.019593578 0.049359813 -0.010523548
000290 7c 90 3a 3c d4 34 16 3d 32 43 15 bd fe 34 1b bb
       0.011386987 0.036671475 -0.036441036 -0.002368271
0002a0 ad 96 07 3d 04 50 b9 3c 1e 8b e3 3c 7e ff 04 ba
       0.03310268 0.022621162 0.027776297 -0.00050734717
0002b0 d9 8e b0 bc 00 88 8f bc e4 e7 f1 3b 3e 0b bc 3a
       -0.02155249 -0.017520905 0.00738238 0.0014346612
0002c0 dc e7 8c bc 3f d2 25 bd a7 ea c2 bc 6c 57 09 bd
       -0.017200403 -0.04048371 -0.023793532 -0.033530638
0002d0 7e 32 89 ba 9e a4 16 bb 58 c2 6d 3c 4f 5a 17 bc
       -0.0010467318 -0.0022986303 0.014511667 -0.00923784
0002e0 fc ff 40 3a 2e 18 d3 3c f2 89 ff 3c 00 8f 05 bd
       0.00073623634 0.025768366 0.031193707 -0.03260708
0002f0 cf 6f 22 bd 78 97 6e 3c 8a af 0e bc 28 97 49 3c
       -0.03965741 0.01456248 -0.008708844 0.012304105
000300 d8 3a 66 3c 2a b5 12 bd 0e 0d da 3c ea 69 29 bc
       0.014052115 -0.035817303 0.026617553 -0.010340193
000310 e6 8b 89 3b ba 32 1a bc 7a 63 41 bd 93 9a 01 3d
       0.0041975854 -0.009411508 -0.04721401 0.031641554
000320 a0 6f 2a bc 5b f0 74 3c d5 81 b4 bc 20 69 40 bb
       -0.01040259 0.014949883 -0.022034565 -0.0029359534
000330 e6 c7 03 ba 67 88 8a 3c c8 de 09 3d d3 e9 f0 bb
       -0.00050270406 0.016910745 0.033659726 -0.007352093
000340 ea 32 af 3c 91 a6 c0 3c 85 3c ac bc e7 af 37 3d
       0.021386582 0.023516925 -0.021024952 0.044845488
000350 bf 23 45 3d 5d 74 36 bc ec c3 ce bc e5 97 34 bc
       0.048129793 -0.011136142 -0.025239907 -0.011022543
000360 74 a7 8a 3c 6b 49 b4 bc 60 2c d6 3c 8f 4c c4 3c
       0.016925551 -0.022007665 0.026144207 0.023962287
000370 1a c5 2c bd 3a 8b 37 bd 3b dd 49 3c 3e cd 2d bd
       -0.04218016 -0.04481051 0.012320812 -0.042432062
000380 10 5d 64 bc 07 24 4e bd 2e 3c 29 bb ec da d7 bb
       -0.013938203 -0.050327327 -0.0025823223 -0.006587377
000390 63 78 3c bd fc 4c c6 39 54 ca a8 bc 93 d4 a6 bc
       -0.046013247 0.0003782286 -0.02060429 -0.020365035
0003a0 a1 eb 00 3d ef 95 c0 bc 4f 03 53 3d 94 9d 5f ba
       0.031474713 -0.023508994 0.051516827 -0.0008530256
0003b0 ce a5 4a 3d 89 46 01 3d bf 90 16 3d c9 15 08 3d
       0.04947453 0.03156141 0.036759134 0.0332239
0003c0 bf 52 4d bd c2 b3 36 3d 55 bf 1c bd 6b c1 4b bc
       -0.05012774 0.044605024 -0.038268406 -0.012436251
0003d0 d0 c7 16 bd fc 0f 00 3d bb 74 33 3d 6e 1b 0b 3b
       -0.03681165 0.031265244 0.043812495 0.0021226066
0003e0 6e 97 50 bd 3d 9a 3a 3d c6 31 9b 3c 65 54 2c 3d
       -0.050925665 0.04555725 0.018944632 0.042072672
0003f0 cc ef 4c bd 92 fd 0a 3c d8 03 90 3c 84 9d 95 3c
       -0.050033376 0.008483307 0.017579958 0.018263586

fc1.bias f4 [64]
000000 00 cf 47 3c 0c a9 42 bd b9 4b 1c 3c 3d 55 0e bc
       0.012195349 -0.047524497 0.009539538 -0.008687315
000010 53 8f 41 3d 8d db a1 bc 6f e1 0c bb c7 bc 3f 3d
       0.047255825 -0.01975801 -0.0021496674 0.04681089
000020 05 93 86 3c c7 6c b8 bb f1 2a 61 bc 2f f9 14 3b
       0.016427526 -0.0056282016 -0.013743148 0.0022731533
000030 ee 36 b9 3b f6 bc d8 3a 08 98 3f bd 12 0f c4 bc
       0.0056523 0.0016535807 -0.046775848 -0.023932967
000040 87 00 09 bc 09 4f 2b bb 53 0a 10 bd 9f f7 0b bd
       -0.008361942 -0.0026139638 -0.035166096 -0.034171697
000050 3a 1b 04 bd 04 38 d3 bc d9 be 19 bd 49 8b 36 3d
       -0.032252528 -0.025783546 -0.037535522 0.044566426
000060 44 d6 27 3d 68 f8 1a 3b 0a 2e df bc 32 be 45 bc
       0.040975824 0.0023646597 -0.027243633 -0.012069272
000070 d9 63 30 bd de 7c 5b bc 3c 6d 47 3d 6f e2 3e 3d
       -0.043063972 -0.01339647 0.04868816 0.046602663
000080 42 01 29 3d e6 68 c7 3c 2d 92 0c 3d 3c 22 d0 bc
       0.041260965 0.024342012 0.03431909 -0.02540695
000090 d2 08 ff 3c cc 20 0a 3d 6e 5e 88 3c 59 28 41 bd
       0.031132136 0.033722684 0.01664659 -0.04715762
0000a0 05 27 56 bd 2c c2 da bc 8c 50 56 3c 35 af 01 bd
       -0.052283306 -0.026703916 0.013080727 -0.03166123
0000b0 a3 b7 48 bd 34 f2 0c 3d 64 de 4d 3c 5a 81 13 bd
       -0.049003255 0.03441067 0.012565229 -0.03601203
0000c0 36 be 86 bc bb a0 68 bc 68 5a 44 bd bd 0c fd 3b
       -0.016448122 -0.014198477 -0.04793778 0.007722466
0000d0 21 22 b1 3c 65 44 6b bb c5 88 04 bd ab c0 18 3c
       0.02162272 -0.003589892 -0.032356996 0.009323279
0000e0 67 2f 5e 3b 03 50 fd 3c 96 63 55 3c 81 62 a5 3c
       0.0033902766 0.030921942 0.013024231 0.020188572
0000f0 3d 71 60 bb b1 ac a3 bb 1c 43 50 3c 72 46 35 3d
       -0.0034247183 -0.0049949517 0.012711313 0.044256635

fc2.weight f4 [64, 64]
000000 46 f1 86 3d aa 5d 29 bd 2b 13 ec bc d6 4a 98 3c
       0.06588988 -0.04134909 -0.028817734 0.018590372
000010 8a ec bf 3d 45 df 8f 3d 82 47 f4 3d d0 42 ab 3d
       0.09371288 0.07025007 0.119277015 0.08362353
000020 68 f5 fa 3d 61 5c 33 bd 3c ea 75 bb 5d 15 ad bc
       0.12253839 -0.04378927 -0.0037523648 -0.02112835
000030 cf 10 d0 3c 48 a2 59 bd 2a 8a b6 bd 12 62 a1 3d
       0.02539864 -0.05313328 -0.089130715 0.078800336
000040 14 98 91 3d e3 9f 9d bd 8e 2b 85 bd 96 12 39 bd
       0.07109085 -0.076965116 -0.06502448 -0.04518374
000050 97 a8 99 3d 7b 9c db 3c 82 63 81 3d 4c 7a 84 bd
       0.07502859 0.026808014 0.06317808 -0.06468639
000060 ca 2e 9f 3d 71 8e 69 3d ce 74 c3 bd 9e 99 a9 3b
       0.07772596 0.05702061 -0.09543763 0.0051757833
000070 4b 53 76 bc f2 f1 ca 3d 92 5e 98 3d f8 df 88 bd
       -0.015034507 0.09909429 0.07439913 -0.06683344
000080 ca 30 be bd c8 2d e2 3d 5e 8a e1 3d ae 66 38 bd
       -0.092866495 0.11043888 0.110127196 -0.045019798
000090 e4 62 48 3d 3a cd 5c 3d 20 2c 05 3d f2 e7 2a bd
       0.048922434 0.053906657 0.032512784 -0.041725107
0000a0 05 3e 39 bd 7d 07 21 bd 97 48 af bc 68 6e e3 3d
       -0.045225162 -0.039313782 -0.021396918 0.11105043
0000b0 21 97 fa 3d 47 26 86 bd 5e df 3a bc 56 5e 8b bd
       0.12235857 -0.065502696 -0.011405794 -0.068051025
0000c0 6e fa be bd 8a 90 ec bd 8e b1 86 bc 3e 2d 86 bb
       -0.093251094 -0.11551006 -0.016442087 -0.0040947488
0000d0 94 fd 7b bd 4e 46 8a 3c 42 49 d1 3d d0 36 ff bc
       -0.061521128 0.016879227 0.10219051 -0.031154066
0000e0 99 20 85 3d 5e dc a2 3c 6e ec 0a 3d 99 24 89 bd
       0.06500358 0.01988047 0.033916883 -0.066964336
0000f0 ca 7a 17 bd 84 69 cd bc d1 8e c8 bc 98 c3 c0 3d
       -0.036982335 -0.025074728 -0.024482163 0.094123065
000100 9e 0a eb bd dc b2 82 bd 5a 54 d9 bc 94 1b b6 3d
       -0.114766344 -0.06381771 -0.02652948 0.08891979
000110 94 bf d5 bc 3a d7 12 3c 5e 53 0a bd be df 14 bd
       -0.026092328 0.008962447 -0.03377091 -0.03634619
000120 62 16 ba bd 25 6c 08 3d ea 85 f8 bd 89 d7 37 bd
       -0.090863004 0.03330626 -0.12134917 -0.044883285
000130 30 13 6a bd 65 71 c4 3d 8a de e4 3d 6c fd c8 bd
       -0.057147205 0.09591941 0.111752585 -0.098139614
000140 84 39 d4 bd b2 31 2f bd 3c 61 6c bc cc 8c ad bd
       -0.10362533 -0.042772003 -0.014427479 -0.084741205
000150 3e 7e 9e bc b1 fc 43 3d 38 3e 4b bd da 4d d6 3d
       -0.019347306 0.047848407 -0.049619883 0.10464068
000160 a3 6c 39 bd 10 ea ae 3c 6e 6d a0 bd 78 1d 75 bd
       -0.04526962 0.021351844 -0.07833372 -0.059842557
000170 c8 7d 6e 3c 22 57 26 bd c2 8d 21 3d 27 b0 ed 3d
       0.014556356 -0.04061044 0.03944183 0.11605864
000180 7b 5c e5 3d 04 3c c4 3d b0 65 fc 3d ae c7 dc 3d
       0.1119928 0.095817596 0.12324083 0.107802734
000190 d0 b1 fc bd f8 2b a0 bd 12 c5 3c bd 7a 3d 0d 3d
       -0.123386025 -0.078208864 -0.04608638 0.034482457
0001a0 36 54 dd bd 8a 10 c8 bd 61 6c ec 3c 36 24 3c 3d
       -0.108070776 -0.097687796 0.028860273 0.04593297
0001b0 3a b1 39 3d 30 93 c6 bd 4a 2a 3e bd 6f 2b af 3d
       0.045335032 -0.096960425 -0.04642705 0.08553206
0001c0 f6 91 3a 3d 30 6f fa 3d 82 a6 24 3d fe 4a 26 3b
       0.045549355 0.122282386 0.040197857 0.0025374289
0001d0 f8 af a1 bc dc 46 6c 3d 1c 2b f6 3d 38 ce 95 3d
       -0.019737229 0.057684764 0.12019941 0.07314724
0001e0 8a 20 5a 3d d0 26 b4 bd cc e4 a1 3c 81 c6 7e 3b
       0.053253688 -0.087964654 0.01976242 0.0038875642
0001f0 ce 9a fb bd cc dd 51 3d 0a 20 fe bd 8c 49 58 3d
       -0.12285386 0.051236913 -0.12408455 0.052804515
000200 6c de 5e 3c 36 c1 bc 3c 6d dc bc 3d ca db 22 3d
       0.013602834 0.023041349 0.092217304 0.03976039
000210 ba bd 99 3d 07 fe 64 bd be 90 06 bc c8 cd 84 bd
       0.075068906 -0.05590632 -0.00821322 -0.06484562
000220 b0 63 b1 bd 69 1f 25 bd d8 86 ac 3d 92 59 16 bc
       -0.08661592 -0.04031316 0.08424157 -0.009176629
000230 f1 f5 80 bd 17 61 92 3d ec f7 f6 bc 58 dc e2 3d
       -0.062969096 0.07147425 -0.030147515 0.110771835
000240 b2 fb ae 3d 53 7e 6c bd 24 fd ee bc ec 5c e2 bd
       0.08544101 -0.05773766 -0.029173441 -0.1105288
000250 c5 de 50 3d 61 4c 0a 3d 22 93 ae 3d c0 bf c6 bd
       0.0509937 0.033764247 0.08524157 -0.09704542
000260 ee 89 08 3d a9 c0 17 bd fc a4 53 3c fe 09 c9 3d
       0.033334665 -0.03704897 0.012917753 0.09816359
000270 75 a1 bd bc f2 90 c1 3d ac 83 76 3c 2d e4 38 3d
       -0.023148278 0.09451474 0.015046041 0.04513948
000280 f4 cd a8 3d ac 87 46 bc 34 98 c6 bc cc 1d f0 3c
       0.082424074 -0.012117308 -0.024242498 0.029311083
000290 e8 f0 51 bd 82 a2 a1 3d f6 fe bb 3d 98 e0 ee bd
       -0.051255137 0.07892324 0.09179489 -0.116639316
0002a0 1d 1a ea 3a f7 24 d3 bc 56 4a c2 3c 62 a5 ca 3d
       0.0017860566 -0.025774462 0.023717087 0.098948255
0002b0 5d 30 28 3d 78 aa 1f bd 96 37 fc bd 05 65 51 bc
       0.041061748 -0.03898093 -0.1231529 -0.012780433
0002c0 90 a8 80 3d 1c 90 7a 3d 3a 15 dd bd da b8 e8 bd
       0.06282151 0.06117259 -0.10795064 -0.11363383
0002d0 ee 7c cc bd 6c d9 e7 bc 66 0c f4 bd 6a 22 e6 3c
       -0.09984766 -0.028301917 -0.11916427 0.028092582
0002e0 67 41 0e 3d 89 41 3d bd a6 d5 eb 3c ab a1 68 3d
       0.03473034 -0.046205077 0.028788399 0.056794804
0002f0 95 88 01 be 3e b5 32 bb 78 56 5d bc be 22 b8 bd
       -0.12649758 -0.0027268673 -0.013509385 -0.089910015
000300 7e b7 aa bd 1c 7b 4a bc 5a d4 d6 3d 84 4a c8 bd
       -0.083357796 -0.012358453 0.104897216 -0.09779838
000310 1e 17 fd bd 0a 72 13 bd 8e eb ad 3d 24 5b e8 3d
       -0.12357925 -0.035997428 0.08492194 0.11345509
000320 d0 b4 8d 3d 6e 6a 9f bd 66 27 a3 bc 96 ca a5 3d
       0.06919253 -0.07783972 -0.019916248 0.08095281
000330 0c 00 96 3d c6 16 1a 3d a6 ce e3 3d 20 ad bc 3d
       0.07324228 0.037619375 0.111233994 0.092127085
000340 40 97 b6 3d fd 44 16 bd 92 20 8a bd fe de 29 bb
       0.089155674 -0.036686886 -0.067444935 -0.0025920267
000350 25 dc d8 bd 9d 6a bb bd 28 bc 5d 3d 16 b9 36 bd
       -0.10588864 -0.09151194 0.054134518 -0.044610105
000360 9a 5a 93 bc d3 1a 55 3d 1c d8 ca 3d 7c 74 4d bc
       -0.017987538 0.052027535 0.09904501 -0.012539979
000370 a9 2d cc bd 92 02 d5 3d 4c 4d ec bd 98 e2 b3 bd
       -0.099696465 0.10400881 -0.11538181 -0.08783454
000380 b7 90 8c 3c f8 ea f9 bd 7c 42 bb bd ea 2b 3e bd
       0.01715885 -0.1220302 -0.0914354 -0.0464286
000390 5a b7 e0 bd 4c ce f8 bd 2d 0e 8e 3d 2c cf db bc
       -0.109724715 -0.12148723 0.069362976 -0.026832186
0003a0 3a 0a be bd 52 9e 9e 3d 24 58 f2 bd c0 6f e7 bd
       -0.09279294 0.07745041 -0.11833218 -0.113006115
0003b0 9f 4c 99 3d de 19 b3 bd 3a 86 1c 3d 21 8a 70 3d
       0.074853174 -0.08745168 0.038213946 0.05872548
0003c0 d8 67 53 bd 90 ea 58 bd 36 12 10 bd 5c ef ee bc
       -0.051612705 -0.05295807 -0.035173617 -0.02916687
0003d0 53 5e 95 3d 44 2a e5 bd b2 74 a7 3d 9c e7 f3 3d
       0.072933815 -0.11189702 0.08176555 0.1190941
0003e0 97 42 da bd ff c6 77 bd 04 74 c3 3c ee 53 a0 3d
       -0.10657232 -0.06049251 0.023859031 0.07828508
0003f0 08 1b 65 3d aa 40 8f bd f4 65 cd 3c 8a 36 3f 3d
       0.055933982 -0.069947556 0.02507303 0.046682872

fc2.bias f4 [64]
000000 bc e2 c3 3c 3e 9d b4 3d ba e1 8f 3b ba e1 f8 3b
       0.023911826 0.08819054 0.0043909224 0.007595268
000010 ec 56 ee 3c f1 fa 5d bd c0 9c 58 3d 28 8a 58 3d
       0.029094182 -0.054194394 0.052883863 0.05286613
000020 e4 5b 21 ba 21 e1 e8 3d 84 51 77 3b 71 3b 76 3d
       -0.00061553554 0.11371065 0.0037737796 0.06011528
000030 23 c6 80 3d 02 b3 f5 3d 3d e2 a5 bd e6 13 79 3d
       0.062877916 0.11997034 -0.08099792 0.060809992
000040 06 9f a0 3d 78 34 5a bd 70 b1 94 bd a2 93 f5 3d
       0.07842831 -0.053272694 -0.07260406 0.11991049
000050 53 f8 0d 3c f1 fc a7 3d b2 cc cf bd 0c 0a 92 bc
       0.008665162 0.082025416 -0.101464644 -0.017827056
000060 c9 66 d7 3d 50 1b 92 bd 6d 07 02 3d 82 6e 96 3d
       0.105176516 -0.07134116 0.031745363 0.073452964
000070 af d3 ac 3d 17 71 43 bd d7 1d 9d 3d b9 1e 94 3d
       0.08438813 -0.047715273 0.07671707 0.072324224
000080 b7 63 2d bd fa 69 a2 3a a8 3c b6 bc 18 91 e4 bb
       -0.042331424 0.0012391203 -0.02224572 -0.0069753043
000090 a7 e2 b1 3d a3 ba b2 3d 57 e1 c5 bd a0 e4 ce bd
       0.08685809 0.087270044 -0.09662121 -0.101022005
0000a0 7d 9e 71 bc 83 cd c9 bd 5a 2d dc 3d a0 01 ef bd
       -0.014747259 -0.098536514 0.107508376 -0.11670232
0000b0 17 12 df 3c d9 93 b6 3c da 79 f8 bd 4e 25 b3 bd
       0.027230306 0.022287296 -0.12132616 -0.0874735
0000c0 18 26 ac bb a9 b7 8c bd b6 fe c6 3b fc 3a 9c 3c
       -0.0052535646 -0.06870968 0.0060728444 0.019071095
0000d0 d4 38 9d 3d 37 69 9e bc dc a2 71 3d 5f b5 d3 bd
       0.07676855 -0.01933728 0.058993205 -0.10337328
0000e0 1f 67 00 3d f9 2f 60 3c e3 81 c8 bd cd a5 3e bd
       0.031348344 0.013683313 -0.09790399 -0.04654484
0000f0 8b 90 34 bd 38 30 91 bd 8c e8 f0 3d 9a e3 e4 bd
       -0.04408316 -0.07089275 0.11763105 -0.11176224

fc_out.weight f4 [1, 64]
000000 e1 31 e6 bd 36 da bd bd ca 09 d5 3d 5e a5 1f bd
       -0.112399824 -0.09270136 0.10402258 -0.038976066
000010 cb 08 7c 3d 04 7e 51 bd 11 77 b9 bd 89 ce 16 bd
       0.061531823 -0.05114557 -0.09055913 -0.03681806
000020 74 b0 d5 bc 07 1a cd 3d 12 9c fb 3d b4 5e 90 3d
       -0.026085116 0.1001473 0.122856274 0.07049313
000030 54 5d 65 bd ab 2a 2d bd a2 da c9 3d fa b6 ae 3d
       -0.055997208 -0.04227702 0.09856154 0.08530994
000040 ae d5 31 3d 34 76 dd bc 66 f7 d2 3d 7b c0 24 bc
       0.04341667 -0.027033903 0.10301094 -0.010055657
000050 ee cc ef bd da 27 be bd 6a 60 a9 bd 30 48 a8 bd
       -0.11709009 -0.09284945 -0.08270343 -0.08216894
000060 76 9c f3 bd ce c0 90 bc e4 2c d9 3d 28 07 f1 bd
       -0.11895077 -0.017670061 0.10604265 -0.11768943
000070 50 63 4a bd 2e f7 bb bd 35 63 c4 3d 3c 1e 7e bd
       -0.049411118 -0.09178005 0.09589235 -0.062040552
000080 26 a0 c9 3d 21 2c 3a bd 4e 45 b9 3d 38 62 78 bd
       0.09844999 -0.04545224 0.09046422 -0.060640544
000090 c1 08 7a 3d 5a bf aa bd 60 d7 66 bd f4 d0 9d bd
       0.061043505 -0.08337279 -0.05635774 -0.0770587
0000a0 1e ee a4 bb be 6d 21 3d c8 11 80 3d f4 8e 92 3d
       -0.0050332686 0.0394113 0.062533915 0.071561724
0000b0 80 94 00 be 76 92 e6 bd 86 05 8c 3c 4a de 2e 3d
       -0.12556648 -0.11258404 0.017092478 0.04269246
0000c0 f2 3a 19 3d 0e 5f af 3c 84 b8 dd 3d 24 8e 81 bd
       0.03740973 0.02140763 0.10826209 -0.06325939
0000d0 c4 78 c7 bc be 31 b9 3b a4 4b e5 3d 1a b8 d3 3d
       -0.024349578 0.0056516817 0.11196068 0.10337849
0000e0 21 7f 83 bd e9 81 f8 3d bc fa f4 bc 10 64 da 3d
       -0.06420732 0.121341534 -0.029904716 0.10663617
0000f0 79 fe 8c 3d 7c fe d5 3b 8f fc f6 bd 12 77 ae bd
       0.06884474 0.006530581 -0.120598905 -0.085188046
