data/trained_models/base_mu1_a_kan.pth (torch, 138786 bytes, 12 tensors)

net.0.coeff f4 [64, 10, 5]
-0.12172122 0.07197342 0.1389537 -0.04733451 0.08545369 -0.08654276 -0.091322586 -0.07480471
0.06462579 -0.026779886 0.005385028 -0.04973972 0.06601805 0.044937804 0.15660271 0.027456447
0.11244547 -0.062713206 -0.02166288 0.004854701 0.057427846 0.02459625 0.07179301 -0.031170422
-0.0076957447 -0.0916818 -0.15348329 -0.039211873 -0.07347056 0.21852978 0.052926447 -0.09440426
0.003221931 -0.103261404 0.027128393 -0.11163024 0.114020646 0.14760809 -0.0075270627 -0.066794
0.11447061 0.061588664 -0.18543367 0.22891971 0.050887976 0.10523513 0.055060185 -0.051091533
0.06163331 0.008181169 -0.0317843 -0.03500823 0.015831912 0.13950408 -0.014091855 -0.1555212
-0.22048 0.14964946 -0.0043103 -0.038833946 0.03840215 0.06512942 0.010051243 0.14458111
-0.027157106 0.00451171 0.034660008 -0.06976656 -0.059433177 -0.009363185 0.05660967 -0.1856632
-0.047091477 -0.07976297 0.19885771 -0.027358565 -0.016575523 0.05983412 -0.05411463 -0.14626382
0.058167696 -0.08758333 0.095196865 -0.02134866 -0.0719883 -0.11008654 0.15437114 0.07949649
0.122099325 -0.0017119228 0.006434451 -0.09306367 -0.14899918 0.014135598 0.023100894 -0.12801719
0.025623938 -0.03675222 0.10299 0.13780425 0.08512095 -0.052033864 -0.015098197 0.06607847
0.17409891 0.059920263 -0.10396518 -0.02678005 -0.10068229 0.32199615 0.23249626 -0.0032091886
0.02547391 -0.20678471 -0.11958413 0.22653854 0.028748738 -0.06448401 -0.14458224 0.012585105
-0.08842543 -0.020667717 0.04075294 -0.1093406 0.08370029 0.09899375 -0.0073329876 -0.14740151
0.02810603 0.031449337 0.053529575 0.00024021685 0.04531097 0.03331688 0.07436749 0.0452314
0.02087443 -0.20313117 -0.08067524 -0.12643936 -0.030047987 0.0044868523 0.0140506765 0.17109843
0.057109695 -0.048520464 0.0051138108 -0.04615164 0.09171592 -0.25889492 -0.00691379 -0.15220714
0.008259765 -0.11954352 -0.028173072 -0.09085397 0.06421226 0.10792485 -0.21686031 -0.062797666
-0.052445915 -0.22694057 0.010983124 -0.15880406 -0.005130754 -0.083923645 0.1590142 -0.15614602
0.10861671 0.11831003 0.07378801 0.13333851 0.07970074 -0.26317397 0.021431087 0.009883907
-0.010189547 -0.071099825 0.024037423 0.15734974 -0.012137011 -0.01901516 0.020488968 -0.14596176
0.16435283 -0.026803447 0.00050158513 -0.11222139 0.14246215 -0.052233253 0.114735365 0.20417202
-0.08647257 -0.12856549 -0.0654156 0.022566957 0.041582927 -0.09450041 -0.025911821 -0.058281563
-0.11340233 0.16232455 -0.19973439 -0.2082392 0.06792369 0.047155388 -0.16593654 -0.0025627755
-0.042038713 0.108552754 -0.034971584 -0.04333962 -0.008147007 0.07568935 0.20551667 0.027540427
-0.004572431 -0.09432921 -0.06657889 -0.054959267 0.09027587 -0.16455646 0.042453375 0.079061165
0.050988857 -0.07371922 -0.0069634886 -0.22495858 -0.064756304 -0.046629883 0.07515805 -0.021880547
-0.032304168 -0.017602636 0.14366198 -0.004316066 -0.04333489 0.22968896 0.10989282 -0.1611129
-0.10584689 0.19113868 0.022466509 -0.21000199 -0.1514705 0.04570773 0.07222137 0.07557395
-0.051963955 0.2616662 -0.2398019 -0.2408117 0.06056895 0.0736549 0.10111993 0.026317865
00000000: fa48 f9bd cd66 933d e149 0e3e d5e1 41bd
00000010: 5802 af3d 553d b1bd 5607 bbbd 3633 99bd
00000020: 875a 843d 7e61 dbbc e474 b03b e0bb 4bbd
00000030: 7934 873d b410 383d 765c 203e 58ec e03c
00000040: d049 e63d c86f 80bd 5a76 b1bc 2f14 9f3b
00000050: 7639 6b3d 137e c93c 3708 933d 1d59 ffbc
00000060: 962c fcbb abc3 bbbd b92a 1dbe a19c 20bd
00000070: bc77 96bd 45c6 5f3e 67c9 583d 0557 c1bd
00000080: 0827 533b b77a d3bd 5d3c de3c 659e e4bd
00000090: a883 e93d 9326 173e 94a5 f6bb 4bcb 88bd
000000a0: 916f ea3d 6544 7c3d 53e2 3dbe ee69 6a3e
000000b0: e96f 503d 8485 d73d ca86 613d 5b45 51bd
000000c0: 3673 7c3d 4f0a 063c 4130 02bd ca64 0fbd
000000d0: edb1 813c 28da 0e3e 86e1 66bc f340 1fbe
000000e0: 82c5 61be b53d 193e 6b3d 8dbb 5810 1fbd
000000f0: 934b 1d3d 9362 853d f8ad 243c 120d 143e
00000100: 9478 debc f7d6 933b a7f7 0d3d c5e1 8ebd
00000110: 3470 73bd 0b68 19bc 8bdf 673d 7e1e 3ebe
00000120: fee2 40bd c55a a3bd 5ba1 4b3e 121f e0bc
00000130: 64c9 87bc 9f14 753d 4da7 5dbd 2fc6 15be
00000140: 4041 6e3d e45e b3bd 93f6 c23d 63e3 aebc
00000150: 9a6e 93bd 0d75 e1bd 7813 1e3e 0ecf a23d
00000160: 360f fa3d 9962 e0ba 16d8 d23b 2a98 bebd
00000170: 3e93 18be ff98 673c 163e bd3c f016 03be
00000180: 4be9 d13c 7f89 16bd 6cec d23d 8f1c 0d3e
00000190: e553 ae3d 7621 55bd 6e5e 77bc 2654 873d
000001a0: fc46 323e f36e 753d b2eb d4bd d661 dbbc
000001b0: 8432 cebd aedc a43e 8013 6e3e 4051 52bb
000001c0: a9ae d03c 5fbf 53be 86e8 f4bd b8f9 673e
000001d0: 7982 eb3c 3110 84bd 5e0d 14be c231 4e3c
000001e0: 6418 b5bd 584f a9bc 8eec 263d f7ed dfbd
000001f0: 0f6b ab3d 3cbd ca3d 8f49 f0bb 6cf0 16be
00000200: 9e3e e63c 05d1 003d d441 5b3d b8e2 7b39
00000210: ff97 393d 4877 083d fc4d 983d 8f44 393d
00000220: da00 ab3c 9e01 50be 0f39 a5bd 5279 01be
00000230: 3227 f6bc 7206 933b cf34 663c 6d34 2f3e
00000240: dbeb 693d 65bd 46bd c191 a73b 8109 3dbd
00000250: 8ed5 bb3d e08d 84be 138d e2bb 30dc 1bbe
00000260: f753 073c 3cd3 f4bd 37cb e6bc a511 babd
00000270: b881 833d b407 dd3d a110 5ebe 109c 80bd
00000280: 87d1 56bd 1c63 68be 90f2 333c 889d 22be
00000290: e21f a8bb 29e0 abbd 9ed4 223e bee4 1fbe
000002a0: 7072 de3d 874c f23d 2b1e 973d e489 083e
000002b0: 243a a33d bdbe 86be 3f90 af3c 1cf0 213c
000002c0: 0ff2 26bc c99c 91bd 21ea c43c 4a20 213e
000002d0: 50da 46bc aec5 9bbc 7bd8 a73c 0077 15be
000002e0: 1c4c 283e e792 dbbc cf7c 033a 54d4 e5bd
000002f0: 99e1 113e 89f2 55bd 60fa ea3d 7812 513e
00000300: 8818 b1bd aca6 03be 9df8 85bd 57de b83c
00000310: dc52 2a3d 6e89 c1bd 0745 d4bc a6b8 6ebd
00000320: 7b3f e8bd 6838 263e 2c87 4cbe a83c 55be
00000330: 931b 8b3d 0226 413d 45eb 29be 3df4 27bb
00000340: c930 2cbd e850 de3d 5d3e 0fbd e384 31bd
00000350: 067b 05bc 0503 9b3d f672 523e 769c e13c
00000360: 55d4 95bb ac2f c1bd 835a 88bd f81c 61bd
00000370: 8ee2 b83d 7d81 28be 97e3 2d3d d2ea a13d
00000380: b1d9 503d 1afa 96bd fa2d e4bb 8b5b 66be
00000390: f49e 84bd fafe 3ebd 77ec 993d d53e b3bc
000003a0: 6051 04bd 6733 90bc 201c 133e c96d 8dbb
000003b0: ed7f 31bd 9533 6b3e 7d0f e13d c8fa 24be
000003c0: 41c6 d8bd dcb9 433e af0b b83c c30a 57be
000003d0: 151b 1bbe 0738 3b3d cce8 933d 84c6 9a3d
000003e0: 28d8 54bd 1df9 853e a18e 75be 5897 76be
000003f0: 2617 783d 61d8 963d f717 cf3d 9098 d73c

net.0.scale f4 [64, 10]
0.9999471 1.0020756 1.0039245 1.0034888 1.0032445 0.9960502 0.9998597 0.9964952
0.99910486 0.9973089 1.0028768 0.9985837 1.0037013 0.99655473 0.99643034 0.99669015
0.99942374 1.0019304 0.996464 0.99652576 1.0033388 0.99599725 1.0035112 0.99647826
0.99745816 1.0028566 1.0030705 1.0035712 1.0031871 0.9993653 0.99823785 0.99683315
1.0034428 0.9961704 1.0017546 1.0034605 0.99640733 1.0008825 1.0009781 0.9963081
0.99662983 1.0005655 1.0007244 0.99944264 1.0000597 0.99708873 1.0030698 1.0032938
0.9994607 1.002977 1.0017408 0.99732214 1.0017627 0.99860805 1.0029792 0.9998181
0.99726015 1.0025253 0.99979377 1.0011685 0.99599653 1.0012926 0.99705976 1.0008876
1.0016056 0.9974109 0.9984471 1.0038234 1.0022095 0.99898094 1.0034374 0.99669707
1.0031375 0.99903005 0.99626225 1.0036136 0.9965402 0.9970356 1.0030848 0.9986628
1.0025824 1.0012995 0.99667645 0.99855334 1.0032513 1.0021946 1.0026624 0.9962006
1.0011022 0.997921 0.9992338 1.0039408 1.0037745 0.9999786 0.9962941 1.000477
1.0027286 1.0035067 0.9994952 1.0039517 0.9963629 1.0033964 0.99978805 0.99612546
0.9962036 1.0029626 1.0018489 1.0012969 1.0032468 0.99619746 0.9972082 1.0022333
0.99783635 1.0033834 0.9979302 0.9967435 1.0008397 1.0007564 0.99941385 1.0032457
0.99658334 0.9989971 0.9967398 1.003347 1.0035352 0.9964513 1.0038002 0.9976308
0.99824107 0.99685675 0.99768025 0.9995942 0.9976851 1.0027246 0.99727315 0.9978235
0.9970692 0.9972206 0.99637216 1.0011735 0.9962412 1.0036083 0.9962608 1.0034308
0.9962066 1.0036795 0.9973383 1.0032439 1.002993 0.9986557 1.0037752 0.9990405
1.0038034 1.0022811 0.9965138 1.0035226 1.0031523 1.0031593 0.9971837 0.99699056
1.0035027 1.003554 1.0033833 0.9966512 1.003508 1.0015688 0.9974456 0.99994975
1.0030433 0.99627197 1.0005494 1.0026127 0.99619395 0.9970275 1.0031482 1.0000863
1.002161 1.0012667 0.999067 0.9965956 0.99703074 1.0032625 0.9975492 0.9973758
0.9966088 0.9963172 0.9965286 1.0007001 0.99661714 1.0032095 1.0007211 1.0004838
0.9961198 1.0011878 1.0039155 0.997751 0.9979433 0.9971484 1.0015677 0.9982188
1.0036163 1.003199 1.0036893 1.0036995 1.0035223 0.99604434 0.996076 0.9962497
0.9995978 0.99627966 0.9989296 0.9999869 1.0007823 0.99718535 0.99976575 0.9996493
1.003869 1.0012956 0.99691266 1.0016985 0.99683887 1.0029756 1.0021731 0.9997916
0.9978956 1.0030049 1.0011721 0.9987497 1.003617 0.9971444 0.99609226 1.0037843
0.99660414 1.0022529 0.9962185 0.99652636 1.0036939 1.0019095 1.0016798 1.0035142
1.0039482 1.0031022 1.0023761 1.0011728 0.99614906 0.9960441 0.99636203 1.0020326
1.0031831 1.0004426 1.0037564 1.0037191 0.99616253 0.99803376 1.0034628 0.9963571
00000000: 88fc 7f3f 0344 803f 9980 803f 5272 803f
00000010: 516a 803f 25fd 7e3f cef6 7f3f 4f1a 7f3f
00000020: 56c5 7f3f a34f 7f3f 445e 803f 2ea3 7f3f
00000030: 4979 803f 361e 7f3f 0f16 7f3f 1627 7f3f
00000040: 3cda 7f3f 413f 803f 4418 7f3f 501c 7f3f
00000050: 686d 803f adf9 7e3f 0e73 803f 3319 7f3f
00000060: 6b59 7f3f 9b5d 803f 9d64 803f 0575 803f
00000070: 6f68 803f 68d6 7f3f 848c 7f3f 7530 7f3f
00000080: d070 803f 0605 7f3f 7f39 803f 6571 803f
00000090: 8d14 7f3f eb1c 803f 0d20 803f 0c0e 7f3f
000000a0: 2223 7f3f 8812 803f bd17 803f 79db 7f3f
000000b0: f501 803f 3541 7f3f 9764 803f ee6b 803f
000000c0: a8dc 7f3f 8d61 803f 0b39 803f 8150 7f3f
000000d0: c339 803f c7a4 7f3f 9f61 803f 14f4 7f3f
000000e0: 714c 7f3f c052 803f 7cf2 7f3f 4a26 803f
000000f0: a1f9 7e3f 5b2a 803f 4f3f 7f3f 161d 803f
00000100: 9d34 803f 5256 7f3f 3b9a 7f3f 497d 803f
00000110: 6748 803f 37bd 7f3f a370 803f 8a27 7f3f
00000120: cf66 803f 6fc0 7f3f 0b0b 7f3f 6976 803f
00000130: 421d 7f3f ba3d 7f3f 1565 803f 5ea8 7f3f
00000140: 9f54 803f 952a 803f 3026 7f3f 31a1 7f3f
00000150: 8a6a 803f ea47 803f 3e57 803f 0107 7f3f
00000160: 1e24 803f c077 7f3f c9cd 7f3f 2281 803f
00000170: af7b 803f 99fe 7f3f 210d 7f3f a10f 803f
00000180: 6959 803f e872 803f ebde 7f3f 7d81 803f
00000190: a411 7f3f 4b6f 803f 1cf2 7f3f 1402 7f3f
000001a0: 3307 7f3f 1461 803f 963c 803f 7f2a 803f
000001b0: 646a 803f cc06 7f3f 0949 7f3f 2e49 803f
000001c0: 3472 7f3f de6e 803f 5b78 7f3f 952a 7f3f
000001d0: 841b 803f c918 803f 96d9 7f3f 5b6a 803f
000001e0: 1620 7f3f 46be 7f3f 572a 7f3f ad6d 803f
000001f0: d773 803f 6f17 7f3f 867c 803f bb64 7f3f
00000200: ba8c 7f3f 0132 7f3f f967 7f3f 68e5 7f3f
00000210: 4a68 7f3f 4859 803f 4b4d 7f3f 5c71 7f3f
00000220: ed3f 7f3f d949 7f3f 3f12 7f3f 7426 803f
00000230: aa09 7f3f 3d76 803f f30a 7f3f 6c70 803f
00000240: 6507 7f3f 9278 803f 9051 7f3f 4c6a 803f
00000250: 1362 803f e6a7 7f3f b57b 803f 1ec1 7f3f
00000260: a17c 803f bf4a 803f 871b 7f3f 6e73 803f
00000270: 4b67 803f 8667 803f 6e47 7f3f c63a 7f3f
00000280: c772 803f 7574 803f dd6e 803f 8824 7f3f
00000290: f372 803f 6833 803f 9858 7f3f b5fc 7f3f
000002a0: b963 803f ae0b 7f3f 0112 803f 9d55 803f
000002b0: 9106 7f3f 323d 7f3f 2967 803f d402 803f
000002c0: d046 803f 8229 803f dbc2 7f3f e420 7f3f
000002d0: 683d 7f3f e86a 803f 625f 7f3f 0554 7f3f
000002e0: c121 7f3f a50e 7f3f 801c 7f3f f116 803f
000002f0: 4d22 7f3f 2b69 803f a117 803f da0f 803f
00000300: b501 7f3f ec26 803f 4e80 803f 9c6c 7f3f
00000310: 3679 7f3f 1e45 7f3f 5f33 803f 448b 7f3f
00000320: 8076 803f d368 803f e478 803f 3a79 803f
00000330: 6b73 803f c3fc 7e3f d6fe 7e3f 380a 7f3f
00000340: a4e5 7f3f 2f0c 7f3f dab9 7f3f 24ff 7f3f
00000350: a219 803f 8a47 7f3f a6f0 7f3f 04e9 7f3f
00000360: c87e 803f 742a 803f ab35 7f3f a837 803f
00000370: d530 7f3f 8161 803f 3547 803f 58f2 7f3f
00000380: 1676 7f3f 7762 803f 6826 803f 0fae 7f3f
00000390: 8676 803f db44 7f3f e7ff 7e3f 017c 803f
000003a0: 7321 7f3f d349 803f 2d08 7f3f 5a1c 7f3f
000003b0: 0b79 803f 923e 803f 0b37 803f 2773 803f
000003c0: 6081 803f a765 803f dc4d 803f 6e26 803f
000003d0: a003 7f3f bffc 7e3f 9511 7f3f 9b42 803f
000003e0: 4e68 803f 810e 803f 177b 803f de79 803f
000003f0: 8204 7f3f 247f 7f3f 7871 803f 4211 7f3f

net.0.base_weight f4 [64, 10]
-0.14038552 0.01489996 -0.102068506 0.14955297 -0.0384236 -0.0007100424 -0.044471942 0.10807781
-0.108822525 0.15018837 0.026442366 0.08852166 -0.06457008 0.094905116 -0.115877226 0.0990186
-0.032296702 -0.12139536 0.21070214 0.004973569 0.12493684 -0.11618112 -0.047322463 -0.15468101
0.05292227 0.10411938 0.06827568 0.12816392 -0.039494593 -0.12722042 0.050289247 0.044750344
0.04217855 -0.04415019 -0.05207275 -0.059494156 0.16897675 0.0642311 -0.01876327 -0.055484142
-0.030849189 -0.044901397 -0.044039775 -0.17833208 -0.1312361 -0.161695 0.06677981 0.06039769
0.16904487 -0.051630903 0.04784017 -0.1913056 0.1622235 -0.049955055 -0.17626314 -0.0426952
0.14421774 -0.032975968 0.077836454 -0.02570144 0.13701893 0.26741245 0.12110584 -0.0921142
0.11218284 0.051912464 0.13133886 -0.08976524 -0.2052033 -0.1267547 -0.091426454 0.0013853123
-0.019794779 0.14889692 -0.013248707 -0.03064746 0.021006431 -0.079466045 -0.06879862 -0.05693399
0.049892325 -0.005641395 0.11666329 0.06765355 -0.06375447 0.035027847 0.1478862 0.22159606
0.25187084 -0.1325833 0.14531727 0.0017657157 -0.14088362 0.123208664 -0.20626888 0.022401726
-0.02620767 -0.02784331 0.092227526 -0.012036612 0.006970974 -0.037686005 -0.20359549 -0.04315322
0.071090885 -0.13312565 -0.019447887 0.0392068 -0.0057155695 -0.007019706 -0.056839213 -0.015454295
-0.10927442 0.050567128 0.0031672001 -0.09959305 0.100581534 0.0106902085 -0.24530865 0.10424768
0.015715344 0.03504033 -0.037626218 -0.0645599 0.09275176 -0.0035793777 -0.14388373 -0.045268107
0.060720135 0.037645314 0.042754192 0.16116619 0.08302316 -0.14584313 -0.08971845 0.1303102
-0.059872463 -0.13221599 -0.074720405 0.07082986 -0.030048894 -0.0676197 -0.0022069663 -0.05140274
0.08761379 0.02586354 -0.12111832 0.14944136 -0.006361755 0.114170626 -0.103433594 0.043633636
0.000493085 0.005706725 -0.18974254 -0.0033249755 -0.039847128 -0.036136456 -0.01681306 0.15120448
-0.04831724 -0.08080053 -0.086229704 0.002335432 -0.110206164 0.18809803 -0.08321547 -0.20834406
0.13129336 0.16202055 0.04281552 0.005495344 0.036521256 -0.10727358 -0.06822415 -0.08377216
0.116664544 -0.09079156 -0.019800061 -0.0035681834 -0.18561837 -0.124310106 -0.048355293 -0.07265905
0.11467759 -0.06549173 0.15524635 0.05767147 0.09677296 -0.011670562 0.11787497 -0.00899226
0.0036276793 -0.07350284 -0.016549885 0.10387359 0.12238409 0.071061596 0.004593847 -0.009709227
-0.09785979 -0.103696644 -0.04560164 -0.009595112 -0.012920679 -0.0975826 -0.0076753246 -0.14100426
0.080768585 0.14983869 0.12559454 -0.027393157 0.11385779 0.07913372 -0.024210924 -0.1478876
0.085335925 -0.07361059 0.10117014 0.21888532 0.090184055 -0.042282764 -0.039791595 -0.10735462
0.04442335 -0.052470136 -0.0073140734 -0.11032764 0.08976461 0.013147039 -0.20772582 -0.003352526
0.13484566 -0.10613641 -0.03122412 0.008629613 -0.05175142 -0.014045915 -0.050170124 -0.095516786
0.0076354276 0.0793631 0.15152003 0.16061696 -0.11509306 -0.05014859 0.0032901703 -0.089477524
-0.06773728 -0.1312105 0.04937406 0.043246575 -0.0006494794 0.009011485 0.16173513 0.07773309
00000000: 39c1 0fbe f61e 743c 4b09 d1bd 6a24 193e
00000010: 1162 1dbd 2422 3aba 3628 36bd e657 dd3d
00000020: 58de debd fbca 193e a99d d83c d84a b53d
00000030: 513d 84bd 9d5d c23d 0a51 edbd 44ca ca3d
00000040: 8c49 04bd 219e f8bd 4dc2 573e 52f9 a23b
00000050: e3de ff3d 5ef0 edbd 33d5 41bd b364 1ebe
00000060: 06c5 583d 8b3c d53d 1fd4 8b3d 673d 033e
00000070: 15c5 21bd 1246 02be 19fc 4d3d 234c 373d
00000080: 6ac3 2c3d d4d6 34bd 3c4a 55bd 25b0 73bd
00000090: 3e08 2d3e 988b 833d 6eb5 99bc 5743 63bd
000000a0: 70b7 fcbc 87ea 37bd 0d63 34bd af9c 36be
000000b0: c262 06be 6093 25be dac3 883d 9163 773d
000000c0: 191a 2d3e ed7a 53bd 0ef4 433d 9de5 43be
000000d0: eb1d 263e ac9d 4cbd 537e 34be 29e1 2ebd
000000e0: d1ad 133e cf11 07bd b868 9f3d d48b d2bc
000000f0: b14e 0c3e 49ea 883e 5706 f83d 5fa6 bcbd
00000100: 1ec0 e53d 2aa2 543d b27d 063e d7d6 b7bd
00000110: d020 52be fccb 01be cb3d bbbd 5e93 b53a
00000120: a928 a2bc 6f78 183e 1b11 59bc 6210 fbbc
00000130: ae15 ac3c 18bf a2bd 4ae6 8cbd 9e33 69bd
00000140: e55b 4c3d 74db b8bb 2aed ee3d f28d 8a3d
00000150: b491 82bd 5c79 0f3d 7b6f 173e 14ea 623e
00000160: 37f5 803e ebc3 07be 0dce 143e 966f e73a
00000170: cc43 10be d354 fc3d 2638 53be d383 b73c
00000180: 78b1 d6bc a717 e4bc c9e1 bc3d 3635 45bc
00000190: c56c e43b a45c 1abd 567b 50be 6ec1 30bd
000001a0: 1998 913d 1752 08be 2d51 9fbc 4f97 203d
000001b0: ac49 bbbb 9005 e6bb 3cd0 68bd 0334 7dbc
000001c0: 44cb dfbd 7a1f 4f3d cd90 4f3b 71f7 cbbd
000001d0: b1fd cd3d fc25 2f3c 3132 7bbe cf7f d53d
000001e0: 77bd 803c 7386 0f3d f31d 1abd fb37 84bd
000001f0: a2f4 bd3d fe93 6abb 4256 13be 0d6b 39bd
00000200: adb5 783d f931 1a3d 051f 2f3d c008 253e
00000210: 0c08 aa3d e757 15be 4fbe b7bd 0970 053e
00000220: d43c 75bd a163 07be 0307 99bd 3f0f 913d
00000230: 1929 f6bc 337c 8abd c0a2 10bb ae8b 52bd
00000240: dc6e b33d c6df d33c e20c f8bd 2807 193e
00000250: 4576 d0bb 4ad2 e93d fed4 d3bd 2fb9 323d
00000260: 6042 013a 7bff ba3b de4b 42be d5e7 59bb
00000270: be36 23bd d203 14bd 8bbb 89bc 59d5 1a3e
00000280: 4ce8 45bd c07a a5bd 3399 b0bd 0c0e 193b
00000290: c5b3 e1bd c59c 403e df6c aabd 2558 55be
000002a0: c471 063e b7e8 253e 545f 2f3d 4912 b43b
000002b0: 5097 153d 40b2 dbbd 1ab9 8bbd bd90 abbd
000002c0: d2ed ee3d edf0 b9bd bd33 a2bc 2fd8 69bb
000002d0: be12 3ebe 4c96 febd 3310 46bd 45ce 94bd
000002e0: 16dc ea3d 8720 86bd e6f8 1e3e eb38 6c3d
000002f0: e730 c63d e335 3fbc 6f68 f13d 4654 13bc
00000300: 5cbe 6d3b a888 96bd a093 87bc adbb d43d
00000310: 83a4 fa3d be88 913d fb87 963b 7313 1fbc
00000320: b76a c8bd e85e d4bd c9c8 3abd d134 1dbc
00000330: 41b1 53bc 63d9 c7bd 4a81 fbbb 6c63 10be
00000340: 006a a53d 506f 193e db9b 003e 9d67 e0bc
00000350: 462e e93d dc10 a23d fd55 c6bc d96f 17be
00000360: 9ac4 ae3d 26c1 96bd 4a32 cf3d 7923 603e
00000370: 6bb2 b83d b130 2dbd 83fc 22bd bddc dbbd
00000380: 42f5 353d edea 56bd e5aa efbb 75f3 e1bd
00000390: 82d6 b73d ae66 573c 14b6 54be 0eb6 5bbb
000003a0: fb14 0a3e 0c5e d9bd bac9 ffbc 3863 0d3c
000003b0: 4cf9 53bd d620 66bc 307f 4dbd 4e9e c3bd
000003c0: 9c32 fa3b 1f89 a23d 1128 1b3e c678 243e
000003d0: e9b5 ebbd 9c68 4dbd e69f 573b fe3f b7bd
000003e0: d8b9 8abd 0c5c 06be 743c 4a3d 5223 313d
000003f0: d341 2aba e8a4 133c e59d 253e 8732 9f3d

net.0.grid_points f4 [5]
-2.0 -1.0 0.0 1.0 2.0
00000000: 0000 00c0 0000 80bf 0000 0000 0000 803f
00000010: 0000 0040

net.2.coeff f4 [64, 64, 5]
-0.08400722 -0.1389675 -0.026095664 -0.023460621 -0.23716636 -0.21061845 0.08162518 0.07913762
0.21573734 0.18060571 -0.091700636 0.05882912 -0.11158597 -0.05550715 -0.0954052 -0.09105905
-0.17345893 0.18120886 0.12932235 0.076600604 0.1505128 -0.12213711 0.13029604 -0.08629212
-0.048762474 -0.17809628 -0.12942432 -0.14323089 -0.020306347 0.085527495 0.03943083 -0.046922706
-0.041660324 -0.13894168 0.0029925862 0.00530594 -0.0700709 0.032529656 0.047840856 0.015109697
-0.18280606 0.066907845 0.15358153 -0.01536047 -0.016679555 0.02905511 0.057262164 0.027132107
0.0683445 0.09014666 -0.04308021 -0.046972416 -0.048740007 -0.04333447 0.0040129996 -0.05285862
-0.067967296 -0.11598501 0.028729321 0.17328285 -0.11696678 0.0025041632 -0.08896366 0.026565474
0.21109755 0.0990479 0.03936756 0.009594053 0.05868182 -0.19050345 0.075180404 0.050556093
0.051076546 -0.033918165 -0.07607424 -0.16594414 0.13065827 -0.09198581 0.01706343 -0.0331576
-0.10210953 0.031009186 0.06418632 -0.07087559 -0.071088254 0.041755848 0.038394783 -0.021938974
-0.071855806 -0.03582006 -0.103539824 0.122833274 0.109371506 0.07447986 0.07834114 0.02435839
0.051977877 -0.118334204 0.124186106 -0.086818635 0.11759698 0.1455288 0.03886711 0.0619577
0.056487177 -1.5863936e-05 -0.015602151 0.13569604 0.12952563 -0.009862045 -0.052601047 -0.068942875
-0.17312814 0.21754916 0.23602782 0.10618639 0.0530439 0.015086786 0.05775137 0.073749356
-0.09422324 0.104631156 0.023449892 0.03104711 0.0022891648 0.04998858 0.044628836 -0.024902828
0.017501615 0.0864015 -0.10923292 0.0393297 0.0123864785 -0.14252195 -0.013959098 0.0049089263
-0.034587834 0.061257347 0.1284457 0.10984856 0.13338524 -0.04152021 -0.019877065 0.07074922
-0.24805617 0.13942504 0.1587527 -0.0043817204 0.10237062 -0.069773436 0.03787009 -0.049577065
-0.02344394 0.11734324 0.08757661 -0.04535885 -0.0002949406 -0.20767869 -0.00031288248 -0.0009896004
-0.14267258 -0.034319915 0.006195965 -0.15324523 -0.031181624 -0.088764355 -0.057174437 -0.00062875135
-0.068394355 0.057326432 -0.012103236 -0.05257375 -0.08785613 0.10452237 -0.11445799 -0.111244224
-0.081194274 -0.1311566 -0.08094382 -0.15045884 0.14516468 0.011861635 0.014997752 -0.08139849
-0.050353702 -0.053123143 -0.009500296 -0.10433873 0.045465507 0.016861647 0.15450731 -0.0063404366
-0.12128266 0.1339717 -0.16867168 0.055150937 0.061942797 0.027246661 0.089918815 0.10492092
-0.011515794 -0.03162883 -0.033629872 0.057385035 0.13626538 -0.00872653 0.051846076 -0.026780719
0.06931064 -0.027557341 -0.16399862 -0.008915904 -0.044196267 -0.042730436 0.08648511 0.028602779
0.016687263 0.0045828987 0.038012885 0.024629053 -0.016484013 0.051183037 0.12242344 -0.09802931
0.036591783 0.017014243 -0.14647382 -0.029059317 0.068693735 -0.03361441 0.0035443183 0.04381205
-0.00020929732 0.020301567 0.025647162 -0.0628707 0.06552983 -0.022349423 -0.024200281 -0.20884867
-0.08625106 0.07885233 -0.018741364 0.102131225 0.059687335 -0.18520994 0.21273942 -0.24171327
0.09028443 0.032009568 -0.111126795 0.13432917 -0.0109945005 -0.08909225 -0.1869689 0.11519243
00000000: fa0b acbd 7f4d 0ebe 93c6 d5bc 7d30 c0bc
00000010: bddb 72be 5dac 57be 1a2b a73d e812 a23d
00000020: 40ea 5c3e b4f0 383e 8bcd bbbd cef6 703d
00000030: 2f87 e4bd 775b 63bd cd63 c3bd 2b7d babd
00000040: 389f 31be d18e 393e 146d 043e c7e0 9c3d
00000050: 0720 1a3e 0523 fabd 536c 053e ecb9 b0bd
00000060: 29bb 47bd df5e 36be cf87 04be 1eab 12be
00000070: 7f59 a6bc 0a29 af3d 3982 213d 0632 40bd
00000080: 04a4 2abd ba46 0ebe 441f 443b 73dd ad3b
00000090: 5581 8fbd d13d 053d c6f4 433d aa8e 773c
000000a0: 8331 3bbe fb06 893d 7a44 1d3e 7baa 7bbc
000000b0: 90a3 88bc fb04 ee3c bb8b 6a3d 2744 de3c
000000c0: 34f8 8b3d d09e b83d e074 30bd 2666 40bd
000000d0: 9aa3 47bd 7c7f 31bd 7b7f 833b 4882 58bd
000000e0: 7032 8bbd 8d89 edbd c159 eb3c 0f71 313e
000000f0: 478c efbd e31c 243b 9432 b6bd d69f d93c
00000100: f529 583e a0d9 ca3d e13f 213d 6030 1d3c
00000110: 595c 703d 5613 43be 2ff8 993d e813 4f3d
00000120: a435 513d c6ed 0abd d0cc 9bbd 43ed 29be
00000130: 48cb 053e 0e63 bcbd 9bc8 8b3c 43d0 07bd
00000140: cd1e d1bd fa06 fe3c 1e74 833d 3927 91bd
00000150: b896 91bd 2e08 2b3d d943 1d3d 5db9 b3bc
00000160: 2329 93bd 0eb8 12bd b00c d4bd 0390 fb3d
00000170: 2bfe df3d e688 983d 5271 a03d 3f8b c73c
00000180: c1e6 543d 3459 f2bd 4955 fe3d f8cd b1bd
00000190: afd6 f03d 8005 153e 1e33 1f3d 5bc7 7d3d
000001a0: 195f 673d 8b13 85b7 2aa0 7fbc e7f3 0a3e
000001b0: 5ea2 043e 6a94 21bc 3274 57bd ec31 8dbd
000001c0: 8148 31be 35c5 5e3e 47b1 713e 4078 d93d
000001d0: 8f44 593d 912e 773c b38c 6c3d e709 973d
000001e0: 1df8 c0bd dc48 d63d fd19 c03c 8256 fe3c
000001f0: d005 163b d3c0 4c3d bacc 363d 0401 ccbc
00000200: 8c5f 8f3c 45f3 b03d 82b5 dfbd 2e18 213d
00000210: a8f0 4a3c 46f1 11be b3b4 64bc 0fdb a03b
00000220: f9ab 0dbd fce8 7a3d 4587 033e 48f8 e03d
00000230: 2496 083e 1911 2abd 3ad5 a2bc f8e4 903d
00000240: 7002 7ebe 70c5 0e3e 1190 223e 8994 8fbb
00000250: b0a7 d13d 60e5 8ebd ab1d 1b3d 5211 4bbd
00000260: 810d c0bc a751 f03d 5e5b b33d 34ca 39bd
00000270: 42a2 9ab9 b9a9 54be 600a a4b9 7bb5 81ba
00000280: c318 12be 0a93 0cbd 8607 cb3b 51ec 1cbe
00000290: 9b70 ffbc 16ca b5bd be2f 6abd cad2 24ba
000002a0: 5712 8cbd 1fcf 6a3d a74c 46bc 9357 57bd
000002b0: eaed b3bd d30f d63d f368 eabd 03d4 e3bd
000002c0: 2f49 a6bd ea4d 06be e0c5 a5bd e211 1abe
000002d0: 0da6 143e 4e57 423c 22b9 753c 40b4 a6bd
000002e0: af3f 4ebd a797 59bd 21a7 1bbc 8baf d5bd
000002f0: 0a3a 3a3d 7021 8a3c 2a37 1e3e 70c3 cfbb
00000300: 0b63 f8bd e12f 093e 45b8 2cbe f3e5 613d
00000310: bbb7 7d3d 6434 df3c 5b27 b83d c8e0 d63d
00000320: beac 3cbc 3b8d 01bd 7abf 09bd 920c 6b3d
00000330: 2789 0b3e b8f9 0ebc 8d5c 543d 3d63 dbbc
00000340: bdf2 8d3d efbf e1bc 41ef 27be 0314 12bc
00000350: 2507 35bd 1c06 2fbd 1b1f b13d 6050 ea3c
00000360: bab3 883c 242c 963b 66b3 1b3d dec2 c93c
00000370: 7b09 87bc 4ea5 513d 24b9 fa3d 97c3 c8bd
00000380: 44e1 153d 7461 8b3c 3cfd 15be ce0d eebc
00000390: 4daf 8c3d 43af 09bd cb47 683b 4474 333d
000003a0: d276 5bb9 794f a63c ff19 d23c 5bc2 80bd
000003b0: 8134 863d 2316 b7bc ab3f c6bc 6ddc 55be
000003c0: 65a4 b0bd 557d a13d 7d87 99bc 2d2a d13d
000003d0: b57a 743d ada7 3dbe 5dd8 593e af83 77be
000003e0: 0be7 b83d 771c 033d 7296 e3bd 968d 093e
000003f0: 4722 34bc ff75 b6bd c674 3fbe 02ea eb3d

net.2.scale f4 [64, 64]
1.003337 0.9966693 1.0034137 0.99699664 1.0032507 1.0031494 1.0036677 0.99661034
0.9967496 0.9965936 1.0032382 1.0031328 0.999366 0.998423 0.9960658 0.9998087
0.9971054 1.0033456 0.9965982 1.003425 0.9967149 0.99660885 1.0028219 0.99649006
0.99674237 1.0017542 0.9971866 0.997781 1.003061 0.9965107 1.0030035 1.0035233
0.9968945 1.0032085 1.0022546 1.0030743 0.9963798 1.002773 0.99674296 0.9969353
1.0027826 1.0026006 1.0030417 0.9972761 0.99660766 0.9977803 0.99644035 1.0032724
0.9968247 0.9968342 1.0031993 0.9963515 0.99676573 0.9970141 0.9969902 0.9964305
0.9998943 1.0022815 0.99671197 1.0031381 1.0026724 1.0030708 0.9982811 1.0035875
1.0026939 0.99710685 0.9964631 0.997452 0.9973142 0.9969997 1.002747 0.99725103
0.99731946 1.0025929 1.0027527 1.0027852 1.002524 1.0028998 1.0029244 0.9967082
0.99644274 1.0039703 0.9971771 0.9974976 1.0026162 0.9970032 0.99720365 1.0027628
1.0027909 0.99714917 1.0029043 1.0021225 0.9966952 1.0026014 0.99718267 0.9984151
1.0030923 0.9966989 1.0028759 1.002636 1.0025445 0.997469 1.0028747 1.0027058
1.0025898 1.0038581 0.9969287 1.002632 1.0025978 0.9961752 1.0024434 0.9962518
0.99764186 1.0035714 0.9972037 1.0007997 1.0027851 1.0023712 1.0038874 1.0023682
1.0020595 0.9972391 0.99771297 0.9969232 0.9977482 0.997015 1.0027685 0.99722713
1.0015249 0.9976718 0.9969621 0.9979952 1.001123 0.9978137 0.9980655 1.0026602
1.0025349 1.0027232 1.0019766 0.9982653 0.9986011 0.9976559 1.0016 0.99679
1.0014361 1.0009149 1.0016686 0.9983362 0.99893886 1.0015813 1.0020087 0.9970987
0.9989091 1.001823 0.9983318 1.0024173 1.0037347 1.0022647 1.0037417 1.0033568
0.99772483 0.99821675 1.001421 0.99771756 1.0015944 1.002078 1.0010937 1.0014309
0.9979582 1.0024254 1.0012054 0.99912703 0.99865437 0.99956757 0.99895537 0.9987762
1.0019871 0.99785566 1.001582 0.9995945 0.99850494 0.9981121 1.0022641 1.0010129
1.0013049 1.0016962 1.0019392 1.0014969 1.002194 0.9993274 0.99687344 1.0023304
1.0020326 1.0017158 0.99885565 1.0021532 0.9977706 0.9981413 0.9977375 0.99822295
0.99801713 1.0019022 1.0026509 0.9980385 1.0037528 1.0022186 0.9981937 0.9964462
1.0025195 1.0015879 0.9979902 1.0019236 0.9981976 1.0039524 1.0023783 1.0036117
1.0033996 1.0021435 0.997941 1.0007858 0.9986053 1.0021471 1.0016937 1.0017896
0.9985845 1.0000799 0.9983696 1.0012629 1.0019323 0.9981058 1.0011593 1.0017989
0.99785864 0.9982261 1.0029141 0.99817055 1.001682 1.0028658 1.0039467 0.9973962
1.0012476 1.0035049 0.99842286 1.0017577 0.9975172 1.0019798 1.0020119 0.99726987
1.0024313 1.0020785 0.998238 1.0015295 1.0019528 1.0019368 1.0022974 1.0016071
00000000: 596d 803f b825 7f3f dc6f 803f 2c3b 7f3f
00000010: 856a 803f 3367 803f 2f78 803f db21 7f3f
00000020: fb2a 7f3f c220 7f3f 1c6a 803f a866 803f
00000030: 73d6 7f3f a698 7f3f 2bfe 7e3f 77f3 7f3f
00000040: 4d42 7f3f a16d 803f 0f21 7f3f 3b70 803f
00000050: b528 7f3f c221 7f3f 785c 803f f919 7f3f
00000060: 822a 7f3f 7b39 803f 9f47 7f3f 936e 7f3f
00000070: 4e64 803f 531b 7f3f 6b62 803f 7473 803f
00000080: 7a34 7f3f 2369 803f e149 803f bd64 803f
00000090: bf12 7f3f de5a 803f 8c2a 7f3f 2737 7f3f
000000a0: 2e5b 803f 3755 803f ac63 803f 7d4d 7f3f
000000b0: ae21 7f3f 886e 7f3f b716 7f3f 3b6b 803f
000000c0: e72f 7f3f 8730 7f3f d668 803f e410 7f3f
000000d0: 0a2c 7f3f 513c 7f3f c03a 7f3f 1216 7f3f
000000e0: 13f9 7f3f c34a 803f 8428 7f3f d466 803f
000000f0: 9257 803f a064 803f 5a8f 7f3f 8e75 803f
00000100: 4658 803f 6542 7f3f 3518 7f3f 0459 7f3f
00000110: fc4f 7f3f 5f3b 7f3f 045a 803f d84b 7f3f
00000120: 5450 7f3f f754 803f 335a 803f 445b 803f
00000130: b552 803f 055f 803f d45f 803f 4528 7f3f
00000140: df16 7f3f 1982 803f 0047 7f3f 015c 7f3f
00000150: ba55 803f 9a3b 7f3f bd48 7f3f 885a 803f
00000160: 745b 803f 2b45 7f3f 2b5f 803f 8d45 803f
00000170: 6b27 7f3f 3e55 803f 5d47 7f3f 2298 7f3f
00000180: 5465 803f a927 7f3f 3d5e 803f 6056 803f
00000190: 6153 803f 215a 7f3f 335e 803f aa58 803f
000001a0: dd54 803f 6c7e 803f b836 7f3f 3f56 803f
000001b0: 2055 803f 5705 7f3f 1150 803f 5c0a 7f3f
000001c0: 7565 7f3f 0775 803f be48 7f3f 341a 803f
000001d0: 435b 803f b34d 803f 627f 803f 9a4d 803f
000001e0: 7c43 803f 104b 7f3f 1e6a 7f3f 5c36 7f3f
000001f0: 6d6c 7f3f 603c 7f3f b85a 803f 474a 7f3f
00000200: f831 803f 6b67 7f3f e838 7f3f 9d7c 7f3f
00000210: cc24 803f b870 7f3f 3881 7f3f 2b57 803f
00000220: 1053 803f 3c59 803f c540 803f 518e 7f3f
00000230: 52a4 7f3f 6166 7f3f 6e34 803f a12d 7f3f
00000240: 0f2f 803f fb1d 803f ad36 803f f692 7f3f
00000250: 75ba 7f3f d133 803f d241 803f dc41 7f3f
00000260: 82b8 7f3f bc3b 803f ac92 7f3f 364f 803f
00000270: 617a 803f 364a 803f 9c7a 803f ff6d 803f
00000280: e56a 7f3f 228b 7f3f 902e 803f 6b6a 7f3f
00000290: 3f34 803f 1844 803f d723 803f e32e 803f
000002a0: 307a 7f3f 7a4f 803f 8027 803f cac6 7f3f
000002b0: d0a7 7f3f a9e3 7f3f 8abb 7f3f ccaf 7f3f
000002c0: 1d41 803f 7873 7f3f d733 803f 6de5 7f3f
000002d0: 059e 7f3f 4684 7f3f 314a 803f 3121 803f
000002e0: c22a 803f 9537 803f 8b3f 803f 0d31 803f
000002f0: e547 803f ecd3 7f3f 1933 7f3f 5d4c 803f
00000300: 9b42 803f 3938 803f 01b5 7f3f 8e46 803f
00000310: e56d 7f3f 3086 7f3f ba6b 7f3f 8a8b 7f3f
00000320: 0d7e 7f3f 553e 803f dd56 803f 737f 7f3f
00000330: f97a 803f b348 803f 9f89 7f3f 1917 7f3f
00000340: 8f52 803f 0834 803f 497c 7f3f 083f 803f
00000350: e189 7f3f 8381 803f ef4d 803f 5976 803f
00000360: 666f 803f 3d46 803f 1079 7f3f c019 803f
00000370: 99a4 7f3f 5b46 803f 8037 803f a43a 803f
00000380: 3ca3 7f3f 9e02 803f 2695 7f3f 6229 803f
00000390: 513f 803f dd83 7f3f fd25 803f f23a 803f
000003a0: aa73 7f3f bf8b 7f3f 7d5f 803f 1b88 7f3f
000003b0: 1e37 803f e85d 803f 5381 803f 5b55 7f3f
000003c0: e228 803f d972 803f a498 7f3f 9939 803f
000003d0: 4a5d 7f3f e040 803f ed41 803f 144d 7f3f
000003e0: ab4f 803f 1c44 803f 878c 7f3f 1e32 803f
000003f0: fd3f 803f 773f 803f 484b 803f a934 803f

net.2.base_weight f4 [64, 64]
-0.16585022 -0.019268926 -0.26389125 -0.083850004 -0.039143644 -0.03339363 0.04946158 0.17903906
-0.00038012362 -0.042222165 0.091974035 0.014183214 -0.09039922 0.038156368 -0.12814046 0.05962579
0.19510987 -0.06425623 0.18600236 0.013100721 -0.053810194 0.1269486 -0.12946247 -0.10531873
-0.019351661 -0.05722668 0.07713313 0.00073467917 0.15278293 -0.15227391 -0.03226431 0.061721683
0.0736535 0.021290591 -0.09666523 0.05325087 0.07042286 0.07026889 0.17705496 0.07751614
-0.02029524 0.053441443 -0.018442692 -0.025863852 0.1924569 -0.09529508 0.17651534 0.11317982
0.083953284 0.05923362 -0.035495497 -0.022939395 -0.029028378 0.032097686 -0.05466139 0.02507331
-0.030965162 0.13953461 0.10601651 0.05934242 0.18996914 -0.035813622 0.032776713 0.018640624
0.009997404 -0.1421645 0.13710472 0.016355177 -0.12662087 -0.077039674 0.18730362 0.20472866
0.023819441 -0.02962091 -0.071911454 -0.015672773 0.020010008 -0.1526278 -0.02110937 0.16202968
0.07212297 0.061019205 -0.0660032 -0.07661453 -0.15252881 -0.28343758 -0.00021175607 -0.07156173
-0.19895768 -0.08590893 0.035377707 -0.037474394 -0.032155387 -0.011828237 0.008652951 0.13002218
0.20678933 -0.04346487 -0.0013744631 -0.06134871 -0.060075786 0.06580453 -0.07166342 -0.009657114
0.01634119 0.037763193 0.020391794 0.16697872 -0.05827962 0.14715505 0.06873958 -0.14171562
0.08189875 0.007850459 0.0023201737 0.09092681 0.23082551 -0.13123222 -0.23893146 0.1442488
0.0990282 0.13729881 -0.09030857 0.121488504 -0.028906362 0.0918913 0.09019602 -0.06116277
-0.11462482 -0.02418223 0.13263032 0.12716658 -0.06433539 0.193041 -0.04658779 -0.06715852
-0.06214336 -0.03865502 0.013463542 -0.11717201 -0.06255167 0.11411495 0.21502544 0.12885216
0.081516854 0.075748496 -0.1551211 -0.22822678 0.00838461 -0.08046709 0.023588892 -0.08568681
-0.062957734 0.09155323 0.08296545 -0.010036924 -0.02285194 0.04718752 0.19957611 0.06508495
0.074803434 0.24103001 0.025601521 0.0071930783 0.04496864 -0.020110376 0.015920753 -0.047462896
0.11025679 0.012410545 0.08327133 -0.0082470765 0.044955466 0.07415359 0.14152205 0.12087413
-0.06913538 0.28141496 -0.10872554 -0.11456226 0.07816721 0.028704338 0.21916136 0.13102975
0.036169797 0.13114387 -0.095606156 -0.15710554 0.0077722976 0.02040632 0.058593113 0.087195605
0.15147626 0.06320146 0.09698307 0.13384886 0.24455588 0.14147489 -0.081367664 -0.24432452
-0.1123333 0.066447735 0.049506128 -0.0157446 -0.04370129 0.01634739 -0.026150545 -0.02487453
-0.11016749 0.09411698 -0.02285942 -0.130885 -0.010892363 0.09690218 -0.009930768 -0.13231415
0.029793562 0.068679735 0.12972689 -0.21092407 -0.0010521159 0.22592334 0.0015447865 -0.07123373
0.025804421 -0.10092604 0.25636816 -0.07762999 0.07587026 0.05254245 -0.08685041 -0.08650648
0.20023674 0.009318365 0.028061489 -0.21086793 0.03618876 0.06674923 0.14539683 -0.07445624
0.026351651 -0.09473637 -0.09093289 0.07459555 0.13168506 0.09795551 0.09975822 -0.0104916245
-0.100095466 0.114258036 0.2384458 0.23259713 -0.11303577 0.017331535 -0.1136471 -0.06323383
00000000: a4d4 29be ded9 9dbc c11c 87be 8db9 abbd
00000010: 1655 20bd c2c7 08bd 3a98 4a3d 0456 373e
00000020: 544b c7b9 26f1 2cbd e25c bc3d b660 683c
00000030: 3a23 b9bd da49 1c3d 4137 03be 2c3a 743d
00000040: e2ca 473e c598 83bd 6777 3e3e 68a4 563c
00000050: 1468 5cbd d0fe 013e cf91 04be 59b1 d7bd
00000060: 6087 9ebc 8666 6abd f9f7 9d3d 7c97 403a
00000070: 2173 1c3e b1ed 1bbe 9527 04bd e0cf 7c3d
00000080: a5d7 963d 9b69 ae3c 6cf8 c5bd 961d 5a3d
00000090: dc39 903d 23e9 8f3d e54d 353e c8c0 9e3d
000000a0: 3442 a6bc 6ae5 5a3d 2115 97bc 6ee0 d3bc
000000b0: 6c13 453e 112a c3bd 70c0 343e d2ca e73d
000000c0: b3ef ab3d f49e 723d ba63 11bd 66eb bbbc
000000d0: eccc edbc dd78 033d 9fe4 5fbd 8b66 cd3c
000000e0: a7aa fdbc 29e2 0e3e 2f1f d93d 0a11 733d
000000f0: 4587 423e 4eb1 12bd e040 063d 39b4 983c
00000100: 27cc 233c 9293 11be 2e65 0c3e 4bfb 853c
00000110: e7a8 01be fac6 9dbd 85cc 3f3e 64a4 513e
00000120: fd20 c33c 8da7 f2bc 5046 93bd 3064 80bc
00000130: 07ec a33c 764a 1cbe 8fed acbc 1ceb 253e
00000140: 35b5 933d 46ef 793d b02c 87bd 14e8 9cbd
00000150: 8330 1cbe bb1e 91be d60a 5eb9 f58e 92bd
00000160: 90bb 4bbe 05f1 afbd 37e8 103d c07e 19bd
00000170: 5eb5 03bd 39cb 41bc 1bc5 0d3c 8924 053e
00000180: 95c0 533e 3808 32bd 5427 b4ba c948 7bbd
00000190: 0712 76bd 87c4 863d 45c4 92bd df38 1ebc
000001a0: f6dd 853c 94ad 1a3d b10c a73c 78fc 2a3e
000001b0: 9cb6 6ebd d0af 163e 56c7 8c3d e61d 11be
000001c0: 88ba a73d 369f 003c 0e0e 183b d637 ba3d
000001d0: 865d 6c3e bd61 06be 73aa 74be f5b5 133e
000001e0: 4ccf ca3d 0f98 0c3e b3f3 b8bd f7ce f83d
000001f0: 09cd ecbc 8231 bc3d b1b8 b83d d085 7abd
00000200: 6bc0 eabd d019 c6bc 3ed0 073e f537 023e
00000210: 46c2 83bd 8aac 453e d7d2 3ebd 688a 89bd
00000220: 098a 7ebd ba54 1ebd 3096 5c3c e1f7 efbd
00000230: 171b 80bd 19b5 e93d a12f 5c3e d2f1 033e
00000240: 4ff2 a63d 0722 9b3d 11d8 1ebe 48b4 69be
00000250: 9a5f 093c eecb a4bd 7e3d c13c 917c afbd
00000260: fcef 80bd 4380 bb3d cae9 a93d e971 24bc
00000270: fe33 bbbc b347 413d ae5d 4c3e 424b 853d
00000280: 8b32 993d 92d0 763e 48ba d13c eab3 eb3b
00000290: 0931 383d 84be a4bc 3d6c 823c 7468 42bd
000002a0: 50ce e13d 9955 4b3c 298a aa3d bf1e 07bc
000002b0: 3923 383d d6dd 973d 28eb 103e db8c f73d
000002c0: da96 8dbd 9f15 903e 7fab debd 9e9f eabd
000002d0: 2116 a03d 5c25 eb3c d66b 603e aa2c 063e
000002e0: c826 143d 944a 063e 29cd c3bd 46e0 20be
000002f0: c2ae fe3b 282b a73c 55ff 6f3d 9c93 b23d
00000300: 981c 1b3e c46f 813d 0f9f c63d ad0f 093e
00000310: db6c 7a3e cbde 103e 17a4 a6bd 3530 7abe
00000320: 000f e6bd c015 883d f0c6 4a3d d2fa 80bc
00000330: 2000 33bd f6ea 853c ab39 d6bc acc5 cbbc
00000340: 7e9f e1bd 67c0 c03d ae43 bbbc b806 06be
00000350: e275 32bc a674 c63d a9b4 22bc 5c7d 07be
00000360: a111 f43c f6a7 8c3d 20d7 043e 7bfc 57be
00000370: 27e7 89ba 7358 673e 6f7a ca3a fde2 91bd
00000380: cb63 d33c 50b2 cebd b042 833e 79fc 9ebd
00000390: de61 9b3d c136 573d a1de b1bd 4f2a b1bd
000003a0: dc0a 4d3e 0eac 183c 35e1 e53c c3ed 57be
000003b0: aa3a 143d d2b3 883d e8e2 143e 837c 98bd
000003c0: 6bdf d73c 2405 c2bd 063b babd 8dc5 983d
000003d0: 73d8 063e e69c c83d 0a4e cc3d 10e5 2bbc
000003e0: dafe ccbd 1e00 ea3d 232b 743e f12d 6e3e
000003f0: 4c7f e7bd ddfa 8d3c d0bf e8bd bd80 81bd

net.2.grid_points f4 [5]
-2.0 -1.0 0.0 1.0 2.0
00000000: 0000 00c0 0000 80bf 0000 0000 0000 803f
00000010: 0000 0040

net.3.coeff f4 [1, 64, 5]
0.03550274 -0.009237103 -0.0029393234 -0.15519111 -0.006389541 -0.06651528 -0.05005692 0.021937523
0.04603325 0.0431423 0.19402806 0.05173395 -0.019520482 -0.16905133 -0.07093253 0.03834714
0.032051846 -0.054515027 0.04411119 -0.057894137 -0.048080664 -0.031796943 -0.13639465 0.0018298422
-0.059959646 0.10575106 0.11862694 0.030894395 0.015784374 0.17190136 0.05257166 0.0113754915
-0.13929039 0.025523642 0.0993415 0.006580987 -0.13847983 -0.039462805 -0.2160638 0.17261843
-0.10021987 -0.15766202 0.037223175 -0.11764193 -0.01310118 0.14463006 0.2120519 0.048593126
0.14019315 0.07004163 -0.16704427 -0.19019112 0.014296005 0.031104155 0.03997751 0.10347687
0.031091541 -0.089749455 -0.025021102 0.027567541 0.06672911 0.12313146 0.0941854 -0.03379753
0.084683694 0.10814718 -0.023434725 0.044263847 -0.17786638 -0.07703389 -0.09978889 0.0069586425
-0.06243131 -0.049138047 0.012627279 -0.062267482 0.0801204 0.10339715 -0.021137904 -0.11264397
0.00028309927 0.06470404 0.15542707 0.1846436 0.013163541 -0.025348801 -0.13306387 0.04606395
0.022918217 0.10006545 0.059846442 -0.013650651 -0.042110823 -0.15783235 0.0046430393 -0.037672557
-0.06292694 -0.11300388 -0.096879296 0.06712013 -0.24715535 0.14128809 -0.05249807 -0.16679402
-0.013526385 0.08839166 0.023116175 0.10886318 0.10396282 0.09778933 0.08139386 0.038578972
-0.06916996 0.008287624 0.03152368 -0.12277573 -0.07452251 -0.047173157 -0.0039225677 0.0069928193
0.078662485 -0.039572623 -0.01887914 0.06386785 -0.05381582 -0.016844912 0.0027802254 0.045756046
0.10747857 0.22612713 0.045695473 0.079822145 -0.0040225266 0.064510025 0.021171775 0.10408354
0.15916707 0.044230167 -0.023105966 0.1072688 -0.16063575 0.0154946875 -0.094917946 -0.13967979
-0.14848232 -0.10852989 0.021335002 -0.11719642 0.0600504 -0.006978286 0.0060751815 -0.113164805
-0.004751008 0.05810975 -0.047472797 0.13038237 -0.0028111245 -0.0012521036 -0.09157858 -0.05815482
0.14142193 0.07077639 0.034996312 0.0072013903 0.07657649 -0.1625143 -0.11800751 0.084577315
-0.008723014 0.16750757 -0.029493146 -0.0667112 -0.08507975 0.067933515 0.016829811 -0.12563927
-0.09385892 -0.15936367 0.074432515 0.11218649 0.024923367 0.12192103 0.12221294 0.12029211
0.16026612 0.11851 0.075077996 0.04460487 0.021488192 0.07953551 0.14307962 0.030171398
-0.011674768 -0.084100984 0.004630271 -0.06488578 -0.102059714 0.04782016 -0.05791107 -0.002553607
0.06980806 -0.12650156 -0.046448793 -0.093976945 0.08793272 0.09562901 -0.08086207 -0.054690555
0.14067672 -0.011177965 0.03529061 0.025012692 -0.048616324 -0.008917035 -0.0076583955 0.14600061
-0.07242031 0.07631335 0.0584493 0.07792785 0.077192575 -0.06361101 -0.118023135 0.064287424
-0.023372058 -0.17041509 0.09968744 0.02339451 0.1262745 0.06685744 0.08727501 -0.220571
-0.096926935 0.07794594 0.15693441 0.0151144285 -0.11095188 0.0009585037 0.26620576 0.042532638
0.11284572 0.0024065326 -0.011069608 0.1553813 0.19378959 0.08536926 -0.032264505 0.023395335
-0.083711244 0.1633726 0.009096125 -0.091320485 0.02395752 -0.04140877 0.19529879 -0.026911898
00000000: 526b 113d 3857 17bc aaa1 40bb 6bea 1ebe
00000010: 5b5f d1bb 2a39 88bd 7c08 4dbd 52b6 b33c
00000020: 5c8d 3c3d fbb5 303d 4baf 463e fae6 533d
00000030: 6be9 9fbc cb1b 2dbe 1345 91bd e411 1d3d
00000040: cc48 033d 264b 5fbd efad 343d 6722 6dbd
00000050: 3bf0 44bd 833d 02bd 0aab 0bbe 51d7 ef3a
00000060: 3f98 75bd 0394 d83d aef2 f23d 3e16 fd3c
00000070: 3b4e 813c e906 303e 6255 573d 4560 3a3c
00000080: 24a2 0ebe f516 d13c 8e73 cb3d 52a5 d73b
00000090: a8cd 0dbe c0a3 21bd d43f 5dbe e3c2 303e
000000a0: 1340 cdbd 2772 21be 5477 183d 41ee f0bd
000000b0: 55a6 56bc e719 143e 2224 593e 9609 473d
000000c0: cb8e 0f3e fc71 8f3d a70d 2bbe 76c1 42be
000000d0: ca39 6a3c 24ce fe3c 75bf 233d aeeb d33d
000000e0: b0b3 fe3c 90ce b7bd 0ef9 ccbc 53d5 e13c
000000f0: 46a9 883d 592c fc3d 46e4 c03d 476f 0abd
00000100: a56e ad3d 457c dd3d 2efa bfbc 024e 353d
00000110: 9b22 36be f2c3 9dbd 1e5e ccbd 5305 e43b
00000120: f9b7 7fbd fa44 49bd a6e2 4e3c 300c 7fbd
00000130: 2a16 a43d e3c1 d33d 6629 adbc e2b1 e6bd
00000140: f16c 9439 8d83 843d 4628 1f3e 3613 3d3e
00000150: e5ab 573c 4aa8 cfbc e541 08be 8dad 3c3d
00000160: fcbe bb3c 1def cc3d 8b21 753d fba6 5fbc
00000170: 667c 2cbd ce9e 21be a324 983b 8a4e 1abd
00000180: d7df 80bd 946e e7bd a768 c6bd 4776 893d
00000190: 4b16 7dbe d3ad 103e 3708 57bd 0dcc 2abe
000001a0: c59d 5dbc b006 b53d 225e bd3c a9f3 de3d
000001b0: 75ea d43d c645 c83d d3b1 a63d fc04 1e3d
000001c0: fba8 8dbd d1c8 073c f91e 013d d871 fbbd
000001d0: 429f 98bd a438 41bd e288 80bb 0524 e53b
000001e0: cc19 a13d e716 22bd 6da8 9abc 26cd 823d
000001f0: fa6d 5cbd 57fe 89bc 7134 363b b16a 3b3d
00000200: b91d dc3d df8d 673e 2d2b 3b3d cb79 a33d
00000210: 66cf 83bb d51d 843d 6e70 ad3c c029 d53d
00000220: b1fc 223e b12a 353d b948 bdbc bfaf db3d
00000230: b37d 24be 6edd 7d3c 5764 c2bd 3808 0fbe
00000240: c00b 18be eb44 debd bec6 ae3c ad04 f0bd
00000250: 69f7 753d 1baa e4bb 5112 c73b f3c2 e7bd
00000260: 58ae 9bbb 7d04 6e3d d672 42bd f582 053e
00000270: d83a 38bb a01d a4ba 8d8d bbbd c033 6ebd
00000280: e9d0 103e 36f3 903d 4b58 0f3d a4f9 eb3b
00000290: 23d4 9c3d 266a 26be ecad f1bd df36 ad3d
000002a0: f9ea 0ebc 1b87 2b3e 9c9b f1bc e29f 88bd
000002b0: 4b3e aebd ba20 8b3d acde 893c 95a7 00be
000002c0: 1b39 c0bd 3b30 23be 1370 983d 08c2 e53d
000002d0: 172c cc3c bcb1 f93d c74a fa3d b65b f63d
000002e0: cd1c 243e 5fb5 f23d 7ec2 993d 99b3 363d
000002f0: 0108 b03c 83e3 a23d 7783 123e 022a f73c
00000300: 8747 3fbc 233d acbd 87b9 973b d6e2 84bd
00000310: af04 d1bd 12df 433d 2834 6dbd 6b5a 27bb
00000320: 87f7 8e3d a089 01be 1741 3ebd fc76 c0bd
00000330: 1216 b43d 24d9 c33d 039b a5bd 3403 60bd
00000340: 8f0d 103e c923 37bc e38c 103d 6be7 cc3c
00000350: e921 47bd c118 12bc 47f3 fabb 2f81 153e
00000360: 1951 94bd 2c4a 9c3d 8868 6f3d a398 9f3d
00000370: 2417 9e3d 7d46 82bd 1db6 f1bd 20a9 833d
00000380: c276 bfbc 4b81 2ebe ee28 cc3d d8a5 bf3c
00000390: 1a4e 013e 8eec 883d 3ebd b23d 5ddd 61be
000003a0: a181 c6bd 1fa2 9f3d 6ab3 203e 82a2 773c
000003b0: bd3a e3bd 1844 7b3a 1f4c 883e b436 2e3d
000003c0: a81b e73d ebb6 1d3b 4d5d 35bc 471c 1f3e
000003d0: c770 463e 14d6 ae3d c927 04bd 93a7 bf3c
000003e0: cd70 abbd 264b 273e ea07 153c 3c06 bbbd
000003f0: 9042 c43c 3e9c 29bd 68fc 473e 5776 dcbc

net.3.scale f4 [1, 64]
0.996571 0.9981158 0.99718165 0.99853987 1.002131 0.9996515 1.0002346 0.9966938
1.0032467 0.9992358 1.0015396 0.99953157 1.0000602 1.0032144 1.0018631 0.9992724
0.9992005 0.99753416 1.0012269 1.0016376 1.0004843 0.9997269 0.99840504 0.9994068
0.99707013 0.9977458 1.0031629 0.9981566 1.0030988 1.000514 0.9997428 0.99948025
0.9989443 0.996525 0.9998929 0.9970298 0.9996947 0.9996506 0.9997382 1.0003012
0.99679995 1.0001458 1.0019684 0.99938625 1.001487 1.0009191 0.99978054 0.9999819
1.0010308 1.0018499 1.0036588 0.99994123 1.000647 0.9992139 0.99804926 0.9985719
0.9971125 0.9994684 1.0013577 1.0026289 1.0003653 1.0011524 1.0008161 0.9966523
00000000: 471f 7f3f 8484 7f3f 4c47 7f3f 4fa0 7f3f
00000010: d445 803f 29e9 7f3f b007 803f 5327 7f3f
00000020: 636a 803f ebcd 7f3f 7332 803f 4de1 7f3f
00000030: f901 803f 5469 803f 0d3d 803f 51d0 7f3f
00000040: 9bcb 7f3f 665e 7f3f 3428 803f a935 803f
00000050: df0f 803f 1aee 7f3f 7997 7f3f 20d9 7f3f
00000060: fd3f 7f3f 456c 7f3f a467 803f 3187 7f3f
00000070: 8b65 803f d810 803f 25ef 7f3f f0dd 7f3f
00000080: d0ba 7f3f 431c 7f3f fbf8 7f3f 583d 7f3f
00000090: feeb 7f3f 1ae9 7f3f d8ee 7f3f df09 803f
000000a0: 482e 7f3f c704 803f 8040 803f c7d7 7f3f
000000b0: ba30 803f 1e1e 803f 9ef1 7f3f d0fe 7f3f
000000c0: c721 803f 9e3c 803f e477 803f 26fc 7f3f
000000d0: 3315 803f 7bcc 7f3f 2880 7f3f 68a2 7f3f
000000e0: c442 7f3f 29dd 7f3f 7d2c 803f 2556 803f
000000f0: f80b 803f c325 803f be1a 803f 9b24 7f3f

net.3.base_weight f4 [1, 64]
-0.036371958 -0.05429144 -0.026461836 0.054461494 0.08531367 -0.02037229 -0.16350326 0.078152515
-0.1670949 -0.04252303 0.005208875 0.06500541 -0.08649693 0.119864605 -0.040747583 -0.05094914
0.109062195 -0.20046979 -0.0639753 0.05905836 -0.1017795 -0.07089577 0.24572176 -0.11139195
-0.024162242 0.01809797 0.21453269 0.015370442 -0.016194899 0.05112088 0.07820218 0.026879549
0.018359357 -0.05022874 0.013485887 -0.13555743 0.12769514 0.041938156 0.057496347 0.040620636
-0.12068153 -0.006214602 0.09250082 -0.17016196 0.20737207 0.106293574 0.064859845 0.014592669
-0.14020148 0.017630111 0.06756847 0.112224884 0.105141096 -0.2525877 -0.041364 0.0315781
0.005734073 -0.0159967 -0.050725173 -0.054858167 0.2339314 0.05676206 -0.10396495 0.011164613
00000000: c3fa 14bd b360 5ebd 7ec6 d8bc 0413 5f3d
00000010: efb8 ae3d cae3 a6bc 666d 27be 6d0e a03d
00000020: ed1a 2bbe a12c 2ebd 36af aa3b 8e21 853d
00000030: 4d25 b1bd 937b f53d f0e6 26bd 0cb0 50bd
00000040: 005c df3d f447 4dbe 7b05 83bd 2ee7 713d
00000050: c571 d0bd cd31 91bd 7c9e 7b3e 7621 e4bd
00000060: e5ef c5bc 3242 943c 75ae 5b3e 4ed4 7b3c
00000070: 2aab 84bc 2164 513d 7728 a03d 8032 dc3c
00000080: 5d66 963c a7bc 4dbd e9f3 5c3c 91cf 0abe
00000090: 84c2 023e 58c7 2b3d 4a81 6b3d d361 263d
000000a0: e127 f7bd dca3 cbbb 1271 bd3d f03e 2ebe
000000b0: 5859 543e 72b0 d93d 3dd5 843d 1716 6f3c
000000c0: fa90 0fbe 066d 903c 5761 8a3d 29d6 e53d
000000d0: 3754 d73d 2d53 81be 4c6d 29bd 0a58 013d
000000e0: e4e4 bb3b 830b 83bc 33c5 4fbd f5b2 60bd
000000f0: b78b 6f3e 557f 683d 93eb d4bd c8eb 363c

net.3.grid_points f4 [5]
-2.0 -1.0 0.0 1.0 2.0
00000000: 0000 00c0 0000 80bf 0000 0000 0000 803f
00000010: 0000 0040
