data/trained_models/base_cp_a_snn.pth (torch, 118756 bytes, 5 tensors)

fc1.weight f4 [64, 374]
0	0xbd371d08	-0.04470542
1	0xbc3db44b	-0.01157863
2	0xbd7ae1d1	-0.06125051
3	0xbd62f6ee	-0.05541127
4	0xbc6914d3	-0.014226156
5	0x3c98d658	0.018656895
6	0x3d24cef6	0.040236436
7	0xbcd4f221	-0.025994362
8	0xbc37da91	-0.011221544
9	0xbbce6f7a	-0.00629991
10	0xbd39d159	-0.045365665
11	0xbc5e3156	-0.013561567
12	0x3cd122fe	0.02552938
13	0x3c5411a8	0.012943663
14	0xbc8e0271	-0.017335149
15	0xbd4c5cd2	-0.049893208
16	0x3ce3c4f2	0.027803872
17	0x3d235fa2	0.039886124
18	0x3cf8c572	0.030367587
19	0x3bab8082	0.005233825
20	0x3c93bff6	0.01803587
21	0xbcad3a02	-0.021145824
22	0xbd80a641	-0.062817104
23	0xbd349e56	-0.044096313
24	0x3c995d98	0.018721387
25	0x3b1d93ee	0.0024044472
26	0xbc0b3edb	-0.008498873
27	0xbd77e8b8	-0.060524672
28	0xbc3e9f22	-0.01163462
29	0xbd3a1820	-0.045433164
30	0x3bdf4034	0.0068130735
31	0x3d52d7d1	0.05147535
32	0x3cf593cd	0.029977703
33	0x3cd496dc	0.025950842
34	0x3d238bd3	0.03992827
35	0xbc0425ef	-0.008065685
36	0x3ad5ca6b	0.0016310936
37	0x3c2c76dc	0.010526385
38	0xbc97c7e7	-0.018527938
39	0xbd1c37b9	-0.03813908
40	0x3c9c96c9	0.019114869
41	0xbc2fca6b	-0.010729413
42	0x3cc3aea4	0.023886986
43	0x3d060b1a	0.03272543
44	0xbc80d8da	-0.015728403
45	0x3c810f10	0.015754253
46	0x3b0505ce	0.002029765
47	0x3d6ee209	0.058321033
48	0x3d08959d	0.033345807
49	0xbc36bc47	-0.011153287
50	0xbce6931e	-0.028146323
51	0x3d827c3e	0.063713536
52	0x3d04799a	0.03234253
53	0xbd3f55a6	-0.04671254
54	0xbc063816	-0.008192083
55	0x3c9b9714	0.018992938
56	0xbd5aab39	-0.053385947
57	0x3c6d771c	0.01449373
58	0xbbc541dc	-0.006019814
59	0x3cf3a296	0.029740613
60	0x3c83e028	0.016098097
61	0x3c79add0	0.015239194
62	0x3cf459b4	0.02982793
63	0xbd09f7b8	-0.03368351
64	0xbd767840	-0.060173273
65	0x3cf32662	0.029681388
66	0x3abe7398	0.0014530299
67	0xbc9ebd0f	-0.01937726
68	0x3c87a1d8	0.016556665
69	0xbd4cebb8	-0.050029486
70	0x3973b220	0.00023240643
71	0xbcce7127	-0.02520044
72	0xbd5bed6a	-0.053693213
73	0xbb2f84ce	-0.0026782039
74	0x3ae07890	0.0017125774
75	0xbcb248ae	-0.021763172
76	0xbc801317	-0.015634103
77	0xbc79e45a	-0.015252197
78	0xbcad4ec8	-0.02115573
79	0xbaecc791	-0.0018064847
80	0xbd5aaecd	-0.05338936
81	0xbd4ccada	-0.04999814
82	0xbd05e370	-0.032687604
83	0x3cc197d2	0.023631964
84	0x3d50420b	0.050844233
85	0xbd717db1	-0.05895776
86	0xbc947f22	-0.018127028
87	0x3c7a4562	0.015275331
88	0xbc2048b2	-0.009782957
89	0xbcab0883	-0.020878082
90	0x3d52581b	0.051353555
91	0xbd35b940	-0.04436612
92	0xbcc5afba	-0.024131645
93	0xbd0d8456	-0.034550034
94	0xbc651c58	-0.013983808
95	0x3d496607	0.049169566
96	0x3d1d7725	0.038443703
97	0x3c2599b6	0.010107448
98	0xbd4ad451	-0.049518887
99	0xbd75a3f2	-0.059970804
100	0xbd0c7299	-0.034288976
101	0xbc7eb1b4	-0.015545297
102	0x3c94cb31	0.018163295
103	0xbc4f6d2c	-0.012660306
104	0xbc21bd76	-0.009871831
105	0x3d241073	0.04005475
106	0xbd0c1a75	-0.03420492
107	0xbc6dc3d3	-0.01451202
108	0xbd3e6aa6	-0.046488427
109	0xbca0302e	-0.019554224
110	0x3c97d3f6	0.018533688
111	0xbcff5b02	-0.031171326
112	0xbd2010fc	-0.039078698
113	0x3d25e297	0.040499296
114	0xbc264d62	-0.010150285
115	0x3c7b6dff	0.015346049
116	0xbd1047c0	-0.035224676
117	0xbd0bab2d	-0.034098793
118	0x3ccd0726	0.025027823
119	0x3d157b64	0.036494628
120	0x3c84f1a7	0.01622851
121	0x3c783edf	0.015151708
122	0x3d4732f7	0.04863259
123	0x3cfd80be	0.030945178
124	0x3d357615	0.044302065
125	0xbb13294e	-0.002245504
126	0x3cc14812	0.023593936
127	0x3c8f50f8	0.017494664
128	0xbc5d27e4	-0.01349828
129	0xbd155385	-0.036456604
130	0xbc23310a	-0.009960422
131	0xbd04148b	-0.032246154
132	0xbcda2a00	-0.026631355
133	0x3c93a234	0.01802168
134	0xbcd93638	-0.026515111
135	0xbd231518	-0.03981504
136	0xbc3eb676	-0.011640182
137	0xbd80642f	-0.062691085
138	0x3cd93bf1	0.02651784
139	0xbc83b99c	-0.016079716
140	0x3c3f9570	0.0116933435
141	0xbc38083a	-0.01123243
142	0x3cf99e36	0.030470949
143	0xbcfb904b	-0.030708453
144	0x3c031878	0.008001439
145	0xbd34f775	-0.044181306
146	0x3d493093	0.04911859
147	0xbd258e49	-0.040418897
148	0xbcfdfaca	-0.031003375
149	0xba87559e	-0.0010325199
150	0x3c2b17ee	0.010442717
151	0x3d2f2d89	0.042768035
152	0x3d247bcb	0.04015712
153	0xbd80871f	-0.06275772
154	0xbcd66436	-0.026170831
155	0xbb2ba80e	-0.0026192698
156	0xbb9a29ba	-0.004704681
157	0xbd76bfd8	-0.06024155
158	0x3d35547d	0.044270027
159	0x3cae59a4	0.021282978
160	0x3c3bd832	0.011465119
161	0xbc448478	-0.011994474
162	0x3d111661	0.035421733
163	0xbd4205af	-0.0473687
164	0x3c098890	0.008394375
165	0x3c7a3ad2	0.015272813
166	0xbd105b3c	-0.035243258
167	0x3d51804b	0.05114774
168	0xbc96047c	-0.018312685
169	0x3c4808d8	0.01220914
170	0x3bdf65ac	0.00681754
171	0x3c9c78f4	0.019100644
172	0xbcdc951f	-0.026926575
173	0xbd1bc32b	-0.038027924
174	0x3d4e4193	0.050355505
175	0xbc0cd49e	-0.008595614
176	0x3d4c7f0d	0.049925853
177	0x3cf3d802	0.029766086
178	0xbcd9f690	-0.026606828
179	0xbc7b3290	-0.015331879
180	0xbce2af1e	-0.027671393
181	0xbc2e563a	-0.010640675
182	0xbb699b9c	-0.003564573
183	0xbb860786	-0.0040902523
184	0xbce1c0ba	-0.02755772
185	0x3d44f185	0.048081893
186	0xbd00d40b	-0.03145222
187	0x3d14c73b	0.036322813
188	0xbd10cd2e	-0.035351925
189	0xbd121923	-0.035668503
190	0xbb31f1be	-0.0027152146
191	0x3cae89cc	0.021305941
192	0xbd0dc20e	-0.034608893
193	0x3d2e4f9d	0.042556394
194	0x3cbb3874	0.022854067
195	0xbc6f9ef0	-0.014625296
196	0xbd32b276	-0.043627225
197	0xbd2ac6d6	-0.04169353
198	0xbd8aca43	-0.067768596
199	0xbd3f8e90	-0.046766818
200	0x3ca077f9	0.019588457
201	0xbd68154e	-0.056660943
202	0x3d3995f2	0.045309015
203	0x3b6637ea	0.0035128542
204	0x3ba14b31	0.0049222936
205	0xbd59c7e8	-0.05316916
206	0x3b2218d6	0.0024734042
207	0xbd24f6d8	-0.04027447
208	0xbd2b3a4a	-0.041803636
209	0x3c9cf2e9	0.019158797
210	0x3d321f09	0.04348663
211	0x3d0a8e1f	0.033826943
212	0xbc4fe244	-0.012688223
213	0x3c117387	0.0088776415
214	0xbd1110f9	-0.035416577
215	0x3cfb3b1f	0.03066784
216	0xbce6302f	-0.028099148
217	0x3cebacdb	0.028768947
218	0xbd5dbf96	-0.05413779
219	0xbcf9e297	-0.030503554
220	0x3b6f413c	0.0036507389
221	0xbd475a48	-0.048670083
222	0x3c5ffec7	0.0136715835
223	0x3c726ef3	0.01479696
224	0x3c8f2618	0.01747422
225	0x3d095afb	0.03353403
226	0xbc2f7522	-0.010709079
227	0x3d31510d	0.043290187
228	0x3bf91670	0.0076015517
229	0x3d3dcbfb	0.04633711
230	0x3c988a60	0.01862067
231	0x3caecdf7	0.021338446
232	0xbcb4e6bd	-0.02208268
233	0x3cd04def	0.025427787
234	0xbc96fbf0	-0.01843068
235	0xba7fb680	-0.00097546726
236	0xbd76d648	-0.06026295
237	0x3d12c164	0.035828963
238	0x3c75722f	0.014980837
239	0x3d126f81	0.03575087
240	0xbd035e32	-0.032072254
241	0x3c5e246e	0.01355849
242	0xbd0ade03	-0.033903133
243	0x3baedb81	0.0053362255
244	0xbd0df924	-0.034661427
245	0xbd08d076	-0.03340193
246	0xbc0369b4	-0.008020807
247	0x3d26a80b	0.040687602
248	0x3d0266cf	0.031836327
249	0x3d2f6484	0.04282047
250	0xbbc81a35	-0.0061066397
251	0x3ca64e11	0.020300897
252	0x3d05c099	0.03265438
253	0x3c5205da	0.012818778
254	0xbd0024ea	-0.031285204
255	0x3d3643c5	0.044498224

fc1.bias f4 [64]
0	0xbd16c891	-0.03681237
1	0xbcb34afa	-0.021886338
2	0x3c7f8a81	0.015596987
3	0x3d0690b0	0.03285283
4	0xbd2cfbef	-0.04223245
5	0x3d907a8d	0.07054625
6	0xbaa12c81	-0.0012296588
7	0x3d045315	0.032305796
8	0xbcd5dd5c	-0.026106529
9	0xbb39170a	-0.0028242492
10	0x3d8371b1	0.06418169
11	0x3cc4ee10	0.024039298
12	0x3ceccc80	0.028906107
13	0x3c07aff9	0.008281701
14	0x3bc3e8e5	0.005978691
15	0xbc58c973	-0.013231623
16	0xbcd0a720	-0.025470316
17	0x3d8d9793	0.06913676
18	0x3d3334b7	0.043751445
19	0xbd175ad4	-0.036951855
20	0x3bba8d06	0.005693081
21	0x3c96ec5a	0.018423248
22	0xbcc715ae	-0.02430233
23	0x3c9042e5	0.017610023
24	0x3d8eac50	0.0696646
25	0x3a73d6ec	0.000930174
26	0x3ce1baf0	0.027554959
27	0x3d5b70ec	0.053574488
28	0x3c81667e	0.015795942
29	0x3d24e215	0.04025467
30	0x3ca48915	0.020084897
31	0xbcfaa6bd	-0.030597085
32	0x3cd75559	0.026285814
33	0xbb412fe7	-0.0029478015
34	0xbd9d46cb	-0.07679518
35	0x3d1f2e21	0.03886235
36	0x3c8d8b27	0.017278267
37	0x3d4c9d57	0.04995474
38	0x3d439704	0.04775144
39	0x3d2c625a	0.042085983
40	0x3c43dd2d	0.011954588
41	0xbc010c37	-0.007876447
42	0x3d505e03	0.050870907
43	0x3d26aeb0	0.04069394
44	0xbd075721	-0.033042077
45	0x3bee0c70	0.0072646663
46	0x3d1b8eae	0.037977867
47	0x3c9f6e82	0.019461874
48	0xbcc8d1bd	-0.024514074
49	0x3cde5897	0.027141852
50	0x3d05cf4d	0.0326684
51	0xbc83591f	-0.016033707
52	0xbc115e57	-0.00887259
53	0x3d6d4221	0.057924394
54	0x3c8c12ef	0.017098872
55	0x3d9fc5e1	0.07801414
56	0xbc31a50b	-0.010842572
57	0x3cf46489	0.029833095
58	0x3d7451d9	0.05964837
59	0x3ba4499e	0.0050136587
60	0x3d729b74	0.059230283
61	0xbc1e4290	-0.009659424
62	0x3c1eb2b9	0.0096861655
63	0x3d916657	0.07099598

fc2.weight f4 [64, 64]
0	0x3d06d2cf	0.032915886
1	0xbd9ed0f9	-0.07754702
2	0x3cba7b46	0.02276386
3	0x3dd52608	0.104076445
4	0xbd876158	-0.06610364
5	0x3e0f24b0	0.13978839
6	0x3d564e60	0.052320838
7	0xbc641bc8	-0.013922639
8	0x3d3e0ecc	0.04640083
9	0xbd18cc23	-0.037304055
10	0xbcf98feb	-0.030464133
11	0xbc87ec13	-0.016592061
12	0x3d808ce5	0.062768735
13	0x3d90b561	0.07065845
14	0xbd3e89ba	-0.046518065
15	0x3d8219da	0.06352587
16	0xbda2b0aa	-0.07943852
17	0x3db708e5	0.08937243
18	0x3d7ab29d	0.061205495
19	0xbd90207f	-0.07037448
20	0x3dc19f68	0.094542325
21	0x3cdf2807	0.027240766
22	0xbda1a991	-0.0789367
23	0xbd84beae	-0.06481682
24	0xbdaf51bb	-0.08560511
25	0x3deecea8	0.1166051
26	0xbda05339	-0.078283735
27	0xbd87f816	-0.066391155
28	0x3d54d754	0.051963165
29	0x3dc7e1c0	0.09759855
30	0xbda4949f	-0.0803616
31	0x3e08402b	0.13305728
32	0x3d5165d6	0.05112251
33	0x3d891132	0.06692733
34	0x3d28ba7a	0.041193463
35	0x3d34e759	0.044165943
36	0x3d8f8fd7	0.07009857
37	0x3e080864	0.13284451
38	0x3dc6a691	0.09699739
39	0xbd797529	-0.06090275
40	0x3c8b1c06	0.016981136
41	0x3db496a2	0.088177934
42	0xbce42174	-0.027847983
43	0x3dc000e7	0.09375172
44	0x3dea3cd0	0.1143738
45	0xbdbb3c85	-0.091424026
46	0xbdbd1ecc	-0.0923439
47	0x3dad33fa	0.08457179
48	0xbd4746e9	-0.04865161
49	0xbcbf0112	-0.02331594
50	0xbd9a827a	-0.07544418
51	0x3dad6146	0.08465819
52	0x3d658080	0.05603075
53	0x3db8033f	0.08984994
54	0x3e1b5b5b	0.15171568
55	0x3d4dafa7	0.050216343
56	0x3da3ea96	0.08003728
57	0x3d9e32b8	0.077245176
58	0x3ddfcc80	0.10927677
59	0x3d3ce884	0.04612018
60	0x3cc1862e	0.023623552
61	0x3e050fb6	0.12994274
62	0x3e14e0a0	0.14538813
63	0xbdc2e100	-0.095155716
64	0xbc9adc6c	-0.018903933
65	0x3d8f0603	0.069835685
66	0xbdaa5291	-0.083165295
67	0x3dedce5b	0.11611625
68	0xbc23519c	-0.009968188
69	0x3e0b7970	0.13620543
70	0xbd7ea68a	-0.062170543
71	0x3d9c751d	0.07639525
72	0x3d84bd4a	0.064814165
73	0x3db46df0	0.088100314
74	0x3d0b1250	0.03395301
75	0xbcf993d1	-0.030465992
76	0x3cc1af2a	0.023643095
77	0x3e12ec59	0.14347972
78	0xbd5f2791	-0.054481093
79	0x3d81c725	0.06336812
80	0x3d009991	0.031396452
81	0x3e13828e	0.14405271
82	0x3ccfb432	0.025354479
83	0x3ce476d5	0.027888695
84	0xbd135772	-0.035972066
85	0x3db0d0bc	0.08633563
86	0x3c864024	0.016388007
87	0x3d48835a	0.04895339
88	0x3dab2eab	0.083585106
89	0xbcd48615	-0.025942842
90	0xbc19092a	-0.009340564
91	0x3d432b80	0.047648907
92	0x3d2fac70	0.04288906
93	0xbdb2fccc	-0.087396234
94	0x3e110756	0.14162955
95	0x3dff4665	0.124645986
96	0x3dab5992	0.083666936
97	0x3c634610	0.013871685
98	0x3d16778e	0.03673511
99	0x3da8fa48	0.08250862
100	0x3d7405d1	0.05957586
101	0x3dd10294	0.1020557
102	0x3e0c4127	0.13696729
103	0x3bd683d9	0.006546479
104	0x3d4be907	0.04978278
105	0x3de08ebe	0.10964726
106	0xbd2feecd	-0.042952348
107	0x3d0b63e9	0.03403083
108	0xbd8c7c5f	-0.068596594
109	0x3e05d26f	0.13068555
110	0x3c8a45a7	0.016878916
111	0xbd80765f	-0.062725775
112	0x3e10e2cd	0.14149018
113	0x3de7a0c0	0.113099575
114	0xbdbbe321	-0.09174181
115	0x3e12b853	0.14328127
116	0xbd0e229b	-0.03470097
117	0xbba138cb	-0.0049201003
118	0x3dac6316	0.08417337
119	0xbc270965	-0.010195111
120	0x3def2727	0.116773896
121	0xbd07a606	-0.033117317
122	0x3ded62ef	0.11591136
123	0x3d1f3e8e	0.038878016
124	0xbdbb2c2c	-0.091392845
125	0x3e001ef7	0.12511812
126	0xbd4496a7	-0.047995236
127	0x3e0fd41a	0.14045754
128	0x3d66630c	0.056246802
129	0x3dbd155e	0.09232591
130	0x3ce5c89f	0.028049765
131	0xbd729569	-0.05922452
132	0x3d7e25e7	0.062047865
133	0x3bbb8467	0.0057225707
134	0xbd33ed7c	-0.043927655
135	0x3dbff7cb	0.09373435
136	0xbda06872	-0.07832421
137	0x3cea296d	0.028584206
138	0x3d266c7b	0.0406308
139	0x3de3459f	0.110972635
140	0xbd0c185b	-0.034202915
141	0xbd3060a7	-0.043060925
142	0x3d88fad4	0.06688467
143	0x3dbbd609	0.09171683
144	0x3d99b643	0.07505467
145	0x3d86ac07	0.0657578
146	0x3dc00fa8	0.09377986
147	0x3d6fefcf	0.05857831
148	0x3dd23d6f	0.10265624
149	0xbc14053f	-0.009034454
150	0xbd8d947e	-0.06913088
151	0x3cda5c0d	0.026655221
152	0xbd4cf87e	-0.050041668
153	0x3ce45b24	0.02787549
154	0x3d0b024c	0.033937737
155	0x3b0f4da4	0.0021866346
156	0x3dd79fd7	0.10528534
157	0xbc5545df	-0.013017147
158	0x3e19fc4b	0.15037648
159	0xbd81f48e	-0.06345473
160	0x3d2365ba	0.039891936
161	0xbda0cc48	-0.078514636
162	0xbd803d7e	-0.06261729
163	0x3d968f8e	0.073516
164	0x3d2a443a	0.041568972
165	0xbd8b540e	-0.068031415
166	0x3e0e3fe6	0.13891563
167	0x3cf9062e	0.030398455
168	0xbd0bddb0	-0.034146965
169	0x3ccf3c6a	0.025297362
170	0xbda5315d	-0.08066056
171	0x3d1488dc	0.03626333
172	0x3e1a601d	0.15075727
173	0xbd1374a0	-0.035999894
174	0x3bfecd5c	0.0077759456
175	0xbd510a2c	-0.05103509
176	0xbd94bbfc	-0.07262418
177	0xbd56d502	-0.052449234
178	0x3d85e182	0.06537153
179	0xbdc4b0af	-0.09604012
180	0x3ce9c193	0.028534686
181	0x3be07ae6	0.006850588
182	0xbd78c36a	-0.060733236
183	0x3dc81543	0.0976968
184	0x3d38a0b3	0.04507513
185	0xbd0ba09e	-0.034088723
186	0xbda2a33a	-0.07941289
187	0xbd526e16	-0.051374517
188	0x3deefde7	0.11669522
189	0xbc32d506	-0.010915047
190	0x3d72d91c	0.059289083
191	0x3dc83597	0.097758465
192	0xbda7b690	-0.08189118
193	0xbdb6aaae	-0.08919273
194	0x3d005f54	0.031340912
195	0x3c2580da	0.010101521
196	0xbc4d77ad	-0.01254074
197	0x3dcbfa4c	0.0995985
198	0x3c43f90d	0.011961234
199	0x3de3751a	0.1110632
200	0x3deb958b	0.115031324
201	0x3dade283	0.08490469
202	0xbd5d9401	-0.054096226
203	0x3d317baa	0.043330826
204	0x3c9b3d04	0.018949993
205	0xbc55aef2	-0.0130421985
206	0xbcb74d4f	-0.02237573
207	0xbd910cfc	-0.07082555
208	0xbdcd0bd2	-0.1001202
209	0x3e0c123c	0.13678831
210	0x3e1e06b8	0.1543225
211	0x3d07372b	0.033011597
212	0x3c820e4f	0.015875963
213	0xbd37ec4f	-0.044903096
214	0x3d72a181	0.059236053
215	0x3d6ffc0f	0.05858999
216	0xbd475e58	-0.048673958
217	0x3e0f019e	0.1396546
218	0x3d8f5940	0.06999445
219	0xbd3c1775	-0.045920808
220	0x3d82406c	0.06359944
221	0xbd874706	-0.066053435
222	0x3cd3e68d	0.025866771
223	0xbd1ea455	-0.038730938
224	0x3be7c77f	0.0070733423
225	0x3de296dd	0.11063931
226	0xbc70d68c	-0.014699589
227	0x3e1a93bd	0.1509542
228	0x3df645ac	0.120250076
229	0xbcd96216	-0.026536029
230	0x3d9225d7	0.071361236
231	0x3e1e8665	0.15480955
232	0x3e031c18	0.12803686
233	0xbcf127b2	-0.029437874
234	0xbd2e7d2d	-0.042599846
235	0xbdaec8f7	-0.08534425
236	0xbd142b80	-0.036174297
237	0x3c87fcce	0.016600039
238	0x3e05d0e6	0.1306797
239	0x3d178a04	0.036996856
240	0xbd83e170	-0.06439483
241	0xbdc21b3b	-0.0947785
242	0xbd3b0b69	-0.04566518
243	0xbcc0c127	-0.023529602
244	0x3c3684c1	0.011140049
245	0x3c4b6305	0.012413745
246	0xbd30085a	-0.042976715
247	0x3ba95e63	0.0051687225
248	0xbaeda020	-0.0018129386
249	0x3ddfb2ec	0.109227985
250	0xbd66908c	-0.056290194
251	0xbd919fdd	-0.071105696
252	0x3d2c7ce9	0.04211131
253	0x3d96892f	0.073503844
254	0x3d5f6dd5	0.054548103
255	0xbd61ec9d	-0.055157293

fc2.bias f4 [64]
0	0xbda92cd2	-0.08260502
1	0x3da57a90	0.080800176
2	0x3d26569f	0.040609952
3	0xbdb5660c	-0.088573545
4	0xbd47003a	-0.0485842
5	0x3dd94198	0.10608214
6	0xbbcaf322	-0.0061935345
7	0x3d33032b	0.043704193
8	0xbd29c1b9	-0.041444514
9	0x3db1e897	0.08686941
10	0xbcf897cb	-0.030345818
11	0x3d91e065	0.07122878
12	0xbdc60587	-0.09669023
13	0x3cc8d765	0.02451677
14	0xbc6210e4	-0.013797972
15	0xbe052e6a	-0.13005987
16	0xbd075438	-0.0330393
17	0xbc90884a	-0.017643113
18	0x3d6f0e91	0.0583635
19	0xbcbb0cde	-0.022833284
20	0xbd162513	-0.03665645
21	0x3dcb1a27	0.099170975
22	0x3d547b66	0.051875494
23	0xbd04f8bb	-0.03246377
24	0x3d93ea32	0.072224036
25	0xbdb1c76b	-0.08680614
26	0xbe06c571	-0.13161255
27	0x3cfc0263	0.030762857
28	0x3e1c01ed	0.1523511
29	0x3dab3828	0.0836032
30	0x3babf88d	0.0052481354
31	0xbb2e0c15	-0.0026557494
32	0xbda92d46	-0.08260588
33	0xbde3bed6	-0.111203834
34	0x3dfa6170	0.12225616
35	0x3c1e05cd	0.009644938
36	0xbd31e051	-0.043426815
37	0xbd31cadf	-0.043406364
38	0x3d869fe5	0.06573466
39	0xbd9fd3e0	-0.07804084
40	0x3d581c1f	0.052761193
41	0xbd9db7a4	-0.07701042
42	0x3d822f8d	0.06356726
43	0xbd7ec782	-0.062201984
44	0xbcb06ed6	-0.021537226
45	0x3e1736f6	0.1476706
46	0x3d8690cc	0.065705866
47	0xbd0f603e	-0.035003893
48	0x3e167524	0.14693123
49	0xbd4a465e	-0.049383514
50	0x3d2254ed	0.039631773
51	0x3d413f61	0.047179583
52	0xbd90e671	-0.07075203
53	0xbdeec299	-0.1165821
54	0x3cd1a9f1	0.02559373
55	0x3d8d8cc5	0.06911615
56	0xbca959ea	-0.020672757
57	0x3dab6f14	0.08370796
58	0x3c82305d	0.015892202
59	0xbdcf950b	-0.101358496
60	0x3deb09cb	0.11476477
61	0xbd08bbb4	-0.033382133
62	0xbbd3c852	-0.006463089
63	0xbd153e89	-0.03643659

fc_out.weight f4 [1, 64]
0	0x3d979462	0.07401349
1	0x3e13d57c	0.14436907
2	0x3daf12a0	0.08548474
3	0x3dda0afe	0.10646628
4	0xbd3960ba	-0.04525826
5	0x3da54d68	0.08071405
6	0x3e1c29eb	0.15250365
7	0xbddaffb9	-0.106933065
8	0xbd538a30	-0.051645458
9	0xbd90410c	-0.07043657
10	0x3ce9bd81	0.028532745
11	0xbd8f6945	-0.070025004
12	0xbda4e487	-0.08051401
13	0x3e08007d	0.13281436
14	0x3d33079b	0.043708425
15	0xbdc0a211	-0.09405912
16	0x3e0b0cc5	0.1357909
17	0xbd18520c	-0.03718762
18	0xbca09d4b	-0.019606253
19	0x3db6c931	0.08925093
20	0xbde5c2de	-0.112188086
21	0xbd91f87c	-0.07127473
22	0x3e0c8d8b	0.1372587
23	0x3d67dbb3	0.056606006
24	0x3d0abefd	0.033873547
25	0xbd45460b	-0.0481625
26	0xbd38a0ca	-0.045075215
27	0xbbc83baa	-0.006110628
28	0x3d59777f	0.053092476
29	0xbd9375cf	-0.072002046
30	0xbd0ff589	-0.03514627
31	0x3d7f0ffd	0.062271107
32	0x3db0e7bc	0.0863795
33	0xbdb98938	-0.090593755
34	0x3de0dac2	0.10979225
35	0x3e19d908	0.15024197
36	0x3de9d3b2	0.11417331
37	0xbddd89c0	-0.10817289
38	0x3e0797bc	0.13241476
39	0xbdd6a935	-0.104814924
40	0x3db26ff2	0.08712758
41	0x3d2cf9a7	0.042230275
42	0x3debe03d	0.115173794
43	0x3d3004e1	0.042973403
44	0xbd16e960	-0.036843657
45	0x3d26ca15	0.040720064
46	0xbd9e8fa4	-0.07742241
47	0x3e042632	0.12905195
48	0x3db4f68e	0.08836089
49	0xbc7a52cd	-0.01527853
50	0xbd3a0926	-0.04541888
51	0x3de99e6e	0.11407171
52	0x3cc708a0	0.024296105
53	0xbc91603e	-0.017746087
54	0x3d9eef12	0.07760443
55	0x3dbccc30	0.09218633
56	0x3df51c4a	0.11968286
57	0xbcc378bd	-0.023861283
58	0xbcafbe89	-0.021453159
59	0xbdc23039	-0.09481854
60	0x3e05a57a	0.13051406
61	0x3de58aaf	0.112080924
62	0xbdb42791	-0.08796609
63	0xbd8b41c0	-0.0679965
