data/trained_models/base_Melt(K)_kan.pth (torch, 138818 bytes, 12 tensors)

net.0.coeff f4 [64, 10, 5]
00000000: 8ece f8bd c17b 66be 02c4 fbbb c801 443d
00000010: bafe 26be 2ded 14be 87ae 59be 556a d5bd
00000020: 527a f83d fd43 44be e6ae f03c 64be 063b
00000030: 4a91 02be c628 bd3c a089 78be e78c aa3d
00000040: 8693 a9bc e2b0 9a3d f94e b7bb a617 823d
00000050: 8467 93bd 4576 27bd 02f8 ba3c d81c 793d
00000060: 6744 443d d8f8 803c 2bf7 3f3d f639 4d3e
00000070: 9eb1 c03d a59f 41bd af2d d5bd f940 413c
00000080: 0597 0fbe 0496 fcb8 b52e 1b3d 7ce9 013e
00000090: 7e47 adbd 0072 67bb b109 243e ab09 08be
000000a0: e7f6 7dbd 5338 b33d 76c6 da3d f7f0 41be
000000b0: 9de1 37bd bde2 a23c 02b5 d83d 5d3a 4cbd
000000c0: 3957 503d 127c 3cbd d628 3cbc 2818 fd3d
000000d0: 204f 443e 2f3d 47bd ff5e 10be 66ef 29be
000000e0: dda0 113e e0eb 613d 91d8 2fbe 392c e1bd
000000f0: d102 9bbd 85b7 3a3e b702 9c3d d974 5ebd
00000100: f774 70bd 1bd9 95bd 98ff c33d c423 13bd
00000110: f85f eb3b 01b9 fa3c b260 973d d96b 3cbd
00000120: fe95 213e 9b36 dabc e332 c7bd 7db8 5fbc
00000130: ff5d f33d 4895 bcbd 7d9e b33d 0c36 013e
00000140: 8d53 debd 3a74 393d 7b4c 87bc fad7 97bd
00000150: fec3 343e 67b9 a9bd aa78 73bd c97d 943a
00000160: d8d5 153e e053 c73d 0b67 ed3c 5eca 0abe
00000170: a860 87be 6f06 353e b24f 8cbd 7934 ffbd
00000180: 54ac f63d 6159 c23b 6fb9 69bd beae 02bd
00000190: 4c34 ec3d 87b4 3c3e 2716 2e3c 4dbc 193e
000001a0: a22b 12bd 06aa 233b a3f3 50bd 9c93 e9bd
000001b0: 2b07 893d a9a4 9cbb ebbe e3bc e0f1 903c
000001c0: 80c8 99bc 5472 6f3d 615c a03d 2045 b83c
000001d0: 3732 efbd 6a59 fb3d f262 09be 0ff8 edbd
000001e0: 929c 53bd a5d2 353e 1f52 a23c 1570 603e
000001f0: e564 243e 272f 133e f906 a3bd d1b8 92bc
00000200: b73b b8bd f053 c1bd 074c 103d 68ec 34ba
00000210: 4fa8 9dbd 3da4 82bd fb0c bf3c 3ba2 0d3d
00000220: c935 063e 3bbb 2fbd fd78 f3bd c5c3 d43d
00000230: 5b79 803d ba2c 47be e0a2 ccbd c8f2 3abd
00000240: 4283 8bbd d9f4 fc3d e9a9 25bc 083b 10be
00000250: 1788 963d d617 b83b a213 23bc 6012 b53b
00000260: 7cc2 543c 63c8 d73b 2f9b 443d 11e5 4dbd
00000270: 4e72 e0bc c817 d8bb 9d63 b8bd 64c8 323e
00000280: 6fd7 7f3e c256 963d 41fd 8fbe d874 56bd
00000290: 1e38 c1bc 2cc1 ebbd 7ad9 203e bbdb 43be
000002a0: d9dd 28be c95c eb3d 3dfa 8f3b 3eb8 493d
000002b0: 5f01 77bd 62bc 383e f939 68bd 34cd 213d
000002c0: df14 1ebe 0c4c 03be 0482 5bbd 1f84 9abb
000002d0: 4c91 e3bc 26b3 573d d8df 7bbd f862 2c3e
000002e0: 03b7 85bd eb18 1a3c 4508 04bd d9c0 99bc
000002f0: 1958 de3d d6d8 c83d f71a 923e 80f4 7d3c
00000300: b903 cabc 30cc 6cbc 1816 9fbc f528 7fbd
00000310: 07a9 d33b 7fc0 82bd a022 f2bd a726 f33c
00000320: b082 b2bd a8cf c1bb c180 12be 711d 21be
00000330: 1079 263e 3940 393d cc8a d03d 693b 173e
00000340: c917 513d 4024 faba 0cfe ea3c 2655 45be
00000350: 24e0 e13c 6a7d 183e 2161 4cbd 9f1c f7bd
00000360: 21c8 a33d 0066 363d 805b dfbd 22bf 2cbd
00000370: 4093 333c bc2f a63c 6b3e 0e3c 4a7b afbd
00000380: fc8a 38bd e7c4 96bd d9c5 3abe a04d 6fbd
00000390: af92 9dbd 4dbd 873d c9d8 9fbb dcf9 6fbe
000003a0: d16d bcbd 3735 7f3d 782e af3d 93d6 21be
000003b0: d1df 0cbc afd5 533b 1ea6 96bd 0f68 64bd
000003c0: 40ac 74bb baa9 e43d 48f4 883d de50 0a3d
000003d0: b747 a6bd 3f4e 0e3e ed20 c93d c6aa 503e
000003e0: 409c dc3c dc95 283d 055e ad3b 6992 d53d
000003f0: 0148 7b3d 8803 7bbd 1f6a 6bbb e19a bb3b
-0.12148772 -0.22508146 -0.007683278 0.04785326 -0.16308108 -0.145436 -0.21257983 -0.10420672
0.12132706 -0.1916656 0.029380273 0.002056026 -0.12750736 0.023090731 -0.2427125 0.08327656
-0.020700227 0.07553269 -0.005594131 0.06352167 -0.071974784 -0.040884275 0.022823337 0.060818523
0.047916796 0.015743658 0.046866577 0.20041642 0.09408878 -0.04727139 -0.10409104 0.011795276
-0.14022453 -0.00012044239 0.03788634 0.12686723 -0.08460902 -0.0035315752 0.16019322 -0.13284938
-0.062003043 0.08750977 0.10682385 -0.18939577 -0.044892896 0.019883508 0.105813995 -0.049860347
0.050864432 -0.04601676 -0.011484345 0.12358123 0.19170809 -0.048642334 -0.14098738 -0.1659523
0.1422152 0.05515659 -0.17172457 -0.10994763 -0.075688966 0.1823407 0.07617705 -0.054310653
-0.058705296 -0.073168 0.09570235 -0.03592278 0.007183071 0.030605795 0.0739149 -0.04600129
0.15779874 -0.026637366 -0.09726503 -0.013654825 0.11883163 -0.09208161 0.087704636 0.12618273
-0.1085578 0.045276858 -0.01651596 -0.07414241 0.1765289 -0.08287316 -0.059441246 0.0011328991
0.14632356 0.09732795 0.028979799 -0.1355376 -0.2644093 0.17678235 -0.06851138 -0.1246118
0.12044588 0.005931065 -0.05706161 -0.03190493 0.11533412 0.1842824 0.010625399 0.15013237
-0.035686143 0.0024973168 -0.0510136 -0.114051074 0.0669082 -0.004780371 -0.027800998 0.01769346
-0.018772364 0.05845864 0.0783012 0.022493899 -0.116794996 0.12272914 -0.13416651 -0.11619579
-0.05166299 0.17756136 0.019814549 0.21917756 0.16054113 0.14373456 -0.07960314 -0.017910393
-0.08995765 -0.09439838 0.035228755 -0.00069016824 -0.07698118 -0.06378982 0.02332162 0.034578543
0.13106455 -0.042903166 -0.11888311 0.103889026 0.06273147 -0.19450656 -0.099920034 -0.04564169
-0.06812145 0.123513885 -0.0101113105 -0.14085019 0.07350176 0.005618076 -0.009953411 0.005525872
0.012985822 0.0065851673 0.047999557 -0.050267283 -0.027398255 -0.006594632 -0.09003375 0.17459255
0.24984525 0.073407665 -0.28122905 -0.052357525 -0.02358633 -0.11511454 0.1570796 -0.1912679
-0.16490878 0.11492307 0.0043938444 0.049247973 -0.060304042 0.18040612 -0.056695912 0.039502338
-0.15437649 -0.12821978 -0.05359079 -0.004715457 -0.027779244 0.052661084 -0.06149277 0.16834629
-0.06529047 0.009405355 -0.03223445 -0.018768715 0.10856647 0.09806983 0.28536198 0.015500188
-0.024659978 -0.014452979 -0.019419715 -0.06229492 0.0064593586 -0.06384372 -0.118230104 0.029681517
-0.08716333 -0.005914647 -0.14306928 -0.15733887 0.16257119 0.045227263 0.101827234 0.14768757
0.051048074 -0.001908429 0.028685592 -0.19270763 0.027572699 0.14891592 -0.049897317 -0.12066006
0.07997156 0.04453087 -0.10906124 -0.042174466 0.0109604 0.020286433 0.008681874 -0.085684374
-0.04505442 -0.07361775 -0.18239535 -0.05842364 -0.07693993 0.06627903 -0.0048781377 -0.23435158
-0.09200633 0.06230661 0.08553785 -0.1580451 -0.008598284 0.003232341 -0.07355903 -0.0557633
-0.0037334114 0.11165185 0.06687218 0.033768527 -0.08119147 0.13897036 0.09820733 0.20377645
0.026929975 0.041158542 0.005290749 0.10428316 0.061347965 -0.061282665 -0.0035921407 0.00572525

net.0.scale f4 [64, 10]
00000000: a622 813f 84c9 803f b1ef 7f3f e847 7e3f
00000010: 43be 7d3f 9b1d 803f 848b 7f3f 15ae 7d3f
00000020: 279e 7c3f 2010 7d3f 6e3a 803f 8603 803f
00000030: 59ae 7f3f 99db 803f 2b8d 7e3f 9465 7f3f
00000040: 2b0c 803f 9f12 7f3f 5017 7e3f 7dde 803f
00000050: cc81 7d3f 1cff 7d3f e259 7f3f c446 813f
00000060: a411 7e3f 00f2 7b3f 9020 7f3f 9fa7 7d3f
00000070: 42cf 813f 7b19 7d3f b857 813f 60ba 803f
00000080: 4e3a 803f 2655 7e3f 2bee 803f 06fc 7e3f
00000090: 5028 7c3f ee1b 803f 44e6 803f 54c5 7e3f
000000a0: 07ab 7e3f 293d 7f3f a019 803f 4465 803f
000000b0: 4f62 7e3f 01c4 803f 03b0 813f 85a7 803f
000000c0: d2d8 7e3f 02e8 7e3f c5b1 7b3f 31a9 803f
000000d0: 3500 813f 11cb 7c3f 0d4b 803f 17f3 7e3f
000000e0: 0bd8 803f 9876 813f c86d 803f 2b9e 823f
000000f0: d162 813f 1815 803f ddb9 7e3f 26be 7d3f
00000100: 4adc 813f b799 7e3f 2510 803f 0feb 7f3f
00000110: 4fd6 7e3f 36ee 7d3f 502d 7f3f 55b7 7f3f
00000120: d8b2 803f 4fb6 803f dd7d 7e3f c93f 7f3f
00000130: 2d90 803f 70b2 7e3f bc4e 7f3f 5108 813f
00000140: cc11 803f 1638 803f ceaa 803f 0c72 803f
00000150: c543 803f 9119 823f 01ac 803f 5d88 7c3f
00000160: a08d 7e3f e5a2 803f 2971 7c3f f70f 7f3f
00000170: 4051 7e3f 78f4 823f 8c41 7d3f 4eea 7d3f
00000180: 3c09 813f 1025 803f 367e 7e3f def7 7f3f
00000190: efba 7b3f dbee 803f 2db0 803f fc3e 7c3f
000001a0: 4a0f 813f d8d6 803f fe74 803f 5efa 7e3f
000001b0: 46f8 803f 9ca8 7f3f d854 7e3f 7670 803f
000001c0: 1b15 7f3f e45f 7f3f 7416 813f 106b 7f3f
000001d0: 61e2 803f 6941 7e3f 5e7c 813f ee59 813f
000001e0: 64ae 803f f81d 803f 460d 803f d4eb 7f3f
000001f0: 928f 7e3f 84ed 7f3f aba1 7d3f 6bb3 803f
00000200: 0d4e 7d3f 0b17 7f3f c2a7 7d3f 0e86 803f
00000210: fd58 7e3f 6d53 803f e3a9 813f 2197 803f
00000220: c756 803f 67b8 7e3f 6672 803f 9cc3 803f
00000230: e8e0 7f3f 4051 803f 2b6f 803f c770 7f3f
00000240: 4b5c 803f 2e22 7f3f 289d 7f3f ebfb 7e3f
00000250: 4937 7e3f 581b 813f ad3b 7f3f 331a 7e3f
00000260: 3258 803f 13d4 803f 5dfa 7e3f 9f51 803f
00000270: 95ff 7e3f 937a 803f f5c7 7e3f 072e 803f
00000280: 329d 7d3f cde1 7e3f 873c 803f 5829 823f
00000290: ee76 7f3f eb60 803f 0500 7f3f 3fbe 7d3f
000002a0: 52de 7f3f 45cb 7d3f 497f 803f aee4 7c3f
000002b0: d7a0 813f 4e13 7a3f 455c 803f 0d63 7d3f
000002c0: 3939 7d3f d347 813f c5ab 7e3f 282d 823f
000002d0: 88a6 803f 8501 813f 45b7 7b3f a328 803f
000002e0: 72f7 803f c8d8 7d3f 5c12 813f ece1 7f3f
000002f0: 5346 7e3f 1eaa 813f 496c 813f e765 7c3f
00000300: 34ea 7b3f 7680 803f 527f 7c3f 8f97 823f
00000310: 977b 813f 56c0 7c3f fd3c 803f 8664 7c3f
00000320: b44f 7d3f 6e35 813f d421 7e3f 6133 813f
00000330: 715f 7b3f 5da3 813f e720 7d3f 6df3 7e3f
00000340: dae0 813f d0f5 7d3f 4945 803f 33ab 803f
00000350: 62f0 7e3f 02fe 803f 00a9 7f3f e05b 7e3f
00000360: ea0a 803f ee4d 7e3f 018e 813f 172c 7c3f
00000370: 3e54 7d3f 76c7 7f3f fd1b 803f 3cf1 803f
00000380: e1e5 803f 9b9b 803f 222d 803f d188 803f
00000390: 7319 823f ae13 7e3f 168c 803f 79ee 813f
000003a0: e61a 813f f9a1 7f3f 2f0d 803f 5542 7d3f
000003b0: fee4 7d3f 92de 803f 5c3c 823f c3f0 7d3f
000003c0: 362e 7e3f 0fca 803f 5aab 7e3f c4e1 813f
000003d0: b47a 803f 48d8 7e3f ce72 7e3f c8b0 7e3f
000003e0: cf5f 803f c61f 7e3f 5c48 7d3f fbde 7c3f
000003f0: 11cc 7c3f d7cb 7f3f 741c 7b3f bd05 7e3f
1.0088699 1.0061498 0.99975115 0.9932847 0.9911844 1.0009035 0.9982226 0.99093753
0.9867882 0.9885273 1.0017831 1.0001075 0.9987541 1.0067016 0.99434155 0.9976437
1.0003713 0.9963779 0.9925432 1.0067898 0.9902618 0.9921739 0.99746525 1.0099721
0.9924567 0.9841614 0.9965906 0.99083894 1.0141375 0.98867005 1.0104895 1.0056877
1.0017793 0.99348676 1.0072683 0.9960331 0.9849901 1.0008523 1.0070271 0.9951985
0.99479717 0.997027 1.000782 1.0030904 0.99368757 1.0059816 1.013184 1.0051123
0.9954959 0.99572766 0.9831813 1.0051633 1.0078188 0.98747355 1.0022904 0.99589676
1.0065931 1.0114317 1.0033503 1.0204519 1.0108281 1.0006437 0.99502355 0.9911827
1.0145352 0.994533 1.0004927 0.99968046 0.9954576 0.99191606 0.99678516 0.9988912
1.0054579 1.0055636 0.994108 0.99706703 1.0043999 0.99491024 0.99729514 1.0080663
1.0005431 1.0017116 1.0052125 1.0034804 1.0020682 1.0164052 1.0052491 0.98645574
0.9943485 1.0049711 0.9861017 0.99633735 0.9934273 1.0230856 0.9892814 0.99185646
1.0080943 1.001131 0.9941133 0.9998759 0.98332113 1.0072893 1.0053765 0.98533607
1.0082791 1.0065565 1.0035703 0.9960078 1.0075767 0.9986665 0.9934821 1.003432
0.9964158 0.9975569 1.0084977 0.9977274 1.0069085 0.9931856 1.0116079 1.0105569
1.005322 1.0009146 1.0004051 0.9996922 0.9943782 0.99971795 0.9907481 1.0054754
0.9894722 0.99644536 0.99084103 1.004091 0.99354535 1.002546 1.012997 1.0046121
1.0026482 0.99500126 1.0034912 1.0059695 0.99952555 1.0024796 1.0033926 0.9978146
1.0028166 0.9966153 0.99849176 0.99603146 0.9930311 1.008647 0.99700433 0.99258727
1.0026915 1.006472 0.99600774 1.0024909 0.9960874 1.0037407 0.9952386 1.0014046
0.99067986 0.99563295 1.0018471 1.0168867 0.9979085 1.0029577 0.99609405 0.9911842
0.9994861 0.9913829 1.0038844 0.9878644 1.012721 0.97685707 1.0028158 0.98979264
0.9891544 1.0100044 0.9948085 1.017003 1.0050821 1.0078589 0.9832652 1.0012401
1.0075514 0.99158907 1.0083728 0.99954104 0.99326056 1.0130041 1.0111171 0.9859299
0.9840424 1.0039203 0.98631775 1.0202502 1.0115842 0.9873098 1.0018612 0.98590887
0.9894974 1.009443 0.9927037 1.0093805 0.9819251 1.012798 0.9887833 0.9959019
1.0146744 0.99203205 1.0021144 1.0052246 0.99585545 1.0077517 0.9986725 0.9935894
1.0003331 0.9933766 1.0121461 0.98504776 0.9895667 0.9991373 1.0008541 1.0073619
1.0070153 1.0047487 1.0013773 1.0041753 1.0164016 0.9924878 1.0042751 1.0150901
1.0086334 0.99856526 1.0004023 0.9892934 0.9917754 1.0067923 1.017467 0.991955
0.9928926 1.0061663 0.9948021 1.0147023 1.0037446 0.9954877 0.9939393 0.99488497
1.0029238 0.9926723 0.98938537 0.9877774 0.9874888 0.9992041 0.9809029 0.99227506

net.0.base_weight f4 [64, 10]
00000000: 7619 9c3d 9e7e b1bd 405b 0e3e 45cc 24bd
00000010: 0acd 443d f650 42bd 388d e5bd 0878 ebbc
00000020: fac9 2e3e f1cc 07be 93e2 0f3d 4929 c13d
00000030: b8d4 e93d e7ce a3bd 58ac 3d3b cab4 9d3d
00000040: a424 d4bc 0bc1 a13c 8ff4 a43d 08f1 08bb
00000050: f025 f4bd a8d9 b43d adb2 67bc 5404 c8bc
00000060: 1d7c 5c3d 8f42 9dbd 8efa 4abe 9cc0 b13c
00000070: 865b 923d 9754 ba3d 8041 4bbc 1e9a e73c
00000080: 62d1 213e 33ef 3fbd 9238 4abe 1367 ff3d
00000090: 6290 6f3e a8ff 093d aed9 96bb 40cd 06be
000000a0: 8398 74bd af93 ccbd 3ccb bb3d b2f3 043b
000000b0: f20b 46be e725 dfbd 2641 283c 3223 88bd
000000c0: 7490 fcbd 457b 0d3e 5dc3 3d3d 5b0b 423b
000000d0: 482e debd 1e76 b4bd b8b9 003d fe28 3d3c
000000e0: 772a f3bc 794b 053e f9a7 4cbd 38d5 0abd
000000f0: 2f21 6abd 5777 123c 7471 a53d 7bd8 933b
00000100: cbbb cf3d 3369 3f3d 961f 1c3d 1ccf 47bd
00000110: 6207 d33d 45f6 18be 1ea9 2b3e 6c25 80bb
00000120: 720a 8e3d 31d2 fe3d ac41 12bc 37dd 0ebe
00000130: 133e d03c 1fc9 be3d bae8 153e 2bba 513e
00000140: 09af b2bd e261 6a3d 03b7 6b3e 4e91 31bd
00000150: f013 913b 8d8f 9dbd 13a1 bc3d 3c69 74be
00000160: 66ad c4bc 884d 2e3d b3fb 1bbd 49cb 63bd
00000170: 3d58 3dbd 6908 a7bb 418e 7ebd 36cf 9abb
00000180: adc0 5cbd f497 3abe dffb 75bd be0f f3bc
00000190: accf c3bd b4b6 723c 540c 8e3d 23b0 9b3b
000001a0: 4936 37be 7a0a 21bd 0874 a1bc 4f98 583d
000001b0: 1af6 20be f849 6dbd f601 ac3d 227e 92be
000001c0: 2d38 293e 959d 713d f1fa 9e3b 7c53 74be
000001d0: 8c59 acbd 4d34 e03d 0750 233e ab8d e3bd
000001e0: 0f87 9ebd 4c9c c13d e7fc 98bd 1d93 11bd
000001f0: ce9a 09bd 1e33 12be f0e2 d13c 3a7b 30be
00000200: f7f8 24bc 9e81 f13c b14d 59bd eba1 fbb9
00000210: 7ec4 a43d 73ac c73d ad1a 64bb 3a8f 55bd
00000220: ae53 98bc ee4d a5bd 23f8 15be cca0 b9bd
00000230: 737c 953d 2356 3b3d 6cec 993d 1310 07be
00000240: 341c 333d 15a5 433b ed40 2e3d 1b9f 913c
00000250: e367 353c 2f69 e63d 647b b7bc 3234 283e
00000260: f1ce 553e bae7 8abd 0d44 f2bc bd6d fe3d
00000270: e8e1 583e 31ba 553d d319 61bc 6275 f73d
00000280: f71c 0abe c15c 46bd 0e9b 61bd 980a 8cbd
00000290: 41d8 4dbc 1a41 723d daaa e9bd 20e5 b4bd
000002a0: e118 1d3d 77f9 2b3b d3fc 5e3e 47e3 f1bd
000002b0: 7349 7f3c f893 e8bd a54a debd 9a96 01bd
000002c0: 8508 07bd c21d 81bd d94f eb3c d5e2 6a3d
000002d0: 193f 933b 64c0 153e 9a52 9c3d 8492 003e
000002e0: 6180 df3d 92d9 07bd 6d0a bebc e67d c03d
000002f0: 3e37 b8bc 7bb9 15bd a35f 403d ab0b 1e3e
00000300: 8832 62bb 9e24 e93d 2731 76bc 1ac9 20bd
00000310: 8417 d1bc 8770 9f3d 6059 d33b 5196 5dbe
00000320: e40a 013e 6eea 793d cfd4 ce3d 1134 033e
00000330: 6ad9 833c a7be 3f3d b985 b73d 890b 4cbe
00000340: 9e13 083d 2cd7 343e 9448 86bd 519d 5b3d
00000350: a74b 293e b7da abbc 1beb 0cbe 59f4 12bd
00000360: 5920 7cbd 451a 80bc 5b20 d8bd e3e4 303e
00000370: a813 5e3e 5e39 7a3d dec3 0ebe 02dd fd3d
00000380: 79d9 f43d 7832 e93b 18b4 033e afc6 e2ba
00000390: c69b f0bc f63b 053c 9d08 0f3d c7ec b23c
000003a0: 46b5 6cbc e09e df3d b02b ad3d ed30 5fbd
000003b0: add4 11bb e327 a2bc 259b d43d 7b8c 01be
000003c0: 955b f43d fc19 703c f430 58be a856 4b3e
000003d0: 8787 d8bd deac 9abd 156b c33d b559 78bd
000003e0: f69a 3b3e 2875 893c d485 5b3a 4927 67bd
000003f0: 67cd 04be 9642 ce3d 9917 1a3e e4f0 7bbe
0.07622044 -0.086667284 0.13901997 -0.04023387 0.048047103 -0.04744049 -0.11208576 -0.028743759
0.17069235 -0.13261773 0.035128187 0.09431703 0.11417526 -0.07998448 0.0028941836 0.077004984
-0.025896378 0.01974537 0.08054458 -0.002089562 -0.119212985 0.08830577 -0.014141721 -0.024416126
0.0538293 -0.07678711 -0.19822142 0.021698289 0.07146363 0.090981655 -0.012405753 0.028271731
0.1580253 -0.046858978 -0.19748142 0.12470832 0.23394921 0.03369108 -0.004603586 -0.13164234
-0.05971576 -0.09989106 0.09169623 0.0020286855 -0.19340494 -0.10895901 0.010269439 -0.06647338
-0.1233224 0.13816555 0.04632889 0.002960882 -0.10848671 -0.088115916 0.031427115 0.011545418
-0.029683335 0.13017072 -0.04996488 -0.033894747 -0.057160553 0.008939586 0.0807828 0.0045118905
0.101432405 0.046731185 0.03811606 -0.0487815 0.103041425 -0.14937694 0.16763732 -0.003910711
0.06935586 0.124424346 -0.00892679 -0.13951574 0.025420224 0.093157046 0.1463956 0.20481174
-0.087247916 0.057222255 0.23019032 -0.043351464 0.0044274256 -0.07693396 0.0921041 -0.23868269
-0.024008464 0.04255441 -0.038081836 -0.05561379 -0.04622673 -0.005097438 -0.062147383 -0.0047244085
-0.053894687 -0.18222028 -0.060054656 -0.029670592 -0.09561095 0.014814068 0.06935945 0.0047512217
-0.17891802 -0.03931663 -0.019708648 0.052879628 -0.1571888 -0.05793187 0.083988115 -0.28611857
0.16525336 0.058988173 0.004851692 -0.23859972 -0.08415517 0.109474756 0.15948497 -0.111110054
-0.07740604 0.094536394 -0.07470112 -0.03554069 -0.0335949 -0.14277312 0.025620908 -0.17234507
-0.0100691235 0.029480752 -0.053052608 -0.0004799509 0.080452904 0.09749689 -0.003480594 -0.052138545
-0.01859459 -0.080715045 -0.14645438 -0.09063873 0.072991274 0.045736443 0.07515797 -0.13189726
0.04372807 0.0029853035 0.042542387 0.017776063 0.011072132 0.11250531 -0.022397704 0.16426161
0.20879723 -0.067824796 -0.029573465 0.12423275 0.21179926 0.05217952 -0.013739067 0.12082936
-0.13487612 -0.0484283 -0.055079512 -0.06837958 -0.012563766 0.059144117 -0.114095405 -0.088327646
0.038353804 0.0026241222 0.21776132 -0.11810928 0.0155814765 -0.11356348 -0.10854081 -0.031637765
-0.03296711 -0.06304504 0.028724598 0.05734523 0.004493606 0.14624172 0.076329425 0.12555891
0.10913158 -0.033166476 -0.02319833 0.09399013 -0.022487279 -0.03655384 0.046966206 0.15434138
-0.0034514982 0.11383937 -0.015026367 -0.039254285 -0.025523908 0.07785135 0.0064498633 -0.21639372
0.1260181 0.061014585 0.10099184 0.1281283 0.016094882 0.04681268 0.089610524 -0.19926275
0.033221833 0.17660207 -0.06556812 0.053616825 0.16532765 -0.020978315 -0.1376156 -0.03587756
-0.061554287 -0.015637526 -0.10553046 0.17274813 0.21687186 0.061089866 -0.13941905 0.123956695
0.11955542 0.007116612 0.12861669 -0.0017301644 -0.029371154 0.008131972 0.034920324 0.02184142
-0.014447516 0.10918975 0.08455598 -0.05449002 -0.0022252009 -0.01979441 0.10381154 -0.12651245
0.119315304 0.014654633 -0.21112424 0.19857275 -0.10572725 -0.07552503 0.09541909 -0.060632426
0.18320832 0.016779497 0.0008374129 -0.05643395 -0.1296898 0.10071294 0.15048064 -0.24603611

net.0.grid_points f4 [5]
00000000: 0000 00c0 0000 80bf 0000 0000 0000 803f
00000010: 0000 0040
-2.0 -1.0 0.0 1.0 2.0

net.2.coeff f4 [64, 64, 5]
00000000: 613c 8a3e 0fee 953d e873 9e3d 37c9 e23d
00000010: 8f62 97bd 4594 28be 4b56 abbd 68ad abbd
00000020: 2b65 a53d 5641 43be cc73 42be 0a85 4c3d
00000030: 3b17 a9bb 48c7 b73d 5490 b0bd 646b f73b
00000040: 418f 0abe e943 223e 3f41 1dbd d95c 5a3d
00000050: 19f4 903d 3c89 7ebe bc87 c4bd c07a 073c
00000060: 5b21 91bc 582d 1b3d 8712 ddbd 11c1 9b3c
00000070: 49fa 1dbd d435 88bd 1107 a5bd 5bf4 a13e
00000080: 35ba a5bd caec 0dbd 17a2 3f3d 8943 153e
00000090: 48cf 0fbb fdbf be39 2925 10be 5504 253d
000000a0: f2ef 24be 1ff5 e8bd b5e3 8ebd 0d48 12bd
000000b0: 5599 073e b969 b8bd 332c a43d ce20 b23d
000000c0: eee6 bdbb da9f ba3b 0632 fbbd 1b15 c0bd
000000d0: 1e7f 49be 3def 2ebd eefc 08bc 631d 083e
000000e0: d3fa f3bd 4774 98bd cd5c 9d3d 7cb7 27be
000000f0: 5070 a4bb 5771 093e 4886 953d 3873 dfbd
00000100: d3c3 4dbd 523e 0c3e 8c3d d03d 71d4 4dbe
00000110: 0b71 573e 7eb5 f3bc 47df 47bd d570 433d
00000120: 9681 653d 3926 e1bd 0cf8 d9bc 035b b8bd
00000130: e71b 603b e00a 053c 2cde 5f3d 7fbe c23d
00000140: bbda 29bc e13a 5f3d e148 0ebe ec7c 353d
00000150: 5a97 cbbc 504d 9b3d 626c 4a3d 57b0 efbc
00000160: a05e e8ba 1405 9c3d e159 943d 15cd d33d
00000170: 1558 343e a746 da3d 318a 9c3c 3905 afbd
00000180: ab1d d13d a8ca 1dbc 89ae c5bd ea1d 363d
00000190: 693b 3cbe 8d4f 2bbc 9a00 0fbe 11b7 37bd
000001a0: 89e6 5cbe f62c 4e3c be50 043c 671b 973d
000001b0: 7bd8 07be 7cb1 ebbc 1c04 e83d f835 a9bc
000001c0: f552 0d3e e2c6 e93c 2add 4a3d 67da 0b3d
000001d0: 5019 c0bd 7272 f43c cebf 693d f4ee c4bc
000001e0: 159e 1cbd 8973 18bd 071d 7abc bb4f 39be
000001f0: 4136 da3d 8359 043d 35fc 34bd 05fb aabd
00000200: aef9 923d 3330 4aba 79b0 26bc 57cb e83c
00000210: 7491 0a3d 242e 4b3e abbd a13b 22c1 ba39
00000220: d4d4 3abe ef1b b63c 375c 2e3d d730 c4bd
00000230: 2bdc de3d f483 16be a0ee 173e cff9 2a3e
00000240: 94bf bcbd c9f7 dc3c 9ee0 263c 944e 85bc
00000250: f643 023d 893f 283e 67e2 ffbd bd79 7ebd
00000260: b3db c53c b31e c93c fa50 c1bc 76f7 fb3d
00000270: b2d4 92bd fc59 0c3c ab82 b0bd a928 1abe
00000280: 2143 8e3d cb84 0d3e fbef 8ebc ca2c 0fbe
00000290: 1dfc 933d 99bf 37bc a0ec 303e dd5c a23c
000002a0: 89ef af3d 8247 5fbd a196 13bd 37e6 8dbd
000002b0: 5f33 683e 5b39 42be 5770 30bd fc9b 803d
000002c0: 71b3 8f3d 0542 2ebc a956 ef3d 5ef6 bcbc
000002d0: e145 0e3e ff62 f63d 8f59 113e 17a5 77bd
000002e0: 45de 0abe 4b6a d9bd bfbd 6b3d a74e a23d
000002f0: 3480 163c f72b 183e 2dcd 99bc 4b29 d53d
00000300: 82ea 613e 834a fcbd 3dec b43c 2fad 58be
00000310: 2234 6f3d b8d8 643d f5c3 28be e20b 933d
00000320: d0f6 20be c6d7 09be a361 10be a3b6 d6bd
00000330: ff19 9bbd 6e73 eebc 2afc a93d 783d 1cbd
00000340: 9b63 4f3c 650c 123e f3d3 10be b9d8 23be
00000350: fcaf 48bb 9fd6 c4bd ed23 ad3d fd16 00be
00000360: 6d73 4f3e b6b9 09be cba9 0dbe 2577 873d
00000370: 89a1 d1bd 708f 8c3d 3d93 87bd b8c4 9b3d
00000380: 1782 f63c 27cd 8bbd 7fae 4e3e fe0a 93be
00000390: ec3c bdbd 08f0 243c a91f f0bd c1bb 2c3d
000003a0: 490e 443e 02dd 303e ff05 17be f7c4 b53d
000003b0: 4262 2dbd 4e28 49bd 8d96 4e3d d654 383e
000003c0: 1ff8 d13d 6783 f2bc fae1 17bd c61a d33d
000003d0: 1485 c03d 5ddf 313e fc58 c63d 031b f6bd
000003e0: d248 59bc f0e7 9abd 198c 913d 61b8 08be
000003f0: b716 9a3d 3499 ce3d 7606 c9bd d093 0c3e
0.2699919 0.07320797 0.07736951 0.11073535 -0.073918454 -0.1646281 -0.083660685 -0.08382684
0.08075937 -0.19067892 -0.18989486 0.049931563 -0.00516024 0.08973557 -0.086212784 0.0075506438
-0.1353121 0.15846218 -0.0383923 0.053311203 0.07077808 -0.24857038 -0.09596202 0.008269012
-0.0177161 0.03788504 -0.107945494 0.01901296 -0.03856877 -0.06650892 -0.080579884 0.3163174
-0.08092157 -0.034649648 0.04678544 0.14576544 -0.0021943618 0.00036382666 -0.14076675 0.040287334
-0.16107157 -0.11374878 -0.069770254 -0.035713244 0.13242085 -0.0900454 0.08016243 0.08697663
-0.005795351 0.0056953253 -0.122654006 -0.093790255 -0.19677398 -0.042708624 -0.008361084 0.1329246
-0.11913075 -0.07444053 0.07683716 -0.16378587 -0.0050182715 0.13422142 0.07301003 -0.10910648
-0.05023558 0.13695648 0.10167989 -0.20100571 0.21039216 -0.029749628 -0.04879692 0.047715027
0.056031786 -0.109936185 -0.026607536 -0.09001734 0.0034196319 0.008120269 0.05465524 0.095089905
-0.010367091 0.05449951 -0.13894989 0.044308588 -0.024852443 0.075831056 0.04941977 -0.02925889
-0.0017728396 0.07618156 0.072437055 0.10341851 0.17611726 0.10658007 0.019108864 -0.08545918
0.10210737 -0.009630837 -0.096524306 0.044462122 -0.18382038 -0.010455978 -0.13965073 -0.04485232
-0.21572317 0.012583962 0.008075891 0.073782735 -0.13266174 -0.028771155 0.11328909 -0.020655617
0.13801177 0.028537218 0.049527325 0.03414383 -0.09379828 0.029839728 0.057067685 -0.024039723
-0.038236696 -0.037219558 -0.01526571 -0.18096821 0.10654879 0.032311928 -0.044185836 -0.083486594
0.07176529 -0.0007712871 -0.01017391 0.028417272 0.03383012 0.1984182 0.0049359403 0.0003562058
-0.1824525 0.022230117 0.04256841 -0.09579628 0.108818375 -0.14698774 0.14837122 0.16696857
-0.09216228 0.026973622 0.010185389 -0.01627282 0.031803094 0.16430487 -0.12494355 -0.062127817
0.024152612 0.024550771 -0.023598183 0.12303059 -0.07169475 0.008566376 -0.08618673 -0.15054573
0.069463976 0.13820188 -0.017448416 -0.1398193 0.07225821 -0.011215114 0.17277765 0.019819671
0.085906096 -0.054511555 -0.036032323 -0.069286756 0.22675847 -0.18967192 -0.043075886 0.06279752
0.070166476 -0.0106358575 0.11686451 -0.023066696 0.13893844 0.12030601 0.1419432 -0.060460176
-0.13561352 -0.10615977 0.057554003 0.07925158 0.009185839 0.14860521 -0.018774593 0.10408267
0.22062114 -0.123188995 0.022085303 -0.21159814 0.058399327 0.05587074 -0.16481002 0.07180001
-0.15719151 -0.13461217 -0.14099745 -0.10484054 -0.07573318 -0.029107776 0.083000496 -0.03814456
0.012658025 0.1426254 -0.14143352 -0.16000642 -0.0030622473 -0.09611248 0.08454118 -0.1250877
0.20258875 -0.1344975 -0.13834302 0.06614522 -0.102358885 0.06863296 -0.0661988 0.076058805
0.030091329 -0.06826239 0.20183752 -0.28719324 -0.092401356 0.010066994 -0.11724789 0.042171244
0.19146074 0.17271808 -0.14748381 0.08875459 -0.042330034 -0.049110703 0.050436545 0.18001112
0.102524035 -0.029603673 -0.037080742 0.10307841 0.09400383 0.17370363 0.09684941 -0.12016871
-0.013261991 -0.0756377 0.071068 -0.13351585 0.07523864 0.10087815 -0.098156855 0.13728261

net.2.scale f4 [64, 64]
00000000: 0ab3 7e3f 068e 803f a05e 7d3f 68db 7e3f
00000010: 7f94 803f a33b 803f fe83 803f a18e 803f
00000020: c384 803f 6c21 7f3f 769b 803f b814 803f
00000030: 963a 7f3f 8bb9 803f 46a7 7e3f 6e63 7e3f
00000040: 2dbd 803f 6ea6 803f b5a1 7e3f 36d2 803f
00000050: b986 803f 5b39 7f3f c09d 7e3f c5b2 7e3f
00000060: 15ae 803f 5645 7f3f 66d2 7e3f 5e6e 7f3f
00000070: 017b 7e3f 0e57 803f 245b 7e3f 00b7 7e3f
00000080: 5777 803f de71 7e3f 6aed 7d3f 37da 7e3f
00000090: 6cd5 7e3f fab5 7e3f 63db 7e3f 9d22 7f3f
000000a0: 0a96 803f 27b4 803f fbb1 803f 9fd7 803f
000000b0: 549f 803f ff79 803f c68e 7e3f 40d6 7f3f
000000c0: 34a2 7d3f 47b9 803f cf42 7e3f 5e0d 7f3f
000000d0: 2f63 803f ab2c 7f3f 6311 803f 493d 803f
000000e0: 6d74 803f 083f 803f ee52 7e3f b9b1 7e3f
000000f0: 581f 7f3f 2b9a 7f3f dcd0 7d3f 6796 7e3f
00000100: 8b31 803f 653d 803f 6b76 803f c636 7f3f
00000110: bb6e 7e3f 93fc 7f3f 1cd7 7f3f df72 803f
00000120: cf44 803f 2b81 803f 094e 7f3f df5a 7f3f
00000130: e3f7 7f3f 25f0 7e3f e744 803f 5b86 7f3f
00000140: 5d13 803f 2f61 7f3f 9248 803f d567 7f3f
00000150: b598 7f3f a1b7 803f 2788 7e3f 3f3b 803f
00000160: 87cc 7f3f 74d0 7f3f be33 803f d136 803f
00000170: 55a2 7f3f b93c 803f 652d 7f3f 92ba 7f3f
00000180: a429 803f 1420 7e3f c35c 803f 634b 7f3f
00000190: b79a 7f3f bf43 803f 2e37 803f 6cfb 7f3f
000001a0: 233e 803f 4f48 803f 4767 7f3f 2f4f 803f
000001b0: f840 803f b336 803f 2625 7f3f 92fd 7e3f
000001c0: 7590 803f 9644 803f 8fe9 7e3f a553 7f3f
000001d0: 682f 803f 1643 7f3f b06d 7f3f 7c8c 803f
000001e0: 17fb 7f3f 50d2 7f3f f90e 803f 605b 7f3f
000001f0: 0b29 803f 128c 7f3f 32ce 803f b34e 803f
00000200: d193 803f 1c61 803f e692 7d3f 1064 803f
00000210: dc9e 7e3f 0345 7f3f 8867 803f 475a 803f
00000220: f253 7f3f fa8b 7c3f 4a30 7f3f 8056 803f
00000230: 458f 7f3f 44eb 7e3f 6921 7f3f ac21 7f3f
00000240: b310 7f3f 9f37 7f3f 5fc3 7e3f a2c7 7f3f
00000250: c248 7f3f c18a 7f3f 26bb 7e3f 3e61 803f
00000260: 1b1a 7f3f fafc 7b3f 380a 7f3f 8081 7f3f
00000270: 5ffc 7f3f 7d68 7e3f 395e 803f ea69 7f3f
00000280: 385e 803f 9762 803f 7c54 7f3f 03bb 7d3f
00000290: 4f03 7f3f 706a 803f 785b 803f d103 803f
000002a0: 0c09 803f 3867 803f 1275 803f b39b 803f
000002b0: a95d 803f 6c80 803f 689c 7e3f 595f 803f
000002c0: b94d 7f3f 5cd3 7e3f 5d55 813f d71b 803f
000002d0: 8ab2 7f3f 510b 803f 61a8 803f 8413 803f
000002e0: cd57 803f 5525 803f 363c 803f 2449 7f3f
000002f0: 3422 7e3f 5e08 7f3f 438f 7f3f a364 803f
00000300: e73d 803f 5040 803f 24e3 7f3f d275 803f
00000310: 3e6b 803f faf5 7f3f 3384 7e3f 7b56 7f3f
00000320: 7317 803f 418f 803f 5976 7f3f a7bb 7f3f
00000330: 0942 803f 33bf 7e3f 1f54 7f3f 6052 7f3f
00000340: 9940 803f f8c1 7f3f 423c 7f3f ef60 803f
00000350: 4a46 803f 8c74 7f3f 5051 803f d861 803f
00000360: b539 803f d90e 7f3f d36e 7f3f a03e 803f
00000370: 005a 803f 164e 7f3f aa80 803f 0da7 803f
00000380: 448d 7f3f e11f 803f 50e7 7f3f 434f 7f3f
00000390: 2766 803f e076 803f 5e57 803f 2144 803f
000003a0: 846f 7f3f 4b30 7f3f 5c46 803f c3f3 7f3f
000003b0: 3e4e 803f 283d 803f e6a2 7e3f 3ecc 7f3f
000003c0: d562 7d3f ad56 803f 0e71 803f 1458 803f
000003d0: 5b30 823f 6522 7e3f 0759 803f 7327 803f
000003e0: d864 7f3f 524b 7f3f 083e 803f fc41 7f3f
000003f0: dc90 803f c718 7f3f 21b9 7f3f a407 7f3f
0.9949194 1.0043342 0.9897251 0.9955354 1.0045317 1.00182 1.0040281 1.0043527
1.0040516 0.9966037 1.0047443 1.0006323 0.9969877 1.0056623 0.9947399 0.9937047
1.0057732 1.005079 0.99465495 1.0064151 1.0041114 0.9969689 0.9945946 0.9949153
1.0053126 0.99715173 0.9953979 0.9977778 0.9940644 1.0026567 0.9935782 0.99497986
1.003642 0.993925 0.9919039 0.9955172 0.99544406 0.99496424 0.9955351 0.9966219
1.0045788 1.0054978 1.0054315 1.0065802 1.0048623 1.003723 0.99436605 0.99936295
0.9907563 1.0056542 0.9932069 0.9962977 1.0030268 0.9967753 1.0005306 1.0018703
1.003553 1.0019236 0.9934529 0.99489933 0.996572 0.99844617 0.9914682 0.99448246
1.0015119 1.0018736 1.0036138 0.9969295 0.9938771 0.9999477 0.99937606 1.0035056
1.0020999 1.0039419 0.9972845 0.99748033 0.9998762 0.9958518 1.0021027 0.99814385
1.0005909 0.99757665 1.0022147 0.9976781 0.9984239 1.0056039 0.994265 1.001808
0.9992146 0.9992745 1.001579 1.0016729 0.99857074 1.0018531 0.9967864 0.9989406
1.0012708 0.992677 1.0028309 0.99724406 0.9984545 1.0020674 1.001684 0.99993014
1.0018963 1.0022067 0.99766964 1.0024165 1.0019827 1.0016693 0.9966606 0.9960567
1.0044085 1.0020931 0.9957513 0.99737006 1.0014467 0.9971174 0.99776745 1.0042872
0.9999251 0.99930286 1.0004569 0.997488 1.0012525 0.99823105 1.0062926 1.0024017
1.004511 1.0029635 0.99052274 1.0030537 0.9946115 0.9971468 1.0031595 1.002755
0.99737465 0.9865109 0.9968306 1.0026398 0.99827987 0.99577737 0.99660355 0.99660754
0.99634856 0.99694246 0.9951686 0.9991399 0.99720395 0.99821097 0.99504316 1.0029676
0.9964921 0.98432887 0.9962497 0.99806976 0.9999446 0.99378186 1.0028754 0.9977099
1.0028753 1.0030087 0.9973829 0.9911348 0.99614424 1.0032482 1.0027914 1.0001165
1.0002761 1.00315 1.0035727 1.0047516 1.0028583 1.0039191 0.99457407 1.0029098
0.9972797 0.9954126 1.0104176 1.0008496 0.99881804 1.0003453 1.0051385 1.0005956
1.0026795 1.0011393 1.0018375 0.9972098 0.9927094 0.9962214 0.99827975 1.0030712
1.0018891 1.0019627 0.99955964 1.0035956 1.0032728 0.99984705 0.9942047 0.99741334
1.0007156 1.0043718 0.9978996 0.9989571 1.0020152 0.99510497 0.99737734 0.9973507
1.0019714 0.9990535 0.9970132 1.0029582 1.002145 0.9978721 1.0024815 1.002986
1.0017611 0.9963203 0.9977848 1.0019112 1.0027466 0.99728525 1.0039265 1.005098
0.9982493 1.0009729 0.9996233 0.9973032 1.0031174 1.0036278 1.0026662 1.0020791
0.99779534 0.99683064 1.0021472 0.99981326 1.0023878 1.0018663 0.99467313 0.99921024
0.9897893 1.0026451 1.0034502 1.0026879 1.0171007 0.9927123 1.0027169 1.0012039
0.9976325 0.99724305 1.001893 0.9971006 1.0044208 0.9964718 0.9989186 0.99621034

net.2.base_weight f4 [64, 64]
00000000: d15b ccbd 0d0a 1f3e 6122 b4bd a2fd 69bc
00000010: 5f92 1f3d 3539 263e a87c 07be 3fd2 1bbe
00000020: 1382 76bd ea6a e13d b75d 4f3e fe1c a2bd
00000030: fa19 a9bd ee5f 61be b9e6 fbbd 961f d1bb
00000040: d371 a2bc abad 47bd 3460 d83c e5e0 aa3c
00000050: 738f 383e 8d85 cb3c 40cd 413e b199 babc
00000060: 3351 153e 6c11 25be 1234 c93d 8f95 22be
00000070: 361c cf3c 40f1 11bd 3aa0 a1bd 8c89 d0bd
00000080: 4aa0 953b f575 0f3e 44c8 af3d 0076 123d
00000090: de83 5abc 5c5a fdbc e9d0 0fbd 8a21 a03c
000000a0: 2234 4dbd 4cc5 f63d d5b0 6e3a 0a56 31be
000000b0: b172 563d c7b8 fabd b41a dcbc eed5 6a3d
000000c0: 2c90 843e 111d 33bc ce85 2ebe c586 14bd
000000d0: 187b 423d 3e5e 85bd 91d6 903d f351 bdbc
000000e0: 57ac debd 2dd3 e1bd 0052 f0bd e7b2 dbbd
000000f0: 5326 b13d c1c8 5d3e bd93 d7bd 91a2 d1bc
00000100: b15c 653d 346a 18bd 7bd9 1f3d 161b c8bd
00000110: 0007 233d 13d2 a43c 7c23 cabc 30d8 9e39
00000120: 792e b73d 3d18 903d 5587 ecbd 2cad 6fba
00000130: 179d 06bb 82cb 313d 4a4e 303e e26d 9ebd
00000140: 9be1 e2bd d12d 983d 5f62 01bb 0318 ec3d
00000150: 695e 30be b039 d83c ba8e babe 9dd0 98be
00000160: c9ed 2a3d 4283 853d 26ce bb3c caf7 333e
00000170: 2b63 d13c ceeb 033e 2ad3 95bb 80c8 003e
00000180: 3b08 f43d 059f 183e fea4 5d3d 2f2a be3d
00000190: 1b75 ab3d 8359 b23d 5416 76bd 2d3e 843d
000001a0: a39c 13bc 088f 423d ad2c 42bd b66f 58bd
000001b0: 2700 b1bd 55d4 243d 0a0b bf3d 769c 76bd
000001c0: f056 c03c e479 28bd fa1b 82bd f6dd 23be
000001d0: 87b8 bdbd 540f 0fbe 9efe 4b3c 11a7 843c
000001e0: 54b1 733e 6b2c d33d d72f 34be 34f3 f33c
000001f0: d6f3 383e 56ee a7bd a090 d43d 6a4d c23c
00000200: ce19 4bbe 4295 edbd 7e26 343e d00d c7bd
00000210: 7946 323d e8c7 543a d67e c4bc 58cc d6bd
00000220: 83d4 003d 5d6c e23c 04f5 bc3d edb2 37be
00000230: ae50 c23d 512c 053d 0785 293d fd0e ae3d
00000240: 01f8 72bd d470 31bd 21d0 ab3c 5420 1ebd
00000250: 577e 0fbe de0f 3dbc 2b78 1a3d 1e57 d2bb
00000260: 34d9 133e 0d82 56be 9dc6 9bbb 0149 22bd
00000270: 9edf ae3c 8239 6a3d 5089 d2bd 9991 2dbd
00000280: 834f 44bd eb7f 213d bb98 473e ebaa c93d
00000290: 366f 3fbd 5e0d 97bc ed17 f43c 5673 bfbd
000002a0: d2be ef3d 5974 2dbe bfa7 cc3c 0607 20be
000002b0: 88e4 393b ed28 75bd 9f6b aa3d d61d 33bd
000002c0: 8c85 113d 14e3 243e 0ce2 0abb b582 2abd
000002d0: 475f c6bd 3449 6b3e 34af 793d 4ad7 aa3d
000002e0: ad9d 88bd 168a 803e 6ba4 3c3d 7db9 8d3d
000002f0: 6493 7fbe 7e96 a13c 185a 313e e11a 5b3c
00000300: 5c4b 143e 4e71 dd3b e396 cebd 5a0f ebbd
00000310: fe22 aa3d 3b44 e7bd 4f42 f2bd c503 023e
00000320: 6260 76be f3f0 32be 7afa 4d3a 7538 87bd
00000330: 443e a23d 7cbc 623e c4b0 26be 0273 0abe
00000340: 2f8f a2bd 9905 42bd 321a 963d f28c 603d
00000350: f9fc 2a3d 21af c73b 91d1 fabb 5555 9a3d
00000360: 850c 313e b696 e53d 6484 51bc a958 0cbe
00000370: 42fc 2f3e e4f8 35bd 5274 56ba eff6 1fbe
00000380: 72f8 fd3c 6bf4 0b3e 4f3b abbd d718 0dbe
00000390: e20d 9dbe 15c6 4dbd 05d3 acbd 3d23 acbc
000003a0: 2c9a cabd 671a 063e 53d2 09bc 9756 adbd
000003b0: 8495 ea3d b58b 1c3b 8c88 cb3d dfcd 5a3d
000003c0: 9365 85bc 0636 5f3d 9cd0 fbbd e145 c43c
000003d0: eccb 263d c3b9 c63d 86ca a6bd d1ee 8c3d
000003e0: db77 c6bd 02a0 163d d362 8ebd 35fe f43d
000003f0: c8c4 333d 06ef eebb 0553 35bc 7bac ae3d
-0.0997845 0.15531178 -0.0879562 -0.014281662 0.03895795 0.1623276 -0.13231146 -0.15216921
-0.060182642 0.1100672 0.20250593 -0.07915686 -0.08256908 -0.2200925 -0.12299866 -0.006381939
-0.019829666 -0.048749607 0.02641306 0.020859191 0.18023472 0.024843955 0.18925953 -0.022778364
0.14581756 -0.16119927 0.09824385 -0.15877365 0.025282007 -0.035630465 -0.07891889 -0.10182485
0.004566227 0.14009841 0.085831195 0.035757065 -0.013337104 -0.030926876 -0.03511134 0.019547243
-0.050098546 0.1204935 0.00091053295 -0.17317978 0.052355472 -0.12242275 -0.026868202 0.057332925
0.25891244 -0.010932223 -0.1704323 -0.03626134 0.047480673 -0.06512116 0.07072175 -0.023110365
-0.10872715 -0.11026607 -0.1173439 -0.10727482 0.08649888 0.21658613 -0.10526226 -0.025590213
0.0559966 -0.03721066 0.039025765 -0.09770791 0.039801598 0.020119702 -0.024675123 0.0003029718
0.08944411 0.07035873 -0.1154925 -0.0009142931 -0.002054041 0.04340697 0.17217365 -0.07735802
-0.11078187 0.07430614 -0.0019742472 0.11528017 -0.17223515 0.026394695 -0.36437017 -0.2984666
0.041730676 0.06519176 0.022925448 0.17574993 0.025559982 0.12882921 -0.004572292 0.12576485
0.11915632 0.14904411 0.054112427 0.0928539 0.083719455 0.08708479 -0.060079888 0.064571716
-0.009009513 0.047499686 -0.047405887 -0.05284091 -0.08642607 0.040241558 0.093282774 -0.060207807
0.023478955 -0.04113187 -0.06352992 -0.1600264 -0.092637114 -0.13970691 0.012450842 0.016192945
0.23798114 0.103112064 -0.17596374 0.029779054 0.18061766 -0.08199756 0.103791475 0.023718555
-0.19834062 -0.11600734 0.17592809 -0.097194314 0.04352424 0.00081169466 -0.023986261 -0.10488194
0.031452667 0.027639562 0.092264205 -0.17939349 0.09488045 0.032512967 0.04138663 0.084989525
-0.059318546 -0.043320492 0.020973267 -0.03860505 -0.14013039 -0.011539428 0.037712257 -0.0064190766
0.14438325 -0.20948048 -0.004753901 -0.039620403 0.021346863 0.05718375 -0.102800965 -0.04237518
-0.04792739 0.039428633 0.19491856 0.09847053 -0.04673692 -0.018438991 0.029796565 -0.093481705
0.11706318 -0.16938914 0.024982331 -0.15627679 0.0028364975 -0.059853483 0.08321308 -0.043729626
0.03552775 0.16102248 -0.0021191863 -0.04162856 -0.096861415 0.22977144 0.060958102 0.083418444
-0.06670699 0.2510535 0.04605524 0.06920145 -0.24958569 0.01972508 0.17319524 0.013373108
0.14481872 0.0067578917 -0.10087373 -0.114775375 0.083074555 -0.11292311 -0.118290536 0.1269675
-0.24060205 -0.17474727 0.00078574533 -0.06602565 0.079220325 0.22142214 -0.16278368 -0.13520434
-0.07937466 -0.04736862 0.07329215 0.054821916 0.04174516 0.006093875 -0.007654377 0.07535807
0.17289932 0.112103865 -0.012787912 -0.13705696 0.17186072 -0.044426814 -0.0008180785 -0.15621541
0.031002257 0.13667457 -0.083609216 -0.13779007 -0.30674654 -0.050237734 -0.08438686 -0.021012897
-0.09892687 0.13096009 -0.008411962 -0.08463781 0.11454299 0.0023886983 0.099381536 0.05341899
-0.016283786 0.05449488 -0.122956485 0.023959102 0.04072182 0.097034 -0.08144097 0.06881488
-0.09690829 0.03677369 -0.06952443 0.11962549 0.043888837 -0.0072916774 -0.011067157 0.08528992

net.2.grid_points f4 [5]
00000000: 0000 00c0 0000 80bf 0000 0000 0000 803f
00000010: 0000 0040
-2.0 -1.0 0.0 1.0 2.0

net.3.coeff f4 [1, 64, 5]
00000000: e5ab 0abe 7625 6c3e d832 5e3e 6043 0c3d
00000010: 7354 cebd d64e 8b3b ff25 b33d 501e 1ebe
00000020: 4c5d 87bd cc5e 833d 0fe7 5a3e 06bc 07be
00000030: ad8c eebc c380 f23d bf7a 09be 019d 48bd
00000040: ed58 afbd 3900 30be 71a9 9abc 82bb 5f3e
00000050: a1bd 91bc 86a0 2f3e 9615 17be 0168 9cbc
00000060: 0249 1a3d 0672 db3d 6906 c7bd 1b52 303d
00000070: a6cb 8f3d f0a8 a3bc 5d4c d13d bba1 24bd
00000080: 4865 6abc 9b49 fcbc cbcb 1dbe 2aea 2cbe
00000090: cf5a a33d 1a13 f3bd 1f0d f03b 3291 12bd
000000a0: 04b3 09be de9a 793e ff9c de3d c148 08bd
000000b0: a93b 51bd 213f b7bd 169e d43d 47d0 1abe
000000c0: 3325 893d f4c5 233e f149 9abc 8e22 f3bc
000000d0: 495e 493e 5203 7e3d 7660 6ebd e1fc 213d
000000e0: 140d b53d cce1 09bc 7f77 2a3c 14af b5bd
000000f0: 33e7 c5bc e926 0ebd 6591 d7bd c670 1b3d
00000100: 6b00 97be 7373 35be 20e5 953b 7ec0 873d
00000110: 5c42 173c f981 883e 2b83 ddbc 044c fd3d
00000120: 054f dbbd 49bc c0bc b593 1bbe c6b8 f73d
00000130: 22e6 1cbe ab76 cc3c d0b3 0ebd b29e 1cbd
00000140: 3fb3 2b3e 4c68 463c 6dea 703b ae39 623d
00000150: a710 8abd c99b 27be 331d 653d cded 053e
00000160: 2aff 9c3d ddb6 1d3e ea75 42bd 8ba1 ff3c
00000170: 4e04 833d 759d 24bd 34b4 6abe 3339 c43a
00000180: 0e90 1dbc 2ceb 98bc 202d 493d 51bf c9bc
00000190: a0c6 2f3d d245 9e3d 1ca5 bebd 1b87 00be
000001a0: e6eb afbc cecf 4c3d 2e27 65bc f31f b2bb
000001b0: 9e4d 163e 08a7 4e3c 7eea 5c3e 621e 05be
000001c0: 02de f13d aa87 02be 6216 993d 232b 023e
000001d0: 03b9 c4bc dad3 90bb b2dd 8a3c 4634 d8bb
000001e0: 8a03 cabc 9ee2 763e ea0d 48bd 0495 803c
000001f0: 3e05 98bc f612 80bd 6292 19be e7b3 403d
00000200: 1f3f 35be 9570 be3d b495 53be 452b b5bd
00000210: 208a c1bc b1ab f2bd 3e45 c13d 5249 173d
00000220: 5183 bebd 3fd0 53bd 77e6 21bd a436 12be
00000230: 879f afbc 4b5b f13d 4ee1 e8bd 2ef7 8b3d
00000240: 00bf 36bd c43a 39bc 8381 55bd 5140 afbb
00000250: 0488 a43c 60df 0cbd d67b a93d 817b 4b3d
00000260: 4932 bf3c acd3 16be b489 bb3c 3476 f83d
00000270: 2393 f3bd 12e3 b4bd 0066 7a3d e0c1 bc3c
00000280: 7058 923d 1c26 dfbd 31be 063e 604b ac3c
00000290: b982 9c3d d35d 24bd bf67 003d df3b 923d
000002a0: 3a95 0d3d 874a 0e3d 7bf0 4b3c f55a d93d
000002b0: 1517 b2be 5e4e 1a3d 8b30 bdbc 1cfd 67bd
000002c0: bf3f f5bb 5d2e babd 2cc6 783d 888d 3fbd
000002d0: 2c81 4e3d 0b89 d33d 87ab 1f3e 7566 c8bc
000002e0: 310b 03bd fdf0 16be aa84 823c 6ae7 dcbc
000002f0: 721c d63d 5d44 32be 99b2 38bd 4e7d 7c3e
00000300: 0acc 19be 5c18 13bc 61e5 58be cc6d c43d
00000310: f61a cf3d cb58 6abc 4fff 78bd 2453 2b3d
00000320: ddb5 82be 9969 813e 6fa3 57bd 7b58 bd3d
00000330: d4f3 bb39 7cd3 80bd 08f9 8dbd 131a 873d
00000340: 014e 113d 5d93 26be 3922 84bb 7739 2a3e
00000350: 2f29 eb3d a2ae 88bc 21d5 00be 5b4c 503c
00000360: 24a6 03bd 17ae a2bc 84b4 113c 52c4 453c
00000370: f2f2 1e3e c0c7 183e d78f f2bd 0847 b23d
00000380: 722d 9cbd e50b 08be 974b 093d b090 0e3e
00000390: 3cf1 9abe 8ba1 263d efdb aa3c 479a 0c3d
000003a0: b74e 72bd 4fb4 07be 703d 31bd 9d87 f53d
000003b0: 6c15 cebd 6ffa 583c c75d 203c eb53 14bd
000003c0: d79b e53d d0cd 42be 449c 9c3d bebe ea3d
000003d0: f8dd 9bbd 3180 93bd 4132 2d3e 6711 b13d
000003e0: bb50 7dbd b7c4 c5ba 1d92 8a3c 60e9 9b3d
000003f0: a223 a53d c3ec febd fc3c ef3c f599 2fbc
-0.13542135 0.23061165 0.21699083 0.03424394 -0.10074701 0.0042513413 0.087474816 -0.15441251
-0.06609592 0.064145654 0.21377204 -0.13255319 -0.029119814 0.118409656 -0.1342573 -0.048977856
-0.08561883 -0.17187585 -0.018879624 0.21848872 -0.017790617 0.17151079 -0.14754328 -0.019092562
0.037667282 0.107151076 -0.097180195 0.043047052 0.07021265 -0.019978017 0.10219643 -0.0401933
-0.014306374 -0.030796817 -0.15409772 -0.16886202 0.07976305 -0.11868878 0.007325783 -0.035783
-0.13447195 0.24375483 0.108697884 -0.03327251 -0.051082287 -0.08947588 0.10381715 -0.15118514
0.06696548 0.15993482 -0.018834086 -0.029679563 0.19664873 0.062014885 -0.05819746 0.039547805
0.08840385 -0.008415651 0.010404467 -0.08871284 -0.024158096 -0.034705076 -0.10525779 0.037949346
-0.29492506 -0.17719822 0.004574433 0.06628512 0.00923213 0.2666166 -0.027040085 0.123680145
-0.10708431 -0.023527281 -0.15193065 0.120957896 -0.15322164 0.024958929 -0.03483945 -0.03823728
0.16767596 0.012109827 0.0036760822 0.05523079 -0.067414574 -0.16368021 0.05593605 0.13078995
0.07665856 0.15401788 -0.047475733 0.03120496 0.063973054 -0.040189225 -0.22920305 0.001497066
-0.009616865 -0.018666826 0.0491153 -0.02462736 0.042914033 0.07728161 -0.09308836 -0.12551539
-0.02147479 0.050002865 -0.013986392 -0.0054359375 0.14678046 0.012613066 0.21573827 -0.12999871
0.11809923 -0.12747064 0.07474972 0.12711768 -0.024014002 -0.004419786 0.016951416 -0.0065980284
-0.02465989 0.24109885 -0.048841394 0.015696056 -0.018557187 -0.062536165 -0.14997247 0.04704657
-0.1769986 0.09298817 -0.20662576 -0.08846144 -0.023625433 -0.11849154 0.09437035 0.036935158
-0.0930239 -0.05171227 -0.03952643 -0.14278656 -0.021438373 0.11784991 -0.113710985 0.06834255
-0.044615746 -0.011305515 -0.052125465 -0.0053482433 0.020084389 -0.034392715 0.08275573 0.04967833
0.023339408 -0.14729184 0.02289281 0.121319205 -0.118932985 -0.08832373 0.06113243 0.023041666
0.07145774 -0.10895941 0.1315849 0.021032035 0.07642121 -0.04012854 0.03134894 0.07140326
0.03456614 0.034739044 0.012447472 0.10613052 -0.34783235 0.037672393 -0.023094436 -0.05663787
-0.007484406 -0.09090874 0.060735866 -0.046765834 0.050416157 0.10328873 0.15592776 -0.024462918
-0.031993095 -0.14740367 0.0159324 -0.026965816 0.10454644 -0.17408891 -0.0450922 0.24657175
-0.15019241 -0.008977976 -0.21181251 0.095912546 0.10112564 -0.014303396 -0.060790356 0.041827336
-0.25529376 0.25275877 -0.052646097 0.09245392 0.00035849086 -0.062903374 -0.069322646 0.0659677
0.03547478 -0.16267152 -0.0040324 0.16623484 0.114824645 -0.016684834 -0.12581302 0.012713517
-0.032140866 -0.019858403 0.008893136 0.012070732 0.15522364 0.14919949 -0.118438415 0.087049544
-0.076258555 -0.13285787 0.033519354 0.13922381 -0.30262172 0.040681403 0.020856826 0.034326818
-0.0591571 -0.13252376 -0.043271482 0.11988757 -0.1006268 0.013243302 0.009787983 -0.036212843
0.11211365 -0.19023824 0.07646993 0.114621624 -0.076106966 -0.07202185 0.16913702 0.08645897
-0.06184457 -0.0015088533 0.016915375 0.07612872 0.08063437 -0.124475025 0.029203884 -0.010717859

net.3.scale f4 [1, 64]
00000000: 8496 7f3f 8016 7f3f 2410 7c3f 211b 7f3f
00000010: 0093 7b3f 135d 803f 7b20 7f3f 9ad0 7e3f
00000020: 9913 803f cdd9 7e3f 7356 7b3f 01ce 7c3f
00000030: 08f8 7e3f 852a 803f 652b 7f3f d844 7f3f
00000040: e717 803f cb4f 803f 5eba 7c3f 2820 803f
00000050: 9724 7f3f 63d3 7f3f 3c61 7e3f 27b8 7e3f
00000060: 2f58 803f 9f78 7d3f 0699 7f3f 33ef 7e3f
00000070: 0a35 7f3f e516 7f3f 0a22 7e3f ff19 7f3f
00000080: 7150 7f3f 8cd3 7f3f 4ded 7c3f 80cc 7e3f
00000090: 31a7 803f 93eb 803f 79b9 7f3f 930c 7f3f
000000a0: 6a52 7e3f df31 803f 804a 803f 7809 7e3f
000000b0: b167 7c3f 440f 803f 7e6c 7d3f 789a 7f3f
000000c0: cbc0 7c3f 0850 803f 9668 803f 273c 803f
000000d0: 9f95 803f a979 7e3f e03b 7e3f 8cb4 7e3f
000000e0: 4d57 7c3f 6068 7d3f 8003 803f dbfe 7e3f
000000f0: ccb5 7e3f 6d07 803f a70c 803f 356a 803f
0.99839044 0.9964371 0.9846213 0.9965077 0.9827118 1.0028404 0.99658936 0.9953705
1.0005981 0.9955109 0.98178786 0.98751837 0.99597216 1.0012976 0.9967559 0.9971442
1.0007294 1.0024351 0.98721874 1.0009813 0.99665207 0.99931926 0.9936712 0.99499744
1.0026911 0.9901218 0.9984287 0.9958374 0.99690306 0.9964431 0.9927069 0.9964904
0.9973212 0.9993217 0.9879959 0.9953079 1.0051023 1.0071892 0.99892384 0.9962856
0.99344504 1.001522 1.0022736 0.992332 0.9859572 1.0004659 0.9899367 0.99845076
0.9873168 1.0024424 1.0031917 1.0018357 1.0045661 0.9940439 0.9931011 0.9949424
0.9857071 0.9898739 1.0001068 0.9960763 0.9949615 1.0002266 1.0003861 1.0032412

net.3.base_weight f4 [1, 64]
00000000: 142e 37bd 3fe8 bb3d 30ca 813c d53d 353d
00000010: 2a97 423d 643c 30be f89e bcbc c15c b33d
00000020: 0591 2f3d 36b9 00be 265f be3d 03b1 fb3d
00000030: bb5c 203b 02e9 b43d f678 0bbc 7877 17be
00000040: 11cb c1bd 7ed1 8d3d e50a f9bd dc8b 603d
00000050: f2eb 6cbd 4b08 ae3a a553 f63c 3149 b93d
00000060: 9273 8a3d 4d66 ad3d bbdf c43b 3556 3a3d
00000070: c0f7 833d 8573 fbbd 3d8e 4fbd fde7 29be
00000080: 4db4 24bd 6bfa edbc fe6f 4cbc 6d55 f83c
00000090: 25db 3c3e eb75 243e 8c88 4f3c 9bb9 b1bd
000000a0: 89db aabd b3b3 d7bc 996b bd3b 17bd 1dbd
000000b0: 0df6 023e e65b d1bc 74a6 fd3c 6470 a2bd
000000c0: 4641 82bd 1d05 ab3d 3fad f33d e3a5 8b3d
000000d0: 586c 75bd 34e0 2c3b e010 9dbd 7fbc 19be
000000e0: 554f 603e bc3c 46be a907 143a 8a9f d63c
000000f0: 6a5b 203e b4c8 fc3b 0614 663d 2449 ba3d
-0.044721678 0.09175157 0.01584348 0.04424842 0.047507443 -0.17210537 -0.023025021 0.08757926
0.04286291 -0.12570652 0.09295492 0.12289622 0.0024469334 0.08833505 -0.008512726 -0.14791667
-0.0946256 0.06924723 -0.12160281 0.05482088 -0.057842202 0.0013277618 0.030069182 0.09047163
0.067603245 0.08466778 0.006008116 0.04549237 0.06443739 -0.12277893 -0.05067276 -0.16592403
-0.04021101 -0.029050073 -0.012477873 0.030314172 0.18442972 0.16060607 0.012666833 -0.086779796
-0.08342654 -0.026330804 0.005780649 -0.03851041 0.12789173 -0.025556516 0.03096316 -0.07931593
-0.06360106 0.08350585 0.118982784 0.0681875 -0.059917778 0.0026378753 -0.07669234 -0.15013312
0.21905263 -0.19359106 0.00056468934 0.026199121 0.15659872 0.0077143554 0.05617144 0.09095982

net.3.grid_points f4 [5]
00000000: 0000 00c0 0000 80bf 0000 0000 0000 803f
00000010: 0000 0040
-2.0 -1.0 0.0 1.0 2.0
