data/trained_models/base_rho_b_snn.pth (torch, 118778 bytes, 5 tensors)

fc1.weight f4 [64, 374]
000000 c0 00 aa 3c 43 bd 74 bc 80 04 3c 3d 56 63 99 3b
       0.02075231 -0.014937702 0.04590273 0.004681031
000010 14 30 17 3d 60 6d 01 bd 14 22 90 3a c8 ee 43 3d
       0.036911085 -0.03159845 0.0010996484 0.04783514
000020 d3 d1 81 3d 9b e2 6f bc 94 71 f8 3c 2a 16 f2 3c
       0.06338849 -0.014641429 0.030327596 0.029551584
000030 c4 e5 44 ba d8 bc 08 3d 16 1e 82 ba 95 b6 f1 3c
       -0.00075110444 0.03338322 -0.0009927179 0.029506007
000040 22 dc 02 3b 5d 5d 19 3d 4d 48 0e 3d ce 8b b4 3c
       0.0019967635 0.037442554 0.03473692 0.02203932
000050 6f c7 01 3d 0b 0b 48 bd b5 09 0f 3d d1 1e 92 3b
       0.031684335 -0.048838656 0.034921367 0.00445924
000060 b7 55 00 bd a0 61 56 bc c0 df 23 3c 1a 25 0f bc
       -0.031331744 -0.013084799 0.010002077 -0.008736873
000070 d4 d6 f7 bb 8a 84 3d bd ec 67 c3 3b 0c e9 4c bc
       -0.0075634513 -0.046268977 0.005963316 -0.012506735
000080 83 de 8c 3c 1a 94 ef 3c 7b d7 a3 bb 16 61 58 3c
       0.017195946 0.029245425 -0.0050000525 0.013206741
000090 d5 a1 43 bd e3 ce 01 3d 54 9f 0b 3d f6 50 0e 3d
       -0.047761757 0.031691443 0.034087494 0.03474518
0000a0 f0 af 8c bb f1 ef 8b bc 1c c8 ec 3a e9 44 a8 bc
       -0.0042934343 -0.017082186 0.0018065008 -0.020540671
0000b0 03 61 96 3c 62 4d 98 bb 08 5f 02 bd b1 b8 a8 bb
       0.018356806 -0.0046478966 -0.03182891 -0.00514897
0000c0 62 25 ea bc 78 43 af bc b0 84 86 3c 1c eb b8 ba
       -0.028582279 -0.021394476 0.016420692 -0.0014108154
0000d0 95 f8 ff bc 1d 27 02 3d bd c5 12 bd 38 02 42 bd
       -0.031246463 0.031775583 -0.03583311 -0.047365397
0000e0 3d 1f ed 3c 7b 51 2a 3d ac b0 ec 3b 84 49 ef bc
       0.02894556 0.041581612 0.0072232094 -0.02920986
0000f0 48 33 ac 3c 01 c2 1e 3d d6 6e e1 3c 3f 28 35 3d
       0.021020547 0.038759235 0.027518671 0.044227835
000100 3d 88 bb 3c f1 36 33 bc d5 75 ee ba 77 64 a2 bb
       0.022892112 -0.010938392 -0.0018193076 -0.004955824
000110 f8 c8 b1 3c a0 3e d9 bc bb b2 f3 bb 9b bd d4 3b
       0.021702275 -0.02651912 -0.007437078 0.0064923293
000120 f0 f1 b6 3b 24 1b 7c 3b c4 86 c8 bc 56 8f b7 bc
       0.0055830404 0.0038468326 -0.024478324 -0.022407215
000130 6f e9 c9 3b 9c c7 e2 bb bf ea 24 3d 46 e8 5f bd
       0.0061618607 -0.006920768 0.040262934 -0.054664873
000140 0d 1e b3 bc 09 0c ee bc d8 31 89 3c 23 e6 d3 3a
       -0.021864915 -0.029058473 0.0167474 0.0016166609
000150 f1 6c c8 bc 9d 92 f1 3c b3 bd 80 3c 78 a9 81 bc
       -0.02446601 0.029488856 0.015715456 -0.01582788
000160 ff 09 34 3d e7 f6 11 3d 49 64 37 bd fc 84 e8 3b
       0.043954846 0.035635855 -0.044773374 0.007095931
000170 5e b3 52 bd 44 51 d5 39 dc e6 bf 3c be 52 ef 3c
       -0.05144059 0.00040687073 0.023425512 0.02921426
000180 35 d1 33 3d 5c d4 bc 3c 92 86 93 3c 64 12 a1 bc
       0.043900687 0.02305048 0.018008504 -0.01966209
000190 10 a9 27 bd 8a f7 d9 bc bb 1e c1 3b 5b 36 3a 3d
       -0.040932715 -0.026607294 0.005893556 0.045461994
0001a0 17 e2 83 bc 78 e6 dc 3c 62 5f 09 bd ad a7 c6 3a
       -0.016099019 0.026965365 -0.03353823 0.0015156172
0001b0 80 44 6f bc 0a b7 9f 3b 00 3c 1e 3d 60 28 62 3c
       -0.014603734 0.004874115 0.03863144 0.013803571
0001c0 6c 70 fd bb 36 da 51 bd 82 65 9b ba 5a 2b 0c bd
       -0.007734349 -0.051233493 -0.0011855813 -0.03422103
0001d0 8c 58 87 bc d6 10 67 bb 4a 48 c9 3c 3f 3a 67 bb
       -0.016521715 -0.0035257838 0.024570603 -0.003528252
0001e0 7b 8f af 3c 2d 97 81 bc 29 cd 2c bd d8 3b 18 bd
       0.021430722 -0.015819157 -0.042187843 -0.037166446
0001f0 1f e7 30 bd 81 cc 05 3d 33 cf 17 bd 2a 4c ab bb
       -0.043189164 0.032665733 -0.037062835 -0.0052275853
000200 27 10 9d bc fe e9 eb 3c 82 30 ff 3c 08 38 16 3c
       -0.019172741 0.0287981 0.03115106 0.009168632
000210 4f 22 0b 3d f4 cd b9 bc b9 60 10 bd c4 dc 4f 39
       0.033968266 -0.022681214 -0.035248492 0.000198233
000220 47 b2 3f 3d 66 57 2b 3d 97 54 2c 3d e1 18 4a bd
       0.046800878 0.041831397 0.04207286 -0.049340133
000230 7e 1e 03 3d 3b 54 36 3d f3 85 aa 3c d1 f6 02 bc
       0.0320115 0.044513922 0.020815825 -0.007993416
000240 c9 e3 5a bc 17 4e 08 bd 17 8a 26 3d 2a d6 a7 3c
       -0.013359972 -0.033277597 0.040659036 0.020487864
000250 a7 13 05 3d 0c 52 d4 bc 1c 35 82 3c d8 b0 80 3c
       0.032489445 -0.02591803 0.015894465 0.015709326
000260 9b cf 19 bd d5 f9 2f 3d 4b ca 24 bd 40 e0 4c bc
       -0.037551504 0.042962868 -0.040231984 -0.012504637
000270 fb d5 2e bd 4d 98 5e bc 49 89 1a bd f5 31 4a 3d
       -0.042684536 -0.013586116 -0.03772858 0.04936405
000280 7e 10 ff 3c 80 01 1c bd ba 39 0b bd 09 d7 11 bd
       0.031135794 -0.038087368 -0.0339906 -0.035605464
000290 75 a9 d4 bc 13 8b d7 3c 8c 99 f6 3b 5c e8 52 bc
       -0.02595971 0.026311433 0.0075256284 -0.012872782
0002a0 d8 0e db bc 1a e8 bc 3b 49 3c 15 3d 3d 69 3d bd
       -0.026740476 0.0057649733 0.036434446 -0.04624294
0002b0 5f 86 da bc 52 e5 a5 3b 68 fd 17 bd 97 70 26 3d
       -0.026675401 0.0050627375 -0.0371069 0.040634718
0002c0 9c 5d 17 bd b3 2d 2b bd 14 4f 21 3d 4f a2 37 bd
       -0.036954507 -0.04179163 0.039382055 -0.044832524
0002d0 40 08 47 bd 05 17 3a 3d 15 59 53 3d 3f 5e 27 3d
       -0.048591852 0.04543211 0.051598627 0.040861364
0002e0 df 2b 44 bd 61 a5 4e 3d 8a fd 21 bd 4c 9c b7 3c
       -0.0478934 0.050450686 -0.039548434 0.022413395
0002f0 ee 45 ec 3c 8c 61 9f 3c da c5 b5 bb 01 8b 1d 3d
       0.028841939 0.019455694 -0.0055472674 0.038462643
000300 c0 66 a8 bc 5d c7 48 bd 20 64 ad bc 2d da 26 3d
       -0.020556808 -0.049018253 -0.021165907 0.040735412
000310 b2 5e a0 bb 02 93 3a bc 49 39 0d bd 66 47 24 3d
       -0.004894101 -0.011387588 -0.03447846 0.040107153
000320 65 64 b5 3c 8a 7c 97 bc e1 d6 79 3c ac 37 f8 bc
       0.022142598 -0.018492002 0.015248985 -0.030299984
000330 bd c6 4a 3d c6 de e3 bb 89 45 d9 bb cf 7c 1b bc
       0.049505938 -0.006954047 -0.0066306037 -0.009490206
000340 3c 21 b8 3b 9c f6 4a bd ca 51 4e 3d bd 06 4d 3d
       0.005619196 -0.04955159 0.05037097 0.050055254
000350 eb cc 40 3d f4 74 14 3c 70 e4 d0 3c ff 79 af bb
       0.047070425 0.009061087 0.025499552 -0.0053551192
000360 14 ba 4a 3b c2 1b cd 3c c2 d7 1a bc 9b ff 67 3d
       0.0030933665 0.02503765 -0.009450855 0.05664025
000370 c4 f7 ed bc b4 57 4e 3b e4 c7 0c bd 4e 05 fd bb
       -0.029048808 0.003148538 -0.034370318 -0.0077215796
000380 43 e3 12 3d d6 b7 15 bd 3a ef 3c bd ed 34 40 3d
       0.035861265 -0.036552273 -0.04612658 0.046925474
000390 f9 37 3c bc 4d 1e ae bc 8c 4a 62 3c ce a5 df 3c
       -0.011487954 -0.021254683 0.013811719 0.027300742
0003a0 22 82 13 bc 01 67 f3 3c 62 a9 22 bb f5 a4 1e 3d
       -0.009003194 0.029712202 -0.0024820198 0.038731534
0003b0 2c 37 d9 bc 2b 7d 3d 3d 71 d5 48 bd 24 5d 74 bb
       -0.026515566 0.046261948 -0.04903168 -0.0037286961
0003c0 c8 b6 15 bc 9c 3a 2a 3d 4a 9e cf bc f2 39 31 bd
       -0.009137817 0.0415598 -0.025344033 -0.04326815
0003d0 58 31 2b 3d cc 30 24 3d ba c3 67 3c a2 31 be bb
       0.041795105 0.0400856 0.014145786 -0.0058042565
0003e0 51 1c 50 3d f4 6d 07 bd 80 ac 46 bc 8f a8 19 bd
       0.050808255 -0.033063844 -0.012126088 -0.037514266
0003f0 f7 7c 46 bd f1 6f ca 3c c2 2b ab 3b b4 aa fa bb
       -0.04845902 0.024711581 0.005223722 -0.007649744

fc1.bias f4 [64]
000000 44 15 13 bd ea 22 96 bc 09 d1 d3 bc c9 a0 05 3d
       -0.035908952 -0.018327195 -0.025856512 0.03262404
000010 51 bd 4a 3d 4a fd 30 3d 2b d7 1e bd b4 6a 90 3d
       0.049496952 0.043210305 -0.03877942 0.07051602
000020 4b 37 40 3c 74 64 7a bc 76 d8 06 3d 63 1a 23 3d
       0.011731933 -0.015282739 0.032921277 0.039820086
000030 89 90 4c bd e0 e9 b2 bc f2 55 08 3d 36 9b 0e bb
       -0.049942527 -0.021840036 0.03328509 -0.0021759993
000040 27 ce 89 3d a8 57 65 bd f0 3e 5d 3d 6d 55 85 bc
       0.067287736 -0.0559918 0.0540151 -0.016276086
000050 11 64 54 3c ba 1e 05 3d 28 13 e1 3b af 86 6a 3b
       0.012963311 0.032500006 0.0068687387 0.0035785844
000060 f5 9e 85 3d 40 24 1e 3d 3a 4d 11 3d ce 24 0b 3d
       0.06524459 0.03860879 0.03547404 0.033970647
000070 f1 4b e6 3b 9d a5 c1 bc 1f 7c 21 3d ca 01 fb 3c
       0.007028096 -0.02363854 0.03942501 0.030640502
000080 a4 03 80 3d 6c 19 10 bd c8 49 71 3d 83 ed 47 bd
       0.062506944 -0.035180494 0.058908254 -0.048810493
000090 5b ee d0 39 56 1b 02 3d 2e 83 a3 3c 8d 50 ee bc
       0.0003985044 0.03176435 0.019960012 -0.029091144
0000a0 7e 72 77 3c bb 58 90 bc fc d8 e2 bc 26 6f a6 bc
       0.015102981 -0.017620435 -0.027691357 -0.020316672
0000b0 50 d5 5e 3d 9c c0 c5 3c dd 4a 3d bd 39 8a 59 bc
       0.05440265 0.024139695 -0.046213973 -0.013277584
0000c0 d4 1a 7b bc a5 2b 2d 3d 4e 6b da 3c ea 17 d2 3c
       -0.015326221 0.04227795 0.026662495 0.025646169
0000d0 58 ba 86 3b 7e 68 d6 bc 7c bf 1e bd 72 3e e6 bc
       0.0041115694 -0.026172873 -0.038756832 -0.028105948
0000e0 de 4e 68 3d d2 f0 81 3d 88 2f 3e 3d 58 6f d1 bc
       0.05671584 0.06344761 0.046432048 -0.025565788
0000f0 32 84 a4 ba 92 27 e4 bc 68 73 71 3d ba db 4a bc
       -0.0012551604 -0.0278509 0.05894795 -0.012381488

fc2.weight f4 [64, 64]
000000 a0 d1 2a bd b4 fa 89 bc a6 79 4e bb 92 6d 7e bd
       -0.04170382 -0.016843177 -0.0031505614 -0.062116213
000010 86 7f b0 bc b3 71 9d 3d 13 4d 18 3d 26 8a 8d 3c
       -0.021545183 0.07687702 0.03718288 0.017277788
000020 61 62 87 bd eb b2 2f bc bf 13 76 3c 71 08 8d 3b
       -0.06610561 -0.01072381 0.015019356 0.004303985
000030 92 af ce bc f7 e3 d3 3b df bf f2 3d dd 74 e1 bd
       -0.025230203 0.0064663845 0.11853003 -0.11008618
000040 2d 12 9b 3d 83 ff 92 3c fc 19 06 3d 05 ab e5 bd
       0.07571826 0.017944103 0.032739624 -0.1121426
000050 03 3f 9c bd 3b f3 80 3c e0 99 b4 3d 9a e2 9f bd
       -0.07629206 0.015740981 0.08818412 -0.07806893
000060 22 b1 83 3d 02 44 05 3e 3d ac 9f bd ae 3b 68 3c
       0.0643027 0.13014224 -0.07796524 0.014174385
000070 87 0a b8 3d f4 05 22 3d a8 37 84 bd cf 17 21 3d
       0.08986383 0.03955646 -0.06455928 0.039329346
000080 d4 b9 e3 3c 67 dc d1 3d 29 ab 11 3e 15 57 e1 bd
       0.02779857 0.102471165 0.14225449 -0.11002938
000090 a8 3c 5c 3b 56 f6 93 bc 3a 4e 8b 3d e8 9b cf bd
       0.003360549 -0.018061798 0.0680203 -0.10137159
0000a0 ca c0 79 3d 5f 62 ef 3d c6 e2 aa 3d bc 2d 11 3e
       0.060974874 0.11688685 0.08344035 0.14177603
0000b0 9e 8f b8 3d 01 da e7 3d 94 e9 8b bb 6c 9a 6d 3d
       0.09011768 0.11320878 -0.004269788 0.058008596
0000c0 02 1f 23 bd 7e bc 2b 3d 96 d2 a9 bd cd f1 0b 3e
       -0.039824493 0.041927807 -0.08292119 0.13666458
0000d0 11 9a 82 bd 83 80 c3 3d 10 39 2f bc a8 a4 44 bc
       -0.06377042 0.09545996 -0.010694757 -0.012002148
0000e0 40 61 66 bb 44 e3 d1 bb 9a 36 fb 3d de 33 c1 bd
       -0.003515318 -0.006405266 0.12266274 -0.09433721
0000f0 67 43 75 bd 3c 82 a8 bd 20 34 9b 3d 7e fa a5 3d
       -0.059878733 -0.08227965 0.075783014 0.08104418
000100 d8 d6 c7 3c 68 e1 cf bc dc 07 a8 bd ea 5e 8f 3b
       0.024394438 -0.025376037 -0.08204624 0.0043753283
000110 5e c0 d1 3c 47 bc d0 bd db c9 a8 3d 30 87 d2 3d
       0.025604423 -0.10192161 0.08241626 0.10279691
000120 25 cc 68 bc 74 05 0c 3d 4f 5a 93 3d 97 6f ef bd
       -0.014208828 0.034184888 0.07194959 -0.11691206
000130 e6 5a d3 3d 87 af dd bd 92 a7 4e bc 52 60 4b 3d
       0.10320072 -0.10824495 -0.012613194 0.049652405
000140 cd a9 c6 3d 65 0d bb 3d ca 0c cd bd 9f ac 23 bb
       0.09700356 0.09133414 -0.10012205 -0.0024974716
000150 0a 6a bf 3d f2 d8 ca 3d 8c b5 03 3d 5c f9 3d bd
       0.09346397 0.0990466 0.03215556 -0.046380386
000160 ea a2 f1 3c 6d 55 ce 3d b4 2e 0d be 34 b1 b4 bd
       0.029496629 0.100748874 -0.13787347 -0.08822861
000170 36 33 ac bd 27 06 08 be 03 96 9e bd e5 9f 20 bd
       -0.08408205 -0.13283597 -0.07743456 -0.039214987
000180 cc 1b 9d bd ef 0b f5 bd f9 71 61 bd d9 c8 22 bd
       -0.076713175 -0.11965167 -0.055040333 -0.039742325
000190 1d ce 45 bd da 68 9c bd 91 90 ec 3d 18 b3 d1 3d
       -0.048292268 -0.07637186 0.11551011 0.102392375
0001a0 f2 d6 c7 bd cc f4 09 bd 2c a8 5e 3d 6e c9 f1 bd
       -0.097577944 -0.033680722 0.0543596 -0.11805998
0001b0 81 a8 c9 bd d2 02 eb bd 8f 0e 58 3d ca f7 18 3d
       -0.09846593 -0.11475147 0.05274826 0.037345685
0001c0 7d 80 e2 bd ab 7f d2 bb f2 c1 78 bd 44 6b bb 3d
       -0.110596634 -0.0064239106 -0.060731836 0.09151319
0001d0 b2 46 eb bb 38 c2 df bd 8d e8 a8 bd f7 5e 03 be
       -0.0071800584 -0.10925716 -0.082474805 -0.12829195
0001e0 39 18 bd b8 d9 e6 96 bd 96 9f 68 3c 3e fe 84 bc
       -9.016734e-05 -0.073682494 0.0141982045 -0.016234513
0001f0 a4 3c fb 3c fe 95 b8 3c eb cb b5 bd be 61 ad 3d
       0.030668564 0.02253246 -0.08876785 0.084659085
000200 96 09 f5 bc 1a d4 0a be 38 68 52 bd bf f9 87 bd
       -0.029911797 -0.13557473 -0.051368922 -0.06639432
000210 97 cc 78 3d da 73 50 bd 65 75 e7 bd 64 5e d8 bc
       0.060741987 -0.050891735 -0.11301688 -0.026412196
000220 b2 6a 26 bd 88 86 b3 bd 46 d1 a0 bd be d7 20 bd
       -0.040629096 -0.08765894 -0.07852416 -0.039268248
000230 9f e1 ea 3c 94 f7 12 3e b4 bf d3 bb 95 d3 0c 3e
       0.028672038 0.14352256 -0.006462062 0.13752587
000240 e1 bf fe 3d 37 da a5 3d 13 8c e9 3d 48 bb 82 3d
       0.12438942 0.08098262 0.1140367 0.06383377
000250 52 70 a9 bc 52 bd 0a 3e bd 76 c9 bd 19 54 f9 3d
       -0.020683441 0.13548782 -0.09837101 0.121742435
000260 9d 1a 99 3c ae a2 18 3e 70 b8 30 3d 52 3c 13 bb
       0.018689448 0.14905807 0.043144643 -0.0022466374
000270 83 f8 b4 3d 2c 10 aa 3d 89 37 a1 3d c9 92 a8 3d
       0.08836462 0.08303866 0.078719206 0.08231122
000280 f1 2e 5a 3d 3d 97 05 bd 6a c1 cb 3d 68 8a 9f bd
       0.053267423 -0.032614935 0.09949 -0.07790071
000290 83 df f3 bc 3d b7 98 bd 16 48 a0 3d 79 ff cf 3d
       -0.029769665 -0.07456825 0.07826249 0.101561494
0002a0 52 79 ac 3d 30 30 f9 bd 15 ee d8 bd 1e 70 94 bd
       0.084215775 -0.12167394 -0.105922855 -0.07247947
0002b0 aa 2a ec 3d 2c 03 7d bd 52 2a d0 3d 57 6c 21 3d
       0.11531575 -0.061770603 0.10164322 0.03940996
0002c0 4b ac 60 bd 4a 72 13 bd d2 56 d1 bd a3 79 e1 bd
       -0.05485181 -0.035997666 -0.10221638 -0.110095285
0002d0 ec 42 0d 3d f3 4a b6 3d 5c de 2a 3c 33 f8 5e bc
       0.03448765 0.08901014 0.010428991 -0.01360898
0002e0 fc 0b 8c 3d af a7 a0 3c 30 14 d3 bb e4 41 1a 3e
       0.06838223 0.019611208 -0.0064416155 0.15064198
0002f0 4f 7d b0 bd 3b 63 6a 3d fc e1 b7 3d 99 08 5d 3d
       -0.08617651 0.05722354 0.0897865 0.053963277
000300 b0 5c 44 38 ad da 39 bd ce a0 f6 3b de d2 ac 3d
       4.6816363e-05 -0.04537456 0.0075264936 0.08438657
000310 58 3c 66 3d 67 13 a6 3d b3 b5 ce bd 2d 33 2b bc
       0.056209892 0.081091695 -0.1009325 -0.010449213
000320 d1 8f 8e bd 5c b5 7b bd a3 62 6c bd f4 dc 04 be
       -0.069610246 -0.061452255 -0.057711255 -0.12974912
000330 71 b1 f0 bc d5 aa 7b 3d 47 04 11 bd ea 7e bc 3d
       -0.029381486 0.061442215 -0.03540447 0.092038944
000340 92 ff bc bd ae f4 cd bc c2 76 8e 3d a4 e6 e5 3d
       -0.09228434 -0.025141086 0.06956245 0.11225632
000350 b2 61 bc 3d 60 19 41 3d ee 03 30 bd 82 94 f8 3d
       0.091983214 0.04714334 -0.042972498 0.121377006
000360 d0 c5 2f bd 81 5c fd 3d 78 6f e2 bd 65 92 6f 3a
       -0.042913258 0.12371159 -0.11056417 0.0009138941
000370 45 f1 f2 3d 73 c4 b4 bd 46 fa d1 bc 19 6f 49 bd
       0.11862425 -0.08826532 -0.025632035 -0.049178217
000380 d0 85 06 be d2 b7 24 3d df 7d b3 3d 84 70 bf 3d
       -0.13136983 0.040214367 0.087642424 0.093476325
000390 68 ac 67 3d 36 ac 74 3d d3 d3 b1 3d 54 8e 0c 3e
       0.056560904 0.059734546 0.086829804 0.13726169
0003a0 8a 94 26 ba 4c e0 52 bd 05 63 e5 bd d8 15 3e bd
       -0.00063545315 -0.051483437 -0.11200527 -0.04640755
0003b0 88 cd c6 bd 71 99 92 3d 9d 45 93 bc 78 e4 8f bc
       -0.09707171 0.07158173 -0.01797753 -0.017564997
0003c0 da 1a da bd b0 68 ef 3d e7 28 44 bd 06 5d a1 bd
       -0.10649653 0.116898894 -0.04789057 -0.07879071
0003d0 d1 b0 1c 3d d2 e5 83 bd ea a8 61 bd f0 60 03 3e
       0.038254563 -0.06440319 -0.05509273 0.12829947
0003e0 a1 49 b1 bc 01 6f e1 bc c4 41 76 3c aa 1e eb bc
       -0.021641554 -0.027518751 0.015030328 -0.028701145
0003f0 d3 72 8f bd b3 f9 d4 bd af 9e ea 3c e1 b2 0f bd
       -0.07004323 -0.10399189 0.02864012 -0.0350827

fc2.bias f4 [64]
000000 a3 6f 87 bd b2 7c 4b 3d 97 73 14 3e ff db c2 bb
       -0.0661309 0.049679466 0.14497219 -0.0059466357
000010 92 d3 1e 3d ad e2 38 3c 29 f7 0b bd 62 95 06 3e
       0.038775988 0.0112845125 -0.034171257 0.13142923
000020 4e 04 af 3d f1 43 80 bd 2a d6 d6 3d 24 26 9c bc
       0.08545743 -0.06262959 0.10490067 -0.019061156
000030 ae 9c a0 bc e4 be 76 bd cd 19 9e bd 54 a5 c6 bd
       -0.01960596 -0.06024064 -0.07719765 -0.096995026
000040 2e d3 e0 bc 4f ad cc 3d 38 07 26 3d 4a b2 01 3e
       -0.027444448 0.099939935 0.040534228 0.12665668
000050 44 d6 e4 3d f2 2a 01 3e aa 4c 0b bc 45 30 a0 3a
       0.111736804 0.12614039 -0.008502165 0.0012221417
000060 8d 7e a2 3d 7c d7 2a bd df 65 9f 3d 87 5d 51 3d
       0.07934294 -0.04170941 0.07783102 0.051114585
000070 19 e3 d6 3c 12 51 b8 bd 7d 51 a3 bd b3 73 0a 3d
       0.026231335 -0.08999838 -0.07974527 0.033801746
000080 cc 6f 8c bd 2e 76 95 bb 67 d1 9f bc f5 f8 d9 3c
       -0.06857261 -0.0045612073 -0.01950903 0.02660797
000090 4f 7b af bd ef 65 d3 bc 9f 2c ea bd f3 c1 21 bb
       -0.08568441 -0.025805442 -0.11434292 -0.0024682253
0000a0 e4 df c4 bd cf 82 94 bc bf c7 65 3d 8a a7 67 bb
       -0.09613016 -0.01812878 0.056098696 -0.0035347664
0000b0 96 5e 12 3e 79 a0 c6 3c d1 d8 67 bd f9 72 66 bd
       0.14293894 0.024246441 -0.056603257 -0.05626199
0000c0 4c fa 85 3d c8 fe d5 3c 89 4f e5 3c 17 b6 e8 3d
       0.06541881 0.026122466 0.027992027 0.11362856
0000d0 fc df b9 3d 02 90 e2 3d da 92 4d bd 6a 59 c7 3d
       0.09075925 0.110626236 -0.050188877 0.09733851
0000e0 d4 65 71 3d 53 ed f6 bd 77 88 3c 3b 23 69 09 3e
       0.058935 -0.12056985 0.0028767863 0.13419013
0000f0 32 5c 09 be 7f 46 f5 3c a9 51 80 bd 30 8b 52 3d
       -0.13414076 0.029940842 -0.062655754 0.05140227

fc_out.weight f4 [1, 64]
000000 65 2d 05 3e 7a 5f af bd 34 01 9b 3d 72 5c bb 3c
       0.13005598 -0.085631326 0.07568589 0.02287123
000010 1e 57 41 bd a3 ad 1a 3e 75 2d 2a bd c7 f5 f0 3c
       -0.047202222 0.151053 -0.041547257 0.02941407
000020 52 ce b3 3d a2 a2 ca bd 0f 29 af 3c 2b d6 da 3d
       0.08779587 -0.09894301 0.021381883 0.106853805
000030 ed 9d b2 bd ec 2b 09 3e 30 a9 77 3d 56 3e fb 3c
       -0.08721528 0.13395661 0.060464084 0.030669373
000040 59 5e d6 3d ee 14 7f 3d 91 c8 e4 bd fa b6 4a 3d
       0.10467214 0.06227582 -0.111710675 0.049490906
000050 f0 da 75 bd df b5 18 bd ae a9 e0 3d 2d b6 36 bd
       -0.06002325 -0.03728282 0.10969864 -0.04460733
000060 82 4f 5a 3d 93 45 ca bd 9b bf 04 bd d3 c1 ca bd
       0.05329848 -0.098765515 -0.03240929 -0.0990025
000070 8a ce 92 3d 15 af b7 3d 49 25 5c bd f9 02 d9 3d
       0.071683004 0.08968941 -0.053746495 0.1059627
000080 7f c9 32 bd 2e 17 53 bd 28 56 3b 3d 7e e3 10 3e
       -0.043649193 -0.051535778 0.045736462 0.14149281
000090 9f 97 8e bd 8a 20 be bd fe c7 c6 bd 18 98 18 3d
       -0.06962513 -0.0928355 -0.09706114 0.037254423
0000a0 67 02 ae bc e1 c5 bf 3c fd 85 cb bd 56 99 95 bd
       -0.02124138 0.023409786 -0.099376656 -0.07304637
0000b0 36 d3 52 3d 30 5d fc bd 52 13 0f 3e 53 87 72 bd
       0.051470958 -0.123224616 0.13972214 -0.059211086
0000c0 9d fe 88 3c 0e ca f9 bd bd f4 4f bd 7b c2 37 3d
       0.016722972 -0.12196742 -0.05077051 0.044863205
0000d0 09 b4 d9 3d 77 cd dd bd ca 72 cd bd 37 86 8b bd
       0.10630042 -0.10830205 -0.1003166 -0.06812709
0000e0 35 7a f6 3d 0c 4f 59 3c 32 c0 b3 bc b6 ce ec 3d
       0.12035028 0.013263475 -0.021942232 0.115628645
0000f0 93 3b e6 bc c2 71 58 bb b9 db d2 3d 1a a7 00 be
       -0.02810458 -0.003302679 0.10295815 -0.12563744
