data/trained_models/base_mu2_c_kan.pth (torch, 138786 bytes, 12 tensors)

net.0.coeff f4 [64, 10, 5]
-0.016422817 -0.107532546 -0.039210904 0.075482555 0.05552241 -0.0036673362 0.14376372 -0.0048903595
-0.16269492 -0.030231494 0.025927318 0.06701667 -0.13871762 -0.013400975 -0.01098356 0.03060473
0.012208671 -0.10823271 -0.044541795 -0.15533975 0.092888996 -0.13961782 0.012284566 -0.05393071
-0.17654437 0.040005565 0.11428653 -0.17909564 -0.07034529 -0.122834705 0.10587937 -0.08546753
0.025100391 -0.07032836 -0.10164202 -0.08930044 -0.049091246 -0.1968128 0.063114025 0.012588913
-0.14596593 -0.13350676 0.16025166 -0.10783156 0.042254873 0.08040884 -0.03567386 -0.026166515
-0.123054534 0.09071847 -0.1269273 0.24623448 0.20112087 0.082181305 0.022246584 0.011172365
0.12697509 0.017005816 0.10003888 -0.048530333 -0.0017790874 -0.08374997 0.021211693 0.2225927
-0.10931627 -0.16132282 0.118343025 -0.26341653 0.13592318 -0.10220048 -0.04594621 -0.049157556
-0.08030943 -0.08278672 -0.21993767 -0.0059633884 -0.07207189 -0.14616638 -0.030194169 -0.092790216
0.02267242 0.017551811 0.16265859 -0.04865476 0.021806177 0.06566382 -0.067544736 -0.031458072
0.13437033 0.0076338314 -0.058254547 0.02225092 0.16392268 -0.108462594 0.024970835 0.04689011
-0.010925855 -0.13231616 -0.019334465 0.015366376 -0.036080603 -0.09747987 0.08748144 -0.20545666
-0.14121737 0.04716302 0.076880716 0.014831581 0.18020926 -0.10976378 -0.09890187 0.11298933
-0.09088027 -0.16988191 -0.15543844 0.07533003 0.22101527 -0.15201883 -0.006687489 -0.07630416
0.14866084 0.10457733 0.0663892 0.057633594 0.18569179 0.010387673 -0.11190304 0.054052517
0.026530646 0.13358738 0.068545125 -0.06151217 -0.052049126 -0.03194699 -0.08026195 -0.090239085
0.040720623 -0.00834767 -0.06893906 -0.086263284 -0.07335868 0.14721932 -0.07213212 0.040761642
0.12791 -0.06322263 0.09781367 -0.079863764 -0.12426005 0.057539348 0.065449744 0.25865155
-0.0014120666 0.04511309 0.007706239 0.116462104 0.03439555 0.18858492 -0.03327801 -0.09689145
0.06968645 0.042886797 -0.036276508 -0.06893608 0.062563 0.10756751 -0.010181398 -0.05600711
-0.17774631 -0.07026153 0.10250642 0.20519827 0.04038976 -0.24242388 0.036049202 -0.00021412293
-0.024104044 -0.10582741 -0.040600076 -0.076809645 0.16391878 0.17743188 -0.08607271 -0.00010278655
-0.06633506 0.12155621 0.014706052 -0.20024702 -0.111978464 -0.037585124 -0.06495367 -0.011386269
0.03890038 -0.017994273 -0.035580028 0.041363448 0.20877856 0.08054783 -0.15272878 0.12972078
0.013562638 0.03750478 0.11381734 0.24214818 -0.059007913 0.079584874 0.010085602 0.18051524
0.05974014 -0.24736749 -0.041741136 -0.17962535 0.022129651 -0.11935707 0.14778256 -0.01709084
-0.0405099 0.013287577 -0.096803054 0.022089725 -0.004995534 -0.07085299 -0.10021078 0.05993062
-0.17293616 0.13395491 -0.07829339 0.14050485 -0.032196876 -0.09620479 -0.23339874 0.18744852
0.10369389 0.13746145 0.08569663 0.02296747 -0.17470248 0.11118194 -0.063121654 0.002923498
0.18026066 -0.021909304 -0.15871437 -0.16339132 0.21041736 0.08621092 0.10127851 -0.053141218
0.068311855 -0.10470606 -0.055527166 0.058809105 0.1055073 -0.035402685 -0.16696231 0.08464227
00000000: 2589 86bc 063a dcbd 9d9b 20bd 9996 9a3d
00000010: 776b 633d b157 70bb cc36 133e 4f3f a0bb
00000020: 7f99 26be 0aa8 f7bc 8765 d43c 0940 893d
00000030: fe0b 0ebe c38f 5bbc 64f4 33bc c5b6 fa3c
00000040: e106 483c 1ca9 ddbd 7571 36bd 6211 1fbe
00000050: 963c be3d f9f7 0ebe 3445 493c 73e6 5cbd
00000060: 0cc8 34be e0dc 233d 0e0f ea3d d964 37be
00000070: 3111 90bd c390 fbbd 48d7 d83d 9a09 afbd
00000080: 569f cd3c 5108 90bd b129 d0bd 26e3 b6bd
00000090: e713 49bd 4b89 49be ed41 813d ba41 4e3c
000000a0: 1878 15be ffb5 08be 0319 243e cbd6 dcbd
000000b0: 7213 2d3d 64ad a43d c11e 12bd 295b d6bc
000000c0: 0404 fcbd 9bca b93d 3bf9 01be e424 7c3e
000000d0: a1f2 4d3e ac4e a83d 783e b63c 4c0c 373c
000000e0: c205 023e c84f 8b3c 2fe1 cc3d bec7 46bd
000000f0: 4430 e9ba 1b85 abbd 25c4 ad3c 57ef 633e
00000100: 35e1 dfbd cf31 25be d45d f23d 88de 86be
00000110: 722f 0b3e 7c4e d1bd 1832 3cbd 6f59 49bd
00000120: 4579 a4bd 158c a9bd 5737 61be 8768 c3bb
00000130: 6d9a 93bd a4ac 15be c359 f7bc cc08 bebd
00000140: 83bb b93c d1c8 8f3c f98f 263e 374a 47bd
00000150: dea2 b23c c17a 863d e554 8abd 2eda 00bd
00000160: 6098 093e 3825 fa3b 529c 6ebd 9047 b63c
00000170: 59db 273e a321 debd a38f cc3c d80f 403d
00000180: 5b02 33bc e37d 07be 5063 9ebc 41c3 7b3c
00000190: 41c9 13bd 87a3 c7bd 7829 b33d 3b63 52be
000001a0: 499b 10be 032e 413d a373 9d3d 2900 733c
000001b0: c788 383e d5cb e0bd 108d cabd f366 e73d
000001c0: 6f1f babd 86f5 2dbe 412b 1fbe a146 9a3d
000001d0: d451 623e d3aa 1bbe b922 dbbb 5b45 9cbd
000001e0: 8c3a 183e a42c d63d 10f7 873d 3411 6c3d
000001f0: fd25 3e3e 0f31 2a3c 6c2d e5bd 2c66 5d3d
00000200: cc56 d93c 21cb 083e 6361 8c3d 2ff4 7bbd
00000210: 7731 55bd d9da 02bd 6160 a4bd 45cf b8bd
00000220: abca 263d aac4 08bc ec2f 8dbd ceaa b0bd
00000230: 133d 96bd a9c0 163e 01ba 93bd aef5 263d
00000240: d7fa 023e de7a 81bd 8952 c83d 9d8f a3bd
00000250: 0e7c febd 61ae 6b3d 840a 863d fa6d 843e
00000260: 1815 b9ba 81c8 383d 9e84 fc3b af83 ee3d
00000270: 59e2 0c3d 681c 413e 864e 08bd 066f c6bd
00000280: c5b7 8e3d 11aa 2f3d ad96 14bd 5c2e 8dbd
00000290: 0821 803d 5b4c dc3d e1cf 26bc b667 65bd
000002a0: 2103 36be 47e5 8fbd e3ee d13d 7f1f 523e
000002b0: bc6f 253d f73d 78be 54a8 133d 3086 60b9
000002c0: d875 c5bc 0bbc d8bd 444c 26bd 604e 9dbd
000002d0: 53da 273e b4b0 353e e446 b0bd 1c8f d7b8
000002e0: adda 87bd 76f2 f83d a7f1 703c 8e0d 4dbe
000002f0: f754 e5bd dcf2 19bd 6e06 85bd 798d 3abc
00000300: 0156 1f3d ba68 93bc 5dbc 11bd b86c 293d
00000310: 0cca 553e 43f6 a43d ef64 1cbe 86d5 043e
00000320: d435 5e3c 9d9e 193d 1119 e93d b1f5 773e
00000330: 48b2 71bd 65fd a23d 153e 253c fdd8 383e
00000340: 14b2 743d e74d 7dbe c1f8 2abd b5ef 37be
00000350: 3e49 b53c 7b71 f4bd 5054 173e 1702 8cbc
00000360: b5ed 25bd 23b4 593c ae40 c6bd 83f5 b43c
00000370: 94b1 a3bb 5f1b 91bd 4f3b cdbd cf79 753d
00000380: 2d16 31be 7a2b 093e 4958 a0bd 81e0 0f3e
00000390: dfe0 03bd 0407 c5bd 1400 6fbe 81f2 3f3e
000003a0: 765d d43d b2c2 0c3e b781 af3d 4726 bc3c
000003b0: 35e5 32be 5bb3 e33d ed45 81bd 2898 3f3b
000003c0: 4096 383e 247b b3bc 0586 22be 0e50 27be
000003d0: a677 573e 5a8f b03d 1c6b cf3d 9baa 59bd
000003e0: 16e7 8b3d 2170 d6bd 7470 63bd d1e1 703d
000003f0: 3614 d83d 6802 11bd 2bf8 2abe ed58 ad3d

net.0.scale f4 [64, 10]
1.0020008 0.99799937 0.9980007 1.0020009 1.0020008 1.0020008 1.0020008 1.0020005
0.99799883 1.0020008 1.0019988 0.9979991 0.99799925 0.9979993 0.997999 0.997999
1.0019988 1.0019934 0.9979991 1.0019995 1.0019969 1.0019968 1.0019969 0.9980019
0.998002 0.99800026 0.9980018 1.0019966 1.0019965 1.0019964 1.0020001 0.99799955
1.0020006 1.0020005 1.0020005 0.9980515 1.0020003 0.9979999 0.99799967 1.0020007
0.9980012 0.9980008 1.0019991 0.9980029 0.99800897 1.0019991 0.9980008 1.0019608
1.0019991 1.0019991 1.0019644 0.99803686 1.0019659 0.998038 1.001965 1.0019654
1.001966 1.0019679 1.001965 0.9980368 1.0019802 0.9980332 0.99802315 1.0019817
1.0019789 1.0019796 0.9980225 0.99802446 1.0019795 1.0019786 0.9980879 1.0019015
0.99808824 0.9980877 1.00191 1.0019085 1.0019046 0.99808824 1.001909 1.0018924
0.99818826 0.9981878 1.0018114 0.9981876 0.99818784 1.0018094 1.001811 1.0018121
0.9981918 0.99818796 0.99937296 1.0006205 0.9993678 0.9993479 1.000603 1.0006095
1.0006214 1.0006204 0.9993748 1.000594 0.9980134 1.0019897 1.0019888 0.9980187
1.0019876 0.99804455 0.9980138 0.99801314 1.0019896 0.9980142 1.0019937 1.0019937
0.99800706 0.99800813 0.998007 1.0019941 0.998037 0.9980072 0.99800706 0.99801034
0.9980073 0.9980077 0.9980088 0.9980089 0.99800813 0.99800897 1.0019879 0.99800795
1.0019888 1.0019783 1.0019954 1.0019952 1.0019931 1.0019951 1.0019957 1.0019956
1.0019946 1.0019889 0.9980014 1.0019959 1.0019997 1.0019982 1.0019999 1.0019981
1.0019982 1.0019997 0.9980037 0.9980035 1.0019981 0.9980018 1.0018996 1.0019006
1.0019003 0.999163 0.9980907 0.99809736 1.0018947 1.0019 1.0019004 0.99809754
1.0020008 0.9979992 1.0020008 1.0020008 1.0020008 1.0020008 0.99799895 1.0020008
1.0020008 0.997999 0.9979998 1.0020006 1.0020005 1.0020005 1.0020005 0.9979995
0.99799985 0.99799937 1.0020005 1.0020006 1.0019398 1.0019397 1.0019406 0.99806255
1.0019535 1.0019448 1.0019394 0.9980623 0.99806327 1.0019419 1.001923 1.0019187
1.0019194 1.0019219 0.99808276 1.001921 0.99808276 0.9980851 1.001921 0.99808866
0.9979991 0.99799925 1.0020008 0.99799895 0.9979991 1.0020008 0.99799955 1.0020009
0.9979992 1.0020009 1.0019976 0.9980045 0.99800557 0.9980045 0.9980054 0.999554
1.0019956 1.0019954 0.99800503 0.9980065 1.0019974 0.9980039 1.0019965 1.0019976
0.99801177 1.0019968 0.9980283 0.99800396 0.99800384 0.99800485 1.0019944 1.0019946
1.0019884 1.0019673 0.9980046 0.9980204 1.0019927 0.99800503 0.9980054 0.99800414
0.9979994 0.99799937 1.0020006 0.9979997 1.0020008 1.0020006 0.998 1.0020006
0.9980185 1.0020005 0.99799854 0.9979988 1.0020008 1.0020009 1.002001 1.002001
00000000: 9041 803f e37c 7f3f f97c 7f3f 9141 803f
00000010: 9041 803f 9041 803f 9041 803f 8d41 803f
00000020: da7c 7f3f 9041 803f 7f41 803f de7c 7f3f
00000030: e17c 7f3f e27c 7f3f dd7c 7f3f dd7c 7f3f
00000040: 7f41 803f 5241 803f de7c 7f3f 8541 803f
00000050: 6f41 803f 6e41 803f 6f41 803f 0d7d 7f3f
00000060: 0f7d 7f3f f27c 7f3f 0c7d 7f3f 6d41 803f
00000070: 6c41 803f 6b41 803f 8a41 803f e67c 7f3f
00000080: 8e41 803f 8d41 803f 8d41 803f 4e80 7f3f
00000090: 8c41 803f ec7c 7f3f e87c 7f3f 8f41 803f
000000a0: 027d 7f3f fb7c 7f3f 8241 803f 1e7d 7f3f
000000b0: 847d 7f3f 8241 803f fb7c 7f3f 4040 803f
000000c0: 8241 803f 8241 803f 5f40 803f 587f 7f3f
000000d0: 6b40 803f 6b7f 7f3f 6440 803f 6740 803f
000000e0: 6c40 803f 7c40 803f 6440 803f 577f 7f3f
000000f0: e340 803f 1b7f 7f3f 727e 7f3f f040 803f
00000100: d840 803f de40 803f 677e 7f3f 887e 7f3f
00000110: dd40 803f d640 803f b082 7f3f 4f3e 803f
00000120: b682 7f3f ad82 7f3f 963e 803f 8a3e 803f
00000130: 693e 803f b682 7f3f 8e3e 803f 033e 803f
00000140: 4489 7f3f 3c89 7f3f 5b3b 803f 3989 7f3f
00000150: 3d89 7f3f 4a3b 803f 583b 803f 613b 803f
00000160: 7f89 7f3f 3f89 7f3f e8d6 7f3f 5514 803f
00000170: 91d6 7f3f 44d5 7f3f c213 803f f913 803f
00000180: 5d14 803f 5414 803f 07d7 7f3f 7713 803f
00000190: ce7d 7f3f 3341 803f 2b41 803f 277e 7f3f
000001a0: 2141 803f d97f 7f3f d57d 7f3f ca7d 7f3f
000001b0: 3241 803f dc7d 7f3f 5441 803f 5441 803f
000001c0: 647d 7f3f 767d 7f3f 637d 7f3f 5841 803f
000001d0: 5a7f 7f3f 667d 7f3f 647d 7f3f 9b7d 7f3f
000001e0: 687d 7f3f 6f7d 7f3f 817d 7f3f 837d 7f3f
000001f0: 767d 7f3f 847d 7f3f 2441 803f 737d 7f3f
00000200: 2b41 803f d340 803f 6341 803f 6141 803f
00000210: 4f41 803f 6041 803f 6541 803f 6441 803f
00000220: 5c41 803f 2c41 803f 057d 7f3f 6741 803f
00000230: 8741 803f 7a41 803f 8841 803f 7941 803f
00000240: 7a41 803f 8741 803f 2c7d 7f3f 287d 7f3f
00000250: 7941 803f 0c7d 7f3f 3f3e 803f 473e 803f
00000260: 453e 803f 25c9 7f3f df82 7f3f 4f83 7f3f
00000270: 163e 803f 423e 803f 463e 803f 5283 7f3f
00000280: 9041 803f e07c 7f3f 9041 803f 9041 803f
00000290: 9041 803f 9041 803f dc7c 7f3f 9041 803f
000002a0: 9041 803f dd7c 7f3f ea7c 7f3f 8e41 803f
000002b0: 8d41 803f 8d41 803f 8d41 803f e57c 7f3f
000002c0: eb7c 7f3f e37c 7f3f 8d41 803f 8e41 803f
000002d0: 903f 803f 8f3f 803f 973f 803f 0781 7f3f
000002e0: 0340 803f ba3f 803f 8d3f 803f 0381 7f3f
000002f0: 1381 7f3f a23f 803f 033f 803f df3e 803f
00000300: e53e 803f fa3e 803f 5a82 7f3f f33e 803f
00000310: 5a82 7f3f 8182 7f3f f33e 803f bd82 7f3f
00000320: de7c 7f3f e17c 7f3f 9041 803f dc7c 7f3f
00000330: de7c 7f3f 9041 803f e67c 7f3f 9141 803f
00000340: e07c 7f3f 9141 803f 7541 803f 397d 7f3f
00000350: 4b7d 7f3f 397d 7f3f 487d 7f3f c5e2 7f3f
00000360: 6441 803f 6341 803f 427d 7f3f 5b7d 7f3f
00000370: 7341 803f 2f7d 7f3f 6c41 803f 7541 803f
00000380: b37d 7f3f 6e41 803f c87e 7f3f 307d 7f3f
00000390: 2e7d 7f3f 3f7d 7f3f 5a41 803f 5c41 803f
000003a0: 2841 803f 7740 803f 3b7d 7f3f 447e 7f3f
000003b0: 4c41 803f 427d 7f3f 487d 7f3f 337d 7f3f
000003c0: e47c 7f3f e37c 7f3f 8e41 803f e97c 7f3f
000003d0: 9041 803f 8e41 803f ee7c 7f3f 8e41 803f
000003e0: 247e 7f3f 8d41 803f d57c 7f3f d97c 7f3f
000003f0: 9041 803f 9141 803f 9241 803f 9241 803f

net.0.base_weight f4 [64, 10]
-0.08709668 -0.028138153 -0.027108682 0.004564823 0.036628764 -0.24391507 0.095591396 0.0443607
0.0010709766 0.00973465 -0.004073347 0.111995764 0.10106196 -0.042291086 0.03379841 0.033877023
0.049953632 0.06122038 -0.091255136 -0.023887165 0.03507943 0.020868683 0.02019046 0.0980449
0.0817019 0.023328152 -0.025460761 0.04263269 0.07557808 0.06838234 0.20245357 0.07969044
-0.09124265 -0.06829009 -0.18939446 0.058564432 -0.012828533 -0.06415127 -0.0073609254 -0.028358301
0.10125637 -0.024750981 0.04567108 0.07220341 0.04915427 0.010055516 0.109955944 0.13254142
-0.10278666 0.01440026 0.058147456 0.11544353 0.0034159357 -0.07198879 0.16031006 -0.030262753
-0.0009892845 0.01668389 0.043854296 -0.07887806 0.11486901 -0.05470153 -0.18171683 -0.13941257
0.08143002 -0.1542411 -0.009403047 0.013143949 -0.097809605 0.03288705 0.029077016 0.032765962
0.062094465 0.029399686 0.14184263 -0.21770737 0.076456495 -0.20776844 -0.05455809 0.10246943
-0.17520612 0.016455056 -0.12789012 0.107432924 0.0691875 -0.01156988 -0.11150997 -0.07764289
0.01616673 -0.117697164 0.09892918 0.2014179 0.09359444 -0.0015132643 0.03794536 0.09038633
0.029788584 0.15596093 0.011341619 -0.034927137 -0.0012138208 -0.15123403 0.12958221 -0.039482024
-0.050214503 0.005880739 -0.04265253 -0.08299424 0.016317753 -0.04977971 0.07970586 -0.16133177
-0.054578666 -0.034506563 -0.19202574 -0.11125084 0.18000254 -0.055117134 -0.076720916 0.022514908
0.018239824 -0.01673811 -0.11429103 0.10495202 -0.051951375 0.14872517 -0.08702265 -0.13983625
0.1104577 0.14219809 -0.0073115584 -0.043626875 -0.043774523 0.10257718 -0.1525594 -0.19188085
-0.030582646 -0.13677216 -0.10915762 -0.17367923 -0.06561767 -0.097341135 0.12840886 0.06389082
-0.044209097 -0.022886826 0.0624583 0.06710638 -0.038602702 0.055895876 -0.07395876 0.032308172
-0.001451317 0.07598358 -0.1740579 0.064151175 0.03314346 -0.011054815 -0.0562629 0.051465154
0.009813168 -0.0065848124 -0.17260887 -0.1272697 -0.082694896 0.030768547 -0.18489465 -0.0883147
0.051101968 0.013242199 0.1999574 -0.14761464 -0.013631912 -0.14441115 -0.021574238 -0.06421827
-0.0874667 -0.13596883 -0.1450843 -0.016246995 -0.11512961 -0.01767574 0.19491918 0.049924523
-0.018375194 -0.049312264 -0.028956288 -0.009894613 -0.057090625 0.15669537 0.059465207 0.0011167004
-0.06890844 -0.034423586 -0.012779384 -0.13795789 0.0074446257 -0.0012503427 -0.0406169 -0.11945023
-0.13440956 -0.014033023 -0.03504335 -0.0331734 -0.041535378 3.9464445e-05 -0.0985567 0.002906671
0.10457226 0.058800235 -0.04531005 0.01884016 -0.13445348 0.07994803 0.0016918489 0.083008796
0.013762329 0.08110158 -0.11970419 0.16406734 0.12413782 -0.034007557 0.17116258 0.19105463
0.0664995 0.025873527 0.11693289 -0.01569081 -0.12672672 -0.068633996 0.040355492 -0.1486107
-0.09500386 -0.101430014 0.19242749 0.04891975 0.14203055 -0.16196226 0.15899856 -0.10172371
-0.025407432 0.04705031 -0.0138685955 0.012319067 -0.1947653 -0.23454884 0.0010072879 -0.012245736
0.02091809 0.077422775 -0.12947951 -0.1476121 -0.012516068 -0.18760799 -0.06952187 -0.059234377
00000000: bf5f b2bd fc81 e6bc 0713 debc 8394 953b
00000010: 0b08 163d dfc4 79be 6cc5 c33d 91b3 353d
00000020: 0360 8c3a 157e 1f3c b679 85bb 095e e53d
00000030: 93f9 ce3d 6b39 2dbd 3470 0a3d a2c2 0a3d
00000040: 2e9c 4c3d 39c2 7a3d f9e3 babd 04af c3bc
00000050: 73af 0f3d cdf4 aa3c 7766 a53c c4cb c83d
00000060: 5353 a73d ae1a bf3c 1693 d0bc 9e9f 2e3d
00000070: aec8 9a3d 0a0c 8c3d fd4f 4f3e be34 a33d
00000080: 6ddd babd addb 8bbd 9ff0 41be 42e1 6f3d
00000090: c42e 52bc be61 83bd eb33 f1bb ab4f e8bc
000000a0: 805f cf3d 92c2 cabc 9911 3b3d 62df 933d
000000b0: fd55 493d e4bf 243c 9530 e13d f0b8 073e
000000c0: d081 d2bd 11ef 6b3c 072c 6e3d a86d ec3d
000000d0: e4dd 5f3b dc6e 93bd 5228 243e 98e9 f7bc
000000e0: e1aa 81ba a7ac 883c 90a0 333d d28a a1bd
000000f0: 7240 eb3d b60e 60bd fa13 3abe 2bc2 0ebe
00000100: c8c4 a63d 61f1 1dbe 3d0f 1abc b859 573c
00000110: 6750 c8bd 92b4 063d ec32 ee3c 9a35 063d
00000120: c456 7e3d 9cd7 f03c 323f 113e aeee 5ebe
00000130: 3995 9c3d 40c1 54be 4e78 5fbd 7edb d13d
00000140: 3c69 33be c1cc 863c a1f5 02be cb05 dc3d
00000150: 2db2 8d3d 988f 3dbc 575f e4bd 3c03 9fbd
00000160: 1770 843c 360b f1bd 629b ca3d 7e40 4e3e
00000170: 71ae bf3d b958 c6ba 986c 1b3d 781c b93d
00000180: 3007 f43c 39b4 1f3e 33d2 393c c20f 0fbd
00000190: 1119 9fba 18dd 1abe 33b1 043e e7b7 21bd
000001a0: b9ad 4dbd 37b3 c03b 6bb4 2ebd e2f8 a9bd
000001b0: cfac 853c cfe5 4bbd d33c a33d 2834 25be
000001c0: e18d 5fbd c156 0dbd 65a2 44be 7bd7 e3bd
000001d0: 9652 383e 81c2 61bd db1f 9dbd 2f71 b83c
000001e0: af6b 953c 5c1e 89bc 6a11 eabd 16f1 d63d
000001f0: f7ca 54bd 694b 183e ee38 b2bd 3c31 0fbe
00000200: a637 e23d 609c 113e cc95 efbb 18b2 32bd
00000210: ea4c 33bd fc13 d23d 8838 1cbe 6a7c 44be
00000220: 7588 fabc 000e 0cbe 088e dfbd f8d8 31be
00000230: 8f62 86bd ca5a c7bd 9d7d 033e 31d9 823d
00000240: 9914 35bd 277d bbbc 46d4 7f3d 126f 893d
00000250: de1d 1ebd 13f3 643d b177 97bd 9355 043d
00000260: 1e3a beba 479d 9b3d 3c3c 32be b161 833d
00000270: 70c1 073d 411f 35bc ed73 66bd 20cd 523d
00000280: 69c7 203c 69c5 d7bb 61c0 30be fd52 02be
00000290: f15b a9bd 520e fc3c 0655 3dbe 56de b4bd
000002a0: 4c50 513d cff5 583c a2c1 4c3e 4b28 17be
000002b0: 6258 5fbc 84e0 13be 75bc b0bc de84 83bd
000002c0: be21 b3bd 6a3b 0bbe fb90 14be 6b18 85bc
000002d0: 13c9 ebbd b7cc 90bc e598 473e a87d 4c3d
000002e0: 9387 96bc a8fb 49bd bd35 edbc 041d 22bc
000002f0: dcd7 69bd c074 203e ca91 733d 3f5e 923a
00000300: de1f 8dbd bfff 0cbd 9f60 51bc d544 0dbe
00000310: 0cf2 f33b 8ae2 a3ba e85d 26bd 52a2 f4bd
00000320: a9a2 09be c4ea 65bc 9e89 0fbd d5e0 07bd
00000330: 0021 2abd a086 2538 18d8 c9bd d97d 3e3b
00000340: fb29 d63d 84d8 703d 0897 39bd ae56 9a3c
00000350: 2cae 09be cbbb a33d 07c1 dd3a 8400 aa3d
00000360: 647b 613c 9618 a63d 7827 f5bd 4501 283e
00000370: f83b fe3d 824b 0bbd 3e45 2f3e d3a3 433e
00000380: e430 883d b8f4 d33c 837a ef3d 038a 80bc
00000390: a6c4 01be fb8f 8cbd cd4b 253d 672d 18be
000003a0: 6291 c2bd 8aba cfbd b60b 453e 1360 483d
000003b0: 7570 113e 6fd9 25be 85d0 223e 8554 d0bd
000003c0: 3f23 d0bc d3b7 403d 1b39 63bc e9d5 493c
000003d0: 8e70 47be 922d 70be f906 843a 57a2 48bc
000003e0: 6a5c ab3c d58f 9e3d 4796 04be a027 17be
000003f0: 3210 4dbc 4f1c 40be 7b61 8ebd bf9f 72bd

net.0.grid_points f4 [5]
-2.0 -1.0 0.0 1.0 2.0
00000000: 0000 00c0 0000 80bf 0000 0000 0000 803f
00000010: 0000 0040

net.2.coeff f4 [64, 64, 5]
-0.15441735 0.033309255 -0.007017456 -0.16020028 0.0052634873 0.05987619 0.18260331 0.1184252
0.096333444 0.1705122 0.0750719 0.20865683 -0.021906389 0.084161475 -0.046411686 0.19500366
0.056147557 -0.21308324 0.09295642 -0.07824933 -0.08685001 -0.100069426 -0.030556463 -0.028428687
-0.18130602 0.008169069 -0.1652422 -0.00044108246 0.0079553705 -0.2552755 -0.06589591 0.14139771
-0.08345247 -0.16078016 0.016920367 -0.17604417 0.042559 -0.08408621 0.026439121 0.10319957
0.26759627 -0.26354218 0.10804148 -0.07503768 -0.03372044 0.13709772 0.055469587 0.00627036
-0.034054603 0.09822395 0.021517787 -0.0804284 -0.02371784 0.15222658 -0.04108966 -0.002443444
0.05559295 0.18382704 -0.074194536 0.09722632 0.09621261 0.10110955 0.012058173 0.32172695
-0.008583718 0.1351555 -0.049207386 -0.11138056 -0.010783123 -0.32133573 0.091800556 -0.056292582
-0.1068098 0.14927283 -0.004942765 0.04384165 0.038282935 -0.048452154 -0.0012817604 -0.023805287
0.06233343 0.06560547 0.0034144833 -0.033918433 -0.09278599 -0.1123009 0.058592044 0.025553891
0.016471451 0.06074156 -0.108249396 -0.09292124 -0.08645983 -0.12823409 0.09112234 0.023606736
0.13663206 -0.134986 0.057084937 -0.078728035 0.038304072 0.018425118 0.17963283 0.2521402
0.10212571 -0.117301546 -0.06822931 -0.11753109 0.055193745 -0.06221078 0.1624132 0.071069285
0.008133191 0.01732257 -0.29065192 -0.06531945 -0.15984336 -0.04833974 -0.02672061 -0.023223916
0.09067431 -0.06490786 0.18789619 0.11739234 -0.024169227 0.076008394 0.025921782 0.07324051
0.21290137 0.0003696798 0.06450216 0.023251332 -0.039988935 0.07737547 -0.05357411 0.18618715
-0.093029924 -0.08269014 -0.030919705 -0.28879932 -0.17567119 0.15689689 -0.15535519 0.05171391
0.0646194 0.0070589897 -0.05538776 -0.19130011 -0.13315983 0.003823028 0.104413144 0.025912799
-0.04219923 -0.115937695 -0.04343205 -0.018478384 -0.031332586 -0.06991745 0.07593855 -0.051030472
-0.17746773 0.117495246 0.07434835 0.0990751 -0.027366614 0.14151402 -0.1520973 -0.18724364
-0.1347047 0.055947926 0.12833643 -0.04389669 0.12697166 0.047943685 -0.22316593 0.052627306
0.03663719 -0.12470496 -0.14278293 -0.18511799 -0.038537685 0.05103062 0.02612361 0.16221792
-0.06389693 0.06070837 0.01870899 -0.01215621 -0.04374784 -0.157067 -0.039583705 -0.12742452
0.023880819 -0.0076878173 -0.0797741 -0.099066444 0.059324335 0.13746741 0.07763177 -0.0075648804
0.043647476 -0.009532215 -0.18839134 -0.017569836 0.079432145 -0.01173901 -0.17270495 -0.2326028
0.041281793 0.12162656 -0.038617805 -0.020914795 0.19921876 0.05334073 0.010503997 0.030806994
-0.07575624 -0.09797765 0.017078618 -0.053288486 0.1686803 -0.04087497 -0.17872877 0.01029718
0.018544173 0.14527477 -0.030261861 0.17823815 -0.21117453 -0.04463613 0.04915544 -0.14178523
-0.052327607 -0.062257893 -0.049935427 -0.058367237 0.06938065 0.033457097 0.00011697137 -0.14439256
-0.042983282 -0.14307775 0.1277247 -0.008460579 0.07964268 -0.0472371 0.058501318 -0.036101755
0.12905754 -0.016115757 -0.045727964 -0.09839807 0.04921714 -0.11016622 -0.02284293 0.079290114
00000000: 951f 1ebe 496f 083d b0f2 e5bb 8b0b 24be
00000010: 5579 ac3b bc40 753d 5dfc 3a3e e988 f23d
00000020: 784a c53d c09a 2e3e 4cbf 993d 23aa 553e
00000030: 0775 b3bc da5c ac3d 2e1a 3ebd 0aaf 473e
00000040: fbfa 653d 7e32 5abe ef5f be3d 2f41 a0bd
00000050: 6bde b1bd 33f1 ccbd 8c51 fabc 47e3 e8bc
00000060: 49a8 39be 8fd7 053c 4035 29be 1641 e7b9
00000070: 3e57 023c 78b3 82be 6ff4 86bd 90ca 103e
00000080: 21e9 aabd 8ea3 24be 959c 8a3c ec44 34be
00000090: 5952 2e3d 6435 acbd db96 d83c 4c5a d33d
000000a0: 6102 893e 00ef 86be da44 dd3d 5bad 99bd
000000b0: 721e 0abd 5863 0c3e 1434 633d 9877 cd3b
000000c0: d77c 0bbd a329 c93d 1246 b03c a5b7 a4bd
000000d0: ea4b c2bc 49e1 1b3e a24d 28bd 3022 20bb
000000e0: 6fb5 633d 283d 3c3e 4ef3 97bd 981e c73d
000000f0: 1e0b c53d 8612 cf3d a58f 453c 65b9 a43e
00000100: b9a2 0cbc 3466 0a3e af8d 49bd 7e1b e4bd
00000110: b2ab 30bc 1e86 a4be ee01 bc3d 0d93 66bd
00000120: 19bf dabd fada 183e ebf6 a1bb 4d93 333d
00000130: 91ce 1c3d c475 46bd be00 a8ba 4e03 c3bc
00000140: 5751 7f3d 295c 863d 86c5 5f3b 0eee 0abd
00000150: 9506 bebd 04fe e5bd 36fe 6f3d 6556 d13c
00000160: 23ef 863c 24cc 783d dcb1 ddbd 7e4d bebd
00000170: da11 b1bd cc4f 03be 599e ba3d ea62 c13c
00000180: 46e9 0b3e c539 0abe e5d1 693d 2a3c a1bd
00000190: bbe4 1c3d 46f0 963c abf1 373e 8518 813e
000001a0: 4927 d13d cb3b f0bd cfbb 8bbd 24b4 f0bd
000001b0: d612 623d bbd0 7ebd a54f 263e c68c 913d
000001c0: 1341 053c 10e8 8d3c 54d0 94be 34c6 85bd
000001d0: faad 23be e4ff 45bd 2ee5 dabc 1540 bebc
000001e0: 74b3 b93d 69ee 84bd dc67 403e 656b f03d
000001f0: 8bfe c5bc 4aaa 9b3d eb59 d43c 1fff 953d
00000200: d102 5a3e 95d1 c139 b519 843d 9479 be3c
00000210: 70cb 23bd 0877 9e3d 8770 5bbd d8a7 3e3e
00000220: 7986 bebd 7359 a9bd 524b fdbc 81dd 93be
00000230: 26e3 33be 94a9 203e 6e15 1fbe f7d1 533d
00000240: 2d57 843d 194f e73b 47de 62bd 2de4 43be
00000250: 0d5b 08be c48b 7a3b 8fd6 d53d 1447 d43c
00000260: 1ad9 2cbd be70 edbd cee5 31bd fb5f 97bc
00000270: 9956 00bd e130 8fbd ac85 9b3d 5405 51bd
00000280: 1aba 35be 59a1 f03d f343 983d e3e7 ca3d
00000290: f32f e0bc 0de9 103e 65bf 1bbe ccbc 3fbe
000002a0: 07f0 09be a729 653d a06a 033e 04cd 33bd
000002b0: dc04 023e 9960 443d 9c85 64be bb8f 573d
000002c0: e110 163d 5065 ffbd b035 12be 928f 3dbe
000002d0: b1d9 1dbd 7c05 513d 2e01 d63c 741c 263e
000002e0: 65dc 82bd 57a9 783d 9943 993c d72a 47bc
000002f0: ef30 33bd 2cd6 20be 8622 22bd 937b 02be
00000300: b5a1 c33c 16ea fbbb 9a60 a3bd 59e3 cabd
00000310: 13fe 723d 42c4 0c3e 68fd 9e3d d1e2 f7bb
00000320: b2c7 323d 022d 1cbc a9e9 40be 9eee 8fbc
00000330: 52ad a23d fa54 40bc 91d9 30be 6e2f 6ebe
00000340: 1917 293d 5917 f93d b42d 1ebd 8155 abbc
00000350: 0100 4c3e cf7b 5a3d f518 2c3c f35e fc3c
00000360: 1626 9bbd 82a8 c8bd 75e8 8b3c 0745 5abd
00000370: 87ba 2c3e 836c 27bd ad04 37be 81b5 283c
00000380: f3e9 973c e9c2 143e b9e7 f7bc 1084 363e
00000390: 233e 58be 60d4 36bd 3757 493d 2630 11be
000003a0: 7955 56bd 2202 7fbd 1789 4cbd 7c12 6fbd
000003b0: 7117 8e3d 4f0a 093d 874e f538 a5db 13be
000003c0: 3d0f 30bd f982 12be 44ca 023e 3e9e 0abc
000003d0: b41b a33d b07b 41bd 149f 6f3d 6fdf 13bd
000003e0: a927 043e 3105 84bc 3f4d 3bbd ed84 c9bd
000003f0: e997 493d d49e e1bd 1921 bbbc db62 a23d

net.2.scale f4 [64, 64]
1.0019994 0.99799937 0.997999 0.9980593 1.0020008 0.9980641 1.0020003 1.0020008
0.9980066 1.0020001 1.0020005 0.9979987 0.9979995 1.0019971 1.0020006 1.0020003
0.99799985 0.9980005 1.0020006 1.0019984 0.997999 1.0020007 0.9980028 1.0020006
0.9979995 0.99799883 1.0020003 1.0020003 1.0020003 1.0020006 1.0020003 1.0020006
0.99799925 1.0020007 0.997999 1.0020005 0.99799865 1.0020009 1.001981 0.998
1.0020007 1.0019958 0.99799895 1.0020008 1.0020003 0.9980033 1.0020006 0.99799955
0.99799985 1.001998 1.0020008 1.0020009 0.9979993 0.9979992 0.9979999 1.0020007
1.0017979 0.9979993 0.9980007 0.99799937 1.0020007 1.0020007 1.0020006 1.0020006
0.9980003 1.0020002 1.002 0.99799883 0.9979989 1.0020002 1.002001 1.0020006
1.0020006 0.997999 0.99799883 1.0019976 0.9980002 0.99800164 1.0020007 1.0019978
0.9979995 1.0020007 1.0019996 1.0020001 0.9979993 1.0020008 1.002001 0.99800014
0.9979994 1.0020003 1.0020002 1.0020005 0.9979994 1.001997 0.9980687 1.0020008
0.9979996 0.9979996 0.998001 0.9979997 1.002001 0.99799967 1.0020005 0.9979997
0.99799955 0.9979988 0.9979989 1.0020003 1.0019997 1.0020006 1.0020009 0.9979994
0.998 0.998 1.0020009 0.9979992 1.0020007 0.99799854 0.99799895 1.0020008
0.9979992 1.0020006 1.0020002 0.9980078 0.99799937 1.0020005 1.0019691 1.0020005
0.9979995 1.0020005 0.99800044 1.0020006 0.9980051 1.0020008 1.0020008 0.997999
1.0020007 0.99822605 1.0019994 0.9980016 1.0020008 1.0020009 1.0020006 0.99892837
0.9979997 1.0019994 1.0020006 1.002001 1.0020007 1.0020009 1.0020009 1.0020006
0.9980039 1.0020006 0.9980011 0.99799985 1.0020007 0.9979991 1.0020005 1.0020008
0.9979995 1.0020001 1.0010004 1.0019826 1.0020003 0.99799985 0.99799955 1.0019984
1.0020008 0.99800515 1.0020008 1.0020007 0.9979997 1.0020006 1.0020008 0.99800014
0.99800146 1.002 0.998 0.99799937 1.0020008 0.99800044 0.9980256 1.0020008
0.99800175 1.0020007 1.0020007 0.99800146 1.0020008 1.0020003 1.0020006 1.0020007
0.9979996 1.0019999 1.0020008 1.0020008 1.0019996 1.0020009 1.0019946 0.9980023
0.9980174 0.9980001 1.0020006 1.0019778 0.9980006 1.0020001 0.9980006 0.9996758
1.002 1.0020007 0.9980008 0.9980039 0.99817735 0.998001 0.99799895 0.9979998
0.99803126 0.9980001 1.0020006 0.9980008 0.99799955 0.99799967 0.9979999 0.99799985
0.99799955 1.0019999 1.0020005 0.9979996 0.99800014 0.99799937 1.0020006 1.0020003
1.0020002 1.0019982 0.99800205 1.0019983 1.0020002 0.9980014 0.9979992 0.9979997
0.9979987 1.0019864 0.9979994 0.99799937 1.0020005 0.9980019 0.9980006 0.9980008
1.0019993 1.0020003 1.0020007 0.9979996 1.0020006 1.0020002 1.0020008 1.0020003
00000000: 8441 803f e37c 7f3f dd7c 7f3f d080 7f3f
00000010: 9041 803f 2181 7f3f 8c41 803f 9041 803f
00000020: 5c7d 7f3f 8a41 803f 8d41 803f d87c 7f3f
00000030: e57c 7f3f 7141 803f 8e41 803f 8c41 803f
00000040: eb7c 7f3f f67c 7f3f 8e41 803f 7c41 803f
00000050: dd7c 7f3f 8f41 803f 1d7d 7f3f 8e41 803f
00000060: e57c 7f3f da7c 7f3f 8c41 803f 8c41 803f
00000070: 8c41 803f 8e41 803f 8c41 803f 8e41 803f
00000080: e17c 7f3f 8f41 803f dd7c 7f3f 8d41 803f
00000090: d77c 7f3f 9141 803f ea40 803f ee7c 7f3f
000000a0: 8f41 803f 6641 803f dc7c 7f3f 9041 803f
000000b0: 8c41 803f 257d 7f3f 8e41 803f e67c 7f3f
000000c0: eb7c 7f3f 7841 803f 9041 803f 9141 803f
000000d0: e27c 7f3f e07c 7f3f ec7c 7f3f 8f41 803f
000000e0: ea3a 803f e27c 7f3f f97c 7f3f e37c 7f3f
000000f0: 8f41 803f 8f41 803f 8e41 803f 8e41 803f
00000100: f37c 7f3f 8b41 803f 8941 803f da7c 7f3f
00000110: db7c 7f3f 8b41 803f 9241 803f 8e41 803f
00000120: 8e41 803f dd7c 7f3f da7c 7f3f 7541 803f
00000130: f17c 7f3f 097d 7f3f 8f41 803f 7741 803f
00000140: e57c 7f3f 8f41 803f 8641 803f 8a41 803f
00000150: e27c 7f3f 9041 803f 9241 803f f07c 7f3f
00000160: e47c 7f3f 8c41 803f 8b41 803f 8d41 803f
00000170: e47c 7f3f 7041 803f 6e81 7f3f 9041 803f
00000180: e77c 7f3f e77c 7f3f fe7c 7f3f e97c 7f3f
00000190: 9241 803f e87c 7f3f 8d41 803f e97c 7f3f
000001a0: e67c 7f3f d97c 7f3f db7c 7f3f 8c41 803f
000001b0: 8741 803f 8e41 803f 9141 803f e47c 7f3f
000001c0: ee7c 7f3f ee7c 7f3f 9141 803f e07c 7f3f
000001d0: 8f41 803f d57c 7f3f dc7c 7f3f 9041 803f
000001e0: e07c 7f3f 8e41 803f 8b41 803f 707d 7f3f
000001f0: e37c 7f3f 8d41 803f 8640 803f 8d41 803f
00000200: e57c 7f3f 8d41 803f f57c 7f3f 8e41 803f
00000210: 437d 7f3f 9041 803f 9041 803f dd7c 7f3f
00000220: 8f41 803f be8b 7f3f 8441 803f 087d 7f3f
00000230: 9041 803f 9141 803f 8e41 803f c5b9 7f3f
00000240: e97c 7f3f 8441 803f 8e41 803f 9241 803f
00000250: 8f41 803f 9141 803f 9141 803f 8e41 803f
00000260: 2f7d 7f3f 8e41 803f 007d 7f3f eb7c 7f3f
00000270: 8f41 803f de7c 7f3f 8d41 803f 9041 803f
00000280: e57c 7f3f 8a41 803f c820 803f f740 803f
00000290: 8c41 803f eb7c 7f3f e67c 7f3f 7c41 803f
000002a0: 9041 803f 447d 7f3f 9041 803f 8f41 803f
000002b0: e97c 7f3f 8e41 803f 9041 803f f07c 7f3f
000002c0: 067d 7f3f 8941 803f ee7c 7f3f e37c 7f3f
000002d0: 9041 803f f57c 7f3f 9b7e 7f3f 9041 803f
000002e0: 0b7d 7f3f 8f41 803f 8f41 803f 067d 7f3f
000002f0: 9041 803f 8c41 803f 8e41 803f 8f41 803f
00000300: e77c 7f3f 8841 803f 9041 803f 9041 803f
00000310: 8641 803f 9141 803f 5c41 803f 147d 7f3f
00000320: 117e 7f3f ef7c 7f3f 8e41 803f cf40 803f
00000330: f87c 7f3f 8a41 803f f87c 7f3f c1ea 7f3f
00000340: 8941 803f 8f41 803f fb7c 7f3f 2f7d 7f3f
00000350: 8d88 7f3f fe7c 7f3f dc7c 7f3f ea7c 7f3f
00000360: fa7e 7f3f ef7c 7f3f 8e41 803f fb7c 7f3f
00000370: e67c 7f3f e87c 7f3f ec7c 7f3f eb7c 7f3f
00000380: e67c 7f3f 8841 803f 8d41 803f e77c 7f3f
00000390: f07c 7f3f e37c 7f3f 8e41 803f 8c41 803f
000003a0: 8b41 803f 7a41 803f 107d 7f3f 7b41 803f
000003b0: 8b41 803f 057d 7f3f e07c 7f3f e97c 7f3f
000003c0: d87c 7f3f 1741 803f e47c 7f3f e37c 7f3f
000003d0: 8d41 803f 0d7d 7f3f f87c 7f3f fb7c 7f3f
000003e0: 8341 803f 8c41 803f 8f41 803f e77c 7f3f
000003f0: 8e41 803f 8b41 803f 9041 803f 8c41 803f

net.2.base_weight f4 [64, 64]
-0.03096557 0.0092667565 -0.14081028 -0.037984613 -0.079627216 -0.0052296636 -0.13319254 0.032838996
0.019310506 -0.09621155 -0.018647913 -0.073863804 -0.13252121 0.017220046 0.07674342 -0.08201803
0.094696335 0.21808401 -0.043353043 -0.17321952 -0.15520483 0.019117754 -0.098552436 0.11013921
-0.19314358 0.058006734 0.011963153 0.12192287 -0.0056490274 0.06275386 -0.06427096 -0.03107173
-0.088489845 -0.073198095 -0.19247898 0.0067167636 0.11123147 -0.15202713 -0.02964195 0.037453674
-0.12991124 -0.030573297 -0.079004884 0.06099969 0.025476284 -0.21832496 -0.03678232 0.13193716
-0.08089674 0.043321766 -0.15725785 -0.15082313 -0.050527465 0.06253391 -0.018630024 0.033474863
-0.10925118 -0.031029122 0.15610775 -0.069884464 0.16577639 -0.15322396 -0.04939724 -0.030334089
0.13142765 -0.0038324236 -0.037130717 0.065102465 -0.17281502 -0.0469853 0.36233553 0.27935633
0.002683377 -0.04946514 -0.09449305 0.028475069 -0.02117643 0.14488794 -0.154205 0.061838727
0.0035428775 -0.024728753 -0.08480614 0.0765995 -0.09862889 0.016899683 -0.024494011 0.060452577
-0.03880768 0.118256435 -0.042945314 0.23030244 -0.13984147 0.038550757 0.095611826 -0.11822833
-0.058778096 0.14810778 0.06953066 0.0292284 -0.006225149 0.1767341 -0.11733841 -0.1320777
-0.11542997 -0.07700844 0.03946264 0.01479335 0.10300713 -0.039173614 0.028758211 -0.07969611
0.13385585 -0.056410447 -0.053675853 0.055768095 -0.18252125 -0.00042762258 -0.032026485 -0.079878874
-0.120897554 -0.12438281 0.0026404555 0.011652482 -0.018268568 0.10999604 -0.07482484 -0.012236293
0.048564684 0.041513473 0.16263957 -0.018892132 0.10590484 0.014812548 0.02076252 -0.07995291
0.007065173 0.19154474 0.088672675 -0.05394375 -0.09247046 0.11376291 -0.1170357 -0.0153454365
-0.1681817 0.057638884 -0.044639166 0.07223377 -0.10271055 0.043796293 -0.12927973 -0.14450186
0.052151576 0.08395005 -0.113591515 -0.19342723 -0.07298406 -0.0019703088 -0.057173993 -0.089415215
0.1230695 0.043357488 -0.01938309 -0.076358125 0.107649714 0.040159438 -0.115428776 0.033337988
-0.050995547 -0.0570299 0.15685879 -0.05252254 0.1770671 0.10121778 0.018119935 -0.14601874
0.0810789 -0.08540347 -0.1223176 -0.16187662 0.11978881 -0.012141205 0.038866665 -0.107998475
-0.03393304 -0.09974934 -0.012368981 -0.17046395 -0.006480635 0.00056719163 0.044429787 -0.0058731367
-0.20554037 -0.10364732 -0.053392027 -0.021615144 0.054594677 0.07026155 -0.14837427 -0.012819869
0.11313538 0.025779625 0.025841769 0.055449944 0.010658765 -0.12486202 0.112109736 0.14817512
0.09038879 -0.124569505 -0.05013114 -0.12181475 0.0014716965 -0.00017593917 -0.18946284 0.07666816
-0.028281733 0.08792162 -0.13719572 -0.095076405 0.05805679 0.1333207 0.14782012 -6.1308965e-05
-0.065120466 0.0503893 0.19231915 -0.04811179 0.16690649 -0.0030833487 0.14856358 -0.032763317
-0.08660698 -0.013122254 0.0846318 0.08555118 -0.03803183 -0.048853397 0.044811655 0.047517832
-0.05701181 -0.11191417 -0.04985712 0.032759957 -0.048233822 0.019742373 -0.016798915 -0.1337456
-0.0054955217 0.023889907 0.049434848 -0.1101022 0.15740055 -0.12346265 -0.28175703 -0.082229175
00000000: 82ab fdbc 98d3 173c 9230 10be c195 1bbd
00000010: 9813 a3bd 995d abbb a063 08be 2f82 063d
00000020: 1131 9e3c 900a c5bd 82c3 98bc e845 97bd
00000030: a4b3 07be 0e11 8d3c a72b 9d3d 12f9 a7bd
00000040: 27f0 c13d 6a51 5f3e f692 31bd 7560 31be
00000050: 04ee 1ebe d69c 9c3c dcd5 c9bd ab90 e13d
00000060: 6ec7 45be 7898 6d3d 1a01 443c b3b2 f93d
00000070: 7a1b b9bb 1985 803d 7ea0 83bd 248a febc
00000080: 2a3a b5bd e2e8 95bd 3619 45be 4c18 dc3b
00000090: 53cd e33d 00ad 1bbe add3 f2bc 0669 193d
000000a0: 7407 05be da74 fabc 50cd a1bd d0da 793d
000000b0: a4b3 d03c 9490 5fbe 0fa9 16bd 891a 073e
000000c0: 31ad a5bd 2a72 313d 3408 21be 6171 1abe
000000d0: e3f5 4ebd c711 803d fe9d 98bc f01c 093d
000000e0: 15bf dfbd c930 febc b6da 1f3e 961f 8fbd
000000f0: 49c1 293e bee6 1cbe c354 4abd 327f f8bc
00000100: f894 063e 6629 7bbb 6116 18bd 7154 853d
00000110: 6cf6 30be a873 40bd 0b84 b93e cb07 8f3e
00000120: 98db 2f3b f59b 4abd 9285 c1bd 8c44 e93c
00000130: 317a adbc 815d 143e eae7 1dbe 9b4a 7d3d
00000140: 9f2f 683b f493 cabc d7ae adbd 33e0 9c3d
00000150: f2fd c9bd 3471 8a3c aaa7 c8bc 1f9d 773d
00000160: cdf4 1ebd 6e30 f23d 6de7 2fbd 67d4 6b3e
00000170: 9a32 0fbe 66e7 1d3d 22d0 c33d b221 f2bd
00000180: 4dc1 70bd 91a9 173e 1766 8e3d 6670 ef3c
00000190: 56fc cbbb c9f9 343e 1f4f f0bd 603f 07be
000001a0: 8c66 ecbd 9ab6 9dbd 94a3 213d cf5f 723c
000001b0: 67f5 d23d 8374 20bd 5796 eb3c b737 a3bd
000001c0: 8211 093e a40e 67bd 36db 5bbd 166d 643d
000001d0: dae6 3abe 8832 e0b9 342e 03bd 8997 a3bd
000001e0: 2399 f7bd 6abc febd 7e0b 2d3b 0dea 3e3c
000001f0: f7a7 95bc 9b45 e13d c43d 99bd bc7a 48bc
00000200: c3eb 463d 080a 2a3d fd8a 263e acc3 9abc
00000210: a3e4 d83d 54b0 723c 2916 aa3c 5abe a3bd
00000220: f782 e73b 4e24 443e 059a b53d 1ff4 5cbd
00000230: 2761 bdbd 87fc e83d 6ab0 efbd 6d6b 7bbc
00000240: d337 2cbe c016 6c3d 8fd7 36bd 4cef 933d
00000250: e959 d2bd be63 333d e861 04be 4cf8 13be
00000260: e49c 553d 01ee ab3d aba2 e8bd ca11 46be
00000270: ab78 95bd 4c20 01bb 472f 6abd 531f b7bd
00000280: dd0b fc3d 9f97 313d 49c9 9ebc a661 9cbd
00000290: 7477 dc3d 397e 243d ec65 ecbd 6a8d 083d
000002a0: b5e0 50bd 2f98 69bd 979f 203e e021 57bd
000002b0: 1451 353e 444b cf3d 4270 943c f085 15be
000002c0: b20c a63d 04e8 aebd a681 fabd fcc2 25be
000002d0: d653 f53d e8eb 46bc a732 1f3d 4e2e ddbd
000002e0: 5ffd 0abd 6249 ccbd 44a7 4abc 1a8e 2ebe
000002f0: 825b d4bb 96af 143a 02fc 353d 7173 c0bb
00000300: 2d79 52be 0c45 d4bd 99b1 5abd 3e12 b1bc
00000310: ab9e 5f3d 4ae5 8f3d 6def 17be 6e0a 52bc
00000320: 86b3 e73d cb2f d33c 1eb2 d33c 7b1f 633d
00000330: 1aa2 2e3c a9b7 ffbd ca99 e53d 38bb 173e
00000340: c21d b93d 4c1e ffbd 4f56 4dbd 037a f9bd
00000350: f1e5 c03a 507c 38b9 8c02 42be 3204 9d3d
00000360: 18af e7bc 4010 b43d 097d 0cbe 6bb7 c2bd
00000370: f5cc 6d3d 3985 083e 285e 173e 0093 80b8
00000380: e15d 85bd 0365 4e3d 50ef 443e de10 45bd
00000390: 89e9 2a3e 0212 4abb 0d21 183e d432 06bd
000003a0: 005f b1bd b9fe 56bc 7053 ad3d 7535 af3d
000003b0: 44c7 1bbd 801a 48bd 6d8c 373d 0fa2 423d
000003c0: 3785 69bd 4233 e5bd fb36 4cbd 4e2f 063d
000003d0: d490 45bd c2ba a13c e19d 89bc 9bf4 08be
000003e0: c713 b4bb c4b4 c33c 327c 4a3d 437d e1bd
000003f0: 9c2d 213e fcd9 fcbd 7542 90be c567 a8bd

net.2.grid_points f4 [5]
-2.0 -1.0 0.0 1.0 2.0
00000000: 0000 00c0 0000 80bf 0000 0000 0000 803f
00000010: 0000 0040

net.3.coeff f4 [1, 64, 5]
-0.11084148 0.14570405 0.021127133 0.12722224 0.018363398 -0.13630278 0.038445447 -0.12099012
0.07361284 -0.05718013 0.021450346 0.026148083 0.039393626 -0.18306759 0.06575914 -0.008041193
-0.06488822 0.19109386 0.13185263 0.022151697 -0.08450384 -0.15563554 -0.102418914 -0.01898676
0.15638933 -0.16073474 0.040261287 -0.043413196 0.10237107 -0.008274174 -0.020243632 0.114692345
-0.09049613 -0.01765596 -0.17666395 -0.23150133 -0.053143773 -0.039155893 0.021064369 -0.04983739
0.0976805 -0.114355244 0.05731277 -0.06403787 -0.1349289 0.10238882 0.003340138 0.053498413
0.09583387 0.074401975 -0.027983464 -0.07775743 -0.055391468 -0.012768763 0.13415225 -0.0076593077
0.016144631 0.007377626 -0.024259444 -0.07961729 0.11426875 0.00048950594 0.049684823 -0.03676682
-0.16759086 -0.039511524 0.13207942 0.16777809 0.029972127 0.025166076 0.05865598 -0.020923194
-0.15900627 -0.13204628 0.00010857079 -0.08419703 0.22249064 0.09422547 0.10451146 -0.106596224
-0.14830263 -0.05710917 0.061161123 -0.084839515 -0.0934265 -0.19756629 0.12822825 -0.080341965
-0.034028526 -0.015898893 -0.02138808 0.11487773 -0.19458684 0.0112382425 -0.016950073 0.24197523
-0.045754153 0.07117602 -0.07134244 0.049108665 -0.06398888 0.17189935 -0.07566847 -0.052542422
-0.19854826 0.15286244 0.15949747 -0.056264453 -0.19138478 -0.02574603 -0.1168904 0.093577944
-0.08770866 -0.16018635 0.059045002 0.01861724 0.055294555 0.003512029 -0.03456006 -0.16455022
0.0804549 0.15515214 0.0013855088 -0.05966825 -0.088172264 -0.0031943533 0.04466715 -0.10651053
-0.15214561 0.053030923 0.030111732 0.13986084 0.011925811 0.1511536 0.006238892 0.10597145
0.12731253 0.0081546055 -0.17427959 0.14065476 0.00029440684 -0.030330325 -0.06676095 -0.13064347
0.082670934 -0.03233001 0.1807455 0.098060064 -0.012852285 0.05665554 -0.18135141 -0.006813924
-0.08172624 0.13260926 0.048578154 -0.099527046 -0.055732086 0.058628198 0.10362839 0.001446621
0.058041763 -0.05112807 -0.097409904 -0.086128905 -0.0857144 -0.0072102514 -0.0743934 0.016083997
-0.15053535 0.09354368 -0.06370634 0.022795439 -0.054620758 -0.15283725 0.061614826 -0.30883196
-0.07983986 0.08543353 0.04034807 -0.07027462 -0.06767619 0.024023663 0.069169074 0.14572263
-0.07651733 0.049580812 0.010114518 0.050609373 -0.16266067 0.05870132 0.07524225 0.012080697
-0.0753422 -0.015183899 0.06189773 -0.08186511 -0.073077716 0.06716315 0.1640347 -0.11890128
0.0566148 0.029128334 0.028335622 0.058714047 0.14225714 0.024553211 -0.11523556 0.06877219
0.07785161 -0.020832995 0.2786282 0.0924396 0.010212567 -0.13927941 -0.19666114 -0.023069542
-0.0060407287 0.08738203 -0.07488016 0.08809169 0.246334 0.026636831 0.18025821 0.11366881
0.08922541 0.089665055 -0.16578598 -0.087253675 -0.12675859 0.097339235 0.111652955 -0.022736732
0.042547114 0.031894382 0.02216711 -0.07720041 0.0415005 -0.0763552 -0.10110436 -0.09786873
0.025308756 0.07705159 0.039613705 0.08495517 -0.016018413 -0.035948075 -0.06167882 -0.090612836
0.03015502 0.073688544 -0.047317486 -0.16797504 -0.01784772 -0.15446918 0.14895679 0.04956009
00000000: dc00 e3bd 7133 153e cf12 ad3c 8c46 023e
00000010: d66e 963c f592 0bbe f978 1d3d abc9 f7bd
00000020: 54c2 963d b635 6abd a3b8 af3c 8134 d63c
00000030: 365b 213d 1276 3bbe baac 863d 35bf 03bc
00000040: 1de4 84bd 1cae 433e 6004 073e 7a77 b53c
00000050: 5910 adbd ec5e 1fbe 02c1 d1bd 1f8a 9bbc
00000060: 8624 203e a697 24be 05e9 243d 09d2 31bd
00000070: eca7 d13d 6790 07bc f9d5 a5bc d2e3 ea3d
00000080: 0956 b9bd 3ba3 90bc 65e7 34be af0e 6dbe
00000090: 49ad 59bd ee61 20bd 2f8f ac3c 4b22 4cbd
000000a0: b70c c83d 1533 eabd ccc0 6a3d 4926 83bd
000000b0: cd2a 0abe 3bb1 d13d 37e6 5a3b 2721 5b3d
000000c0: 8c44 c43d 1060 983d 943d e5bc 4a3f 9fbd
000000d0: 2ae2 62bd 1334 51bc 355f 093e eefa fabb
000000e0: bf41 843c 03c0 f13b bebb c6bc 640e a3bd
000000f0: bc05 ea3d 3052 003a 5082 4b3d ce98 16bd
00000100: f09c 2bbe d6d6 21bd d43f 073e 05ce 2b3e
00000110: 1b88 f53c 1629 ce3c 4141 703d 1e67 abbc
00000120: 8ad2 22be 2437 07be 80b0 e338 7e6f acbd
00000130: 96d4 633e 49f9 c03d 1b0a d63d 1f4f dabd
00000140: a5dc 17be 4eeb 69bd 1684 7a3d 57c0 adbd
00000150: 6556 bfbd d14e 4abe 444e 033e 548a a4bd
00000160: 7f61 0bbd 653e 82bc 0e36 afbc 0445 eb3d
00000170: c641 47be 9b20 383c e1da 8abc 5bc8 773e
00000180: b568 3bbd bcc4 913d fc1b 92bd 2b26 493d
00000190: 9a0c 83bd 6206 303e 12f8 9abd b936 57bd
000001a0: 3c50 4bbe f987 1c3e 4e53 233e 8e75 66bd
000001b0: 5ffa 43be 57e9 d2bc 3c64 efbd cba5 bf3d
000001c0: 99a0 b3bd e407 24be 2cd9 713d 2f83 983c
000001d0: 8b7c 623d 122a 663b d98e 0dbd da7f 28be
000001e0: 8ac5 a43d 34e0 1e3e f699 b53a b266 74bd
000001f0: a993 b4bd 5b58 51bb e7f4 363d 3122 dabd
00000200: 0fcc 1bbe f436 593d e1ac f63c ae37 0f3e
00000210: 7a64 433c 02c8 1a3e 9f6f cc3b 8f07 d93d
00000220: 375e 023e e59a 053c 5976 32be cd07 103e
00000230: 9e5a 9a39 4d77 f8bc f7b9 88bd 67c7 05be
00000240: 614f a93d 796c 04bd 5915 393e b7d3 c83d
00000250: 6492 52bc a40f 683d 2fb4 39be 5647 dfbb
00000260: 1660 a7bd b9ca 073e e3f9 463d d6d4 cbbd
00000270: 5447 64bd 1f24 703d 1f3b d43d 8c9c bd3a
00000280: 33bd 6d3d ab6b 51bd d87e c7bd 5a64 b0bd
00000290: 088b afbd f943 ecbb 915b 98bd 96c2 833c
000002a0: f025 1abe d493 bf3d 7878 82bd 80bd ba3c
000002b0: 04ba 5fbd 5e81 1cbe d45f 7c3d 391f 9ebe
000002c0: 1583 a3bd c6f7 ae3d 0544 253d 24ec 8fbd
000002d0: d099 8abd 46cd c43c 84a8 8d3d 5038 153e
000002e0: 1eb5 9cbd 4015 4b3d 5db7 253c c64b 4f3d
000002f0: 8590 26be cc70 703d 9c18 9a3d 1eee 453c
00000300: 034d 9abd e3c5 78bc 7988 7d3d e5a8 a7bd
00000310: c5a9 95bd d58c 893d b6f8 273e 8482 f3bd
00000320: ece4 673d 8b9e ee3c 1b20 e83c 247e 703d
00000330: dbab 113e d123 c93c 9f00 ecbd 6fd8 8c3d
00000340: aa70 9f3d f5a9 aabc 5ba8 8e3e f950 bd3d
00000350: 9c52 273c 439f 0ebe 8a61 49be 56fc bcbc
00000360: 4ef1 c5bb 5af5 b23d c55a 99bd 6a69 b43d
00000370: fb3e 7c3e 7c35 da3c 9c95 383e 31cb e83d
00000380: d0bb b63d 50a2 b73d cdc3 29be 0eb2 b2bd
00000390: 01cd 01be cb59 c73d 4eaa e43d 6242 babc
000003a0: e245 2e3d afa3 023d cd97 b53c 401b 9ebd
000003b0: 6efc 293d 1d60 9cbd cd0f cfbd 676f c8bd
000003c0: 4f54 cf3c 39cd 9d3d fb41 223d fafc ad3d
000003d0: 0c39 83bc 4a3e 13bd eea2 7cbd 3993 b9bd
000003e0: a907 f73c 05ea 963d fbcf 41bd a601 2cbe
000003f0: 6235 92bc 2b2d 1ebe 2188 183e 85ff 4a3d

net.3.scale f4 [1, 64]
1.002001 0.99800754 0.9980128 1.0019886 0.9979989 0.9980772 0.9980176 0.9980335
0.99869215 1.0020009 0.99799925 0.99800193 1.0020009 1.0020007 0.9979987 1.0020006
1.0019662 0.99948394 0.99800503 1.0019974 1.0019982 1.002001 1.0019944 1.0019473
0.9979991 0.9980005 1.0019975 1.0020005 0.99800247 1.0019956 0.9980222 1.001891
0.9979988 0.99801373 1.0018978 1.0019329 1.0019991 0.9993907 0.998005 1.0019265
1.0020006 0.9980157 0.9980104 1.0019017 1.0020006 0.9980014 1.0019823 0.99800026
1.002001 0.9980046 0.9980123 0.9980059 1.002001 0.99799913 1.0020008 0.99800617
0.9980091 0.99803 0.9991938 0.9979992 1.002001 1.0019988 0.9980077 1.0020006
00000000: 9241 803f 6c7d 7f3f c47d 7f3f 2a41 803f
00000010: db7c 7f3f fd81 7f3f 157e 7f3f 207f 7f3f
00000020: 4aaa 7f3f 9141 803f e17c 7f3f 0e7d 7f3f
00000030: 9141 803f 8f41 803f d87c 7f3f 8e41 803f
00000040: 6e40 803f 2ede 7f3f 427d 7f3f 7341 803f
00000050: 7a41 803f 9241 803f 5a41 803f cf3f 803f
00000060: de7c 7f3f f67c 7f3f 7441 803f 8d41 803f
00000070: 177d 7f3f 6441 803f 627e 7f3f f73d 803f
00000080: d97c 7f3f d47d 7f3f 303e 803f 563f 803f
00000090: 8241 803f 12d8 7f3f 417d 7f3f 213f 803f
000000a0: 8e41 803f f57d 7f3f 9c7d 7f3f 513e 803f
000000b0: 8e41 803f 057d 7f3f f540 803f f27c 7f3f
000000c0: 9241 803f 3b7d 7f3f bc7d 7f3f 517d 7f3f
000000d0: 9241 803f df7c 7f3f 9041 803f 557d 7f3f
000000e0: 867d 7f3f e57e 7f3f 2acb 7f3f e07c 7f3f
000000f0: 9241 803f 7f41 803f 6f7d 7f3f 8e41 803f

net.3.base_weight f4 [1, 64]
-0.026017958 0.15787159 0.032242537 -0.13664606 -0.090203896 -0.026844501 0.13269368 0.1011467
-0.05955381 -0.2085877 -0.20689365 -0.15312387 -0.08126069 -0.024444515 -0.24361977 0.00766747
0.03629054 0.11219392 -0.1297791 -0.06287177 -0.06480537 -0.09835557 -0.16127379 -0.056163613
0.072011195 -0.027994256 -0.014007043 -0.11037589 0.005619848 0.1992595 -0.08818138 0.021134684
0.23745431 0.14422642 -0.13953434 0.09337477 -0.09436782 0.05566665 0.15717487 0.19956811
0.06528341 0.025405275 0.046192378 0.07827876 0.12666292 0.06983608 -0.10809331 0.005599634
-0.04115589 -0.0048659695 0.029466225 -0.0066458047 -0.09898782 0.09249726 0.10045781 -0.087426
0.044560682 -0.1254746 -0.06071441 -0.041918717 -0.0150686875 -0.11027689 0.027572107 -0.12980095
00000000: 9d23 d5bc 17a9 213e c010 043d f2ec 0bbe
00000010: d2bc b8bd 00e9 dbbc dae0 073e 0026 cf3d
00000020: b2ee 73bd 0498 55be eedb 53be 81cc 1cbe
00000030: 016c a6bd dd3f c8bc 7677 79be 663f fb3b
00000040: 64a5 143d edc5 e53d d0e4 04be eac2 80bd
00000050: aeb8 84bd a56e c9bd f524 25be d10b 66bd
00000060: 9b7a 933d 3654 e5bc cc7d 65bc c10c e2bd
00000070: b426 b83b af0a 4c3e 7098 b4bd a522 ad3c
00000080: 3927 733e 17b0 133e 17e2 0ebe 453b bf3d
00000090: ea43 c1bd b702 643d 73f2 203e 955b 4c3e
000000a0: 4fb3 853d b91e d03c 3834 3d3d 9d50 a03d
000000b0: edb3 013e 3806 8f3d 0660 ddbd 227d b73b
000000c0: 1493 28bd b672 9fbb 2763 f13c 0dc5 d9bb
000000d0: 20ba cabd 346f bd3d d3bc cd3d 670c b3bd
000000e0: 4385 363d 6a7c 00be acaf 78bd f6b2 2bbd
000000f0: a8e2 76bc dad8 e1bd e6de e13c 8aea 04be

net.3.grid_points f4 [5]
-2.0 -1.0 0.0 1.0 2.0
00000000: 0000 00c0 0000 80bf 0000 0000 0000 803f
00000010: 0000 0040
