data/trained_models/base_cp_a_kan.pth (torch, 138770 bytes, 12 tensors)

net.0.coeff f4 [64, 10, 5]
000000 dd 69 1e 3e bd 82 4c bd 21 f2 08 bc 4f d8 ed 3c
       0.15470071 -0.04992937 -0.008358509 0.029033808
000010 72 3d 0f bd d4 7b 36 be ba 63 0e 3d 99 35 2e 3c
       -0.03497071 -0.17820674 0.034763075 0.010632896
000020 20 be 11 be 1e e5 70 bb fd 28 30 bd 02 73 26 bd
       -0.14232683 -0.0036757658 -0.04300784 -0.040637024
000030 e0 07 c1 3c 6b 93 05 3d 23 c9 92 3c 0d 39 56 3d
       0.023563325 0.03261129 0.017918175 0.0523005
000040 da 0c 69 bd c1 9f 63 3d 26 70 7e 3d e6 13 a8 3b
       -0.05689702 0.055572275 0.06211867 0.005129325
000050 92 14 9d bd ff c4 18 3d 7c f8 f2 bd 76 da f8 3d
       -0.07669939 0.037297245 -0.11863801 0.12151043
000060 ee 56 9c bb 54 d5 87 bd 84 68 79 bd 20 d2 e6 3c
       -0.004771105 -0.06632486 -0.06089069 0.028176367
000070 b7 5d ff bd ec 68 b1 3c 52 e7 84 3d 15 1e 63 bd
       -0.124690466 0.021656476 0.06489433 -0.05544861
000080 25 0f 4c bd 04 4b e5 bd f1 88 df 3c 25 19 63 bc
       -0.04981913 -0.11195949 0.027286978 -0.013860975
000090 63 b5 2a 3d 0e 4a 98 3d 4a 20 ca 3d 68 2b bb 3d
       0.04167689 0.07436 0.0986944 0.091391385
0000a0 ff 26 df 3d f3 6d 19 3d 59 3b 6c bd 69 24 74 3b
       0.1089611 0.03745837 -0.057673786 0.0037253147
0000b0 42 f9 b6 3c b3 e6 0e bd 83 a5 80 be 5a aa 06 3e
       0.022335652 -0.03488798 -0.25126275 0.13150921
0000c0 5f f9 b2 3d ce b9 07 3d 8b 51 e2 3d 0d 18 43 bd
       0.0873897 0.03313618 0.11050709 -0.04763036
0000d0 c3 22 8f 3d 2f 7c b1 3d 03 ef 45 bc d9 e8 54 be
       0.06989052 0.08666264 -0.012080911 -0.2079195
0000e0 ae e2 90 be e9 15 06 3d bd c0 36 be 5b 2e eb 3d
       -0.28297943 0.03273574 -0.17846961 0.11483451
0000f0 6e c7 d6 bd 93 7a 0b 3d 2e 04 b1 bd 82 47 0a be
       -0.10487257 0.034052443 -0.08643375 -0.1350384
000100 ee 83 28 3e a8 80 03 be 3e 1c fd bd 78 b7 5b bd
       0.16456577 -0.12842047 -0.123589024 -0.053641766
000110 f9 9a 13 3c 6a d0 45 be d6 a6 f2 bd 36 55 16 3e
       0.009009116 -0.19317785 -0.11848228 0.14680943
000120 2c 08 27 bd 5e 79 fb 3c 1a b9 2e 3e e4 77 97 bd
       -0.040779278 0.03069752 0.17062798 -0.07395914
000130 22 22 38 3b f2 c8 63 bd 2f 86 4d 3c 24 14 f7 3c
       0.0028096517 -0.05561156 0.012544199 0.030160971
000140 8d 5c 9a 3d c1 1f d2 bd f0 ed 6b bd e6 9f 93 3e
       0.07537184 -0.10259963 -0.05759996 0.2883293
000150 ef f9 73 bc 62 f9 2b 3d 55 f7 39 bd 46 44 d5 bd
       -0.014891132 0.041985877 -0.04540189 -0.10413413
000160 0d 9c 1d bd ee d9 92 3d 42 d0 b2 3d fd c5 98 3c
       -0.0384789 0.07170473 0.08731128 0.018649096
000170 c5 83 79 3d fd 60 91 bd d6 1d 1a 3d 59 44 ef 3d
       0.06091668 -0.07098577 0.03762611 0.11682958
000180 18 d2 fb 3d 42 00 5c bc 55 95 e8 3d 6e 50 bf bc
       0.122959316 -0.013427796 0.11356608 -0.023353782
000190 48 8f 5d bd ea 7f 39 be 61 f8 eb 3d 1d 80 17 3d
       -0.05409172 -0.18115202 0.11521984 0.036987413
0001a0 45 dd 26 3e 7b 96 8f 3d b7 33 3f 3d 5c c5 10 3e
       0.16295345 0.07011124 0.04668018 0.14137787
0001b0 35 cc 8a bc f9 20 38 3e e1 70 46 bd 69 8a e7 bb
       -0.016943077 0.17981328 -0.048447493 -0.0070660603
0001c0 04 f0 1c bc ed b3 9f 3c 14 a2 fb bd 42 7d dc 3d
       -0.009578709 0.019494975 -0.12286773 0.107660785
0001d0 b9 b9 0b 3b 89 d2 ea 3d 4c c7 61 bc 0f f1 e2 bd
       0.0021320416 0.11465938 -0.013780426 -0.110811345
0001e0 f8 54 bd 3c 2a 4c f4 3d 13 58 06 3d 90 c3 eb bd
       0.023111805 0.1192859 0.032798838 -0.1151191
0001f0 59 ac 1b 3e 64 09 f6 3d b1 0f 07 3d 54 68 c3 3d
       0.15202464 0.1201351 0.03297395 0.095413834
000200 e8 be 43 3d 6e 59 a6 bb 27 ec cd 3d 55 c3 88 bc
       0.047789484 -0.005076579 0.10054808 -0.016694704
000210 2a 3f 9f be d6 12 9e 3d 2e d2 65 3d 86 83 9e bd
       -0.31102878 0.077184364 0.056108646 -0.0773993
000220 a4 9b 12 bd 79 bf 78 be 52 69 91 bc 0c 8f 55 bd
       -0.03579296 -0.24291791 -0.017750416 -0.052138373
000230 dd eb 06 3d 38 21 9c 3c 09 e5 cc bc 5b 56 27 be
       0.03293978 0.019058809 -0.025011556 -0.16341536
000240 7c 3f 5a b9 b6 3d 65 3e d3 ce 2c 3e da 8b 51 3e
       -0.0002081375 0.22386822 0.16875772 0.20463505
000250 e9 c1 af bd d1 8d 4c 3e 8e 52 2c bd 58 1f a3 3d
       -0.08581907 0.19975974 -0.042070918 0.07964963
000260 ce 1d 5b 3c 36 d0 9d bd 59 4f bc 3d 99 11 48 bd
       0.013373805 -0.07705729 0.09194822 -0.048844907
000270 d8 17 da bd a0 8d 3c 3e 61 30 ab bd 5f 45 21 3e
       -0.10649079 0.184134 -0.08358837 0.15749119
000280 25 9d 59 bd b3 d8 d4 bc 4d 61 0a be d8 0e c8 3d
       -0.05312838 -0.025982236 -0.1351368 0.09768456
000290 24 9b 58 3d 3a d3 90 bd d3 8c 32 3d 31 da 68 bd
       0.05288233 -0.07071538 0.04359133 -0.05684871
0002a0 25 4e c7 3c a4 b2 1a 3e 8a bd b6 3d 01 65 8c 3d
       0.024329254 0.15107208 0.089228705 0.068552025
0002b0 84 02 72 bd 58 b6 e2 3d 7e 8d 31 3d bb ba 67 3e
       -0.05908443 0.110699356 0.043347828 0.22629826
0002c0 b3 c6 c4 3b 73 11 28 3d c0 5b 07 bd d0 bb 18 be
       0.006005132 0.041032266 -0.033046484 -0.14915395
0002d0 5e 4a 71 bd 15 ba af 3d a3 e6 6e bd 39 67 5e 3d
       -0.058908813 0.08580414 -0.05832542 0.05429766
0002e0 45 d4 db bc d9 3c 11 3e 84 cf 04 be 5e 9b 42 3d
       -0.026834616 0.14183368 -0.12969786 0.04751145
0002f0 21 da ae 3d b1 7e 91 bc ff f0 8a 3d 83 88 b3 3a
       0.085376985 -0.017760606 0.067842476 0.00136973
000300 c6 84 57 bd 30 c7 f8 3d a4 0a 2b bb a5 d6 2a be
       -0.052616857 0.12147367 -0.0026098872 -0.16683443
000310 1c 3e b7 3d 0f 51 4e bd 25 1d af 3d 4a d0 c0 3d
       0.08947393 -0.050370272 0.08550481 0.09414728
000320 8b 45 6c 3d 90 2a aa bd 2a ff 3e 3d 70 e0 b0 3d
       0.05768351 -0.083088994 0.046630062 0.08636558
000330 0c 64 57 3e 5f 71 60 3c df a0 0e 3d 3e bc 02 be
       0.21034259 0.013698905 0.034821387 -0.12767121
000340 cb 32 8f bc 08 86 93 bd 66 db da bd ff 4b 05 bd
       -0.017480275 -0.07203299 -0.10686378 -0.03254318
000350 01 01 8b bd 2b e3 ee bd c0 29 52 3d 04 02 fe bd
       -0.06787301 -0.116644226 0.051309347 -0.12402728
000360 68 d2 0e be b8 6f 89 bb 64 ff 7f 3d ad aa 7f 3e
       -0.13947451 -0.004194226 0.06249942 0.24967451
000370 9c 7f cb bb c9 1b 8b 3b 79 a9 88 3d b2 ea c0 bd
       -0.0062102806 0.0042452556 0.06672949 -0.094197646
000380 70 a8 4c 3c 25 78 a3 bd ee bf 12 be 12 8f 1d bd
       0.0124913305 -0.079819 -0.14331028 -0.03846652
000390 b4 c2 a9 3c 7c 4f 4f be 2c 4e ac bd f2 b2 6b 3d
       0.020722724 -0.20245165 -0.084133476 0.057543702
0003a0 f5 27 2c be a9 08 34 be 84 78 0f 3e 2e 0c 6b bd
       -0.16812117 -0.17581429 0.14010817 -0.057384662
0003b0 59 9e 45 be d2 db 18 bd 24 f7 96 39 29 c6 ce bd
       -0.19298686 -0.037319012 0.00028794364 -0.1009639
0003c0 fd 4d 52 3e 98 91 e5 3d c9 e4 fe bc b6 89 78 3d
       0.20537563 0.112094104 -0.031114953 0.060678206
0003d0 e3 be 89 bd a0 f9 1a 3d ec 89 1c bd ed f8 1d be
       -0.06725862 0.037835717 -0.03821747 -0.15426989
0003e0 19 b1 0e be 75 06 52 3c 01 0c f7 3d ed 6c 48 be
       -0.13934745 0.012818922 0.120628364 -0.19572802
0003f0 1a fb 3f 3c 64 62 b0 3d a6 ac 13 3e 39 8f 19 be
       0.011717582 0.086125165 0.14421329 -0.14996041

net.0.scale f4 [64, 10]
000000 38 ce 80 3f 0d cd 82 3f a4 5e 7c 3f f7 50 7c 3f
       1.0062933 1.0218827 0.9858191 0.9856104
000010 4e 61 81 3f 83 78 82 3f d7 ee 7b 3f bf 44 7d 3f
       1.010782 1.0193027 0.98411316 0.98933023
000020 78 8d 7d 3f 25 ad 80 3f af eb 7d 3f 7b bf 7b 3f
       0.9904399 1.005284 0.9918775 0.9833905
000030 7c 1a 79 3f 03 39 7e 3f ae 5e 81 3f a7 cb 80 3f
       0.97306037 0.9930574 1.0107019 1.006215
000040 fe b1 7d 3f 37 17 80 3f 77 fb 7f 3f b5 b9 80 3f
       0.9909972 1.0007085 0.9999308 1.0056673
000050 eb fb 82 3f 00 f0 82 3f d4 1b 7b 3f 61 11 80 3f
       1.0233129 1.0229492 0.9808934 1.0005304
000060 a8 0b 81 3f 35 c1 82 3f 95 36 82 3f e9 d1 7b 3f
       1.0081682 1.0215212 1.0172907 0.9836717
000070 e9 d7 80 3f ed 27 82 3f 8d 37 81 3f 3c eb 82 3f
       1.006589 1.0168434 1.0095078 1.0228038
000080 23 f9 7f 3f 2c 02 82 3f 2a 9b 80 3f 12 38 82 3f
       0.9998953 1.0156913 1.0047352 1.0173361
000090 41 69 7c 3f d9 ab 80 3f 02 04 81 3f 43 cf 7f 3f
       0.98598105 1.0052444 1.0079348 0.9992563
0000a0 64 a5 80 3f 9c 91 7e 3f d9 96 7b 3f a7 f9 81 3f
       1.0050473 0.9944093 0.9827705 1.0154313
0000b0 41 32 80 3f 7a 4f 7e 3f a0 e4 81 3f 4a a3 7e 3f
       1.0015336 0.9934002 1.0147896 0.9946791
0000c0 fe 5f 7d 3f 7b 8e 7c 3f c1 c9 80 3f c8 04 83 3f
       0.989746 0.9865491 1.006157 1.0235834
0000d0 e7 e1 80 3f 87 13 82 3f a6 33 81 3f 1e 2d 7b 3f
       1.006894 1.0162209 1.0093887 0.9811572
0000e0 04 cc 81 3f 02 aa 7d 3f e6 00 81 3f 4f 58 7c 3f
       1.0140386 0.99087536 1.0078399 0.9857225
0000f0 50 7a 81 3f 51 d2 81 3f 73 c4 82 3f a1 47 7d 3f
       1.0115452 1.0142308 1.0216202 0.9893742
000100 6a 5c 7f 3f 0b fe 7f 3f a2 17 81 3f eb 18 7c 3f
       0.9975039 0.99997014 1.0085337 0.9847552
000110 04 a0 80 3f a6 e6 80 3f a3 a3 82 3f 17 4c 83 3f
       1.0048833 1.0070388 1.0206188 1.0257596
000120 a8 cf 79 3f 38 df 79 3f e5 9c 7c 3f 50 81 7a 3f
       0.97582483 0.9760623 0.986769 0.97853565
000130 4b 52 82 3f f4 29 80 3f 6f 8c 7b 3f 2e f2 80 3f
       1.0181364 1.0012803 0.9826116 1.0073907
000140 30 5f 81 3f 08 05 7e 3f 8e a2 80 3f df 56 7b 3f
       1.0107174 0.9922643 1.0049608 0.9817943
000150 4a 18 7f 3f 99 53 7c 3f 34 4d 7a 3f 4e 09 7d 3f
       0.9964644 0.9856506 0.9777405 0.9884232
000160 f1 c1 7e 3f 04 12 7d 3f 6e 84 83 3f 0f 7c 7f 3f
       0.9951468 0.98855615 1.0274789 0.99798673
000170 7d 2d 7d 3f 22 26 81 3f 69 fc 78 3f 9b 4a 7e 3f
       0.98897535 1.0089762 0.9726015 0.9933259
000180 64 4e 7a 3f 20 b2 80 3f cd a0 80 3f 82 bc 7d 3f
       0.97775865 1.005436 1.0049073 0.99115765
000190 42 93 81 3f 27 2e 83 3f 7b 0e 81 3f f2 da 7c 3f
       1.0123065 1.024846 1.0082544 0.98771584
0001a0 e7 a6 79 3f 82 e9 79 3f dc 37 7e 3f e7 ce 81 3f
       0.975203 0.9762193 0.99303985 1.0141267
0001b0 4d 4c 80 3f d4 5f 81 3f e6 63 81 3f 55 38 80 3f
       1.0023285 1.010737 1.0108612 1.0017191
0001c0 68 44 7f 3f c3 78 82 3f 5a a7 7d 3f 67 93 7f 3f
       0.99713755 1.0193104 0.99083483 0.99834293
0001d0 2e 5b 80 3f 94 5d 80 3f 29 e8 7d 3f 52 a8 82 3f
       1.0027826 1.0028558 0.99182373 1.0207617
0001e0 32 8e 83 3f 16 f2 80 3f 70 87 7a 3f 8e 8d 79 3f
       1.027777 1.0073879 0.9786291 0.9748162
0001f0 d8 a1 82 3f 44 89 80 3f b4 d3 79 3f f6 0f 80 3f
       1.0205641 1.004189 0.9758866 1.0004871
000200 db 74 82 3f 26 ff 7d 3f 6d ea 81 3f a0 c3 81 3f
       1.0191911 0.9921745 1.0149666 1.0137825
000210 1f 2b 7f 3f 82 15 7f 3f 3b 1f 83 3f c5 13 80 3f
       0.9967517 0.99642193 1.0243906 1.0006033
000220 f4 4f 7c 3f b1 1a 7d 3f 07 69 7c 3f ed 22 82 3f
       0.985595 0.9886885 0.9859776 1.0166909
000230 05 50 7f 3f 08 5c 82 3f bd 25 80 3f cd 62 80 3f
       0.99731475 1.0184336 1.0011517 1.0030152
000240 87 cd 7e 3f 02 ce 80 3f 90 20 7f 3f 68 b9 82 3f
       0.9953236 1.0062869 0.9965906 1.0212831
000250 74 7d 80 3f b9 b0 80 3f 3a 76 82 3f d8 37 82 3f
       1.0038285 1.0053931 1.019233 1.0173292
000260 bb 61 82 3f 8e ec 80 3f bb c9 7e 3f dd 72 7b 3f
       1.0186075 1.0072191 0.99526566 0.9822214
000270 3a 2d 81 3f 35 a0 82 3f 81 87 82 3f 24 12 82 3f
       1.0091927 1.0205141 1.0197603 1.0161786
000280 53 14 7e 3f 71 f7 7c 3f 72 44 82 3f b5 ed 7d 3f
       0.9924976 0.98815066 1.0177138 0.9919084
000290 8e b4 7d 3f 2e 1c 7c 3f 1c dd 7f 3f 58 66 81 3f
       0.9910363 0.984805 0.9994676 1.0109358
0002a0 28 05 7d 3f 56 7c 81 3f 37 e7 7d 3f 36 a6 7b 3f
       0.9883599 1.0116069 0.9918093 0.9830049
0002b0 b7 bf 7d 3f 35 51 82 3f a4 da 7e 3f 74 ed 7b 3f
       0.9912066 1.0181032 0.9955237 0.984092
0002c0 ae 5a 82 3f 5a cb 7b 3f 17 65 81 3f 00 fb 80 3f
       1.0183923 0.98357165 1.0108975 1.0076599
0002d0 15 21 81 3f 8b 4a 83 3f f6 06 7b 3f 4c f7 80 3f
       1.0088221 1.0257124 0.98057497 1.0075469
0002e0 41 0e 7e 3f 2b 63 78 3f 2f 0b 82 3f 91 75 80 3f
       0.992405 0.9702632 1.0159663 1.0035878
0002f0 b1 25 83 3f 23 ec 7b 3f 90 27 80 3f 7d fb 7d 3f
       1.0245878 0.9840719 1.0012074 0.99211866
000300 de 7e 7c 3f 12 bd 80 3f fc 6f 7d 3f b0 8d 7d 3f
       0.98631084 1.00577 0.98999 0.9904432
000310 2e 8e 7d 3f 5e 94 82 3f 58 c3 81 3f 45 a0 81 3f
       0.99045074 1.0201528 1.0137739 1.0127035
000320 5f d4 7e 3f f9 8e 7e 3f ef b5 80 3f 99 a5 80 3f
       0.995428 0.9943691 1.0055522 1.0050536
000330 a1 7a 80 3f 0e ed 7e 3f b2 90 7e 3f 78 b3 81 3f
       1.0037423 0.99580467 0.9943954 1.0132895
000340 5e 09 7f 3f e5 20 83 3f 9e db 80 3f 05 ec 80 3f
       0.9962367 1.0244414 1.0067022 1.0072027
000350 41 5a 81 3f 82 85 82 3f f6 94 7d 3f f7 19 82 3f
       1.0105668 1.0196993 0.9905542 1.0164174
000360 a5 53 80 3f 49 08 81 3f 68 88 7b 3f 70 1a 81 3f
       1.0025526 1.0080653 0.98255014 1.0086193
000370 d1 aa 7a 3f 90 52 82 3f 87 41 81 3f d7 99 82 3f
       0.97916895 1.0181446 1.0098122 1.0203198
000380 95 49 7a 3f 1f 9b 80 3f 1f 26 82 3f 15 8e 7d 3f
       0.9776853 1.0047339 1.0167884 0.99044925
000390 24 2b 80 3f aa 52 82 3f c5 d5 80 3f f1 60 80 3f
       1.0013165 1.0181477 1.0065237 1.0029584
0003a0 ce 17 81 3f a5 e0 7e 3f 03 1f 81 3f 0d db 7d 3f
       1.008539 0.9956153 1.0087589 0.9916237
0003b0 00 5c 7d 3f 6c a3 7d 3f bd 09 7e 3f ca ae 81 3f
       0.98968506 0.99077487 0.9923361 1.0131466
0003c0 7c 7d 7e 3f 7d 5e 7e 3f bf 4d 80 3f ce b2 7e 3f
       0.99410224 0.9936293 1.0023726 0.99491584
0003d0 3e 42 81 3f 1b 54 7f 3f a3 a4 80 3f c1 a1 80 3f
       1.009834 0.9973771 1.0050243 1.0049363
0003e0 89 14 80 3f 58 25 80 3f dc 94 7b 3f ec b5 7c 3f
       1.0006267 1.0011396 0.98274016 0.9871509
0003f0 15 ec 7a 3f 5c 58 82 3f e1 7b 7e 3f fc a6 80 3f
       0.9801648 1.0183215 0.99407774 1.005096

net.0.base_weight f4 [64, 10]
000000 f3 af e9 bd f4 92 ae bd 29 58 0b 3e 77 90 6d bc
       -0.11410513 -0.08524123 0.13607849 -0.014499775
000010 30 31 6f 3d 80 36 8b 3c e3 72 e8 bd 8b 68 19 3e
       0.05839652 0.016993761 -0.11350038 0.14981286
000020 67 42 e1 3d b3 ab 3d be 2a eb c1 bd 20 6f 3f 3d
       0.10998993 -0.1852253 -0.09468682 0.046736836
000030 17 3f 4c be 8b c4 4d bc 1a 5a e1 bd c1 b8 06 3d
       -0.19945942 -0.0125590665 -0.11003514 0.03289104
000040 0d 58 88 3e 58 d1 5a 3e 5b 31 87 bd d8 8c 3c 3d
       0.26629677 0.21368921 -0.06601211 0.046032757
000050 71 e1 17 3d b5 c8 2e 3e a8 6d 76 3b 41 1e 94 3d
       0.037080232 0.17068751 0.0037601981 0.07232333
000060 6c 92 74 bd 51 63 cb 3c b9 5f a0 3d f7 b2 f2 bd
       -0.05970995 0.024827631 0.07830758 -0.11850541
000070 e3 ee 23 bd 07 4d 87 bb a0 0d 02 bd 01 f5 c4 3d
       -0.040022742 -0.0041290554 -0.031751275 0.09617043
000080 7e a8 56 bd 39 b2 70 bd cf bc 43 3d 26 02 c0 3d
       -0.05240678 -0.058763716 0.047787484 0.0937541
000090 42 35 db bd ce b6 89 bd d2 38 f1 bc f2 41 f9 3c
       -0.107035175 -0.0672432 -0.02944604 0.030426953
0000a0 17 6c 0d be a5 6d 2c 3e b7 bf 64 3d 69 3d 15 bd
       -0.13810764 0.16838701 0.055846896 -0.03643552
0000b0 f9 19 e2 3c 41 19 1c be 97 32 da 3d 15 35 1f be
       0.027600275 -0.15244009 0.106541805 -0.15547593
0000c0 53 15 82 3d 90 84 52 bd fb 1c 7e 3b 96 e6 03 3d
       0.063517235 -0.051395953 0.0038774598 0.032202326
0000d0 19 25 f4 3c e8 e0 5c 3b 5f ec 13 bd 29 3d df 3c
       0.029802846 0.003370339 -0.036114093 0.027250843
0000e0 22 47 a6 3b eb a4 37 bd 66 ff 9e bd 58 d3 d7 bd
       0.0050743977 -0.044835012 -0.07763557 -0.105383575
0000f0 25 64 aa 3c d8 63 f8 bd 9c 1f 2e 3e c8 a0 b0 3c
       0.020799706 -0.12128419 0.17004246 0.021561041
000100 31 87 8d bd 7d da 06 3e 2f 0b 07 be a9 91 5a 3c
       -0.06910551 0.13169284 -0.1318786 0.013340392
000110 b9 1b c3 3d 89 71 00 3e af 6b 32 bd 6b 46 49 3d
       0.09526772 0.1254331 -0.043559726 0.04913942
000120 b5 68 22 bc 59 9a 8e bd 39 34 e1 bd e4 f4 f3 bd
       -0.009912659 -0.06963033 -0.10996289 -0.119119436
000130 f5 65 d5 bd 75 70 32 3d 47 47 fc bc 30 71 69 be
       -0.104198374 0.04356428 -0.030795706 -0.22797084
000140 fb ea d9 3d 6f dd 2d be 47 b4 56 3d bd 93 46 3d
       0.10640522 -0.16979001 0.05241802 0.048480738
000150 b9 cf 56 bd 8f ea 46 3d 91 3f a0 3d a8 42 6d be
       -0.052444194 0.048563536 0.07824624 -0.23169959
000160 45 e8 b6 3d 57 6c 0b bc a9 ec 73 bd 7e 7d 53 be
       0.08931021 -0.008509717 -0.05955187 -0.2065334
000170 e3 86 3f be ce 83 7e 3c 82 23 f3 3d ce 6b b3 bd
       -0.18703799 0.015534354 0.11872007 -0.087607965
000180 40 fc d1 3c ab 1a 1d 3e bf 4a ae 3d e0 22 94 3d
       0.025632977 0.15342204 0.085103504 0.072332144
000190 88 2d 0b be 41 34 13 3c 65 fd a3 3e a8 57 11 bd
       -0.13591588 0.008984626 0.32029262 -0.035483986
0001a0 f4 49 ce 3d 83 f2 b7 3c b2 32 fb 3d 2c a1 d1 bc
       0.10072699 0.022454506 0.12265529 -0.025589548
0001b0 61 10 f6 3d 91 46 3c 3e da 6d 5c bb 6d b4 0c 3c
       0.12014843 0.18386294 -0.0033634813 0.008587939
0001c0 61 1f 42 bd 05 d4 83 3d c4 c2 9b 3d 14 11 61 bd
       -0.047393207 0.06436924 0.07605508 -0.054947928
0001d0 b0 f2 a7 bc 3a 74 28 be 0d d9 26 3e b1 a2 10 bd
       -0.020501465 -0.16450587 0.16293736 -0.035311405
0001e0 a4 d9 84 bd 3b ee c1 3d 27 17 be bd 0a dd dd bc
       -0.06486824 0.09469267 -0.0928176 -0.027082939
0001f0 e4 9d e1 3c 1f a9 a8 bc fa 70 8d 3d 49 c8 d3 3d
       0.027541108 -0.020588456 0.06906314 0.10340936
000200 69 59 3c be 07 90 1e be ee 60 71 3d 49 87 01 3d
       -0.18393482 -0.1548463 0.05893033 0.03162316
000210 e1 0c 05 3c 42 3a a5 3d ec 22 4f 3d 7c 36 5b bd
       0.008120746 0.080677524 0.050570413 -0.053518757
000220 91 51 c8 bd 1a fc 52 3d 09 86 71 3d d5 42 b2 bd
       -0.097811826 0.051509954 0.058965717 -0.087041534
000230 d3 48 b7 bd 23 1f 41 3c 5d 5a 5c bd 53 5d 49 bd
       -0.08949437 0.011787209 -0.053797115 -0.049161267
000240 09 95 87 3d ae 5b eb 3c ac 1b 6d be a1 c8 84 be
       0.06620223 0.02873024 -0.23155087 -0.25934318
000250 d4 1d 17 bc 79 78 c1 bd f0 23 2e be a7 dd 99 3d
       -0.00922342 -0.094468065 -0.17005897 0.0751298
000260 a1 5c fe bd 80 51 d4 bc ba cb 89 3c ec a7 38 3d
       -0.12420011 -0.025917768 0.016820777 0.045082018
000270 b7 70 db 3d 5a 34 1f 3d 11 58 19 3e 31 e9 b5 3d
       0.10714858 0.038868286 0.14975001 0.08882368
000280 1a 72 ab 3c 88 1d 29 3e 64 00 35 3d be 92 0e be
       0.020928431 0.16515172 0.044189826 -0.13923165
000290 1b 69 56 bd ac 8b 71 3d 04 aa a4 3d f0 7f 1a 3e
       -0.05234633 0.058971092 0.080402404 0.15087867
0002a0 32 6e 2c be 3a 1a e1 bd b8 d9 cf bd cb b8 17 3d
       -0.16838911 -0.109913304 -0.101489484 0.037041467
0002b0 ee 43 43 be 44 80 12 3e bf ec 8f bc 6f 1b 9c bd
       -0.19068882 0.14306742 -0.017568944 -0.0762242
0002c0 0b 54 70 be 9f e2 95 bd 5e 84 a7 bd 45 40 90 bc
       -0.2346956 -0.07318615 -0.08179544 -0.017608771
0002d0 1b 8c d3 bd 5c d9 17 3d f5 67 10 3c b8 8e 39 bd
       -0.10329457 0.037072524 0.008813848 -0.045302123
0002e0 17 e1 d5 bc 7b 35 be 3c dd fc 85 bd 1e 21 1e be
       -0.026108308 0.02321886 -0.065423705 -0.1544232
0002f0 8e 1f 55 3c fe 95 c4 3d fb 84 02 3d f6 e4 d4 3c
       0.0130080115 0.09598921 0.0318651 0.025988083
000300 aa 8f 47 be a7 3b 79 bd 27 77 49 bd 3a 36 09 3d
       -0.19488397 -0.060847905 -0.0491859 0.03349898
000310 07 ee 03 3d 77 cc 17 bc e6 8d f9 3d 79 4d 33 bd
       0.032209422 -0.009265057 0.12185268 -0.043775056
000320 1f ff 20 bd 9f 25 72 3e 83 40 eb 3d 99 b1 d7 bc
       -0.039305802 0.23647164 0.11486914 -0.026329802
000330 14 9d 98 bd 2e 64 58 bb c9 cc ee 3c 69 4a ae 3d
       -0.07451835 -0.0033018696 0.029150384 0.08510286
000340 e2 8c a5 bc 6c bc ec bc 22 e5 99 3d ba e3 61 be
       -0.02020878 -0.02889844 0.07514407 -0.22059527
000350 e0 58 ed 3c 01 db 0e 3c 28 13 60 bb 58 eb 27 3e
       0.028973043 0.008719207 -0.0034191106 0.1639837
000360 4a a7 3f 3e 71 1c d5 bd 1f b3 b7 bd d2 16 94 3d
       0.1871616 -0.104058154 -0.089697115 0.07230915
000370 c3 17 86 3c e0 ae 07 be 91 ec 49 3d dd 8f 4c bd
       0.016368752 -0.13250303 0.049297873 -0.049941886
000380 a4 90 b5 bc 30 09 0d 3e ed 5c 6a bc 7c d4 21 3c
       -0.022163697 0.13773036 -0.014304382 0.00987732
000390 4c ef 08 bd f5 f4 a4 bd 33 92 59 bd 83 ae 01 3d
       -0.033431336 -0.08054534 -0.053117942 0.031660568
0003a0 42 20 5e 3d d2 54 13 bd 64 a9 de bd 42 5e d0 bc
       0.054229982 -0.035969563 -0.108721524 -0.02543557
0003b0 0f d2 2b 3e 3c 54 21 bd be 62 c0 3b bb d6 c1 3d
       0.1677935 -0.039386973 0.005871146 0.09464785
0003c0 5c 92 2d bd 45 fb 5c bc 29 37 83 3c a8 b4 83 be
       -0.042375907 -0.013487642 0.016017513 -0.25723767
0003d0 58 40 04 be 83 b3 03 be 20 c3 c5 bd 1a 7f 95 bc
       -0.1291517 -0.12861447 -0.09656358 -0.018249083
0003e0 43 cc df bd db 92 ca bd fc 5b 82 3e bf 04 4b be
       -0.10927632 -0.09891292 0.25460804 -0.19826029
0003f0 ff c8 42 bd 83 5c 15 bd 64 79 33 3d 12 15 94 3c
       -0.047554966 -0.03646518 0.04381694 0.018076453

net.0.grid_points f4 [5]
000000 00 00 00 c0 00 00 80 bf 00 00 00 00 00 00 80 3f
       -2.0 -1.0 0.0 1.0
000010 00 00 00 40
       2.0

net.2.coeff f4 [64, 64, 5]
000000 82 34 aa 3c 3d b6 aa bc c8 c0 17 be 24 e0 b3 bd
       0.02077699 -0.020838851 -0.14819634 -0.08782986
000010 6b 49 76 3d 0f b1 94 3e f6 77 dd bd 0e c6 4a be
       0.06012861 0.29041335 -0.10813896 -0.19802114
000020 95 46 27 be 56 7d ab bd 7b ec 5e bc 5f ed 87 bd
       -0.16335519 -0.08373515 -0.013606186 -0.06637072
000030 c6 59 03 3e 94 7f b4 bd 5f f8 aa 3a d1 d3 d9 3d
       0.12827215 -0.08813396 0.0013043991 0.10636104
000040 5e 0b 8c 3b 60 90 6a bd 57 f2 4c be d4 05 f2 3c
       0.004273816 -0.057266593 -0.2001432 0.029543795
000050 3c c8 05 3e af 75 e3 3d 88 88 a9 3d 55 a8 d7 bd
       0.13064665 0.11106431 0.082779944 -0.10530154
000060 d9 db eb 3d fc 8e af bd c2 6e 53 3d d9 2b a9 bc
       0.11516542 -0.08572194 0.0516193 -0.020650791
000070 4b d8 b2 3d 44 14 2d 3d 26 08 0c bd fa 88 2b 3e
       0.08732661 0.042255655 -0.03418746 0.16751471
000080 f0 4b 96 bd 80 82 be 3d 58 b7 7f 3d 08 04 11 3d
       -0.07338703 0.09302235 0.06243071 0.035404235
000090 ba 9a 3e bd 76 df 5b bd d8 94 e8 3d f8 af e2 ba
       -0.046534277 -0.053679906 0.11356515 -0.0017294874
0000a0 a2 d6 b4 bd 57 c9 ea 3d be c6 22 be a6 33 b2 bd
       -0.088300005 0.11464184 -0.15896127 -0.087012574
0000b0 da 25 95 bd b9 59 36 bd 1e 61 d8 3d 0d b3 af bc
       -0.0728261 -0.04451916 0.10565399 -0.021447683
0000c0 2a e1 e2 3d 78 ec f8 bc 4a 49 91 bc 3d f4 77 3d
       0.11078103 -0.030386195 -0.017735142 0.06053566
0000d0 97 22 ab 3d 83 b5 48 3c 4c 85 f0 bc 3c 7f ff 3c
       0.08356207 0.012250307 -0.029360436 0.0311886
0000e0 4d 8c cd 3c 39 34 80 bd d7 51 9b 3d 09 e4 e3 3c
       0.025091315 -0.06259961 0.07583969 0.027818697
0000f0 96 41 6c bd 51 73 06 be 6b 43 c9 bd 00 f7 89 bb
       -0.057679735 -0.13129927 -0.09827312 -0.004210353
000100 5b f6 33 bd fe d4 3f bb da 08 db bc bf a4 39 3c
       -0.043936115 -0.002927124 -0.02673762 0.011330782
000110 d1 d6 30 bd 2d 08 98 3d 08 5b 65 bd be f5 ea 3b
       -0.043173615 0.074234344 -0.055995017 0.007170408
000120 bb 62 8f bd 9e 79 c5 bd d9 ea 79 3e 0a b1 a3 bd
       -0.07001253 -0.09642337 0.24405994 -0.07992752
000130 e7 11 5c 3e 1c c4 86 3d 9e 11 30 bd 88 24 95 bd
       0.21491204 0.06580374 -0.04298555 -0.072823584
000140 78 9e 43 3d 56 c4 90 bd b6 ed 25 3c 49 b9 9b 3d
       0.04775855 -0.07068698 0.0101274755 0.076037
000150 af 6f f4 bd 37 64 82 be 33 f7 11 bd d3 5e fa bc
       -0.119353645 -0.25467083 -0.03563614 -0.030562794
000160 bc 82 9d 3d 3e 03 cc bd 5b 22 3b 3d d9 d7 43 bd
       0.07690951 -0.09961556 0.04568706 -0.04781327
000170 0a 75 11 be e8 f2 34 be f0 1e a8 bd a0 6c 13 bd
       -0.14204803 -0.17670786 -0.08209026 -0.035992265
000180 b7 9e 75 3d d6 51 83 bd f9 67 d9 bd 9b 1e b4 bb
       0.059965815 -0.06412093 -0.10615534 -0.0054968125
000190 ed 5a 08 3e 8f 01 54 bd 68 c0 35 3d 8c e2 f3 bd
       0.13315935 -0.0517593 0.044372946 -0.11908445
0001a0 a2 a8 8d 3b 04 e0 37 bc c1 d6 c2 3c e4 af 0b 3e
       0.004323081 -0.011222843 0.023784043 0.13641316
0001b0 26 8d 1f 3d d7 ac 38 3d e4 e6 c3 bd 3a 6b 2e 3c
       0.03895297 0.045086708 -0.09565523 0.010645682
0001c0 03 02 77 bc b2 ef 6c 3d fc a5 5d 3d 68 67 0d be
       -0.015076163 0.05784578 0.054113373 -0.13808978
0001d0 43 14 44 3b 25 47 fe bc 25 59 1d 3d 12 ce 0a 3e
       0.0029919303 -0.031039784 0.038415093 0.13555172
0001e0 a0 3f 87 bc b0 9f 8f be 4f 71 bb 3c 8f 74 72 be
       -0.016509831 -0.2805152 0.022881178 -0.23677276
0001f0 4e c5 96 3d 8c 86 b9 3d db 63 1f be 4e b1 01 3b
       0.07361852 0.09058866 -0.15565436 0.001978952
000200 6c 77 69 be 4c 33 4a 3d 06 6b db 3d 21 30 78 bd
       -0.22799462 0.049365327 0.107137725 -0.060592774
000210 ed 66 2a 3d a8 1b 00 be 8a be 14 bc 9d 52 bf bc
       0.041602064 -0.1251055 -0.009078631 -0.023354823
000220 91 18 2b bd 7c f2 22 3d 11 1e 1b be 04 4c 05 3e
       -0.041771475 0.039782032 -0.15148188 0.13017279
000230 31 fb 20 bd 4a 1e ce 3d 65 5c ca 3d a5 e8 d1 bb
       -0.039302055 0.10064371 0.09880904 -0.006405907
000240 a8 38 4d 3c d8 96 a8 3c 17 71 df bd 2d 99 ac 3d
       0.012525715 0.02057974 -0.10910242 0.084276535
000250 84 30 20 3e 8f 4f c9 3b 66 82 cf 3d a9 aa 79 bd
       0.15643507 0.0061435173 0.101322934 -0.06095377
000260 cc 54 87 3d c3 78 06 3c 55 d8 ab bd 38 04 d3 3d
       0.066079706 0.008207503 -0.083908714 0.10303539
000270 e3 d6 10 bd e6 a9 00 3d 29 2a d7 3d d7 cd cb bb
       -0.035361182 0.031412028 0.10506088 -0.0062196064
000280 0e d8 08 3d 11 8d 0d 3c 90 f6 36 3d 7b 1a 18 bc
       0.03340917 0.00863959 0.044668734 -0.009283657
000290 19 a9 0b be 02 46 18 be 48 27 d0 3c c8 e4 80 bd
       -0.13638724 -0.14870456 0.025409356 -0.062936366
0002a0 95 24 1c 3d 34 66 d4 3d 53 b0 3d 3c 63 a3 bb 3c
       0.038120825 0.10371056 0.0115776835 0.022905057
0002b0 ff a8 20 be 85 3b 90 bb aa 94 c8 bd ba f8 a5 3d
       -0.15689467 -0.0044016265 -0.097939804 0.081040815
0002c0 52 6e f6 3d 28 87 66 bd f1 1b 0e bd 1d 40 2d 3e
       0.12032761 -0.05628124 -0.034694616 0.16918989
0002d0 5e b5 a3 3c 60 73 02 3e 64 09 8d bd af 4a 84 bd
       0.019983944 0.12739325 -0.06886557 -0.06459557
0002e0 66 25 d6 3d 4b 78 e5 3d a0 87 1e be a2 9c 07 be
       0.10456352 0.11204585 -0.15481424 -0.13243344
0002f0 58 8e f3 bb ab d0 55 bd 96 5f 25 be 81 2e 5c bd
       -0.00743274 -0.052200954 -0.16149744 -0.053755287
000300 fa b5 04 be 0c 35 be 3b fb e6 5f bc ec 8c 8b bd
       -0.12960044 0.0058046635 -0.01366591 -0.06813988
000310 87 08 dd bd 4a 09 35 be f0 81 49 3e d8 22 71 3d
       -0.10792642 -0.17679325 0.19678473 0.05887112
000320 c1 b5 a4 3d a8 a2 d6 bd 9b e3 5e 3c 57 b8 97 bd
       0.08042479 -0.10480243 0.01360407 -0.07408207
000330 a9 d7 d6 3d 4f c8 be 3d 93 bd 7a bd 2b 1e 81 bd
       0.10490353 0.093155496 -0.06121595 -0.06304582
000340 da eb 15 3b 9b b7 93 3c 03 5b d2 bc 60 52 87 3d
       0.0022876174 0.018031886 -0.025678163 0.06607509
000350 45 6a 01 3e 5d a2 12 3e 94 97 ac bd d0 7a a4 bd
       0.12638195 0.14319749 -0.08427349 -0.08031237
000360 a8 cc 8f 3e 3b 1a 0f bd 5a 46 ae bd b8 3f e1 bd
       0.28085828 -0.034937125 -0.08509512 -0.109984815
000370 b0 e5 2d 3e 63 4b 63 3c 92 47 76 3e 94 f2 be 3d
       0.1698215 0.013872954 0.2405074 0.09323612
000380 21 10 10 bc 42 15 bd 3d d1 71 b7 3d 52 35 d2 bb
       -0.008792908 0.0923257 0.08957256 -0.0064150477
000390 69 ac b5 3d 8c 52 52 3c de f6 6d 3c 4f 45 7c bc
       0.08870775 0.0128370635 0.01452419 -0.015397384
0003a0 31 ce 82 bc 26 b4 09 be f7 21 a2 bc 70 48 47 3e
       -0.01596746 -0.13447627 -0.019791586 0.19461226
0003b0 71 85 0c be 7e 78 ed bc 17 bf c7 3d 64 b1 d1 3c
       -0.13722779 -0.02898812 0.09753244 0.025597282
0003c0 13 2f 40 3d d5 35 52 3d 6e 7a 2d bc fa 58 f8 bb
       0.046919893 0.05132087 -0.010588272 -0.007578966
0003d0 79 f4 58 bd d0 a0 54 3c d5 1a 64 3c 63 3a a0 3d
       -0.052967522 0.012977794 0.013922413 0.078236364
0003e0 ff f9 08 be bd d5 3a bd d0 1e 3c bc 04 ff 34 3e
       -0.13376616 -0.045613993 -0.011481956 0.17675406
0003f0 76 b2 10 3e aa dd 84 bc 87 9e b5 bd c1 ca 65 bc
       0.14130577 -0.016218979 -0.08868127 -0.014025391

net.2.scale f4 [64, 64]
000000 cd d9 82 3f e5 f6 82 3f d8 66 81 3f 30 2b 83 3f
       1.0222718 1.0231596 1.010951 1.0247555
000010 71 80 7b 3f e3 77 7b 3f ec 71 82 3f 76 60 80 3f
       0.9824286 0.9822981 1.0191016 1.0029438
000020 e7 a8 82 3f f6 9b 78 3f b8 22 7a 3f 63 da 82 3f
       1.0207795 0.9711298 0.97709227 1.0222896
000030 96 39 83 3f 2a 10 7c 3f 8d b2 82 3f c7 0d 7a 3f
       1.0251949 0.98462164 1.0210739 0.9767727
000040 03 49 7b 3f b7 78 7c 3f c0 0f 83 3f 2b c6 82 3f
       0.9815828 0.98621696 1.0239182 1.0216726
000050 90 9f 7c 3f a4 23 7a 3f 66 a1 7e 3f d4 fa 81 3f
       0.98680973 0.97710633 0.99465024 1.0154672
000060 e2 75 82 3f d1 56 81 3f 87 b7 7e 3f 3c 02 7f 3f
       1.0192225 1.0104619 0.9949879 0.99612784
000070 59 0b 7a 3f bb 56 79 3f cf 3d 7a 3f 02 8a 7a 3f
       0.97673565 0.97397965 0.9775056 0.97866833
000080 b4 39 7a 3f e2 d1 83 3f cc e7 82 3f ce 7d 83 3f
       0.977443 1.0298426 1.0226989 1.0272768
000090 89 01 82 3f a4 a4 83 3f 32 f9 82 3f ee 1c 83 3f
       1.0156718 1.0284619 1.0232298 1.0243204
0000a0 c6 58 7e 3f c0 f4 82 3f 83 d1 7d 3f e1 0c 7f 3f
       0.9935421 1.0230942 0.99147815 0.99629027
0000b0 4b 29 7a 3f 19 48 7a 3f 31 9b 83 3f 39 d1 82 3f
       0.9771926 0.9776626 1.0281736 1.02201
0000c0 87 39 7c 3f e6 2a 7c 3f e6 4c 79 3f b5 04 83 3f
       0.9852528 0.9850296 0.9738296 1.0235811
0000d0 34 66 7a 3f 56 46 7a 3f 75 b7 79 3f 2e a3 80 3f
       0.978122 0.97763574 0.9754556 1.0049798
0000e0 47 12 83 3f 23 22 7d 3f 2b f6 79 3f bd 8e 7d 3f
       1.0239953 0.98880213 0.9764125 0.99045926
0000f0 15 14 7a 3f 0b 28 83 3f a4 50 7a 3f 2a 07 7f 3f
       0.9768689 1.0246595 0.977793 0.99620306
000100 64 19 7d 3f 76 0e 81 3f c8 77 82 3f 4a 2a 80 3f
       0.9886687 1.0082538 1.0192804 1.0012906
000110 2b 9a 81 3f 0a 3f 81 3f 99 01 7c 3f fa b0 7f 3f
       1.0125173 1.0097363 0.9843994 0.9987942
000120 59 43 81 3f 17 78 7e 3f 43 7c 81 3f 5d 6f 81 3f
       1.0098678 0.9940199 1.0116047 1.011211
000130 f3 2d 81 3f d6 67 7d 3f 5e 54 82 3f b9 73 7d 3f
       1.0092148 0.98986566 1.0181997 0.99004704
000140 a5 92 81 3f 3b 28 81 3f 94 7a 81 3f a0 aa 7d 3f
       1.0122877 1.0090402 1.0115533 0.9908848
000150 4d b0 80 3f 60 4e 81 3f 3b 10 81 3f c4 6e 81 3f
       1.0053803 1.0102043 1.0083078 1.0111928
000160 7d 85 81 3f bb a7 7d 3f 42 6b 7e 3f 45 96 7d 3f
       1.0118862 0.9908406 0.9938241 0.9905742
000170 9b 40 81 3f af d2 80 3f 51 cc 80 3f e7 dc 7f 3f
       1.0097841 1.0064296 1.0062352 0.99946445
000180 b2 1a 7d 3f 11 db 7c 3f 61 e5 80 3f e3 d4 7b 3f
       0.9886886 0.9877177 1.0070001 0.98371714
000190 a1 6b 81 3f 55 07 81 3f 33 61 81 3f 49 ed 7c 3f
       1.0110971 1.0080363 1.0107788 0.9879957
0001a0 46 97 80 3f f3 7d 81 3f d6 3b 81 3f 53 1a 7d 3f
       1.0046165 1.0116562 1.0096385 0.9886829
0001b0 9b 57 7d 3f 45 00 7e 3f 4d 01 82 3f f5 59 81 3f
       0.989618 0.9921916 1.0156647 1.0105578
0001c0 f3 93 7e 3f ed c2 7c 3f 4c c8 7d 3f 51 31 7f 3f
       0.994445 0.98734933 0.99133754 0.99684626
0001d0 9a 4a 81 3f c6 13 7d 3f 76 05 81 3f 5c 45 80 3f
       1.0100892 0.98858297 1.0079792 1.0021167
0001e0 92 b2 7d 3f c1 81 7d 3f ab 11 81 3f 8a 8f 7e 3f
       0.991006 0.99026114 1.0083517 0.99437773
0001f0 a5 36 7d 3f 45 af 81 3f a0 4f 81 3f 1c e3 7c 3f
       0.98911506 1.0131613 1.0102425 0.9878404
000200 79 94 7f 3f ea c6 7c 3f 32 f9 7c 3f b7 7a 80 3f
       0.99835926 0.9874102 0.9881774 1.003745
000210 bf 6b 80 3f d9 58 80 3f 78 26 7d 3f e2 13 7f 3f
       1.0032881 1.0027114 0.98886824 0.99639714
000220 09 31 7e 3f 8d 34 80 3f 1a 4d 80 3f 10 8b 7f 3f
       0.9929357 1.0016037 1.002353 0.9982157
000230 b0 73 7e 3f d9 c6 7f 3f 41 8a 82 3f a1 c8 7f 3f
       0.99395275 0.9991279 1.0198442 0.9991551
000240 4d 06 7f 3f 6a b5 80 3f 6c 2e 7f 3f a1 90 7f 3f
       0.9961899 1.0055363 0.9968021 0.9983006
000250 fd af 7e 3f 1f 84 7f 3f 28 f6 7f 3f 22 21 81 3f
       0.99487287 0.99810976 0.9998498 1.0088236
000260 02 5f 80 3f 4c 1a 80 3f 1e 2b 7e 3f 66 d4 7c 3f
       1.0028994 1.0008025 0.9928454 0.98761594
000270 7b 9f 7f 3f 99 d1 80 3f 91 38 81 3f 2e 20 7f 3f
       0.9985272 1.0063964 1.0095388 0.9965848
000280 0d 09 81 3f 5d 87 7d 3f 86 42 7d 3f 50 8c 7e 3f
       1.0080887 0.9903467 0.9892963 0.9943285
000290 59 15 80 3f 72 61 80 3f d1 40 7b 3f 25 57 82 3f
       1.0006515 1.0029738 0.98145777 1.0182844
0002a0 de 2a 80 3f 28 12 80 3f 6f e7 7e 3f 0e fd 7f 3f
       1.0013082 1.0005541 0.9957189 0.99995506
0002b0 d5 40 7d 3f eb c4 80 3f fa f2 7f 3f 78 4e 80 3f
       0.9892705 1.0060095 0.9998013 1.0023947
0002c0 2b ca 7a 3f c3 4d 80 3f 70 85 7f 3f 6f a8 82 3f
       0.97964734 1.0023731 0.99812984 1.0207652
0002d0 8e e1 7d 3f 2e 31 7e 3f 64 44 80 3f 46 30 81 3f
       0.99172294 0.9929379 1.0020871 1.0092857
0002e0 d5 4a 7f 3f 0e d8 82 3f 81 5e 7d 3f b8 95 7f 3f
       0.9972356 1.0222185 0.98972327 0.9983783
0002f0 28 1b 80 3f 72 54 7f 3f fd 73 7d 3f e1 92 7f 3f
       1.0008287 0.9973823 0.9900511 0.99833494
000300 3d a0 7c 3f c9 0b 80 3f 95 8c 81 3f 07 04 7f 3f
       0.98682004 1.0003597 1.0121027 0.9961552
000310 1f bc 7e 3f 91 b6 81 3f 16 99 7a 3f 26 bb 81 3f
       0.995058 1.013384 0.9788984 1.0135238
000320 ab 85 81 3f de 3c 7e 3f a5 ae 7f 3f 16 d0 7d 3f
       1.0118917 0.99311626 0.9987586 0.9914564
000330 2c ae 7b 3f 4a 52 7f 3f aa 8b 80 3f 19 72 80 3f
       0.9831264 0.9973494 1.0042622 1.003482
000340 bc 5c 7a 3f f2 4b 80 3f 57 45 80 3f c3 b9 81 3f
       0.9779775 1.0023177 1.0021161 1.0134815
000350 48 6e 80 3f e2 31 7f 3f 7c a1 7f 3f 5b cd 80 3f
       1.0033655 0.9968549 0.9985578 1.006267
000360 8b df 80 3f ce 96 7f 3f d4 52 7e 3f 95 01 7a 3f
       1.006822 0.99839485 0.99345136 0.97658664
000370 24 ed 7e 3f 9f 96 7f 3f 3f f2 80 3f c6 b2 7b 3f
       0.995806 0.99839205 1.0073928 0.9831966
000380 c3 39 7f 3f 47 0f 7d 3f 80 20 80 3f 10 58 80 3f
       0.9969751 0.98851436 1.0009918 1.0026875
000390 db 6d 82 3f 12 47 80 3f fb ad 7f 3f 88 f4 81 3f
       1.0189775 1.0021689 0.9987485 1.015275
0003a0 5f 0c 82 3f 26 61 80 3f 6d 38 82 3f 06 06 81 3f
       1.0160025 1.0029647 1.017347 1.0079963
0003b0 82 a6 7c 3f 73 c1 7f 3f 37 94 80 3f 89 9d 81 3f
       0.9869157 0.99904555 1.0045232 1.0126201
0003c0 55 15 7f 3f f0 cd 80 3f 1b ac 7a 3f 17 10 80 3f
       0.99641925 1.0062847 0.9791886 1.000491
0003d0 b3 0f 7a 3f fc 62 80 3f 33 a5 80 3f 68 e2 80 3f
       0.97680205 1.0030208 1.0050415 1.0069094
0003e0 70 13 80 3f 16 ff 80 3f b5 9a 80 3f b2 0c 80 3f
       1.0005932 1.0077846 1.0047213 1.0003874
0003f0 90 11 84 3f 12 d0 7f 3f e0 53 81 3f 6f 3b 7d 3f
       1.031786 0.99926865 1.0103722 0.98918813

net.2.base_weight f4 [64, 64]
000000 58 65 c8 3d f3 d9 16 3e 8d f9 2c be 7b 5d 21 3d
       0.09784955 0.14731579 -0.16892071 0.03939579
000010 65 42 9b bd 13 a7 0a 3d e3 3e 9b 3d 24 0c dc 3d
       -0.07581023 0.03385074 0.07580354 0.10744503
000020 cb 25 37 be f1 03 ed 3c d5 b0 72 bd 9b 52 fe bb
       -0.1788551 0.028932543 -0.05925067 -0.007761312
000030 9e 33 38 bd 66 2c a4 3c 55 c9 1c 3d 2a 8a bf 3b
       -0.0449711 0.020040702 0.038277943 0.005845328
000040 27 7d 5b be 0e 90 02 be f0 30 3d 3d 26 40 f6 bb
       -0.2143446 -0.12750265 0.04618925 -0.0075149713
000050 38 54 93 3d da ce 61 3d 92 d5 8b 3d a5 6e d9 bd
       0.07193798 0.05512891 0.06827845 -0.10616807
000060 13 f4 ce bd b3 d0 86 3d 0c fc 42 3c c6 ad 0f be
       -0.10105147 0.06582775 0.011900913 -0.14031133
000070 e5 43 42 bc db 28 7d bd cb 15 47 3d 39 fd 15 3d
       -0.011857008 -0.06180654 0.048604768 0.036618445
000080 30 a6 b3 3d 05 05 41 bd f4 3c d9 bd 9c f6 d2 3c
       0.08771932 -0.047123928 -0.10607329 0.025752358
000090 54 b2 b9 bd c6 21 36 bd 7b 95 71 bd ab a1 2d 3e
       -0.090672165 -0.044465803 -0.058980446 0.16956203
0000a0 b9 3b 8e bd 3e 5d d2 3c 47 71 0d bd 7c 68 8e bd
       -0.06944985 0.025679227 -0.034531858 -0.069535226
0000b0 af 67 93 3b 66 d2 d2 3d d8 80 bd bc fe d0 a6 3d
       0.004498444 0.102940366 -0.023132727 0.08145331
0000c0 2c 2f 9c 3e 1c 50 a8 3b 2a 3f 45 3d d8 cb db bc
       0.3050474 0.005136503 0.04815594 -0.026830599
0000d0 ca e0 eb bc ad b3 0a be ed 16 8a 3c 16 f7 86 be
       -0.028793711 -0.13545103 0.016856635 -0.26360387
0000e0 a9 67 1c 3d 2e b8 11 be 9e 2f 6e be 24 f9 aa 3a
       0.038184796 -0.14230415 -0.23260352 0.001304422
0000f0 1c ea 10 3e f7 ec 0e 3d 38 f6 55 3d bb 03 69 bd
       0.14151806 0.034893956 0.052236766 -0.056888323
000100 b0 10 cb bd ae 97 07 3e b9 d4 3f 3e 07 bc 65 bd
       -0.09915292 0.13241455 0.18733491 -0.05608752
000110 bf a2 1b 3d 6d 93 33 bd d6 76 e9 bd 45 68 2c bd
       0.037997004 -0.043841768 -0.11399619 -0.042091627
000120 e1 48 1a bd 7e a5 df 3d 5e bc 16 3e 0e 26 85 bc
       -0.03766716 0.10920237 0.14720294 -0.016253497
000130 95 ab af bb d6 56 e2 bd 6d e8 20 3a ad ff f4 3d
       -0.0053610303 -0.11051719 0.000613815 0.11962829
000140 cd 95 64 3d c7 ec 88 bd 2d 35 2a bd d8 b4 b4 3c
       0.055806924 -0.06685787 -0.04155462 0.02205889
000150 07 fc 69 3e b7 e1 4c be 28 3b ed 3d 08 4f a9 bc
       0.22850047 -0.20007978 0.11583549 -0.020667568
000160 1d 3d 61 3d 1f b9 7b 3d af 32 a1 3e b5 02 8b 3d
       0.054989923 0.061455842 0.3148398 0.06787626
000170 31 ec 69 bd be b0 4c bc 2d 70 f8 3c 4a cf 08 bb
       -0.057110015 -0.0124933105 0.030326927 -0.0020875507
000180 a8 6a 99 bd 3d de 2f bd 83 f4 e9 bd 4c 0a b5 bd
       -0.07491046 -0.042936552 -0.1142359 -0.088398546
000190 4a a6 49 3e d3 96 fd bd 30 4f 8d 3c 5c e9 91 bd
       0.1969234 -0.12382283 0.017249674 -0.07124588
0001a0 5f df c0 3b 5a bc c2 3c e5 01 19 3d 6c 8e 41 bd
       0.005886003 0.023771454 0.037355322 -0.047254965
0001b0 00 fd d6 bc eb 0c 82 3d 29 17 85 3d a7 ef 37 3d
       -0.026243687 0.0635012 0.06498558 0.044906285
0001c0 51 6a 4c bc 61 53 51 bd f0 79 6a be ae a8 85 bc
       -0.01247652 -0.051104907 -0.22898078 -0.016315784
0001d0 17 c3 7c 3c b5 dc b4 bd 03 a6 00 be 0f 8a c1 bd
       0.015427372 -0.08831159 -0.12563328 -0.09450161
0001e0 39 67 84 bd 61 65 bc 3d a4 75 27 be e7 f4 06 3e
       -0.06465001 0.09199024 -0.1635347 0.1317936
0001f0 6f 22 9f bc 5b f8 1b bd 70 ee 17 bd 78 d7 d7 bc
       -0.019425599 -0.038078647 -0.037092626 -0.02634786
000200 d0 c6 ca bd ac 5e ed 3a 3b 10 2d 3d 2c 76 74 3d
       -0.09901202 0.001810988 0.042251807 0.05968301
000210 99 86 50 3d 73 ab 9d bc f6 ee 17 3e b9 ce 2a 3d
       0.050909612 -0.019246792 0.1483725 0.041701052
000220 3e be b8 3d fb 82 1d be 09 ff de 3a 85 93 4b 3c
       0.09020661 -0.15381996 0.0017013262 0.012425308
000230 52 f3 71 3d fd 7b 7c bd 05 27 15 be 5e eb eb bd
       0.05906994 -0.061641682 -0.14565666 -0.11519502
000240 cb 0c a3 bd f9 05 ca bd 64 5a 98 3d 1b 56 9a 3d
       -0.079614244 -0.098644204 0.07439116 0.075359546
000250 27 8c 2a 3d 1a 3f 2b 3e cd 1b 8f 3c d5 a1 42 3d
       0.041637566 0.1672329 0.017469311 0.047517616
000260 fe ee ed bb 58 7b 66 3c 2a 2c b8 3d bf 5d dc 3c
       -0.007261156 0.014067493 0.089927986 0.02690017
000270 f4 d2 e5 3c b7 5c 32 bd 0d 66 03 3e 09 8c fa bd
       0.028054692 -0.04354545 0.12831898 -0.12233741
000280 e6 c8 0c 3c 79 72 28 3e a7 26 38 bd 61 ba 12 3e
       0.00859282 0.16449918 -0.044958737 0.1432891
000290 8a f5 d6 bd 6c ba 26 3e 6e 64 36 3d c6 b2 5f 3e
       -0.104960516 0.16282052 0.04452937 0.2184554
0002a0 6c 97 b9 3d 5f 57 2b be 51 97 3f be 15 09 27 3d
       0.090620846 -0.16732548 -0.18710066 0.040780146
0002b0 e0 ba c6 3d 37 ec 69 3b e9 40 b3 bb 0c 17 f5 3d
       0.09703612 0.0035693774 -0.0054703844 0.119672865
0002c0 a7 11 06 be dd 81 34 3e 67 15 4b be a3 43 95 bd
       -0.13092671 0.17627664 -0.19832383 -0.07288291
0002d0 7f 6f 65 bd 92 eb 9e bd 3e 9b 2b bd bf 70 5e be
       -0.056014534 -0.07759775 -0.041896097 -0.21722697
0002e0 5a 9b b1 3d c3 f0 56 3b 61 94 30 3e b3 2b 07 be
       0.08672209 0.0032797314 0.17244102 -0.13200264
0002f0 41 c3 8a 3d 40 26 46 bd c5 06 68 bc af 80 bc bc
       0.06775523 -0.04837632 -0.01416177 -0.02301058
000300 a7 a6 ca 3c 74 18 fe bc 59 f0 11 3e 4d b6 48 be
       0.02473767 -0.03101752 0.14251842 -0.19600792
000310 18 58 7e bd cf 6b dd 3d 1f 15 9f 3d 89 8c 7c bd
       -0.06209573 0.108115785 0.077677004 -0.061657462
000320 eb bc a5 bc d3 62 83 3b 84 52 3c 3e d8 34 48 3c
       -0.020231685 0.0040095835 0.18390852 0.01221963
000330 8f 01 0f bd c3 18 bf bd 30 d2 a5 3d d6 a0 65 3d
       -0.034913596 -0.09330895 0.08096731 0.05606159
000340 f2 14 71 bd ca ce 24 bd 73 6d 6e bd 3c 6b 56 3c
       -0.058857866 -0.040236272 -0.058209848 0.01308709
000350 9a 19 31 3c 34 2c 6e bd 6d be 7f bd 05 09 1c 3e
       0.010809327 -0.058147624 -0.062437464 0.15237816
000360 d7 88 22 bd 59 d9 87 3d 13 e0 54 bd 09 15 d9 bd
       -0.039681282 0.06633253 -0.051971506 -0.10599715
000370 81 03 15 3e f5 b0 f0 3d 4f 5c 32 be 20 93 78 be
       0.14552118 0.11752502 -0.17418025 -0.24274874
000380 36 9c 10 3b 36 ea 7c bd 7f 14 95 bd 73 04 dd 3d
       0.0022065765 -0.0617468 -0.072793 0.10791864
000390 48 fc 2d 3d e5 a7 59 be f0 45 4e 3d db 98 17 be
       0.042476922 -0.21255453 0.050359666 -0.14804403
0003a0 64 15 09 be eb 95 14 3d 32 9c b0 3c 6b 39 b7 3d
       -0.13387066 0.036275785 0.021558855 0.089464985
0003b0 92 48 0b 3b a1 a6 c3 bd 1a d2 8d bd ac 14 41 bd
       0.0021252972 -0.09553266 -0.06924839 -0.047138855
0003c0 4d c5 1d 3e 07 1e 95 3d 0e 5a 90 3d 91 07 ee 3d
       0.15407296 0.07281118 0.070484266 0.11622537
0003d0 cd 96 c6 3b 1b 34 ab 3d 1f fe 71 bc 98 42 81 3d
       0.0060604573 0.08359548 -0.01477006 0.0631153
0003e0 72 c7 24 3d 93 52 31 be 8a 80 47 bc d0 8b f0 bd
       0.04022927 -0.17316656 -0.012176642 -0.11745417
0003f0 52 f5 04 3e ae be ce 3b f8 14 2b bc 93 44 e9 bc
       0.12984207 0.006309352 -0.010442011 -0.028475082

net.2.grid_points f4 [5]
000000 00 00 00 c0 00 00 80 bf 00 00 00 00 00 00 80 3f
       -2.0 -1.0 0.0 1.0
000010 00 00 00 40
       2.0

net.3.coeff f4 [1, 64, 5]
000000 0c 56 4d bc b2 6c 4e bd dd d4 07 be be 09 1e bd
       -0.012532722 -0.05039663 -0.13264795 -0.03858351
000010 4f 94 c5 bd cb cb 2a be fd 43 db 3c 63 75 13 be
       -0.09647428 -0.16679303 0.026765818 -0.14400248
000020 01 04 05 bd e6 8d 59 bd fe 18 67 bd 96 57 04 be
       -0.03247452 -0.05311384 -0.05642032 -0.12924036
000030 a7 87 80 3d f0 04 c4 bc 18 36 8b 3e 9a d3 b5 bd
       0.06275874 -0.023928136 0.27189708 -0.088782504
000040 ca a5 d7 3b ab 3c 56 bd a0 7d 90 3e 31 82 5e be
       0.006581043 -0.05230395 0.28220844 -0.21729352
000050 7a a8 87 3e f0 f8 f2 3d a3 59 81 3e 64 6b 36 39
       0.26495725 0.11863887 0.252637 0.00017396879
000060 90 85 e2 3c 38 cf 16 3e 91 36 54 bd 0c c9 3b be
       0.027651578 0.14727485 -0.05180985 -0.18338412
000070 ad da 90 bb ce c9 0f bd 90 9c 6e be e3 db 9a 3d
       -0.0044205994 -0.035104565 -0.23301911 0.07561471
000080 a3 cd 6e 3d 0e c9 61 bd fc 7a 98 bd 55 16 27 3d
       0.05830158 -0.05512338 -0.074453324 0.04079278
000090 af 0a b6 3c de a7 72 3e 29 6d 8d bd 7a 52 0c 3e
       0.022221891 0.23696849 -0.06905586 0.13703337
0000a0 c6 5b 47 bd 67 63 45 bd d0 f6 b3 bd ef c1 75 3e
       -0.048671506 -0.0481905 -0.0878731 0.23999761
0000b0 b5 ae 81 bd dd 17 c7 bc 46 cd 08 be 81 d9 0b 3e
       -0.06332151 -0.024303371 -0.13359556 0.1365719
0000c0 c9 fd 05 be 13 df 57 bd 91 97 05 be 52 04 c9 bd
       -0.13085093 -0.052702975 -0.13046099 -0.09815277
0000d0 5b 16 5e bd bc 6e a9 3c bb 0f d7 3d c9 11 70 bd
       -0.05422054 0.020682685 0.10501047 -0.05861071
0000e0 8b 49 e3 bd a5 a7 92 3d 9c ac 68 3c c5 fd 95 bd
       -0.110980116 0.07160882 0.0142013095 -0.07323793
0000f0 7a 62 8c bd 7a dd d1 3d 8b ff e2 3d 97 61 ad bc
       -0.068547204 0.102473214 0.11083897 -0.021164699
000100 9b 36 91 bb c3 8e 85 3d 85 fa 89 bc 02 c9 01 be
       -0.0044315583 0.0652137 -0.01684309 -0.12674335
000110 e0 66 47 3d b6 c9 6d 3d 02 24 39 3d c3 57 28 3d
       0.048682094 0.058053695 0.045200355 0.04109932
000120 00 bf 2e 3c 20 d8 f8 3d 4c e2 f8 3c f8 bc 47 3e
       0.010665655 0.121505976 0.030381344 0.1950568
000130 8f f6 fc 3d 00 86 46 bd 1a 50 40 be 7c 0b 35 bd
       0.12351715 -0.048467636 -0.18780556 -0.044200405
000140 d3 58 f1 3d 29 a8 ca bd 54 8e bc 3c 3a f8 f9 3d
       0.1178452 -0.09895355 0.023017086 0.122055486
000150 4d 6a b9 3c 79 88 fd bd 23 c9 84 3d 59 aa 0e 3e
       0.022633696 -0.12379546 0.06483676 0.1393217
000160 02 9f 91 3d f6 6f e3 3d 7c a8 c1 3d f4 64 45 3c
       0.071104065 0.11105339 0.09455964 0.012047995
000170 1a bc 79 bd 00 91 02 3e 92 80 0f be 6b 4e b1 bd
       -0.060970403 0.12750626 -0.1401389 -0.08657535
000180 26 64 f2 3b 6c 59 74 3d df 7a 84 bd d9 ec 74 bd
       0.0073971925 0.05965559 -0.06468748 -0.059796188
000190 b2 fe dc bd 20 43 ac bd 6e c1 8b 3d 74 26 fa 3c
       -0.10790767 -0.084112406 0.06824003 0.030535914
0001a0 d4 74 d6 bc e0 9f eb 3d 77 bf a6 3d 5d 09 00 be
       -0.026178755 0.11505103 0.08141988 -0.12503572
0001b0 d5 ba a5 bd b9 ca e3 3d d1 63 9e bd fe 1c 76 bd
       -0.08092276 0.11122651 -0.07733882 -0.060086243
0001c0 43 53 f1 bd b3 75 80 3b e6 e5 2b 3b f2 1a 25 b9
       -0.11783459 0.003920281 0.002622956 -0.00015745664
0001d0 35 b7 36 3e 41 0e 4c bb 00 d9 21 3d 55 3d d7 3c
       0.17843325 -0.0031136426 0.039513588 0.026274363
0001e0 d0 77 13 be 01 bc 24 bd 24 66 14 be 9a 66 32 bd
       -0.14401174 -0.040218357 -0.14492089 -0.04355488
0001f0 45 4c 14 be 81 39 23 be 41 64 23 be 5a 0d bd 3c
       -0.1448222 -0.15939905 -0.15956213 0.023077656
000200 8a 3f df 3d 8e 01 a4 bc 85 8d 04 3e cc f3 09 3e
       0.10900791 -0.020020273 0.1294461 0.13471907
000210 28 ef 46 3e 0f 16 07 3d b1 3f 40 3e 40 2b 9d 3d
       0.19427168 0.03298002 0.18774296 0.07674265
000220 90 26 23 3d b1 79 8e 3d 2a 54 c8 bc 37 ee 1d be
       0.039831698 0.069568045 -0.024454195 -0.15422903
000230 b3 79 c0 bd bf c1 1c 3d 82 0d a4 bd eb 60 8d 3d
       -0.09398212 0.03827071 -0.08010389 0.06903251
000240 09 83 3c 3c a1 3e c4 bd d6 6f 14 be 3b e9 64 be
       0.011505851 -0.09582258 -0.14495787 -0.22354595
000250 3d 22 91 3d 45 0d e7 3b 23 cb c4 bd 9d b2 39 3d
       0.070866086 0.0070511424 -0.09609058 0.045336355
000260 5d 63 13 bd b6 77 15 3d 54 37 75 3d 81 45 31 bd
       -0.035983432 0.03649112 0.059867218 -0.043279175
000270 73 f9 1f 3e 85 6c b9 3d 4f 22 c8 bd 19 40 09 3e
       0.15622501 0.090539016 -0.09772169 0.13403358
000280 5f da e7 bd 1a 01 b3 bb 55 af ea bd 91 ff 60 be
       -0.11320948 -0.005462778 -0.11459223 -0.21972491
000290 2b cb 32 3d 08 d6 eb 3d 97 33 45 3d ea 63 9f bd
       0.043650787 0.115154326 0.048144903 -0.07782729
0002a0 4e ea 38 bc 2d 75 f7 bd 51 fb 49 bc f7 c8 8a 3b
       -0.011286331 -0.120828964 -0.012327985 0.0042353827
0002b0 1c f5 4c 3c 6c 6a 5c 3d 11 01 de 3d 49 36 e1 3d
       0.0125096105 0.05381243 0.10840047 0.10996682
0002c0 c3 30 a3 bd eb 44 72 3d 0e ab 35 be dc 60 16 3d
       -0.07968285 0.059147757 -0.17741033 0.036713466
0002d0 cb 5c 5a 3d 80 3a f0 3d 81 e1 d1 bb 25 b8 4d 3e
       0.05331115 0.11729908 -0.006405056 0.20089777
0002e0 ff 34 eb 3d 9d 8b 18 be a8 23 63 3d 95 cf 95 3d
       0.114847176 -0.14897008 0.055453926 0.07314984
0002f0 5b e0 02 3e 5f 60 2f be b9 d4 79 3c 26 43 90 3d
       0.12780897 -0.17126606 0.015248471 0.070440575
000300 98 f6 84 3d a0 25 2b 3e d3 36 07 3e a0 ec 27 3e
       0.064923465 0.16713572 0.13204508 0.16398859
000310 a3 71 00 3e 88 d8 19 3e 30 ef 6c be 54 66 56 bc
       0.12543349 0.15024006 -0.23138118 -0.01308592
000320 6e a7 b8 bd 8e a5 ca 3d bb 54 e3 3c 4b 0e c3 3b
       -0.0901631 0.09894858 0.027750364 0.0059526316
000330 30 4f f2 bd 9a 6f 43 3b 39 56 ca bd d5 bc 74 3d
       -0.1183151 0.0029821158 -0.09879727 0.059750397
000340 2f 6b 2f bb 8d 51 ca 3c d5 01 22 3d 6f ec 29 bd
       -0.0026766767 0.02469709 0.03955253 -0.041485246
000350 1f 11 00 3e 3e f2 8c 3b 80 56 d4 bd 2e 53 75 3d
       0.12506531 0.0043013385 -0.10368061 0.05989378
000360 2d 8a b0 bd 98 dc 87 3c 66 e6 af 3d a0 fd a3 3d
       -0.08620105 0.01658468 0.08588867 0.080073595
000370 56 26 0e be 43 c2 cf bd a9 62 11 bb 16 ed ba 3c
       -0.13881811 -0.10144474 -0.002218405 0.02281813
000380 4d db c4 bc 3c 45 a6 bd 88 c7 25 3e 8a 61 09 3d
       -0.024030352 -0.08118674 0.16189396 0.033540286
000390 f9 ca 0a be 41 ce ac bd 70 cd 4b 3e 0a 64 89 3d
       -0.1355399 -0.08437777 0.19902587 0.06708534
0003a0 5d cd 0e 3e c8 ef 21 3d 05 06 a9 bc c9 5f f0 3d
       0.13945527 0.039535314 -0.020632753 0.117370196
0003b0 6e f5 78 bd b4 7e e4 bc 0b ec ce bc 27 4b 0c bd
       -0.060780935 -0.027892448 -0.025259038 -0.03425136
0003c0 de 6e 0d 3d 53 84 09 be 49 ec 95 3c a0 d5 52 3e
       0.03452956 -0.13429384 0.018301146 0.20589304
0003d0 14 05 1e bd e4 72 4e 3d c7 d0 21 be cc 65 ef 3c
       -0.03857906 0.050402537 -0.15802298 0.029223345
0003e0 53 85 40 ba 64 47 7a 3c 5b 96 31 3d ae cd 06 be
       -0.00073440856 0.01527581 0.04335628 -0.13164398
0003f0 af 86 52 3c ab 11 04 3d dd 53 1c be 86 f3 01 be
       0.012849494 0.032243412 -0.15266366 -0.12690553
