data/trained_models/base_mu1_b_snn.pth (torch, 118778 bytes, 5 tensors)

fc1.weight f4 [64, 374]
00000000: 316b 10bd 0cfb 443c d0e8 b3bc bd1d ecbc
00000010: ce1a ff3c 7de6 8f3c c577 253d 53df 2e3a
00000020: 43f6 ae3c 3b30 86bb 90d5 403d 11b6 0f3d
00000030: eb9a 533d 66e8 fdbc 20e2 f03c 3055 853d
00000040: 11dd 143d 4b87 ef3c f69c f2bb 792b 6ebd
00000050: 2d4d 03bd da3c 223c b8b0 35bd 3999 bfbb
00000060: 872a e6bc 586e d2bc b894 35bd 4837 953b
00000070: 5d76 10bd 42e9 753c b17b 223d 0580 4c3d
00000080: 8d80 683d 3759 42bd c416 43bd 90b3 52bd
00000090: 1743 cabb 8324 1f3d dfe7 903c 86a1 6f3d
000000a0: 71f3 d93c 0ef3 bfbc a11a 353c 9d42 70bd
000000b0: 5f3c 3e3c b3c4 2cbd a486 0bbd a19d 4ebc
000000c0: 905b 4037 a231 2abb 12b9 bf3b 96f7 84bc
000000d0: 39e3 f1b9 f123 1bbd 7b9d 71bd 6102 293c
000000e0: e01f 4dbd b25e 283d 4ecb 66bc 08e3 9d3c
000000f0: 9b4c 4a3d b24e 263c c844 3ebc 4290 1dbc
00000100: 585f 19bd e0de 463d fd26 27bc b97a d03c
00000110: 4155 41bd cbff 043d 5f92 abbc 812e 20bd
00000120: 8ef2 37bc 62e0 87ba c93f d1bc 3bec bfbc
00000130: 410d 53bd ebdc 6cbc 4cdb f83c f0ac 43bd
00000140: ac5b 40bc fb7f 99bc 1060 fa3c e635 3b3c
00000150: 28fb 48bd 4228 aebc 2a65 1b3c 006b 66bd
00000160: 26ab a3bc 589c 9a3c 924b 2a3b e68a 63bc
00000170: 2ec3 c9bb cb59 083d 983a 9d3c 6e36 3ebc
00000180: b5be 303d 6679 df3b a978 0f3d 0228 30bd
00000190: c34b ad3a 421c 19bc 2329 80bb 2d83 353d
000001a0: 505f 1ebc 53b1 bcbc f132 e03a 922a abbc
000001b0: 4832 c33c a99b 173d 3a6b 333b 8ab4 09bd
000001c0: 5ebd d63a c386 023d 63af 493d d41d adbc
000001d0: 204b f13c 9caf 573d 68a1 86bc 15ad 4ebc
000001e0: b669 84bc 8c49 61bc 8de5 1dbd 82d3 0f39
000001f0: 5b43 413d f6fc 05bc 7e67 c33b 0eef 0dbc
00000200: cc68 babc 20f5 e13c 325e 3cbb 96a0 febc
00000210: d343 05bd 364e 40bc 3e5a 4f3a f593 23bd
00000220: 8249 38bc dd3b 1e3c d04e 2e3c 213d 203d
00000230: 0d03 84bc 2eff f43c 6def ac3b b153 f4bc
00000240: c45f 193d 00ea 25bd 4a0e b33b aa84 66bd
00000250: 4add 1e3d 761d 16bd a4ff c33c fb49 1b3d
00000260: a251 0bbc 89e5 b3bc 2bc4 e5bc 528d 19bc
00000270: 52fc 0bbd 89e9 d03c 4261 69bc 2e50 183c
00000280: 10bf 41bd 7a5b 0bbd 21da 4fbd d23e b0bc
00000290: 8305 1abc 62e7 283d a181 dcbc 0e12 12bd
000002a0: 581c e23c 8a13 8cbc 98aa c83c d810 c63c
000002b0: 2206 5fbc f9e8 483d be7e 7bbc 41a7 273d
000002c0: a7c9 4c3d b346 9c3c 1c4d 2fbc 0c6c b43c
000002d0: 7930 033d ced3 2abd ea31 b63b f868 31bd
000002e0: d591 373d 57cc aebc 5ff1 043d 5223 0ebd
000002f0: 16c1 3b3c a81c f6bc 2022 e43c 5ff4 39bd
00000300: 5113 cbbc c92e 313d fb00 e8bc e614 35bd
00000310: ead6 0e3c c988 003d efc8 563d 10a1 23bd
00000320: d6d2 db3c 4635 8e3b 5272 7a3c 6b4c 233d
00000330: 769c d83b 8e33 6d3d 1bbe 3ebd 0a90 183d
00000340: 03a0 3fbd aee0 53bc 191b 93bc f589 303d
00000350: 60d0 903c e187 59bc 31d9 66bd 46db 443c
00000360: 0970 133d 570d a3bb ed5a d13a 0ad5 1dbd
00000370: 4f04 a13c 7d2d bc3c 062d 223d d489 54bd
00000380: 650d 0bbd ebe9 0e3d d9c3 49bd 60b4 9e3c
00000390: 03fe a4bc 0e12 383c efae 60bd 278d 3f3d
000003a0: 1bfa 583d 376d 283d 7e03 743a 5bfd 1d3b
000003b0: 12bd 2a3d 4bb9 09bd a565 003d f1b7 e7bc
000003c0: 2427 d5bc bd9c c73c 1859 75bc ab7b ecbb
000003d0: 37df df3c 9c6a 0cbd 637d a8bc cc36 a53c
000003e0: 84cc f8bc b8b0 033c 890d 33bd 1302 293d
000003f0: f0d6 0bbd 3cf8 26bd 0c30 dd3c 675c 4f3d
-0.035258476 0.012022745 -0.0219616 -0.028822774 0.031140711 0.01756596 0.040397424 0.0006670851
0.021357661 -0.004095105 0.04707867 0.03508574 0.051661413 -0.030994605 0.0294047 0.06510389
0.036343638 0.029239317 -0.007403965 -0.058146928 -0.032056022 0.009902203 -0.044357985 -0.005847123
-0.02809645 -0.025687382 -0.044331282 0.004553709 -0.03526913 0.015009226 0.039668743 0.049926776
0.05676322 -0.047448363 -0.047629133 -0.051440775 -0.0061725485 0.03885318 0.01768869 0.05850365
0.02660534 -0.023431327 0.011053712 -0.058657277 0.011611073 -0.042179774 -0.03406395 -0.012610824
1.146541e-05 -0.0025969525 0.0058509195 -0.01623134 -0.00046136396 -0.037876073 -0.058988076 0.010315509
-0.050079226 0.041105933 -0.014086558 0.019273296 0.049389463 0.010150598 -0.011613078 -0.009616913
-0.037444443 0.048552394 -0.010202167 0.025449144 -0.047200445 0.032470506 -0.020943819 -0.03910685
-0.011227263 -0.0010366554 -0.02554311 -0.023428073 -0.05152631 -0.014456968 0.030378006 -0.047772348
-0.011740606 -0.018737784 0.030563384 0.011426425 -0.049067646 -0.02125943 0.009484569 -0.056254387
-0.01997907 0.018873379 0.0025984985 -0.013888096 -0.0061573004 0.03328876 0.019192979 -0.011609657
0.043150622 0.0068198917 0.03502718 -0.043006904 0.0013221431 -0.009345116 -0.003911154 0.044314552
-0.009666279 -0.023033774 0.0017105025 -0.020894323 0.023827687 0.037013683 0.0027377144 -0.03361944
0.001638334 0.0318668 0.049239527 -0.021132387 0.029454768 0.05265771 -0.016434386 -0.012614508
-0.016163688 -0.013750445 -0.038548995 0.00013716336 0.047183376 -0.008177986 0.005963265 -0.008662952
-0.02275505 0.027582705 -0.0028742668 -0.031082433 -0.032535385 -0.011737397 0.00079098705 -0.039936025
-0.011247994 0.009657827 0.010638908 0.039120797 -0.016114736 0.029906835 0.005277565 -0.029825063
0.037444845 -0.040506363 0.00546435 -0.056278862 0.038785256 -0.03664919 0.02392561 0.03791235
-0.0085033495 -0.021960037 -0.028047642 -0.009372072 -0.03417618 0.025501983 -0.0142443795 0.00929646
-0.047301352 -0.034022786 -0.050745133 -0.02151433 -0.009400728 0.04123629 -0.02691728 -0.03566175
0.027601406 -0.01709916 0.024495408 0.024177954 -0.013612302 0.049050305 -0.015350042 0.04093099
0.049997 0.01907668 -0.010699537 0.022024177 0.03202865 -0.0417059 0.0055601494 -0.043312997
0.04481681 -0.021337671 0.032456752 -0.034701653 0.0114596095 -0.030042961 0.027848303 -0.045399066
-0.024789484 0.04325751 -0.02832078 -0.044209383 0.008718232 0.03138045 0.05243772 -0.039948523
0.026833933 0.004339847 0.015286045 0.0398678 0.0066104485 0.057910495 -0.046568017 0.03724674
-0.04678346 -0.012931986 -0.017957257 0.043100316 0.017677486 -0.013277025 -0.056359474 0.0120151695
0.035995517 -0.0049759555 0.0015972533 -0.038533248 0.019655375 0.02297091 0.03959372 -0.051889256
-0.03394832 0.03489105 -0.04925904 0.019373119 -0.020140653 0.011234773 -0.05485433 0.046765473
0.052972894 0.04111978 0.00093083817 0.002410731 0.041684218 -0.033623975 0.031346936 -0.028285952
-0.02601964 0.02436673 -0.014974855 -0.007216891 0.027328117 -0.034281358 -0.020567602 0.02016773
-0.030370958 0.0080377385 -0.04371408 0.041261744 -0.034140527 -0.04076408 0.02700045 0.05062523

fc1.bias f4 [64]
00000000: f3eb dc3c 5c2f 30bd 77f6 eb3c 7e2a 653c
00000010: d9ee 4ebc 389c a43a 8623 adbb ef1b 393b
00000020: fe81 8abd 0d2b 5a3c 4f51 f43c ccff 863d
00000030: 69df 843c f2be 7b3c 3769 013d 6f69 25bd
00000040: 64d6 9cbc 3b69 59bc 1105 1b3d e241 a1bb
00000050: 5a7f 0d3d 2b8a 053d c1ae 343c d202 14bd
00000060: 7044 163c fa80 9abc 3aa5 12bd bf8d 0abd
00000070: 7794 18bd 7d0f 98bc 8fb7 b83c 2632 e73b
00000080: ed52 bc3a 7eb4 903d 2128 433c 3f8e 2fbc
00000090: 8eb3 643d f078 a43c 233a 08bc c34d 12bd
000000a0: cda4 693b fb79 853c 8ff4 7cbc 2239 48bc
000000b0: c6ae 09bd deff c93b fab2 e63a 75a4 f3bc
000000c0: e250 efbc ca20 813d d3a3 85bc 8bf4 c13c
000000d0: 3fb3 43bc 9511 03bd a540 8ebc 9f1d 26bd
000000e0: a66d 113d 5fb7 193d 6353 233d 4a7b 103d
000000f0: 7b8f 6d3c d960 d4bc 6f89 25bd 2578 90bc
0.026967978 -0.043013915 0.028804047 0.013987182 -0.012630188 0.0012558764 -0.0052837757 0.002824541
-0.06763075 0.013315928 0.029823927 0.06591758 0.016219812 0.015365349 0.03159448 -0.040383752
-0.019145198 -0.013269718 0.03784663 -0.004921184 0.03454528 0.03260247 0.011027993 -0.036135502
0.00917159 -0.018860329 -0.035802104 -0.033826586 -0.037250962 -0.018562073 0.022548465 0.0070555387
0.0014367976 0.07065676 0.011911423 -0.010715066 0.0558353 0.020077199 -0.008314642 -0.03571869
0.0035651207 0.016293516 -0.015439167 -0.012220653 -0.033613943 0.006164535 0.0017600947 -0.029741505
-0.029213373 0.06305082 -0.016313469 0.023676177 -0.011944591 -0.03199919 -0.01736481 -0.040555593
0.03550496 0.037528392 0.039874446 0.035273828 0.01449954 -0.025925087 -0.04041427 -0.017635414

fc2.weight f4 [64, 64]
00000000: 395d 453d dcdb b83b a746 08be 503d e8bd
00000010: dde7 9a3d 2ff7 d7ba cf9f b8bd f2e6 a4bd
00000020: 6631 043e 015a bdbb 4c8e bd3d d701 ad3c
00000030: cc72 d5bd 9591 0d3e 89ff eb3c 3eb9 19bd
00000040: aa28 b4bd 835b 823d 3551 4d3c c919 ebbd
00000050: 3fe8 0e3d 385f d7bc 05ff 053e c2cb 49bb
00000060: ddfb 923d e100 a7bd 3edd bbbd 316c 6d3d
00000070: 2843 b33c 1d9f 843d 26ec 03be ad91 f73d
00000080: 1862 4e3d 8534 0abe b51d b0bd 920f df3c
00000090: 9453 a73d 8f28 8a3c fba1 993d f530 c13d
000000a0: 0718 bd3d a90d 513d d67d bcbd afd6 e7bd
000000b0: 032a 963d 29e7 bebd a8f9 47bd 5a6c 833d
000000c0: c665 e3bd 246c 883c 201a cd3d eb65 cabd
000000d0: 71ad 35bd 7dd6 073e f6f1 ebbd f6bd 4cbd
000000e0: 51a8 aabd eee6 1f3d d406 dfbd 98a0 c33d
000000f0: 08cc b03d 84e9 e33d ea42 16bc 3ea6 e1bc
00000100: afb1 373d 763c d23d 7575 6e3d 6126 c23c
00000110: 314d 85bd 724f 453d c8ee 683d 04e1 c6bd
00000120: a49e d9bd 5d59 b33c dcdd ccbd 1fd6 a03d
00000130: aeb9 be3d 06e1 26bd 09ea 433d abb2 93bd
00000140: 8400 6e3d 5e30 c2bd 119b e83d 777c 97bc
00000150: 940d d9bd b20d 12be 443a 833c c2f9 913c
00000160: f88c 05bd 06be 09bd 1019 a33d 1592 02bd
00000170: 71bc 753d 016a c53d f99b 51bb 8806 893d
00000180: 928d a8bd c80c 5bbd 83a3 02be a24f b03d
00000190: 0523 ccbc abd3 1bbc 5064 7c3d 54d9 7a3c
000001a0: e782 29bd dd4d 44bd 44fe 83bd 486c 483d
000001b0: bb65 6a3d 9e6f 02be 89e9 d63d c9ee d33d
000001c0: 0fd1 9fbb 9907 c1bc 969e 83bd 5694 3ebc
000001d0: 0b7f cb3c 7a9b ad3d c234 93bc b4dd 973d
000001e0: 0d94 983d 4a72 6ebd 3e73 2b3d 23f0 13be
000001f0: da75 97bc 9a02 dbbd 84b7 70bd 7de7 fdbb
00000200: e666 343c 187e 663d 98c7 d7bb 2c7b adbc
00000210: 96bf 77bd 00c3 a1bd 262f e83d b74d d73d
00000220: fda0 813c 9b35 c1bd a9d7 823c ed8a 163e
00000230: f142 b8bd 996b ed3d 80ae 2a3b 9143 de3d
00000240: e18a a83d 56fc 43bd d1f5 0d3e 00f7 85bd
00000250: 8683 9fbd 2da4 b5bc 7d14 993a 69e7 35bd
00000260: 9fe5 b83d c956 cb3d 6a11 063d 3f55 cdbd
00000270: baa4 f3bd 51d0 bebd 319b d43d 00e7 4e3a
00000280: a1d7 c53d ffa8 9fbc 3679 e03d b088 b33d
00000290: 1b72 debc 3d82 65bd 23ea f33d 0113 103e
000002a0: b8e8 4a3c 5d69 3f3d a5d4 a1bd 1c72 a73d
000002b0: a283 a53d b521 82bd e43c 11be bc98 22bd
000002c0: 1f2e c23b 1f25 0ebe 82d8 86bd 7760 92bd
000002d0: b2bd 033e 7a3d a9bd 1f3b 1a3b 29eb ec3d
000002e0: bba3 bfbd dcba 253d 9e3e cebd ea6a c23d
000002f0: 2206 d63d 4348 d03d a1a8 bb3d 8f92 5ebc
00000300: 68d2 55bd 90ea 51bd 17d1 363d 6646 cf39
00000310: 3676 543d 0dd9 b33d c9f4 b83d 5212 1dbc
00000320: 772a cebd 0c62 55bb 2699 583d aa7c 963d
00000330: 3c65 53bd 9b65 3cbd 7ca9 a0bd a1d9 653c
00000340: 19ce 7d3d 5d5f d63d 9817 233d 8e45 d2bd
00000350: 6afe aabd aab7 803d 2d95 c23d 9de1 c1ba
00000360: 06cb 3b3d b030 dabd b0b4 c4bd ebac 2ebd
00000370: 5101 983d 25a4 083e 56b6 b23d af53 473c
00000380: ea9d cabd dfb2 1a3e 0d9c 693d 2d39 f43d
00000390: 0818 8c3d 5272 123e 3642 e4bd 99dd e33c
000003a0: ebd7 9c3d 552a 96bb f05d 44bd 3ebd b1bd
000003b0: d668 a63c 0358 4ebd 7e5d 1a3d 0458 0bbe
000003c0: c69a 073d a266 993d adef 7e3d bf3c 4d3d
000003d0: 19e6 bdbc b9f2 0e3d 93c6 9abd 4f86 a03c
000003e0: 2b04 04be 0207 c4bd ae5d 2dbe 3a61 48bd
000003f0: aeb5 123d f2e5 c2bd e8a2 013e f083 cb3c
0.048184607 0.0056414437 -0.13308202 -0.113398194 0.07563756 -0.0016476865 -0.09014856 -0.08051862
0.12909469 -0.0057785516 0.092556566 0.021119041 -0.104222864 0.13825066 0.028808372 -0.037530176
-0.087968186 0.06365111 0.012531568 -0.114795275 0.034889456 -0.026290521 0.13085563 -0.0030791615
0.07176945 -0.081544645 -0.09173058 0.057964507 0.021882609 0.06475661 -0.12883052 0.12088332
0.05038652 -0.13496597 -0.08599416 0.027229104 0.08170238 0.016865043 0.075015984 0.09433166
0.092330985 0.051038418 -0.09203689 -0.113202445 0.07332232 -0.09321434 -0.048822075 0.06417151
-0.11103396 0.016653128 0.100147486 -0.098827206 -0.04435486 0.13265415 -0.1152076 -0.04998585
-0.08332885 0.03903859 -0.10889974 0.09552115 0.08632666 0.11128524 -0.009171227 -0.02754509
0.044847187 0.10265438 0.058217485 0.023699941 -0.06508864 0.048171468 0.056868345 -0.09710887
-0.106259614 0.021893198 -0.10003254 0.0785334 0.09312759 -0.040741943 0.047830615 -0.072118126
0.05810596 -0.094818816 0.113577016 -0.018491967 -0.10598293 -0.14263037 0.016018994 0.01781929
-0.03260514 -0.033628486 0.07963765 -0.031877596 0.059994165 0.09639359 -0.0031983836 0.06690699
-0.082301274 -0.053478986 -0.12757687 0.08608939 -0.024919042 -0.009510915 0.061619103 0.015310604
-0.041384604 -0.04792582 -0.06444982 0.04893139 0.057225924 -0.12737891 0.10493762 0.10348279
-0.0048772166 -0.023563193 -0.06426732 -0.011632046 0.024840852 0.084769204 -0.017969493 0.074153334
0.074501134 -0.058214463 0.04185795 -0.14447074 -0.018488813 -0.106938556 -0.058768764 -0.007748543
0.011010861 0.056272596 -0.0065850727 -0.021176897 -0.060485445 -0.078985214 0.11337118 0.1051287
0.015823836 -0.094340526 0.015971975 0.14701433 -0.08997143 0.11592788 0.0026043952 0.10852731
0.08229614 -0.04784807 0.13863303 -0.06541252 -0.07788758 -0.022173012 0.001167908 -0.044410143
0.09028172 0.09928662 0.03273145 -0.10026025 -0.118966535 -0.09317077 0.10381163 0.0007892698
0.096602686 -0.019489763 0.10960619 0.087663054 -0.02715402 -0.056032408 0.119098924 0.1406975
0.012384586 0.04673134 -0.07901887 0.081760615 0.080817476 -0.06354085 -0.14183384 -0.03969644
0.005925908 -0.13881348 -0.06584264 -0.071473055 0.12865332 -0.08263679 0.0023533774 0.11568291
-0.09357401 0.040461406 -0.10070537 0.094930485 0.104503885 0.10170033 0.09163023 -0.013584747
-0.052202612 -0.051249087 0.044632997 0.00039534568 0.051870547 0.087816335 0.09031064 -0.009586887
-0.10066693 -0.0032559661 0.05288043 0.073479965 -0.051610216 -0.045995336 -0.078448266 0.014028938
0.06196413 0.10467408 0.039817423 -0.10267173 -0.08349307 0.06285031 0.09501109 -0.001479197
0.045847915 -0.10653818 -0.09604776 -0.042645376 0.07422126 0.13343866 0.08726184 0.012165948
-0.09893401 0.15107296 0.057033587 0.11924968 0.06840521 0.14301422 -0.11145441 0.027815627
0.076583706 -0.004582683 -0.04794115 -0.08678673 0.020313662 -0.050376903 0.037686817 -0.13607794
0.033106588 0.07490279 0.06224029 0.05010676 -0.023181008 0.034899447 -0.07557406 0.019595293
-0.12892215 -0.09571649 -0.16930267 -0.048920847 0.035817795 -0.09516515 0.126598 0.024843186

fc2.bias f4 [64]
00000000: 7563 423d 3eb3 f3bd 2491 823d d168 703d
00000010: 03e6 18be 3e10 46bc 5799 723c d3f4 3d3d
00000020: 7cc8 e3bb 3d98 b6bc 3c04 ce3d 2e0c a03d
00000030: 9730 a13c 1fed 55bd 827d f73d ada8 18bd
00000040: 4c98 0d3d f756 703c ba96 f33a 1e99 f6bd
00000050: 2aff 683d 79fb 493d 056d 373d 39f6 f73a
00000060: 0aab 1d3d 78bd c33b be31 de3d ee16 0e3e
00000070: cfba d2bd bedb 86bd eb33 b43d 01d0 a0bc
00000080: 8cb2 c43d cdb4 b43d bb22 0c3e 54d5 9f3d
00000090: d954 9cbc 826e 123e aee3 5a3d a266 c33d
000000a0: 66a6 4cbd a398 bc3d f48e 9d3c 3682 d8bd
000000b0: c2c8 b3bd 98ac 14bd 3930 02bd 2b94 8f3d
000000c0: 41ed c3bb 9b91 f5bd 3fae 133e 9992 1cbd
000000d0: 5083 9e3d fd08 963d b201 843d f7e6 aebd
000000e0: 2df8 c53d 21a0 9fbd ad5d 26bd 4f56 0b3e
000000f0: e882 413d 5f37 c13d c45e e43d d690 81bd
0.04745813 -0.11899422 0.063753396 0.05869371 -0.14931493 -0.012088833 0.014807067 0.04637606
-0.00695139 -0.02228939 0.100594014 0.07814823 0.01967649 -0.05222809 0.120844856 -0.037270237
0.03456907 0.014669172 0.0018584349 -0.120409235 0.05688397 0.04931209 0.044781704 0.0018917985
0.038493194 0.005973514 0.10849331 0.13875934 -0.10289537 -0.06584881 0.08798965 -0.019630434
0.096043676 0.088235475 0.13685124 0.07804361 -0.019083427 0.14299968 0.05343979 0.0954106
-0.049963377 0.09208801 0.019233204 -0.10571711 -0.08778526 -0.03629741 -0.03178427 0.07010683
-0.0059792106 -0.11990663 0.14421938 -0.038225744 0.077398896 0.07325933 0.06445636 -0.08540147
0.096664764 -0.07794214 -0.04061668 0.13607143 0.047243983 0.09434389 0.111508876 -0.063264534

fc_out.weight f4 [1, 64]
00000000: 949d c53d 2ef0 e9bc f712 f33d 439e a8bd
00000010: 0775 8bbd 2b68 79bd 2523 d73c 9615 67bc
00000020: ae7e 783d 4bf6 d83d 9703 393d 0712 bcbd
00000030: 60cb fdbc 6b90 b73c 10ef a1bd a605 e83d
00000040: b85f d33b 0413 d03d d5d7 e7bd ad19 0f3e
00000050: 8785 f93d a08a b0bd 0017 a3bd dcf5 173e
00000060: 0cd4 95bd db35 ff3d 3bc3 c7bd 88c8 193e
00000070: bc22 1d3d 52ac bf3d 662c cf3d ea50 49bc
00000080: b653 ef3d 6488 203e 6cf0 d83d ce7f 233e
00000090: e272 cd3d 2f20 153d fad8 71bd ecfe bd3d
000000a0: 2e36 36bd ef7b 15bd 13d7 d5bd 618f 82bd
000000b0: 1f76 013e e2ec f63d 237e ed3d 4cb3 8a3d
000000c0: a6aa f63d df11 163d adbb bd3d a2c4 033d
000000d0: 9648 38bd e672 653d 2c24 4b3d 36ad 35bd
000000e0: eee7 bf3d 495f a43d 2002 f6bd 8158 94bd
000000f0: 6c34 653d 7f0c 01bc 23ed b7bd 190d 453d
0.09649196 -0.02855691 0.11868852 -0.08233311 -0.068094306 -0.060890358 0.026261875 -0.014104268
0.060667686 0.10593852 0.04516944 -0.09183126 -0.030980766 0.022407731 -0.07906926 0.11329202
0.0064506195 0.10159877 -0.113204636 0.13974638 0.121836714 -0.086201906 -0.07963371 0.14839882
-0.07315835 0.12461444 -0.09754034 0.15017903 0.038363203 0.09359039 0.1011589 -0.012287358
0.116858885 0.15677029 0.10592732 0.15966722 0.10031678 0.036407646 -0.059044816 0.09277138
-0.044485264 -0.036495145 -0.10441413 -0.063750036 0.12642716 0.120569006 0.11596324 0.067724794
0.12044267 0.036638137 0.09264312 0.032169946 -0.0449911 0.05601778 0.049595043 -0.04435464
0.09370409 0.08025987 -0.12012124 -0.07243443 0.055958197 -0.007876514 -0.08980777 0.048108194
