data/trained_models/base_Boil(K)_snn.pth (torch, 118886 bytes, 5 tensors)

fc1.weight f4 [64, 374]
-0.006466293 0.026674407 0.046557944 0.032639507 -0.010520896 0.0031360774 0.062469006 0.027468462
0.013110192 -0.024031466 0.0008488067 -0.048166376 0.009942705 -0.008896404 -0.009870314 -0.0015911546
0.005544248 -0.03166561 0.021800384 0.0055633606 -0.00739067 0.02025555 0.01939531 0.049044833
-0.01876641 0.021848127 -0.02207007 0.0030712916 -0.042017978 0.017167613 0.0015037716 -0.00021239632
0.013241132 -0.03823096 -0.052964218 0.010235113 0.03812135 0.07439391 -0.0014126064 -0.02138251
0.038261127 -0.038952135 -0.0018621341 0.016241327 -0.017248306 0.03896558 -0.010825476 0.018594015
0.027355095 -0.022430377 -0.03791004 0.008453428 0.007505057 0.014208628 0.047163364 -0.01921923
0.05191489 0.016655674 0.039727937 0.034589853 0.03848691 -0.029843334 -0.0036981204 0.029952403
-0.018556772 0.035600424 -0.020143187 0.033271007 0.010036999 0.002792322 0.010259677 0.044214796
0.020261427 -0.02407839 0.003917351 0.02155176 0.03269685 0.009618809 -0.017081212 -0.060658604
-0.021418247 -0.007460148 0.04014686 0.01745342 -0.018363334 -0.013207568 -0.015338015 0.033737294
0.041713137 0.022196896 -0.016281024 -0.011624793 -0.011983864 0.048108254 -0.015908618 -0.0053066676
-0.028928226 0.041321505 -0.009367536 0.0114042135 -0.031605292 -0.008848386 -0.041660804 0.01847028
0.04059771 0.057250086 -0.020479238 0.02094193 0.014647469 0.032484155 0.07194444 -0.045247197
0.049201157 -0.046102587 0.015691139 0.0073184483 0.010488404 -0.02024515 0.0037969472 0.003195003
0.06940331 0.009844863 0.046796102 -0.0009419278 0.0038518356 0.006620446 -0.035623692 -0.0017967359
0.0030127626 0.04332118 0.033620987 0.028516427 0.06876031 -0.0010590989 0.020224988 -0.020391125
0.030386996 0.076137945 0.07158321 -0.029396893 0.06283557 -0.021278774 0.07547168 0.011260971
0.05845927 0.061603926 -0.0053329086 0.017699715 0.05611077 0.037328895 -0.041513663 -0.022395352
-0.040381745 0.04365278 0.008691494 -0.048829988 0.054587297 0.07191294 0.047112864 0.04167961
-0.04597039 0.011931039 0.0509685 -0.03719731 0.0024762682 0.005434179 -0.02453937 0.019625716
-0.007778397 0.01205641 -0.03423781 0.008646196 -0.0077351127 -0.045754813 -0.03239979 -0.047741722
-0.03193202 0.006362936 -0.0029294745 -0.027437286 0.012953021 0.050300423 0.050889496 0.008987538
-0.03627141 -0.048207346 -0.0095973145 -0.02251805 -0.04499199 -0.01230311 -0.031709433 -0.04470043
0.034086753 0.004641774 -0.05144584 -0.037917186 0.04163492 -0.016006287 0.01201635 0.0019842973
-0.018437905 -0.004319195 -0.032418787 0.028268743 0.038210373 -0.0072272206 0.073145226 0.043735553
-0.052561577 -0.0054728235 -0.014318664 0.019178823 -0.031449582 0.015174582 0.026863188 -0.03220087
0.03310165 0.031135852 -0.021254096 0.04683108 -0.020768806 0.022271253 0.033561192 -0.0066979765
0.03816199 -0.01053728 -0.017975904 0.049324933 0.0018924358 -0.013320506 -0.026978694 0.0037814786
-0.011926219 -0.021679668 -0.03087879 0.007326337 0.02332138 -0.015932875 0.07055263 -0.0096485
-0.03860594 0.0050714924 0.0051019136 0.01936685 -0.004556126 0.037390903 0.049184207 0.036041286
0.026462827 0.059815798 -0.012461013 0.034608837 0.05100408 -0.066720866 0.020291127 0.026993785
00000000: 32e3 d3bb 4984 da3c 8bb3 3e3d 01b1 053d
00000010: d65f 2cbc a686 4d3b 80df 7f3d 8a05 e13c
00000020: 21cc 563c a3dd c4bc 7482 5e3a 1b4a 45bd
00000030: bae6 223c 39c2 11bc 19b7 21bc 4a8e d0ba
00000040: 86ac b53b ccb3 01bd b896 b23c da4c b63b
00000050: 6f2d f2bb f8ee a53c eae2 9e3c 3ce3 483d
00000060: 04bc 99bc d8fa b23c 4bcc b4bc b947 493b
00000070: 0b1b 2cbd 18a3 8c3c 341a c53a b4b6 5eb9
00000080: 55f1 583c 1198 1cbd 02f1 58bd 2db1 273c
00000090: 2225 1c3d d65b 983d 3527 b9ba 602a afbc
000000a0: b3b7 1c3d 468c 1fbd da12 f4ba 880c 853c
000000b0: 524c 8dbc 5f9a 1f3d 565d 31bc 7a52 983c
000000c0: cb17 e03c e9bf b7bc 8f47 1bbd 3f80 0a3c
000000d0: fbec f53b 4ecb 683c 5f2e 413d a671 9dbc
000000e0: b5a4 543d 7b71 883c c3b9 223d 17ae 0d3d
000000f0: 73a4 1d3d 027a f4bc 2a5c 72bb be5e f53c
00000100: 5f04 98bc c0d1 113d 5303 a5bc 2e47 083d
00000110: 3a72 243c 64ff 363b 3418 283c 931a 353d
00000120: 4bfb a53c 0b40 c5bc 1f5d 803b 518d b03c
00000130: 22ed 053d 3698 1d3c e6ed 8bbc 2875 78bd
00000140: 5275 afbc 4274 f4bb 0971 243d 7afa 8e3c
00000150: b46e 96bc 8e64 58bc 4c4c 7bbc 1e30 0a3d
00000160: 65db 2a3d 44d6 b53c c85f 85bc ea75 3ebc
00000170: f857 44bc 290d 453d ca52 82bc 8ee3 adbb
00000180: e3fa ecbc bd40 293d 4b7a 19bc bdd8 3a3c
00000190: 8d74 01bd d2f8 10bc 85a4 2abd fc4e 973c
000001a0: c949 263d 117f 6a3d 13c4 a7bc 698e ab3c
000001b0: f0fb 6f3c 1b0e 053d 9b57 933d 2055 39bd
000001c0: 2787 493d 11d6 3cbd b48a 803c 98cf ef3b
000001d0: 8ed7 2b3c 28d9 a5bc 34d6 783b 4163 513b
000001e0: 5323 8e3d 594c 213c 45ad 3f3d b4eb 76ba
000001f0: 146f 7c3b 54f0 d83b 26ea 11bd 7480 ebba
00000200: c571 453b 8d71 313d 29b6 093d 489b e93c
00000210: 35d2 8c3d 76d1 8aba e0ae a53c 4a0b a7bc
00000220: 26ee f83c 36ee 9b3d 389a 923d c1d1 f0bc
00000230: efaf 803d d350 aebc e590 9a3d f07f 383c
00000240: fd72 6f3d 6654 7c3d aebf aebb fefe 903c
00000250: 68d4 653d 2fe6 183d 3b0a 2abd 7576 b7bc
00000260: 5467 25bd 42cd 323d c566 0e3c f401 48bd
00000270: ee96 5f3d 1747 933d 6bf9 403d 3db8 2a3d
00000280: 734b 3cbd 687a 433c 59c4 503d 355c 18bd
00000290: e348 223b 3311 b23b ca06 c9bc 1cc6 a03c
000002a0: ece1 febb 4088 453c f23c 0cbd c6a8 0d3c
000002b0: d476 fdbb 6669 3bbd a4b5 04bd d38c 43bd
000002c0: 26cb 02bd 2d80 d03b 6dfc 3fbb 29c4 e0bc
000002d0: e838 543c d107 4e3d 8171 503d 7740 133c
000002e0: 5491 14bd 1175 45bd 0e3e 1dbc c677 b8bc
000002f0: 8549 38bd fc92 49bc c0e1 01bd cc17 37bd
00000300: 8d9e 0b3d 061a 983b e0b8 52bd 0d4f 1bbd
00000310: 6189 2a3d 9e1f 83bc 3ae0 443c fc0a 023b
00000320: 170b 97bc 0988 8dbb 90c9 04bd da93 e73c
00000330: 7b82 1c3d 52d2 ecbb 2acd 953d 0d24 333d
00000340: cf4a 57bd 5f55 b3bb d498 6abc e81c 9d3c
00000350: 47d1 00bd cf9e 783c 3010 dc3c 0fe5 03bd
00000360: 9995 073d 9d10 ff3c 121d aebc f2d1 3f3d
00000370: 5823 aabc 3472 b63c 7677 093d b37a dbbb
00000380: bf4f 1c3d 8ea4 2cbc 3442 93bc f108 4a3d
00000390: 9c0b f83a 403e 5abc 6c02 ddbc afd2 773b
000003a0: 3066 43bc 8f99 b1bc 84f5 fcbc c511 f03b
000003b0: 7b0c bf3c a985 82bc e67d 903d be14 1ebc
000003c0: 4321 1ebd c32e a63b f42d a73b 3aa7 9e3c
000003d0: 8e4b 95bb 3427 193d 6175 493d 07a0 133d
000003e0: 92c8 d83c 6901 753d 4729 4cbc ffc1 0d3d
000003f0: a7e9 503d f3a4 88bd 9439 a63c 1222 dd3c

fc1.bias f4 [64]
-0.010070643 -0.006811292 0.04836988 -0.041189935 -0.031984687 0.051643867 -0.03514237 -0.034665927
0.07027242 -0.017961886 0.08493601 -0.006623477 -0.037906073 -0.019317862 0.06261779 0.053087614
-0.0002898677 -0.030776933 -0.015614911 -0.017896423 -0.033390272 0.015412912 -0.043468792 0.02723035
0.082190946 -0.005018483 -0.032293756 0.029054187 0.021092039 0.077955686 0.038374804 -0.009218526
-0.007510352 0.042411573 0.036467385 -0.04623921 -0.017143367 -0.00023519817 0.00024021743 0.0018503659
0.024686089 0.0053671594 0.021069951 -0.033458132 0.04728519 0.04735576 0.048901487 0.0083759725
0.060401797 0.04816568 0.02241686 -0.0058164243 0.0072514606 0.06640867 0.016635712 0.027778262
0.0073658363 0.010390293 0.012428636 0.015268722 0.061066315 -0.03200003 0.037212364 -0.0056146956
00000000: 57ff 24bc 4231 dfbb 7f1f 463d c7b6 28bd
00000010: 6002 03bd 8588 533d 72f1 0fbd dcfd 0dbd
00000020: fdea 8f3d ce24 93bc eef2 ad3d c109 d9bb
00000030: 6643 1bbd 7e40 9ebc c23d 803d 6672 593d
00000040: 62f9 97b9 e81f fcbc afd5 7fbc 859b 92bc
00000050: 3dc4 08bd 7086 7c3c 550c 32bd 2f12 df3c
00000060: ba53 a83d 1672 a4bb 7546 04bd 0c03 ee3c
00000070: 36c9 ac3c 3ba7 9f3d e62e 1d3d 4d09 17bc
00000080: 6619 f6bb c2b7 2d3d d35e 153d 5365 3dbd
00000090: 3f70 8cbc 879f 76b9 e0e2 7b39 fa87 f23a
000000a0: 7b3a ca3c ffde af3b e49a ac3c 650b 09bd
000000b0: 1eae 413d 1df8 413d ed4c 483d 603b 093c
000000c0: e067 773d 6049 453d 90a3 b73c b497 bebb
000000d0: a99d ed3b 4501 883d 9e47 883c 3d8f e33c
000000e0: 1d5d f13b 0c3c 2a3c 7aa1 4b3c a929 7a3c
000000f0: ac20 7a3d 7712 03bd fe6b 183d 7bfb b7bb

fc2.weight f4 [64, 64]
-0.06623149 -0.08407065 -0.07257345 -0.08034677 0.12539014 0.06256934 0.019240294 0.03812643
0.06364478 -0.033190373 0.09523404 0.083023846 -0.123493284 0.06980242 0.12655938 -0.034914874
0.083542965 0.05722967 -0.061554637 0.15265037 0.10959667 -0.056559682 0.018441763 -0.03043919
0.086045 -0.01173137 -0.11012958 0.029335825 0.0998222 -0.00791904 -0.04045131 -0.02566747
0.104211785 -0.06805073 -0.0078055123 0.1065765 -0.0101398565 -0.02949886 0.080930494 0.12489921
0.0065056225 0.1399908 0.020316914 -0.08695718 0.078562476 -0.054746293 -0.020788101 -0.014259589
-0.05112064 -0.0627578 -0.0032482515 -0.039303128 0.012669524 -0.05315474 0.06359511 0.050343942
0.0011702746 -0.06568232 0.0746956 0.042098984 0.13376887 -0.07526236 0.050949037 -0.034294095
0.120905995 -0.06268595 0.0655576 -0.0031773944 -0.10696557 -0.00016703113 -0.07074568 0.11429034
-0.011344932 0.014078073 0.0843127 -0.11293933 -0.020695906 -0.095062345 -0.023315348 -0.09925583
-0.0036014146 -0.110435955 -0.06834903 -0.03687028 -0.046293266 -0.12231978 0.042644586 0.089482255
-0.003991154 0.07410092 0.037818473 -0.061690744 -0.016881421 -0.11770103 0.03787384 0.011724279
-0.052528262 0.074051164 0.06911437 0.0154444 -0.1297878 0.07608859 -0.11845073 -0.03285632
-0.030880583 -0.036028516 -0.15230213 -0.032672334 0.050323356 -0.03612767 -0.056439515 -0.096451946
-0.024624556 -0.05171152 0.09331973 0.09618351 0.005310847 0.09690344 0.037721857 -0.11183774
-0.06600451 0.008058591 -0.1314802 -0.108817145 0.033172812 -0.12474159 -0.040993772 0.11751559
0.07089901 0.11458376 0.05921626 -0.056707673 -0.06723448 -0.05544702 0.014338693 0.083138764
-0.08141694 0.1181021 0.058071945 -0.011191265 -0.031803377 0.15047011 -0.059384767 0.14100064
0.097712696 -0.073328964 6.4064996e-05 -0.027876873 0.064529866 0.009717354 -0.030422177 -0.0671884
0.12252289 -0.045483388 -0.036660418 0.040961634 -0.075472 -0.031100623 0.0066022947 -0.084919885
-0.062819645 0.13451806 0.047643803 0.062950574 -0.020794155 0.1472797 -0.0867701 -0.054193538
0.080320574 -0.04618663 0.0053293672 -0.029164096 0.12961067 0.1435235 0.12879626 -0.026494471
0.14720233 0.07958917 0.1364346 -0.04482346 -0.03313541 0.011936008 -0.11098331 0.032452337
0.11187374 -0.032739755 -0.031044094 0.053534724 0.12553345 0.10898538 0.114637375 0.061492253
-0.026716106 0.10152716 0.020624692 -0.05119973 0.03121359 0.029078959 0.07500909 -0.024370246
-0.024805406 0.09544607 -0.028891658 0.072141595 -0.0974212 0.027820906 -0.11346803 -0.0033638522
-0.11549877 -0.12624575 0.046599507 0.046979714 -0.07750951 0.054254837 -0.11290131 0.022520022
-0.07354533 -0.11352036 -0.12604609 0.08172103 -0.052266672 -0.106974505 -0.062252056 -0.03823911
-0.12539849 -0.018987471 0.044886634 0.059278734 -0.062656775 -0.11097212 -0.09387683 -0.07724308
0.08040359 -0.0866873 -0.020756591 0.05436442 -0.029778814 0.00077780866 -0.070531145 0.07643943
-0.08197207 -0.14232157 0.07217485 -0.112677805 0.058558155 -0.14859878 -0.030930934 0.024657086
-0.039233938 0.016927442 -0.12030957 0.073491536 0.064197876 -0.032820106 -0.062923945 0.056153335
00000000: 60a4 87bd 3c2d acbd 64a1 94bd d98c a4bd
00000010: 4666 003e 5b24 803d d29d 9d3c 762a 1c3d
00000020: 3258 823d a1f2 07bd 100a c33d 6808 aa3d
00000030: 0cea fcbd 92f4 8e3d c898 013e e602 0fbd
00000040: 9318 ab3d a969 6a3d b720 7cbd 6150 1c3e
00000050: 3874 e03d 20ab 67bd 2e13 973c 9c5b f9bc
00000060: 5c38 b03d ef34 40bc 9e8b e1bd af51 f03c
00000070: 956f cc3d dcbe 01bc 46b0 25bd 9644 d2bc
00000080: fd6c d53d 2e5e 8bbd 62c5 ffbb c844 da3d
00000090: a421 26bc 98a7 f1bc e3be a53d 28cb ff3d
000000a0: 1e2d d53b c059 0f3e a86f a63c 9b16 b2bd
000000b0: 5de5 a03d a63d 60bd cf4b aabc 0da1 69bc
000000c0: e063 51bd 2987 80bd 9ee0 54bb 51fc 20bd
000000d0: d693 4f3c c9b8 59bd 273e 823d 7335 4e3d
000000e0: e663 993a 7484 86bd 02fa 983d fc6f 2c3d
000000f0: b5fa 083e 2723 9abd f0af 503d f777 0cbd
00000100: 909d f73d 7e61 80bd 1043 863d d53b 50bb
00000110: c410 dbbd 1425 2fb9 1ce3 90bd 0e11 ea3d
00000120: 18e0 39bc b8a7 663c 23ac ac3d bc4c e7bd
00000130: 768a a9bc 0cb0 c2bd d4ff bebc a446 cbbd
00000140: b605 6cbb 3f2c e2bd 94fa 8bbd 4a05 17bd
00000150: 029e 3dbd cb82 fabd 17ac 2e3d 7942 b73d
00000160: 3ac8 82bb 39c2 973d 8be7 1a3d 6faf 7cbd
00000170: e84a 8abc 3d0d f1bd 9a21 1b3d 3117 403c
00000180: e027 57bd 23a8 973d d68b 8d3d 820a 7d3c
00000190: 18e7 04be 56d4 9b3d 4c96 f2bd 5994 06bd
000001a0: 47f9 fcbc a392 13bd 17f5 1bbe 6dd3 05bd
000001b0: dd1f 4e3d 9cfa 13bd 1f2d 67bd 9988 c5bd
000001c0: 70b9 c9bc 75cf 53bd 6a1e bf3d dcfb c43d
000001d0: 9d06 ae3b 5075 c63d 3c82 1a3d 2f0b e5bd
000001e0: 5f2d 87bd 2e08 043c bfa2 06be 86db debd
000001f0: 37e0 073d 8578 ffbd 16e9 27bd 03ac f03d
00000200: 8033 913d e4aa ea3d c08c 723d 4e46 68bd
00000210: 3bb2 89bd 6a1c 63bd d6ec 6a3c a844 aa3d
00000220: edbd a6bd 84df f13d d9dc 6d3d 915b 37bc
00000230: 4244 02bd d614 1a3e 713d 73bd 7962 103e
00000240: 981d c83d 7f2d 96bd a25a 8638 0a5e e4bc
00000250: 3c28 843d 8935 1f3c ee37 f9bc 129a 89bd
00000260: 48ed fa3d ca4c 3abd 3c29 16bd 63c7 273d
00000270: 1091 9abd bcc6 febc 1058 d83b 7aea adbd
00000280: 96a7 80bd 1abf 093e 2626 433d 3bec 803d
00000290: 8158 aabc 7dd0 163e 86b4 b1bd 0bfa 5dbd
000002a0: 1d7f a43d 312e 3dbd f9a1 ae3b 8be9 eebc
000002b0: a9b8 043e d3f7 123e 2be3 033e ef0a d9bc
000002c0: 35bc 163e a6ff a23d 83b5 0b3e ce98 37bd
000002d0: ffb8 07bd 3f8f 433c 384b e3bd beec 043d
000002e0: 0f1e e53d 1f1a 06bd 2f50 febc 3a47 5b3d
000002f0: d78b 003e ba33 df3d 00c7 ea3d 4ddf 7b3d
00000300: bcdb dabc 79ed cf3d 1df5 a83c cfb6 51bd
00000310: a5b3 ff3c ff36 ee3c 5e9e 993d 1ca4 c7bc
00000320: b534 cbbc 3b79 c33d 33ae ecbc f9be 933d
00000330: c484 c7bd abe8 e33c ed61 e8bd 1374 5cbb
00000340: 9e8a ecbd 9146 01be 20df 3e3d cd6d 403d
00000350: 4ebd 9ebd 523a 5e3d cd38 e7bd e97b b83c
00000360: ef9e 96bd 5d7d e8bd 3a12 01be 5b5d a73d
00000370: 9415 56bd 7315 dbbd 03fc 7ebd 9da0 1cbd
00000380: 7668 00be 9d8b 9bbc 0cdb 373d 42ce 723d
00000390: 3252 80bd 5a45 e3bd 7f42 c0bd 9f31 9ebd
000003a0: a3aa a43d 1c89 b1bd ba09 aabc 3aad 5e3d
000003b0: b3f2 f3bc dbe5 4b3a a272 90bd 478c 9c3d
000003c0: f9e0 a7bd bfbc 11be 68d0 933d 9fc3 e6bd
000003d0: adda 6f3d 472a 18be df62 fdbc a8fd c93c
000003e0: c4b3 20bd 6bab 8a3c dd64 f6bd bb82 963d
000003f0: 2d7a 833d 606e 06bd 45de 80bd 0a01 663d

fc2.bias f4 [64]
-0.058310043 -0.057288922 0.07255919 -0.023368984 -0.04898012 -0.1341358 0.042138036 0.044540778
0.06898485 0.04610439 -0.0152706355 -0.101213306 0.07929301 0.05267968 0.035447408 -0.06654043
0.081846796 -0.013354384 -0.060308732 -0.034801442 0.047517613 0.0253684 0.024237974 -0.13878375
-0.008139318 0.05615015 0.13980259 -0.007833691 -0.043853298 0.041662134 0.07319506 0.08004287
0.1268113 0.05701992 0.028309233 -0.03348578 -0.072566696 -0.10534932 0.1470575 -0.0059670797
-0.14097239 -0.04039694 0.1123965 0.04162619 0.125729 0.029838521 0.1185441 0.121609166
0.060071666 0.09707146 -0.051772576 0.0035734235 -0.056210805 -0.13600315 -0.12893963 0.11516768
-0.076833375 0.07530823 0.13736513 -0.019922763 -0.041309346 -0.09218723 0.032333706 -0.121598914
00000000: 83d6 6ebd caa7 6abd ea99 943d 5070 bfbc
00000010: 619f 48bd e55a 09be ef98 2c3d 6470 363d
00000020: ee47 8d3d f5d7 3c3d b031 7abc ec48 cfbd
00000030: 6064 a23d a6c6 573d 4d31 113d 5946 88bd
00000040: 4b9f a73d 59cc 5abc 4a06 77bd f58b 0ebd
00000050: d4a1 423d 64d1 cf3c b78e c63c 541d 0ebe
00000060: c65a 05bc b3fd 653d 6928 0f3e e258 00bc
00000070: 849f 33bd eaa5 2a3d 4be7 953d 84ed a33d
00000080: d2da 013e b88d 693d c4e8 e73c 6328 09bd
00000090: d99d 94bd 62c1 d7bd 3e96 163e 7e87 c3bb
000000a0: 115b 10be 4377 25bd 2330 e63d 3980 2a3d
000000b0: 1abf 003e ea6f f43c 40c7 f23d 3a0e f93d
000000c0: b50d 763d 67cd c63d 7b0f 54bd 1930 6a3b
000000d0: 4d3d 66bd 6944 0bbe c008 04be 08dd eb3d
000000e0: d15a 9dbd 343b 9a3d 72a9 0c3e 1035 a3bc
000000f0: fd33 29bd a9cc bcbd 5970 043d da08 f9bd

fc_out.weight f4 [1, 64]
0.067401044 -0.10114533 0.052496284 -0.026109815 0.102293536 -0.08927886 -0.0809138 -0.070571855
0.12116336 -0.009463875 0.13617125 -0.029983038 -0.042511158 0.10595827 0.07802852 0.025242243
0.030653223 0.044815283 0.104486674 0.09869596 -0.111295 -0.11822517 -0.093747884 -0.04152002
0.0850542 0.0645799 0.08916026 -0.041148808 0.036380637 0.049858585 0.12818643 -0.046122275
0.07041742 -0.112568185 0.09463169 0.059405383 -0.076550774 -0.071649864 0.13928537 -0.014662231
-0.120673195 0.04440646 0.12328054 -0.0405292 0.0541787 0.1274485 0.15460235 0.14502765
0.06876762 0.14102648 -0.03433732 -0.06888981 0.068439096 -0.08072297 0.021342285 0.0919862
-0.045397125 -0.10134539 0.09929856 -0.07301064 0.03298531 -0.053215325 0.14436556 -0.042564325
00000000: 8f09 8a3d 4825 cfbd 5806 573d 40e4 d5bc
00000010: 467f d13d d6d7 b6bd 22b6 a5bd fa87 90bd
00000020: 7f24 f83d 5e0e 1bbc 7a70 0b3e fd9e f5bc
00000030: 2e20 2ebd a600 d93d 6bcd 9f3d d2c8 ce3c
00000040: 781c fb3c 3b90 373d 1cfd d53d 1c21 ca3d
00000050: a2ee e3bd 0a20 f2bd e4fe bfbd e610 2abd
00000060: e530 ae3d 7742 843d a899 b63d a78b 28bd
00000070: dd03 153d 8438 4c3d 4e43 033e b6ea 3cbd
00000080: 0237 903d 268a e6bd 42ce c13d 0f53 733d
00000090: a7c6 9cbd 2abd 92bd d3a0 0e3e db39 70bc
000000a0: 8223 f7bd 8ce3 353d 827a fc3d f201 26bd
000000b0: 7cea 5d3d dc81 023e 1450 1e3e 2182 143e
000000c0: 0ad6 8c3d 3f69 103e 4aa5 0cbd 1a16 8dbd
000000d0: cc29 8c3d 1652 a5bd 04d6 ae3c 4363 bc3d
000000e0: 56f2 39bd 2c8e cfbd 0b5d cb3d 9a86 95bd
000000f0: 9b1b 073d 50f8 59bd 91d4 133e ee57 2ebd
