data/trained_models/base_k_a_kan.pth (torch, 138754 bytes, 12 tensors)

net.0.coeff f4 [64, 10, 5]
-0.039165385 -0.08874673 -0.004532654 0.07773188 -0.019506488 -0.05947164 -0.045799788 0.04285445
0.07074574 0.042656686 0.012526763 0.120912224 -0.02833236 0.011911817 -0.040413223 0.11819292
-0.06632256 -0.0725047 -0.1522949 0.12304414 -0.08736112 0.026915258 -0.009061314 -0.09579645
-0.060561705 -0.16578464 0.036890008 -0.18405913 0.020575054 0.12290678 -0.0042518354 0.05684254
0.037718672 -0.038782436 -0.08591515 -0.09173839 -0.023506138 0.072124444 0.04915464 -0.043667912
0.07435499 -0.19292118 0.1068092 -0.035843104 -0.03163378 0.116948426 -0.0040180366 -0.04755239
-0.014494626 0.07656056 -0.099733375 -0.11947257 -0.045711797 -0.10184673 -0.086514026 -0.046138737
0.1409284 0.075878665 0.120139286 -0.057937287 -0.009918176 -0.028747682 0.032450423 0.0029686235
0.061628144 -0.020314056 -0.06493549 -0.018892737 0.13190416 -0.02868531 0.14070632 -0.01044042
-0.007548816 0.16928808 -0.0025650263 -0.03899768 0.012833425 0.057600334 0.12444876 -0.13425422
-0.17270671 0.026562223 -0.067818604 -0.13240133 0.0431387 -0.029158672 0.06562321 -0.048512843
0.061844442 0.06771434 0.15509649 -0.062230445 -0.062897645 0.02936537 -0.23041616 0.010063005
0.017221512 0.03271505 0.10520872 -0.058577042 -0.10157443 -0.059909698 -0.17242527 0.09820119
-0.24171254 -0.19508377 -0.06230449 -0.076414816 -0.009237565 0.052380282 -0.08495594 0.0063898084
0.028656518 -0.083418705 -0.006220678 -0.005427411 -0.20142345 0.00017563654 0.07481394 -0.0046553584
0.11227625 0.0879261 -0.09019999 0.06172992 0.090327926 0.018715361 -0.00085295475 0.13231479
0.07391695 0.10145031 -0.016154708 -0.028951375 0.060007524 -0.11093162 -0.16014858 0.045530934
0.036351375 -0.14239386 -0.0022486262 -0.02706408 0.045749903 0.029219618 0.07898726 -0.017863985
0.11319847 0.10448152 0.043857843 -0.12340736 0.06544723 0.02945608 0.034413073 0.03486161
-0.0931498 0.11111867 -0.010286216 -0.033573188 -0.09061552 -0.057490192 0.21069479 -0.14740182
-0.05996106 0.07944234 0.08343937 0.044421896 0.16513011 -0.053221717 0.094451 -0.2104313
0.06496773 0.034928024 0.20777695 -0.06669983 0.06041318 -0.104620494 -0.07365393 0.05419611
-0.025284566 -0.19589147 0.114241295 0.15926489 0.03613362 0.0965512 -0.003597059 -0.07762799
0.036640592 0.11361227 -0.0717643 0.04641408 -0.088133 0.028088862 -0.049073026 0.07762108
0.03964415 -0.11218994 0.06252617 0.23089953 -0.110454366 -0.07083416 -0.06534595 -0.18779966
-0.02514434 0.17005068 -0.13194065 0.17920122 -0.13530448 0.050418597 -0.041873556 -0.16485216
-0.096255824 -0.14534028 0.025195656 0.001294133 -0.01294764 0.007678092 -0.05364834 0.12809892
0.19272885 -0.10770909 0.06396766 0.015781637 -0.04431941 -0.059397332 -0.14251067 -0.07540363
0.17143606 0.0843403 -0.015310341 0.08437131 0.07136901 0.1597719 -0.03522306 0.1525409
-0.008761314 0.025662448 -0.04165897 -0.02648654 0.117509566 0.011573625 0.14942475 0.050874695
-0.019465372 -0.023724655 0.1130864 0.11723505 -0.118833885 -0.08060958 -0.116292916 -0.09195194
-0.20165564 -0.06813839 -0.034884583 0.13296208 -0.13711904 0.19173874 0.08777221 0.1389401
00000000: e26b 20bd d8c0 b5bd a886 94bb e431 9f3d
00000010: 12cc 9fbc 8998 73bd 8f98 3bbd 2688 2f3d
00000020: 24e3 903d c7b8 2e3d 0d3d 4d3c d4a0 f73d
00000030: 4419 e8bc c829 433c 5688 25bd 210f f23d
00000040: 1fd4 87bd 587d 94bd 32f3 1bbe 91fe fb3d
00000050: 63ea b2bd 637d dc3c e875 14bc ee30 c4bd
00000060: 8d0f 78bd 73c3 29be fa19 173d ff79 3cbe
00000070: 048d a83c 8db6 fb3d fb52 8bbb b9d3 683d
00000080: e57e 1a3d 55da 1ebd 48f4 afbd 56e1 bbbd
00000090: f28f c0bc fbb5 933d 6056 493d 20dd 32bd
000000a0: 6e47 983d 218d 45be c8be da3d 38d0 12bd
000000b0: 6c92 01bd a882 ef3d bca9 83bb 4bc6 42bd
000000c0: de7a 6dbc c8cb 9c3d 0341 ccbd 09ae f4bd
000000d0: 4b3c 3bbd 0595 d0bd 442e b1bd f9fb 3cbd
000000e0: 894f 103e 4666 9b3d 960b f63d a64f 6dbd
000000f0: d87f 22bc 4280 ebbc bcea 043d 3d8d 423b
00000100: cb6d 7c3d aa69 a6bc e6fc 84bd f1c4 9abc
00000110: e211 073e 75fd eabc 5115 103e 4c0e 2bbc
00000120: 0f5c f7bb db59 2d3e 001a 28bb 08bc 1fbd
00000130: 4943 523c 54ee 6b3d fede fe3d f079 09be
00000140: 07da 30be 0599 d93c 7be4 8abd 3794 07be
00000150: 35b2 303d 2bde eebc 7665 863d 67b5 46bd
00000160: 9950 7d3d d1ad 8a3d 9dd1 1e3e 5ae5 7ebd
00000170: 7bd0 80bd a58f f03c 37f2 6bbe 4ddf 243c
00000180: 2114 8d3c 3700 063d ab77 d73d 7bee 6fbd
00000190: 4106 d0bd df63 75bd 4090 30be b51d c93d
000001a0: 7e83 77be 0ac4 47be fe32 7fbd 5f7f 9cbd
000001b0: 2859 17bc b58c 563d 61fd adbd 9961 d13b
000001c0: 13c1 ea3c 6dd7 aabd d4d6 cbbb 6cd8 b1bb
000001d0: f341 4ebe 132b 3839 0d38 993d fa8b 98bb
000001e0: 17f1 e53d 9912 b43d c6ba b8bd 83d8 7c3d
000001f0: d9fd b83d f550 993c d398 5fba 877d 073e
00000200: c561 973d 2ec5 cf3d e156 84bc 6f2b edbc
00000210: 73ca 753d 1e30 e3bd fdfd 23be a57e 3a3d
00000220: 2ee5 143d b2cf 11be b05d 13bb 7db5 ddbc
00000230: 4064 3b3d fb5d ef3c 13c4 a13d 7e57 92bc
00000240: 99d4 e73d 68fa d53d 48a4 333d ffbc fcbd
00000250: 3309 863d e14d f13c b9f4 0c3d 0ccb 0e3d
00000260: 53c5 bebd 2f92 e33d 8487 28bc 0a84 09bd
00000270: a194 b9bd d67a 6bbd 60c0 573e 81f0 16be
00000280: ba99 75bd aab2 a23d 43e2 aa3d bcf3 353d
00000290: de17 293e 04ff 59bd 876f c13d 4d7b 57be
000002a0: cd0d 853d b010 0f3d 7bc3 543e ec99 88bd
000002b0: d073 773d 4543 d6bd dfd7 96bd befc 5d3d
000002c0: 9421 cfbc c697 48be 57f7 e93d 5616 233e
000002d0: d900 143d a3bc c53d a3bc 6bbb 6cfb 9ebd
000002e0: 7214 163d 8dad e83d 29f9 92bd b11c 3e3d
000002f0: 137f b4bd 9d1a e63c cc00 49bd cdf7 9e3d
00000300: e761 223d d7c3 e5bd b80d 803d ed70 6c3e
00000310: e635 e2bd 8011 91bd 19d4 85bd 8e4e 40be
00000320: 81fb cdbc c421 2e3e 731b 07be 8680 373e
00000330: 428d 0abe bb83 4e3d 9b83 2bbd 01cf 28be
00000340: c621 c5bd 15d4 14be 1f67 ce3c e69f a93a
00000350: 5722 54bc 8198 fb3b 5dbe 5bbd 5d2c 033e
00000360: b65a 453e 9596 dcbd 7a01 833d 7e48 813c
00000370: 4588 35bd 9e4a 73bd 51ee 11be 386d 9abd
00000380: ef8c 2f3e 9bba ac3d 39d8 7abc deca ac3d
00000390: ea29 923d 3f9b 233e 0e46 10bd af33 1c3e
000003a0: 9d8b 0fbc 0e3a d23c 99a2 2abd 4dfa d8bc
000003b0: dba8 f03d 4d9f 3d3c cd02 193e fc61 503d
000003c0: d875 9fbc 355a c2bc d899 e73d ee18 f03d
000003d0: 2e5f f3bd a316 a5bd fb2a eebd 4c51 bcbd
000003e0: d17e 4ebe 248c 8bbd 23e3 0ebd 3627 083e
000003f0: ef68 0cbe 2957 443e ebc1 b33d 5046 0e3e

net.0.scale f4 [64, 10]
0.9950067 0.9889226 0.988216 0.98998237 1.0087585 0.99121106 0.994942 1.0104817
0.99220866 0.98962724 0.9945024 1.0079356 1.0073955 0.9955058 0.99945915 1.0068977
1.0008439 0.99364763 1.0070539 1.0000824 1.0058072 1.0055412 0.9992963 0.9904057
0.9906468 0.9991508 1.0048665 1.0091952 1.006624 0.99928933 0.987818 0.9882942
0.9901978 0.99587584 0.99739915 1.0081966 1.0102681 1.010777 1.0133921 0.99684834
0.98634547 1.0045615 1.0027376 0.9878457 1.0052813 0.9868842 0.9985035 1.0008838
0.99486274 1.0121619 0.9946837 0.9893411 1.0077275 1.0077989 1.0111771 1.0036231
0.9991858 0.9970402 1.0125642 1.0075861 0.98794276 0.9872856 1.011682 0.9987019
0.9868763 1.0119015 0.98754925 0.99970615 1.007214 0.9876263 1.0036849 1.0091939
0.9951049 0.9959812 1.0122622 0.990408 1.0071126 1.0073806 0.9992399 0.98846954
1.0111424 1.0065608 0.99986315 1.0038611 1.0093533 1.0077146 0.989193 1.0084755
0.9898104 1.0105718 1.0133703 0.98993355 1.0139046 1.0116247 1.013772 0.98862123
1.0107619 0.9972791 1.0122191 0.9865411 1.0100608 1.0082482 0.98810506 1.006393
0.99081933 1.0120925 0.9892389 0.99103636 0.99053144 1.0107263 0.9875739 0.9902581
1.0094701 1.0070548 1.0107837 0.98746806 0.9880809 1.0127937 0.98957646 0.9928772
0.98866785 1.0050828 1.0062226 1.0022851 1.0013734 1.008441 1.0071834 0.99391085
0.995208 1.0091852 0.9868429 1.0019687 1.007166 1.0027792 0.9977358 0.9876433
1.0078257 1.0124509 0.9892227 1.0127308 1.011091 1.0117875 0.99484885 1.0002116
0.99347275 1.0053265 0.99780184 1.0026791 1.0039212 1.0024564 0.9875629 1.0103983
0.9888989 0.9911758 1.007514 1.0083737 0.9883332 0.99237263 0.99276656 0.9920387
1.0084939 1.0107528 0.9955633 1.0080168 0.98959595 0.98946553 0.99024487 0.995221
0.99943924 0.99108016 0.9872413 1.009209 0.9878963 1.0117247 1.0130844 1.0117767
1.0126343 0.9863422 0.9863971 0.9875289 1.0031704 1.0134661 0.9872603 1.0132561
1.0098643 0.99208194 1.0114305 0.99714786 0.9898105 1.0026381 0.98996013 0.99740094
1.0108176 0.9912523 1.0086894 0.9960665 1.0026628 0.9932592 0.9967054 0.99122804
1.0029048 0.9951877 0.9934571 1.007441 1.007793 1.0076793 0.99153227 0.9970512
1.0047706 0.98823994 0.9903389 0.9991445 0.9882412 0.99060714 1.0013391 1.0006784
1.0129634 1.0130149 0.9958326 1.0108117 1.0115627 1.0119194 0.9883046 0.98927224
0.9900363 1.0113086 1.0121663 1.0094316 0.9890105 1.0111797 0.98624706 0.99916655
0.98705655 1.0094012 1.0120535 0.9935367 1.0125146 1.0073879 1.0006621 1.0101532
0.99361914 0.99299645 0.98701984 1.0099933 1.01145 1.0064201 1.010449 1.0092317
1.0073382 0.9942427 0.99850607 1.0127928 1.013078 1.012513 1.0122197 1.0098791
00000000: c2b8 7e3f 082a 7d3f b9fb 7c3f 7c6f 7d3f
00000010: 001f 813f 02c0 7d3f 85b4 7e3f 7757 813f
00000020: 6301 7e3f 3658 7d3f b697 7e3f 0904 813f
00000030: 56f2 803f 78d9 7e3f 8edc 7f3f 06e2 803f
00000040: a71b 803f b15f 7e3f 24e7 803f b302 803f
00000050: 4abe 803f 93b5 803f e2d1 7f3f 3a8b 7d3f
00000060: 079b 7d3f 59c8 7f3f 779f 803f 4f2d 813f
00000070: 0ed9 803f 6dd1 7f3f a4e1 7c3f d900 7d3f
00000080: 9a7d 7d3f b8f1 7e3f 8d55 7f3f 960c 813f
00000090: 7750 813f 2461 813f d5b6 813f 7431 7f3f
000000a0: 2381 7c3f 7995 803f b559 803f 75e3 7c3f
000000b0: 0fad 803f 71a4 7c3f ed9d 7f3f f61c 803f
000000c0: 53af 7e3f 858e 813f 97a3 7e3f 7545 7d3f
000000d0: 37fd 803f 8eff 803f 406e 813f b976 803f
000000e0: a4ca 7f3f 073e 7f3f b49b 813f 95f8 803f
000000f0: d1e9 7c3f c0be 7c3f cc7e 813f edaa 7f3f
00000100: eda3 7c3f fd85 813f 07d0 7c3f beec 7f3f
00000110: 63ec 803f 14d5 7c3f bf78 803f 442d 813f
00000120: 32bf 7e3f a0f8 7e3f cf91 813f 618b 7d3f
00000130: 11e9 803f d9f1 803f 30ce 7f3f 570c 7d3f
00000140: 1d6d 813f fcd6 803f 08f7 7f3f 857e 803f
00000150: 7d32 813f cbfc 803f c13b 7d3f ba15 813f
00000160: 3764 7d3f 6b5a 813f 1eb6 813f 496c 7d3f
00000170: a0c7 813f eb7c 813f 48c3 813f 4816 7d3f
00000180: a560 813f af4d 7f3f 6590 813f f58d 7c3f
00000190: ac49 813f 470e 813f 74f4 7c3f 7cd1 803f
000001a0: 56a6 7d3f 3f8c 813f c33e 7d3f 8fb4 7d3f
000001b0: 7893 7d3f 7b5f 813f a5d1 7c3f 8e81 7d3f
000001c0: 5136 813f 2ce7 803f 5c61 813f b5ca 7c3f
000001d0: dff2 7c3f 39a3 813f e254 7d3f 332d 7e3f
000001e0: 5619 7d3f 8ea6 803f e7cb 803f e14a 803f
000001f0: 012d 803f 9814 813f 63eb 803f f170 7e3f
00000200: f4c5 7e3f fb2c 813f bca1 7c3f 8340 803f
00000210: d1ea 803f 125b 803f 9d6b 7f3f 31d6 7c3f
00000220: 6f00 813f fe97 813f b33d 7d3f 2aa1 813f
00000230: 6e6b 813f 4182 813f 6aae 7e3f ef06 803f
00000240: 3b54 7e3f 8aae 803f f16f 7f3f ca57 803f
00000250: 7d80 803f 7e50 803f ecd0 7c3f bb54 813f
00000260: 7a28 7d3f b2bd 7d3f 38f6 803f 6412 813f
00000270: 6803 7d3f 220c 7e3f f325 7e3f 40f6 7d3f
00000280: 5416 813f 5960 813f 3ddd 7e3f b206 813f
00000290: 2956 7d3f 9d4d 7d3f b080 7d3f cec6 7e3f
000002a0: 40db 7f3f 6eb7 7d3f d9bb 7c3f c32d 813f
000002b0: c6e6 7c3f 3280 813f c0ac 813f e681 813f
000002c0: 009e 813f ec80 7c3f 8584 7c3f b2ce 7c3f
000002d0: e367 803f 42b9 813f 17bd 7c3f 60b2 813f
000002e0: 3c43 813f 15f9 7d3f 8e76 813f 1545 7f3f
000002f0: 3964 7d3f 7256 803f 076e 7d3f ab55 7f3f
00000300: 7962 813f b6c2 7d3f bc1c 813f 37fe 7e3f
00000310: 4157 803f 3c46 7e3f 1628 7f3f 1fc1 7d3f
00000320: 2f5f 803f 9fc4 7e3f 3453 7e3f d4f3 803f
00000330: 5cff 803f a3fb 803f 0fd5 7d3f bf3e 7f3f
00000340: 539c 803f 4bfd 7c3f da86 7d3f efc7 7f3f
00000350: 60fd 7c3f 6e98 7d3f e12b 803f 3b16 803f
00000360: c9a8 813f 79aa 813f e3ee 7e3f 4762 813f
00000370: e37a 813f 9386 813f 8801 7d3f f240 7d3f
00000380: 0573 7d3f 8f72 813f aa8e 813f 0e35 813f
00000390: cb2f 7d3f 566e 813f b07a 7c3f 61c9 7f3f
000003a0: bdaf 7c3f 0f34 813f f88a 813f 6c58 7e3f
000003b0: 149a 813f 16f2 803f b215 803f b34c 813f
000003c0: d35d 7e3f 0435 7e3f 55ad 7c3f 7647 813f
000003d0: 3277 813f 60d2 803f 6556 813f 812e 813f
000003e0: 75f0 803f b186 7e3f 189e 7f3f 32a3 813f
000003f0: 8aac 813f 079a 813f 6a90 813f b843 813f

net.0.base_weight f4 [64, 10]
-0.052409016 -0.10244899 -0.0700547 -0.007639681 -0.045448437 0.16191703 0.042496372 -0.14203495
0.08041959 -0.049264044 0.07251813 0.028371537 0.11603734 0.18925604 0.016322862 0.025488384
-0.043472223 0.15314554 -0.0139082465 -0.113161184 0.2019136 0.013802343 -0.12833962 -0.18508853
-0.042087965 -0.05371171 0.010887266 0.18502797 0.073039524 -0.07959121 -0.049303684 0.07879653
-0.1322804 0.092714846 -0.030840129 -0.0026686313 -0.08164654 0.21017425 0.185647 -0.032203242
-0.01423972 0.021606108 -0.019925123 -0.052581035 0.10923065 -0.0349389 -0.03867955 0.046849657
-0.030102128 -0.17480296 -0.015989777 -0.038861457 0.06240965 -0.23676445 -0.08155239 0.012306348
0.10485188 -0.046833623 0.11203679 -0.1626567 -0.009606402 0.09206725 0.07796011 0.058633316
0.04913689 0.02636068 0.27039418 -0.01645395 -0.034559455 -0.024665702 0.06758153 -0.02544527
0.052887052 -0.022136498 -0.01067796 0.18511203 -0.101424776 -0.13431592 -0.12212253 -0.15436092
0.057779346 -0.08097937 0.13395917 -0.032679018 -0.06051013 -0.1754051 0.060094733 -0.20463501
0.049532298 -0.011131682 -0.017767133 0.061566513 -0.22813472 0.084209755 -0.0019315175 -0.034863178
0.041027967 0.12128892 0.179599 0.012881073 0.062750675 0.07503686 0.040253762 0.06685825
0.079830274 0.13380918 0.10385525 0.10656976 -0.06833726 0.084775135 0.17370129 -0.13151667
-0.08669189 -0.009517736 -0.0074347774 -0.07163615 -0.09722039 -0.16005275 0.16126448 0.08002806
0.03279937 0.031110974 -0.05903866 0.09347532 0.018020594 0.17583103 -0.0376835 0.010321098
-0.10508964 0.04856546 0.051583875 -0.1790588 -0.03642423 0.17652202 -0.039676726 0.0820616
-0.112974375 0.07696842 -0.01734552 0.11389937 0.0076405327 0.08477059 0.09187352 -0.013400027
-0.12552114 -0.1109102 0.057598058 -0.19299439 -0.083102465 0.030873615 -0.028757086 -0.005545162
-0.15732346 -0.006270048 0.012917978 0.04141173 0.09822075 0.02096077 -0.067068346 0.09283134
-0.021913003 -0.04665604 0.047011606 0.05968762 -0.06581671 -0.065318406 0.06371042 0.14386444
-0.095208675 -0.0124022905 -0.06255333 0.27643606 -0.03676138 -0.00918609 0.09834872 0.061317068
0.109936364 -0.18043612 -0.16405505 -0.10728516 -0.24901207 -0.095027216 0.0033870297 0.2866704
0.078729846 -0.041353483 0.14596045 0.04711776 -0.058071367 -0.06575566 -0.10049291 0.09011987
-0.048319902 -0.086338155 0.24707636 -0.092932686 0.18682556 0.1532363 -0.2148446 -0.002778736
-0.030466367 0.051513184 -0.17384307 0.02793214 -0.10054138 0.005331111 0.0235362 -0.10259355
0.0681976 0.124538116 0.078222014 0.0058189915 -0.06456927 -0.06481207 0.14294307 0.06960426
-0.11679777 -0.03234151 -0.06892743 0.051911727 -0.091824576 0.04299756 -0.1257278 0.020008484
0.09466443 0.12640405 0.08886341 0.016988803 0.1220576 0.031752408 0.071405455 -0.00048212532
-0.03401982 0.12831414 -0.050366245 -0.1577005 0.11486251 0.008589194 0.013715347 -0.1088053
0.0013311094 0.034161575 0.2014206 -0.029813685 -0.034248047 0.021554947 -0.04420345 -0.057612814
0.0496696 -0.20772837 0.05563151 -0.0692295 0.010203124 -0.029088175 0.12968822 0.059764124
00000000: d6aa 56bd c7d0 d1bd d778 8fbd 4a56 fabb
00000010: 2428 3abd 94cd 253e ad10 2e3d 9c71 11be
00000020: 07b3 a43d 18c9 49bd 6384 943d 6d6b e83c
00000030: fca4 ed3d 56cc 413e 86b7 853c 04cd d03c
00000040: ee0f 32bd 2fd2 1c3e 6adf 63bc 0dc1 e7bd
00000050: 70c2 4e3e 3923 623c 766b 03be d987 3dbe
00000060: 6e64 2cbd cf00 5cbd 8160 323c f977 3d3e
00000070: bf95 953d b700 a3bd a9f2 49bd 1360 a13d
00000080: 8374 07be 48e1 bd3d 70a4 fcbc 34e4 2ebb
00000090: 4d36 a7bd eb37 573e 3f1a 3e3e 8ce7 03bd
000000a0: b74d 69bc 4bff b03c 033a a3bc 365f 57bd
000000b0: 52b4 df3d 181c 0fbd 736e 1ebd 6de5 3f3d
000000c0: bd98 f6bc 8cff 32be fefc 82bc 312d 1fbd
000000d0: 43a1 7f3d 6172 72be f004 a7bd 91a0 493c
000000e0: 95bc d63d 9dd4 3fbd 8b73 e53d 7a8f 26be
000000f0: 2c64 1dbc c18d bc3d 8da9 9f3d 7d29 703d
00000100: c343 493d 5af2 d73c 1b71 8a3e 6fca 86bc
00000110: 378e 0dbd ba0f cabc 2f68 8a3d 9972 d0bc
00000120: 18a0 583d 9a57 b5bc 9cf2 2ebc 028e 3d3e
00000130: cbb7 cfbd 1d8a 09be 611b fabd ca10 1ebe
00000140: 09aa 6c3d 83d8 a5bd 982c 093e 6fda 05bd
00000150: 78d9 77bd 659d 33be e525 763d d78b 51be
00000160: 61e2 4a3d a961 36bc 618c 91bc 2b2d 7c3d
00000170: 269c 69be 2a76 ac3d f92a fdba b1cc 0ebd
00000180: f10c 283d 5366 f83d cde8 373e 230b 533c
00000190: 6d83 803d edac 993d 21e1 243d faec 883d
000001a0: 0e7e a33d 4605 093e 10b2 d43d 3f41 da3d
000001b0: 68f4 8bbd 969e ad3d c0de 313e 4eac 06be
000001c0: 858b b1bd 47f0 1bbc 6f9f f3bb f9b5 92bd
000001d0: 7c1b c7bd dee4 23be 8422 253e c0e5 a33d
000001e0: a258 063d 71dc fe3c 86d2 71bd fd6f bf3d
000001f0: ed9f 933c 0d0d 343e 045a 1abd d319 293c
00000200: 3d39 d7bd 93ec 463d 9d49 533d 315b 37be
00000210: 9331 15bd 30c2 343e 1084 22bd ea0f a83d
00000220: 1c5f e7bd 9ea1 9d3d 3118 8ebc 1344 e93d
00000230: 6f5d fa3b 349c ad3d 2f28 bc3d c98b 5bbc
00000240: 9d88 00be e324 e3bd f1eb 6b3d 52a0 45be
00000250: a031 aabd aaea fc3c fb93 ebbc 31b4 b5bb
00000260: 6719 21be fa74 cdbb eda5 533c 599f 293d
00000270: f627 c93d ecb5 ab3c 215b 89bd 5c1e be3d
00000280: e682 b3bc 671a 3fbd 3e8f 403d 017b 743d
00000290: e9ca 86bd a8c5 85bd 9c7a 823d 3351 133e
000002a0: c4fc c2bd fa32 4bbc f61b 80bd 0789 8d3e
000002b0: 1a93 16bd 4181 16bc 0e6b c93d 9b27 7b3d
000002c0: 5126 e13d 3fc4 38be 0cfe 27be 52b8 dbbd
000002d0: 05fd 7ebe a19d c2bd eef8 5d3b 76c6 923e
000002e0: 1d3d a13d 4562 29bd a876 153e 8dfe 403d
000002f0: 3edc 6dbd e7aa 86bd 3acf cdbd c490 b83d
00000300: 17eb 45bd 0fd2 b0bd 9601 7d3e 7e53 bebd
00000310: 334f 3f3e fae9 1c3e 3900 5cbe 741b 36bb
00000320: 9a94 f9bc 7dff 523d eb03 32be f1d1 e43c
00000330: a4e8 cdbd 9ab0 ae3b fdce c03c 911c d2bd
00000340: 2fab 8b3d d70d ff3d dd32 a03d 3dad be3b
00000350: e53c 84bd 31bc 84bd ab5f 123e ae8c 8e3d
00000360: ab33 efbd 8878 04bd d329 8dbd 64a1 543d
00000370: 860e bcbd 361e 303d cabe 00be d5e8 a33c
00000380: 6ddf c13d 1070 013e 05fe b53d 1a2c 8b3c
00000390: 56f9 f93d d00e 023d 063d 923d c4c5 fcb9
000003a0: 5e58 0bbd c864 033e d64c 4ebd 3d7c 21be
000003b0: 093d eb3d b1b9 0c3c 56b6 603c 50d5 debd
000003c0: 9f78 ae3a 02ed 0b3d 3441 4e3e d43b f4bc
000003d0: ae47 0cbd 0094 b03c ad0e 35bd 6afb 6bbd
000003e0: 5a72 4b3d bfb6 54be dedd 633d 32c8 8dbd
000003f0: 012b 273c 534a eebc fdcc 043e 3acb 743d

net.0.grid_points f4 [5]
-2.0 -1.0 0.0 1.0 2.0
00000000: 0000 00c0 0000 80bf 0000 0000 0000 803f
00000010: 0000 0040

net.2.coeff f4 [64, 64, 5]
-0.086360015 0.062568545 -0.014590941 0.008613088 0.24197136 0.008975818 0.051346704 0.08001007
-0.07074816 -0.09803153 -0.064193636 -0.0269361 -0.19125809 0.024174508 0.028119855 -0.021713916
0.03860008 0.0224454 0.14183436 -0.10737777 -0.060193583 0.070880234 -0.08187464 -0.033055674
0.07398199 0.0072466 -0.008114733 0.024224486 0.16612126 -0.045289967 -0.10613073 -0.13317621
-0.025036762 -0.038695976 0.094407685 -0.01170702 -0.010506598 -0.01011431 -0.070653856 0.06845335
-0.111361906 0.103516534 0.0037539338 -0.16999024 -0.0015484997 0.0727623 -0.043386396 0.04771377
0.02351431 0.094772846 -0.07991425 -0.20276718 0.09162394 0.026922828 -0.025305994 0.13023175
-0.02302607 0.030161912 0.10610077 0.118969366 -0.11170684 0.06940947 -0.18786587 0.08338547
-0.060729466 -0.054129865 0.09337621 -0.0737052 -0.040370062 -0.017509112 -0.088541575 0.091373555
-0.07893185 0.07258179 -0.012234862 0.0029122934 -0.007400109 0.04596435 0.026652679 0.027837254
0.0029543962 -0.05217542 -0.0978946 0.304618 -0.12693511 -0.037846062 0.134856 -0.076909475
0.09203045 0.004591297 0.0070154024 -0.009134786 0.10394518 0.10414412 -0.104595326 0.10628401
-0.077434264 -0.03966536 -0.1769667 0.12801939 0.010684723 0.13528506 -0.013969736 -0.07158515
-0.015450872 -0.08856601 -0.025951251 0.08231309 0.0582975 -0.19131705 -0.021077527 0.09346822
-0.023976497 3.0026073e-05 -0.02470792 0.13047616 -0.054194026 -0.07911443 0.03579658 -0.041117273
0.063924335 -0.19640635 -0.103559874 0.13837738 -0.08046555 0.07723415 -0.019272573 0.19532847
-0.12649794 -0.044522386 -0.18873657 -0.0615536 0.039253663 0.11588311 -0.10848945 -0.12841453
0.11467668 -0.25390875 0.0007054242 0.07186608 -0.054788295 0.08634651 -0.08047016 0.03402089
-0.09140417 0.08656145 0.048778 0.018391373 -0.13589251 -0.0012785626 -0.1042906 0.07121892
0.046816275 0.001512273 -0.05458821 -0.19139197 -0.2215157 -0.14485535 -0.033123635 -0.043506138
-0.02641084 0.07823096 -0.1596613 0.0053157196 0.08230221 -0.06633917 0.062901326 0.060102493
0.028754542 -0.20427391 -0.1627716 -0.072309464 -0.15793382 0.086352095 -0.07895292 0.080933325
-0.058391884 0.0831515 -0.0028107709 0.11090257 0.032942493 0.0134860445 -0.046918057 0.1804845
-0.013571055 -0.09408129 -0.08993276 -0.15739235 -0.11890573 -0.23575039 0.043472502 0.16318478
-0.16053498 0.022295812 -0.05234882 -0.06655526 -0.036805324 -0.033878934 -0.09663953 -0.04126302
0.02387484 -0.24159777 -0.09761166 0.14224008 -0.045000367 -0.06938783 -0.038676538 -0.053265527
0.0972032 0.0017921127 0.062179074 0.06462399 -0.28020957 -0.15010682 -0.1402593 0.038756583
-0.15420021 0.07745138 -0.12854339 0.07050995 -0.086107485 0.05130744 -0.08990256 -0.078400165
-0.16472201 -0.019138124 0.03702241 0.18183132 0.14955193 0.055481896 -0.15008223 0.07255884
0.038778767 -0.044509973 0.06454657 0.01932707 -0.069167875 0.0041411957 -0.057549305 0.12881114
-0.07615424 -0.01814123 0.011092371 -0.014991723 0.118770465 0.09496143 -0.23098597 0.048537888
0.06320597 0.05735642 -0.035763953 0.09761904 0.030496374 0.025287397 0.038658865 -0.0026205548
00000000: 85dd b0bd f023 803d d80e 6fbc e91d 0d3c
00000010: 57c7 773e 4f0f 133c ec50 523d 52dc a33d
00000020: 69e4 90bd c1c4 c8bd f477 83bd 19a9 dcbc
00000030: 29d9 43be 9e09 c63c 9c5b e63c 62e1 b1bc
00000040: 1e1b 1e3d 6adf b73c 073d 113e e0e8 dbbd
00000050: 8c8d 76bd a829 913d e4ad a7bd 6365 07bd
00000060: df83 973d e374 ed3b a8f3 04bc 6e72 c63c
00000070: b11b 2a3e f981 39bd 115b d9bd 585f 08be
00000080: e519 cdbc ac7f 1ebd d158 c13d cdce 3fbc
00000090: de23 2cbc 7eb6 25bc f8b2 90bd 4531 8c3d
000000a0: b611 e4bd 7a00 d43d 8f04 763b ec11 2ebe
000000b0: 07f7 caba 6704 953d efb5 31bd 846f 433d
000000c0: 15a1 c03c 4418 c23d 15aa a3bd 33a2 4fbe
000000d0: 55a5 bb3d 438d dc3c 844e cfbc 795b 053e
000000e0: 2ba1 bcbc 1d16 f73c 5c4b d93d 36a6 f33d
000000f0: 8ec6 e4bd 8d26 8e3d e95f 40be 00c6 aa3d
00000100: 76bf 78bd 47b7 5dbd 073c bf3d c0f2 96bd
00000110: 145b 25bd 456f 8fbc 4955 b5bd 0f22 bb3d
00000120: 06a7 a1bd c3a5 943d bb74 48bc 2ddc 3e3b
00000130: 9d7c f2bb 1d45 3c3d b856 da3c f40a e43c
00000140: 8b9e 413b e5b5 55bd f77c c8bd e4f6 9b3e
00000150: 47fb 01be 7904 1bbd b117 0a3e b782 9dbd
00000160: 767a bc3d 9772 963b 76e1 e53b 12aa 15bc
00000170: 36e1 d43d 8349 d53d 1336 d6bd 6eab d93d
00000180: db95 9ebd 2578 22bd c236 35be 8417 033e
00000190: fa0e 2f3c 2b88 0a3e 52e1 64bc 3c9b 92bd
000001a0: a725 7dbc 1962 b5bd b897 d4bc c493 a83d
000001b0: 5cc9 6e3d 9ee8 43be c7aa acbc 446c bf3d
000001c0: 5c6a c4bc 80e0 fb37 4468 cabc 8b9b 053e
000001d0: 8efa 5dbd bf06 a2bd 6f9f 123d 966a 28bd
000001e0: c3ea 823d bf1e 49be 3317 d4bd cdb2 0d3e
000001f0: 1fcb a4bd f02c 9e3d 84e1 9dbc 3004 483e
00000200: ad88 01be 1b5d 36bd 2944 41be a11f 7cbd
00000210: 73c8 203d 2054 ed3d b72f debd 197f 03be
00000220: 9bdb ea3d 5400 82be 37ec 383a 862e 933d
00000230: b169 60bd 70d6 b03d 8acd a4bd 7d59 0b3d
00000240: 1c32 bbbd 2147 b13d 71cb 473d 81a9 963c
00000250: 6827 0bbe 7195 a7ba 4f96 d5bd 3adb 913d
00000260: 6cc2 3f3d 7637 c63a e397 5fbd 42fc 43be
00000270: 03d5 62be f654 14be a6ac 07bd 7e33 32bd
00000280: 8c5b d8bc 8e37 a03d 407e 23be 7d2f ae3b
00000290: 108e a83d d5dc 87bd 69d2 803d 082e 763d
000002a0: a58e eb3c 2e2d 51be 99ad 26be fc16 94bd
000002b0: 67b9 21be 5ed9 b03d 12b2 a1bd 5fc0 a53d
000002c0: 542c 6fbd 554b aa3d e934 38bb e320 e33d
000002d0: b5ee 063d 92f4 5c3c 262d 40bd eed0 383e
000002e0: 2159 5ebc b1ad c0bd ab2e b8bd 762b 21be
000002f0: d984 f3bd 8d68 71be 3910 323d e919 273e
00000300: 4863 24be b5a5 b63c b76b 56bd 204e 88bd
00000310: 2ec1 16bd a3c4 0abd f2ea c5bd 6a03 29bd
00000320: 2b95 c33c 6865 77be 9fe8 c7bd 62a7 113e
00000330: 4e52 38bd 351b 8ebd 4a6b 1ebd f42c 5abd
00000340: 7912 c73d 53e5 ea3a 7caf 7e3d 9559 843d
00000350: a177 8fbe 9ab5 19be 22a0 0fbe 39bf 1e3d
00000360: a9e6 1dbe d49e 9e3d e1a0 03be 8567 903d
00000370: 1f59 b0bd c027 523d d51e b8bd 4490 a0bd
00000380: e3ac 28be 8ec7 9cbc d0a4 173d fd31 3a3e
00000390: 2424 193e fc40 633d 28af 19be bb99 943d
000003a0: 7cd6 1e3d 1750 36bd fe30 843d ce53 9e3c
000003b0: e3a7 8dbd deb2 873b d2b8 6bbd 11e7 033e
000003c0: c1f6 9bbd eb9c 94bc c7bc 353c d89f 75bc
000003d0: ee3d f33d 237b c23d 9687 6cbe aacf 463d
000003e0: 2272 813d 91ee 6a3d 397d 12bd 7eec c73d
000003f0: 88d3 f93c 8427 cf3c c258 1e3d 9dbd 2bbb

net.2.scale f4 [64, 64]
1.0015036 0.9870772 1.0130368 0.9871841 1.0130013 0.9873453 1.0134434 1.0135514
1.0098178 0.98700494 0.9880786 0.9869914 1.0128983 1.0131152 1.0132664 0.9871878
1.0131663 1.0131698 0.9870527 1.0126864 1.0092402 0.98704785 1.012771 1.013098
1.0128001 0.9868584 0.9874518 1.0128664 1.0008329 1.0002098 0.986823 1.0132337
1.0132897 0.98702693 1.0131497 0.9870733 1.0092332 1.0130156 1.0132022 1.0131396
1.0130905 1.0133322 1.01306 0.9888588 1.0131539 0.9870235 0.9868502 0.99112874
0.9873837 0.98714346 0.9872796 0.9868371 0.98698676 1.0131032 1.0132918 1.0127677
0.9870168 0.98655266 0.98689187 1.0126498 1.0133547 0.9872946 0.98745316 0.9871256
1.0105299 0.9875338 0.98729503 1.0116895 1.0113993 1.0122895 0.98734313 0.99233496
1.0126891 1.012968 1.012785 1.0117475 1.0126145 0.98724353 1.0124979 1.013001
1.0124961 1.0125028 0.98749 1.0120142 0.99861103 1.0033416 0.9873733 0.9873995
1.0124418 0.98742306 0.98779404 0.9865207 1.0093248 0.9875963 0.98746586 0.98775923
1.0125756 1.0121421 1.0123812 1.0125891 0.98755985 1.0030197 0.9875604 1.0126246
0.98755515 1.0126144 1.0123365 1.0117345 0.98670626 0.9876168 1.0120136 1.0118082
0.9877073 1.0135286 1.0123982 0.98733383 0.9876964 0.9871167 1.0125444 0.9870214
1.0125678 1.0117829 1.0116355 0.98755133 1.0123703 1.0129327 0.98724174 1.0121565
0.9897438 1.0119424 0.9865175 0.9879392 1.0127614 0.9882257 1.0099369 1.0118878
1.0116968 0.9879586 1.0121773 1.0121377 0.987501 0.9871595 0.98782295 0.98788095
1.0036783 0.9878332 0.9875965 0.98804235 1.0121598 1.0130688 1.0124815 1.0123138
0.98850936 1.0123999 1.0121719 0.98685795 1.010095 0.9881835 0.987856 0.9891718
0.99202067 0.98793405 1.0116568 0.9872704 1.0117986 1.0126699 1.012373 0.9876779
1.0120171 0.9941304 1.0122964 1.0130059 0.98789644 0.9878736 0.9874617 0.99081826
0.9885287 1.012078 1.0122701 1.0124956 0.98974144 0.9874823 0.98807776 0.99456096
1.0123013 1.012484 1.0111103 1.0120976 1.0121411 0.9881001 1.011392 1.0121009
1.0023007 1.0030481 0.9938852 1.0010145 1.0029054 0.9972034 0.999104 1.0017161
0.99761623 1.0121838 0.99821055 0.99632597 0.9876561 0.9881413 1.0057422 0.9962848
0.9933574 1.0027404 1.0026327 1.0033202 1.0032313 0.99245685 1.002296 1.0030777
1.0056427 1.0009868 0.996666 1.0045141 0.99744266 1.0035958 0.99572664 1.0055537
0.99688274 1.0033754 0.9913011 0.9969428 1.0057174 0.994829 1.0021734 0.9962979
0.9929485 0.99785095 1.0029107 1.005194 0.993702 1.005585 0.9940957 0.9976569
1.0094371 1.0065925 1.0052617 0.9966582 1.0126913 1.0013616 0.99692917 1.0093551
1.002351 1.003442 0.9941892 0.9919548 0.9966965 0.9965107 0.9969805 1.0029014
00000000: 4531 803f 17b1 7c3f 31ab 813f 19b8 7c3f
00000010: 07aa 813f a9c2 7c3f 83b8 813f 0dbc 813f
00000020: b641 813f 5bac 7c3f b8f2 7c3f 78ab 7c3f
00000030: a7a6 813f c2ad 813f b7b2 813f 57b8 7c3f
00000040: 6faf 813f 8caf 813f 7caf 7c3f b59f 813f
00000050: c82e 813f 2baf 7c3f 7ba2 813f 32ad 813f
00000060: 6fa3 813f c1a2 7c3f a4c9 7c3f 9ba5 813f
00000070: 4b1b 803f e006 803f 6fa0 7c3f a4b1 813f
00000080: 7ab3 813f ccad 7c3f e4ae 813f d6b0 7c3f
00000090: 8e2e 813f 7faa 813f 9cb0 813f 8fae 813f
000000a0: f3ac 813f dfb4 813f f3ab 813f da25 7d3f
000000b0: 07af 813f 92ad 7c3f 37a2 7c3f 9dba 7d3f
000000c0: 2ec5 7c3f 6fb5 7c3f 5bbe 7c3f 5ba1 7c3f
000000d0: 2aab 7c3f 5ead 813f 8cb3 813f 5fa2 813f
000000e0: 22ad 7c3f b78e 7c3f f2a4 7c3f 829e 813f
000000f0: 9bb5 813f 57bf 7c3f bbc9 7c3f 43b4 7c3f
00000100: 0b59 813f 04cf 7c3f 5ebf 7c3f 0b7f 813f
00000110: 8875 813f b492 813f 85c2 7c3f aa09 7e3f
00000120: cc9f 813f efa8 813f f0a2 813f f180 813f
00000130: 5a9d 813f febb 7c3f 8899 813f 04aa 813f
00000140: 7999 813f b199 813f 25cc 7c3f ae89 813f
00000150: f9a4 7f3f 7f6d 803f 7fc4 7c3f 37c6 7c3f
00000160: b197 813f c2c7 7c3f 12e0 7c3f 9f8c 7c3f
00000170: 8e31 813f 1cd3 7c3f 90ca 7c3f cadd 7c3f
00000180: 149c 813f df8d 813f b595 813f 859c 813f
00000190: b9d0 7c3f f362 803f c2d0 7c3f af9d 813f
000001a0: 6ad0 7c3f 599d 813f 3e94 813f 8480 813f
000001b0: c898 7c3f 74d4 7c3f a989 813f ee82 813f
000001c0: 63da 7c3f 4ebb 813f 4496 813f e9c1 7c3f
000001d0: acd9 7c3f aeb3 7c3f 0e9b 813f 6fad 7c3f
000001e0: d29b 813f 1a82 813f 467d 813f 2ad0 7c3f
000001f0: 5a95 813f c7a7 813f e0bb 7c3f 588e 813f
00000200: da5f 7d3f 5487 813f 698c 7c3f 95e9 7c3f
00000210: 2aa2 813f 5cfc 7c3f 9d45 813f 8a85 813f
00000220: 487f 813f dbea 7c3f 078f 813f ba8d 813f
00000230: decc 7c3f 7cb6 7c3f f7e1 7c3f c4e5 7c3f
00000240: 8878 803f a3e2 7c3f 20d3 7c3f 58f0 7c3f
00000250: 748e 813f 3dac 813f fe98 813f 8093 813f
00000260: f30e 7d3f 5296 813f d98e 813f b9a2 7c3f
00000270: cb4a 813f 98f9 7c3f 21e4 7c3f 5d3a 7d3f
00000280: 11f5 7d3f 3fe9 7c3f f87d 813f c1bd 7c3f
00000290: 9e82 813f 2b9f 813f 7095 813f 75d8 7c3f
000002a0: c789 813f 547f 7e3f ee92 813f 2daa 813f
000002b0: c8e6 7c3f 49e5 7c3f 4aca 7c3f 44a6 7d3f
000002c0: 3810 7d3f c68b 813f 1192 813f 7599 813f
000002d0: b25f 7d3f a4cb 7c3f aaf2 7c3f 8c9b 7e3f
000002e0: 1793 813f 1399 813f 106c 813f 6a8c 813f
000002f0: d78d 813f 21f4 7c3f 4b75 813f 868c 813f
00000300: 644b 803f e163 803f 436f 7e3f 3e21 803f
00000310: 345f 803f b948 7f3f 48c5 7f3f 3c38 803f
00000320: c763 7f3f 3d8f 813f ba8a 7f3f 380f 7f3f
00000330: 08d7 7c3f d4f6 7c3f 29bc 803f 850c 7f3f
00000340: ac4c 7e3f cc59 803f 4556 803f cc6c 803f
00000350: e269 803f a711 7e3f 3c4b 803f da64 803f
00000360: e6b8 803f 5620 803f 8125 7f3f eb93 803f
00000370: 6758 7f3f d475 803f f1e7 7e3f fcb5 803f
00000380: b533 7f3f 9b6e 803f e9c5 7d3f a537 7f3f
00000390: 59bb 803f 1dad 7e3f 3847 803f 610d 7f3f
000003a0: df31 7e3f 2973 7f3f 615f 803f 32aa 803f
000003b0: 4163 7e3f 02b7 803f 0e7d 7e3f 7166 7f3f
000003c0: 3c35 813f 06d8 803f 6aac 803f fe24 7f3f
000003d0: de9f 813f 9e2c 803f c036 7f3f 8c32 813f
000003e0: 0a4d 803f ca70 803f 2f83 7e3f c0f0 7d3f
000003f0: 8027 7f3f 531b 7f3f 1d3a 7f3f 135f 803f

net.2.base_weight f4 [64, 64]
-0.016364457 -0.024796985 0.08716241 -0.1983415 0.015814293 -0.2773231 0.107532404 -0.11334329
0.08314189 -0.12116057 -0.0011056766 -0.23152941 0.11676634 -0.079953395 0.118104376 0.15500152
-0.13196121 -0.08769731 0.1364682 -0.25845304 0.20203489 0.04051891 -0.05302302 -0.03496642
0.086898275 -0.04926454 0.03410656 -0.030397233 -0.096272245 -0.14079842 -0.1832492 0.054612
0.12592277 -0.01419831 -0.13797213 0.11184044 -0.0152318245 0.2889188 0.0143187465 0.08273627
0.04754903 -0.016690858 0.17370118 -0.19321874 -0.056574885 -0.048075654 0.19623084 0.028502418
-0.0801466 -0.043498456 -0.12662092 0.16761982 -0.07927552 -0.16992204 0.05123181 -0.010700258
0.06392231 0.022612358 0.11924815 -0.23174903 -0.010590559 0.053675268 0.028402764 -0.015704628
0.099695 -0.03820389 0.061816644 0.008851099 0.008433985 -0.08926873 -0.019330742 0.05071241
0.1296299 -0.04562919 0.15653892 0.016299186 -0.010182335 0.0056865076 0.009158916 0.024070993
-0.08432037 0.109039895 0.005961449 0.15194435 0.10128974 0.09663155 0.048981328 -0.12313424
-0.011502468 0.19844985 0.053080536 0.09133117 -0.03890927 0.12388432 -0.008411689 -0.00265508
-0.014468885 0.14494866 -0.025565976 -0.16408287 0.064968 -0.0012867872 0.20506766 0.0037910747
0.071163006 -0.064703465 0.02482916 -0.070624635 0.10048348 -0.09901556 0.04011928 -0.03219692
-0.075824395 0.001044025 0.0357829 0.23691618 -0.07748085 0.2032374 0.011737572 0.055401187
0.08343502 -0.01648725 -0.1590016 0.14930353 -0.045586597 -0.12492401 -0.018834494 0.14810643
0.08839539 -0.01612172 0.09130675 -0.05047901 -0.17931235 -0.040378723 -0.04034392 -0.08291606
0.121950954 0.08339 0.0034515604 0.030639593 0.037161354 -0.007020188 0.0307925 0.064077266
-0.12009308 -0.07950534 0.114911854 -0.025396997 0.08128718 -0.077625535 0.0026865834 -0.012456745
-0.051462326 0.0073185014 -0.03986521 0.11462555 -0.12174564 0.046420965 -0.027402215 0.13333896
-0.0039816992 0.06139989 -0.21484795 0.18642937 0.061966848 0.10493981 -0.064642325 0.13363351
0.14227334 0.03353417 0.14085647 -0.15335712 -0.022947874 -0.071241096 0.0072722305 -0.19455409
0.08994815 -0.05551926 -0.16938397 0.14468181 0.07886998 -0.08440234 0.009195859 0.023968767
-0.087387465 0.039961144 0.06833898 -0.03674549 0.10055861 -0.003797525 0.025952056 0.053952966
0.048474524 0.07940854 -0.03039242 0.26890397 0.083215095 0.054804657 -0.057347827 0.04496772
-0.026374599 0.038876485 0.027998572 -0.019346956 -0.011383467 0.08042718 0.04602716 -0.14025277
-0.06714241 -0.0004258521 -0.01316451 -0.0153052565 -0.071830876 -0.066096365 0.16550405 -0.035126157
-0.011250391 0.056408502 -0.0656252 0.0055335895 -0.0038119252 0.12053397 0.17331307 -0.15724647
-0.0041320864 0.027862275 0.07248072 -0.045822877 -0.01362652 -0.060783297 0.084223635 0.03287952
0.058449436 0.08293759 -0.005013164 0.0218807 0.04152553 -0.03319314 0.0931957 -0.010124128
-0.20092078 0.022210032 0.008629907 -0.014275224 0.13568686 0.009537595 0.07693947 0.12955903
0.16487712 0.04456119 0.053204168 0.055748254 -0.030501634 -0.041554395 -0.086174145 0.07264807
00000000: c10e 86bc 0c23 cbbc 3582 b23d 091a 4bbe
00000010: fa8c 813c 4bfd 8dbe f339 dc3d 8720 e8bd
00000020: 4c46 aa3d 0823 f8bd 5aec 90ba 0c16 6dbe
00000030: 3123 ef3d 9bbe a3bd b5e0 f13d b8b8 1e3e
00000040: d720 07be a69a b3bd 52be 0b3e f553 84be
00000050: 3ce2 4e3e 28f7 253d ab2e 59bd f338 0fbd
00000060: b9f7 b13d 9dc9 49bd 52b3 0b3d 9e03 f9bc
00000070: 622a c5bd 762d 10be aea5 3bbe d5b0 5f3d
00000080: e6f1 003e 07a0 68bc 9148 0dbe 9a0c e53d
00000090: e78e 79bc 2aed 933e 2d99 6a3c a271 a93d
000000a0: c6c2 423d 44bb 88bc b9de 313e 22db 45be
000000b0: 11bb 67bd faea 44bd bdf0 483e e77d e93c
000000c0: e723 a4bd 702b 32bd eaa8 01be 88a4 2b3e
000000d0: 345b a2bd 0b00 2ebe 72d8 513d 2350 2fbc
000000e0: b3e9 823d 8d3d b93c 6038 f43d 9e4f 6dbe
000000f0: 0684 2dbc 99da 5b3d eaac e83c fea6 80bc
00000100: e42c cc3d af7b 1cbd 7333 7d3d 3304 113c
00000110: b22e 0a3c 86d2 b6bd 815b 9ebc d1b7 4f3d
00000120: b3bd 043e ace5 3abd bd4b 203e df85 853c
00000130: cfd3 26bc e255 ba3b 470f 163c 8830 c53c
00000140: 28b0 acbd 4f50 df3d 4258 c33b 4d97 1b3e
00000150: ff70 cf3d c3e6 c53d a5a0 483d ce2d fcbd
00000160: d974 3cbc 7036 4b3e fa6a 593d d60b bb3d
00000170: 545f 1fbd 10b7 fd3d 2ed1 09bc da00 2ebb
00000180: e70e 6dbc 6c6d 143e bd6f d1bc 5705 28be
00000190: f10d 853d 6aa9 a8ba 42fd 513e ae73 783b
000001a0: e9bd 913d 4083 84bd 8666 cb3c a6a3 90bd
000001b0: 48ca cd3d abc8 cabd 1d54 243d ebe0 03bd
000001c0: d249 9bbd aad7 883a 1791 123d 289a 723e
000001d0: 48ae 9ebd 771d 503e f24e 403c 5bec 623d
000001e0: fbdf aa3d 4510 87bc 51d1 22be 06e3 183e
000001f0: 03b9 3abd 29d8 ffbd cc4a 9abc 36a9 173e
00000200: a408 b53d b311 84bc 09ff ba3d 14c3 4ebd
00000210: a89d 37be 2964 25bd ab3f 25bd e5cf a9bd
00000220: 6cc1 f93d 60c8 aa3d 9333 623b e2ff fa3c
00000230: 8136 183d 9b09 e6bb 8e40 fc3c f13a 833d
00000240: 5cf3 f5bd b2d3 a2bd e856 eb3d 5d0d d0bc
00000250: e579 a63d 23fa 9ebd 6411 303b 6017 4cbc
00000260: 29ca 52bd 0ad0 ef3b b449 23bd cdc0 ea3d
00000270: c755 f9bd e923 3e3d 9c7a e0bc 028a 083e
00000280: ea78 82bb 737e 7b3d 1a01 5cbe 57e7 3e3e
00000290: f3d0 7d3d afea d63d 3263 84bd 39d7 083e
000002a0: 1ab0 113e 205b 093d ae3c 103e a609 1dbe
000002b0: 2efd bbbc dae6 91bd e44b ee3b 3039 47be
000002c0: bc36 b83d 2a68 63bd fe72 2dbe 7827 143e
000002d0: 9686 a13d 22db acbd 3aaa 163c 265a c43c
000002e0: 33f8 b2bd 4cae 233d 4ff5 8b3d 7082 16bd
000002f0: acf1 cd3d e6df 78bb 6899 d43c c9fd 5c3d
00000300: 398d 463d f2a0 a23d 86f9 f8bc c8ad 893e
00000310: ad6c aa3d d97a 603d 8ee5 6abd 1230 383d
00000320: 8b0f d8bc f33c 1f3d 435d e53c 827d 9ebc
00000330: b981 3abc 01b7 a43d fa86 3c3d 6c9e 0fbe
00000340: f681 89bd e744 dfb9 f5af 57bc e6c2 7abc
00000350: 111c 93bd 885d 87bd e579 293e 72e0 0fbd
00000360: 8f53 38bc 9a0c 673d 8166 86bd 1d53 b53b
00000370: 7ed1 79bb 84da f63d fb78 313e 3805 21be
00000380: 7466 87bb 6d3f e43c c670 943d c5b0 3bbd
00000390: c441 5fbc e8f7 78bd 717d ac3d adac 063d
000003a0: ad68 6f3d 2fdb a93d 7845 a4bb 273f b33c
000003b0: ad16 2a3d 88f5 07bd 63dd be3d acdf 25bc
000003c0: 2dbe 4dbe d0f1 b53c 7464 0d3c a1e2 69bc
000003d0: 7ff1 0a3e 9343 1c3c 7192 9d3d 1fab 043e
000003e0: 8cd5 283e cb85 363d 9dec 593d 4858 643d
000003f0: 90de f9bc f134 2abd 127c b0bd 83c8 943d

net.2.grid_points f4 [5]
-2.0 -1.0 0.0 1.0 2.0
00000000: 0000 00c0 0000 80bf 0000 0000 0000 803f
00000010: 0000 0040

net.3.coeff f4 [1, 64, 5]
-0.1362829 0.021895919 -0.064391695 0.040725168 -0.0043525873 -0.07104974 0.11496032 -0.112115785
0.019778296 0.02532574 -0.093746945 -0.083459884 0.035300124 0.0441544 -0.05552562 -0.013551072
0.08338048 0.12510552 0.18113466 -0.08999442 0.038811326 0.20046072 -0.050352126 -0.0698411
-0.05810235 0.111883536 0.13145205 -0.1928025 -0.15063077 -0.15695396 0.030214114 0.040089525
-0.028389048 -0.04684878 0.07446209 -0.13460575 0.10491412 -0.10625681 -0.04186486 0.02286425
-0.023336777 0.03374387 -0.052788705 0.11179736 -0.03444246 0.13019852 -0.028715255 0.026283858
-0.1312907 -0.06528441 -0.072450444 0.034630798 -0.08374921 0.046340052 0.05864142 -0.041727904
0.15475506 -0.020843364 -0.014982917 0.016462471 0.08406856 -0.07388592 0.047534347 -0.0734634
-0.029608956 -0.20479588 -0.06672225 0.045676164 0.19332151 -0.21805592 0.014848819 0.11951946
0.005561473 -0.06660641 0.031635575 -0.15123683 0.027704572 0.050103467 -0.0120372875 0.09145193
-0.13966596 0.10331669 -0.16348945 0.10105088 -0.07733953 0.07567483 -0.12634988 -0.09655197
0.0023634967 -0.14273779 -0.07686486 0.027054211 0.026103843 0.052412555 0.062875204 -0.054248936
-0.017922267 -0.018303309 -0.03715219 -0.063411266 0.1427682 0.12913714 -0.028683249 0.017074063
-0.01632884 0.061052777 -0.0012194889 0.013522545 0.177028 0.029011114 -0.11457026 0.118037954
0.05710883 0.012144788 0.06090268 0.0972596 -0.17571233 0.08076466 0.022361021 -0.060734924
-0.019681275 -0.0075244163 -0.037358966 0.10420614 0.001922543 -0.03499458 0.0009033108 -0.090576865
0.042970736 0.105222225 -0.12162698 0.037204213 -0.06297941 0.008259572 0.091581315 -0.023280805
-0.008003865 -0.21899241 0.23680645 0.1456333 0.17793985 0.02359436 0.0021888143 -0.042105403
0.08951018 -0.054113533 0.25847596 0.009831444 -0.15033159 -0.12702729 0.07516134 -0.038275342
-0.031966344 -0.03595838 0.11017755 -0.08143679 0.14527446 -0.038045254 0.0057932367 -0.008152482
-0.10894117 -0.0617086 -0.0089974115 0.19291075 -0.027106574 0.12191932 -0.024610447 0.1566867
-0.004382817 -0.09050605 0.03540247 0.0397249 0.0036103479 -0.10448716 0.01952594 -0.071860485
-0.23254596 0.0563587 0.13245742 0.044920366 0.07762774 -0.05121638 0.028338525 -0.00522656
-0.029393192 0.03462562 0.010528518 0.053975698 -0.037771553 -0.27401575 -0.05129601 0.13539226
-0.028234823 0.018708026 -0.09222276 0.0009884684 -0.015073061 0.117452115 -0.09250162 0.005745804
0.0030399552 -0.024356816 -0.037509263 -0.15300879 0.031487886 0.121243164 -0.1593859 0.16477433
0.08769014 0.12931886 0.010991341 0.07647218 0.05046478 0.053760145 -0.06378251 0.11743965
0.09266573 0.1593108 0.19893153 -0.028815132 0.13134451 -0.06461417 0.13726147 -0.0006226225
0.029876249 -0.26473585 0.12356063 -0.009930403 -0.036844376 -0.025198188 0.028256973 0.075342625
0.19774096 -0.1094034 0.20855746 0.0014264124 0.004656674 0.20576337 -0.06734596 0.014770519
0.004735451 0.12613499 0.0822796 -0.11615926 -0.016798364 -0.11506763 -0.093353204 -0.16033229
0.06341412 0.21779445 -0.052419715 0.03825327 -0.014820071 0.07212571 0.10814414 0.02928899
00000000: bf8d 0bbe 125f b33c cbdf 83bd 6fcf 263d
00000010: 26a0 8ebb 8782 91bd 5170 eb3d f69c e5bd
00000020: 1806 a23c ed77 cf3c 66fe bfbd 04ed aabd
00000030: dd96 103d 3edb 343d d56e 63bd 5105 5ebc
00000040: 63c3 aa3d a91b 003e 5d7b 393e ff4e b8bd
00000050: a0f8 1e3d 9345 4d3e 083e 4ebd da08 8fbd
00000060: bbfc 6dbd 3223 e53d 5e9b 063e 056e 45be
00000070: f43e 1abe 8ab8 20be 9783 f73c ea34 243d
00000080: 2690 e8bc 82e4 3fbd 957f 983d 17d6 09be
00000090: 37dd d63d 2c9d d9bd 7d7a 2bbd cf4d bb3c
000000a0: c52c bfbc 0337 0a3d f838 58bd 04f6 e43d
000000b0: 8913 0dbd c352 053e 413c ebbc 3f51 d73c
000000c0: 1271 06be d5b3 85bd e660 94bd 06d9 0d3d
000000d0: b584 abbd 11cf 3d3d fc31 703d e1ea 2abd
000000e0: 1c78 1e3e b4bf aabc e97a 75bc 4edc 863c
000000f0: 232c ac3d 8051 97bd 60b3 423d fb73 96bd
00000100: 7b8e f2bc 03b6 51be ada5 88bd ee16 3b3d
00000110: 13f6 453e 0d4a 5fbe 7648 733c 9ec6 f43d
00000120: 043d b63b f168 88bd 4e94 013d d4dd 1abe
00000130: b3f4 e23c 4b39 4d3d 0b38 45bc 264b bb3d
00000140: 9804 0fbe b397 d33d c769 27be c4f3 ce3d
00000150: 3064 9ebd 68fb 9a3d dd61 01be 0abd c5bd
00000160: e5e4 1a3b db29 12be 536b 9dbd cba0 dd3c
00000170: bad7 d53c 8cae 563d b7c4 803d 2234 5ebd
00000180: b8d1 92bc d2f0 95bc e52c 18bd c4dd 81bd
00000190: d431 123e 873c 043e 22f9 eabc e8de 8b3c
000001a0: 0fc4 85bc 7a12 7a3d 42d7 9fba aa8d 5d3c
000001b0: d446 353e b7a8 ed3c d0a3 eabd e2bd f13d
000001c0: f3ea 693d effa 463c 1775 793d 0b30 c73d
000001d0: efed 33be f167 a53d 762e b73c 2fc5 78bd
000001e0: a03a a1bc 618f f6bb b705 19bd 076a d53d
000001f0: d7fd fb3a 7a56 0fbd 29cc 6c3a 5d80 b9bd
00000200: 1502 303d c07e d73d 9117 f9bd 7263 183d
00000210: 59fb 80bd 2853 073c fc8e bb3d 63b7 bebc
00000220: a522 03bc 8c3f 60be 647d 723e e520 153e
00000230: dd35 363e f648 c13c 3672 0f3b b776 2cbd
00000240: 1d51 b73d 27a6 5dbd f656 843e 1114 213c
00000250: 86f0 19be 7113 02be 30ee 993d 9bc6 1cbd
00000260: 24ef 02bd 1849 13bd c4a4 e13d 55c8 a6bd
00000270: d4c2 143e 57d5 1bbd 31d5 bd3b fd91 05bc
00000280: 8c1c dfbd 28c2 7cbd e169 13bc 658a 453e
00000290: 9b0e debc d6b0 f93d d99b c9bc 7a72 203e
000002a0: bc9d 8fbb 3c5b b9bd 2e02 113d 94b6 223d
000002b0: 969b 6c3b 5dfd d5bd ddf4 9f3c 972b 93bd
000002c0: 8720 6ebe 61d8 663d eba2 073e 6bfe 373d
000002d0: 4bfb 9e3d 44c8 51bd 3226 e83c 9043 abbb
000002e0: fec9 f0bc 98d3 0d3d ce7f 2c3c 9f15 5d3d
000002f0: 58b6 1abd cb4b 8cbe c41b 52bd 45a4 0a3e
00000300: b74c e7bc 9341 993c 49df bcbd 7f8f 813a
00000310: 00f5 76bc bc8a f03d 7d71 bdbd 4c47 bc3b
00000320: fc39 473b f287 c7bc 50a3 19bd 56ae 1cbe
00000330: 71f9 003d 564e f83d 0f36 23be 9aba 283e
00000340: e396 b33d 2a6c 043e 0715 343c 729d 9c3d
00000350: 28b4 4e3d 9933 5c3d 68a0 82bd 3384 f03d
00000360: 88c7 bd3d 5f22 233e b5b4 4b3e b60d ecbc
00000370: 2d7f 063e 6f54 84bd 458e 0c3e 7d37 23ba
00000380: 09bf f43c 758b 87be 5b0d fd3d 21b3 22bc
00000390: 21ea 16bd 6e6c cebc 2b7b e73c 3c4d 9a3d
000003a0: 9b7c 4a3e e40e e0bd 1690 553e 75f6 ba3a
000003b0: 0397 983b a2b3 523e aeec 89bd 0c00 723c
000003c0: d82b 9b3b 8829 013e 3582 a83d e8e4 edbd
000003d0: b99c 89bc 94a8 ebbd f72f bfbd 262e 24be
000003e0: 43df 813d 8205 5f3e 0eb6 56bd 76af 1c3d
000003f0: e2cf 72bc a5b6 933d ad7a dd3d 77ef ef3c

net.3.scale f4 [1, 64]
0.9886658 0.98692924 0.9979208 1.0118163 1.012112 0.98804915 1.0071658 0.9891447
1.0115254 0.98752195 0.9968459 0.98721355 0.99579656 1.0121254 1.0044327 0.9888893
1.007407 0.98858553 1.011963 0.9880829 0.9862052 1.0122479 1.0122947 1.0135559
0.9883831 1.0123694 0.98800224 0.99642545 1.0020797 1.0102488 0.98751587 1.0121102
1.011359 1.0074593 0.9946995 1.0121975 0.99683726 0.990235 0.99358004 1.0122998
0.98783684 1.0119765 1.0120599 1.0124005 1.0073009 1.0131248 1.0118747 1.0119473
1.0038409 0.99133843 0.994298 1.003827 0.9886787 0.98774076 1.007411 0.9993177
0.99288046 1.003463 0.9876363 1.001971 0.9900641 0.9966666 1.00833 1.0128088
00000000: 3419 7d3f 65a7 7c3f bd77 7f3f 3283 813f
00000010: e38c 813f caf0 7c3f cfea 803f 9638 7d3f
00000020: aa79 813f 3dce 7c3f 4b31 7f3f 07ba 7c3f
00000030: 86ec 7e3f 538d 813f 4091 803f d927 7d3f
00000040: b6f2 803f f113 7d3f 0188 813f 00f3 7c3f
00000050: f277 7c3f 5791 813f df92 813f 33bc 813f
00000060: ad06 7d3f 5295 813f b7ed 7c3f bd15 7f3f
00000070: 2644 803f d54f 813f d7cd 7c3f d48c 813f
00000080: 3674 813f 6df4 803f a0a4 7e3f b08f 813f
00000090: ba30 7f3f 0a80 7d3f 435b 7e3f 0a93 813f
000000a0: e0e2 7c3f 7288 813f 2e8b 813f 5796 813f
000000b0: 3cef 803f 13ae 813f 1c85 813f 7d87 813f
000000c0: dc7d 803f 5bc8 7d3f 508a 7e3f 677d 803f
000000d0: 0c1a 7d3f 94dc 7c3f d8f2 803f 49d3 7f3f
000000e0: 6a2d 7e3f 7a71 803f bcd5 7c3f 9640 803f
000000f0: d774 7d3f 8b25 7f3f f510 813f b8a3 813f

net.3.base_weight f4 [1, 64]
-0.09000473 0.18733723 0.20245539 -0.037372116 -0.04229119 -0.017860908 0.08642432 0.15717319
0.08858741 0.16959752 -0.009268371 -0.005135038 -0.0021540215 0.14974211 -0.1809856 -0.046583444
0.08387281 0.2159785 0.026205584 0.11117197 0.08547266 0.16134623 -0.04296644 -0.082838185
-0.09366571 0.13830489 -0.1379092 0.08171816 0.07758245 -0.019661898 0.010294665 0.024110317
0.025143802 0.07566518 0.0083991885 0.083221965 -0.09985939 -0.016578786 -0.09304125 0.01676031
0.096397005 -0.025030138 -0.054152425 0.073444396 0.023359893 -0.18803579 -0.10464891 -0.1785643
-0.0050746775 0.123572946 0.14251994 -0.112205 -0.068431534 0.059885636 -0.09696831 0.0275198
0.23154451 -0.0051431814 0.031704582 -0.038182367 0.029125907 -0.038091 0.0039799726 -0.035172135
00000000: 6654 b8bd 55d5 3f3e 7750 4f3e 8113 19bd
00000010: 8739 2dbd 0a51 92bc 3cff b03d 02f2 203e
00000020: 516d b53d f9aa 2d3e 5eda 17bc d243 a8bb
00000030: 7c2a 0dbb ff55 193e 4a54 39be 48ce 3ebd
00000040: 82c5 ab3d 7829 5d3e 18ad d63c 21ae e33d
00000050: 4a0c af3d f237 253e 94fd 2fbd 11a7 a9bd
00000060: cfd3 bfbd cc9f 0d3e 1238 0dbe da5b a73d
00000070: 8ce3 9e3d fd11 a1bc f4aa 283c 0083 c53c
00000080: 60fa cd3c 59f6 9a3d c09c 093c 4770 aa3d
00000090: 1483 ccbd 3cd0 87bc 698c bebd eb4c 893c
000000a0: cb6b c53d 010c cdbc efce 5dbd 046a 963d
000000b0: 3f5d bf3c 748c 40be 2b52 d6bd 8fd9 36be
000000c0: 7b49 a6bb d013 fd3d bff0 113e bccb e5bd
000000d0: d525 8cbd a44a 753d 5297 c6bd 3471 e13c
000000e0: 011a 6d3e 2288 a8bb aadc 013d 1d65 1cbd
000000f0: 7499 ee3c 4f05 1cbd 6e6a 823b a810 10bd

net.3.grid_points f4 [5]
-2.0 -1.0 0.0 1.0 2.0
00000000: 0000 00c0 0000 80bf 0000 0000 0000 803f
00000010: 0000 0040
