data/trained_models/base_mu1_b_kan.pth (torch, 138786 bytes, 12 tensors)

net.0.coeff f4 [64, 10, 5]
000000 c4 0f c3 bd b6 98 9e bd 00 19 df bd c4 c2 04 3d
       -0.095244914 -0.07743971 -0.1089344 0.032412305
000010 49 09 33 3d bb 7d ba bd af b0 03 3d e3 b5 07 bc
       0.043710027 -0.091060124 0.03215092 -0.008283111
000020 56 b6 bb bd 41 cd 7d bd c3 5d e0 bd 02 4c 99 3a
       -0.09165637 -0.061963324 -0.10955384 0.0011695626
000030 5f 09 0c be 6f 37 d0 bb 97 45 01 3e 32 bc 26 be
       -0.1367545 -0.0063542644 0.12624203 -0.16282728
000040 5c 57 c4 3d 68 14 b8 bd 3c 13 01 be 6d b9 28 3e
       0.09586975 -0.08988267 -0.12604994 0.16476984
000050 80 86 c3 bc 3e 00 4e bd f0 a7 f9 bd 85 05 b3 3c
       -0.023867846 -0.0502932 -0.12190235 0.021853218
000060 3b 20 9c bd 6a 99 8a be d8 47 23 3b 82 fc 34 be
       -0.07623335 -0.2707017 0.0024914648 -0.17674449
000070 aa a6 44 bd 51 2a af bd a0 0d 9c bb 62 ab 70 3c
       -0.048010506 -0.08552993 -0.0047623664 0.014689298
000080 c1 43 e5 3d 4f 19 50 3d 38 a2 36 3d 6c 00 80 bd
       0.11194564 0.050805386 0.044588298 -0.062500805
000090 17 d1 26 3e 12 25 3f 3e 7d c2 df 3c d0 91 ab 3d
       0.16290699 0.18666485 0.027314419 0.08377421
0000a0 fb c4 3c be e8 ba 03 3e ea 14 6b 3d ee 8a ae 3d
       -0.18434517 0.12864268 0.057392992 0.085225925
0000b0 a8 24 38 3e 1d 82 04 3d d6 f0 82 bd b4 48 3f be
       0.17982733 0.03235065 -0.06393592 -0.18680078
0000c0 f6 6c ae 3d cb 8c 48 3d 7a f9 37 3e d3 cf fd bd
       0.085168764 0.048962396 0.17966262 -0.12393155
0000d0 91 a6 de 3c 03 88 1a bd 4c fc 24 bd 95 25 2e 3c
       0.027179034 -0.037727367 -0.04027967 0.010629077
0000e0 51 1f 2a be ad 9a 98 3d 6f ac a3 bc 27 c8 16 3e
       -0.16613509 0.07451377 -0.019979684 0.1472479
0000f0 96 9b d7 3c 87 54 dc 3d 2e e6 87 3b 3f 51 87 bc
       0.026319306 0.1075831 0.0041473126 -0.016518233
000100 ad 27 73 be ae 4d 74 be 2c 00 93 3d 0d f6 e8 3d
       -0.23745604 -0.23857757 0.07177767 0.113750555
000110 02 bc db 3c 4d 64 87 3d aa b8 a5 bd 82 40 4d bd
       0.026823048 0.06610928 -0.080918625 -0.050110348
000120 47 66 89 3b 68 5b 62 3d 47 7a 8c 3d 80 c8 2a bd
       0.0041931006 0.055262953 0.0685926 -0.041695118
000130 70 50 8a bb a2 31 36 be 72 76 0f be 55 9e 0a be
       -0.0042210147 -0.17792371 -0.14010027 -0.13536961
000140 a7 52 b6 3d 32 58 23 be bf a6 22 3c 8c 6d a7 3d
       0.089024834 -0.15951613 0.009927451 0.08175191
000150 7d fc 8f bd 29 cf b2 bc 14 c0 1d 3c 77 c5 5a bd
       -0.0703058 -0.021827297 0.0096283145 -0.053410973
000160 37 bb 8c 3d dc bf bb bd 4c f7 f8 3d 7a 69 69 3d
       0.06871646 -0.09167454 0.12156543 0.056985356
000170 bc 06 50 3d 01 3a ce bc d2 7f 08 be 02 ce ee 3d
       0.050787672 -0.025174143 -0.1333001 0.116603866
000180 00 23 f7 bc ed 04 06 3e 35 1c 57 3d 79 bc 50 3d
       -0.030168056 0.13087817 0.052517135 0.05096099
000190 40 8a 43 3a 26 a2 ae bc 4c 8d 65 3d a2 4e 9a 3d
       0.00074592605 -0.021317553 0.056042954 0.07534529
0001a0 93 3c 2a 3e a7 71 20 be ce a1 98 bd 12 b1 6f 3e
       0.1662467 -0.15668355 -0.07452737 0.2340739
0001b0 03 f6 87 3c ca 7f 49 3d 84 0a c1 bd 1c 50 80 bd
       0.0165968 0.049194135 -0.09425834 -0.0626528
0001c0 3f 1f 2e bb 2a 71 90 3c 0c e4 de bc d2 0f 72 bd
       -0.0026568917 0.017632086 -0.02720835 -0.05909712
0001d0 1c fe 45 3d fe 69 ab 3d e1 2a ae 3d e5 ca 07 3e
       0.04833804 0.08369826 0.08504272 0.13260992
0001e0 8b 7d 2d bd 8c f8 cb 3d 05 05 1e be 6e 11 e7 bd
       -0.042356055 0.09959516 -0.15431602 -0.11282621
0001f0 9a 10 98 bd 96 c2 b8 bd 3e a7 fd bd 78 f1 7a 3b
       -0.074250415 -0.09021489 -0.123854145 0.00382909
000200 e6 d6 ed 3c 07 7c 84 3d 3c 65 0a 3e 9a 7c 3d bc
       0.029033136 0.06468969 0.1351518 -0.011565352
000210 c4 3f 28 3d 2c 86 54 3c 50 c4 24 3d 8f d5 95 bd
       0.041076437 0.012971442 0.04022628 -0.07316124
000220 3b 2f 3b bd 4e fa 5e 3e bc d9 5a 3d 3d 3e a8 bd
       -0.04569934 0.21775171 0.053430304 -0.08214996
000230 f7 b2 4d 3e 2b fc c8 3b a6 e0 ed 3c 40 3b 8a 3d
       0.20087801 0.0061335764 0.029037785 0.06749582
000240 f9 ff cf bd 9c b8 64 bd 28 c4 17 be 64 34 70 bd
       -0.10156245 -0.05584012 -0.14820921 -0.058643714
000250 f6 fc df bd 6e 29 e5 bd a4 ef 59 bc 01 c7 e2 ba
       -0.1093692 -0.11189543 -0.013301764 -0.001730174
000260 c5 51 e5 bd c6 2a 59 ba eb 66 b5 3d 0a 7e c6 3d
       -0.11197237 -0.0008284267 0.08857521 0.09692009
000270 30 3d 33 be 14 86 be 3c f2 be 4f be bc db 11 be
       -0.1750381 0.023257293 -0.20287684 -0.14243978
000280 67 19 a9 bd 74 14 24 bc 94 18 45 bd 7b c1 b2 bd
       -0.08256798 -0.010014642 -0.048119143 -0.0872831
000290 8b 91 c7 bd 65 0a 02 be 11 41 56 be 4a 41 8f bd
       -0.09744557 -0.12699278 -0.20923258 -0.06994875
0002a0 71 4d cf 3c 02 78 e9 3d 21 be 52 bd 02 e2 87 bd
       0.025305482 0.11399843 -0.051450852 -0.066349044
0002b0 55 5b d2 3c ff 9c bb 3d fd 1f 06 be f9 5c a8 3d
       0.025678316 0.09160804 -0.1309814 0.08220858
0002c0 fe fe 12 3d 67 5c 74 3d 1a 4e ac 3d 6e 2b 2e bd
       0.03588771 0.059658434 0.08413334 -0.042521887
0002d0 f2 e4 a3 3c 27 1f fd 3c d9 c3 e1 3d 8e 37 46 3a
       0.02000663 0.030898644 0.11023683 0.0007561379
0002e0 cb f5 7a 3d 8c 02 34 bd 81 96 e4 bc d3 a5 ea 3d
       0.061269563 -0.04394774 -0.027903797 0.1145741
0002f0 00 4e 72 bc 76 f2 a0 bd 50 0f 63 bd 70 18 a7 bc
       -0.014789104 -0.07858746 -0.055434525 -0.020397395
000300 7e f4 7d bd 9c 48 f5 3d 4f 0e 35 3e 89 b3 d8 bd
       -0.062000744 0.1197674 0.1768124 -0.105811186
000310 57 1c 3e 3d c7 23 69 3d 87 4a cc bd c7 3e 41 be
       0.046413746 0.056918886 -0.099751525 -0.18871604
000320 49 e5 9b 3d b9 8f ce 3d 34 c5 97 bd 09 6a b7 bd
       0.07612092 0.10086007 -0.074106604 -0.089557715
000330 d4 39 32 3d 06 6a 8b bd 8c 46 c6 bc 4b 07 14 3e
       0.04351218 -0.06807332 -0.024203561 0.14455907
000340 be ec 8c 3d 00 c3 3f bd e3 31 cb 3d 8f c3 f9 3c
       0.068810925 -0.046816826 0.099216245 0.030488757
000350 a9 b8 1c 3d 88 b3 d9 bd d7 fa 58 bb 4e a6 0b 3e
       0.038262043 -0.10629946 -0.0033108497 0.13637659
000360 e6 fd 12 bd 23 b2 2f be d2 d8 ab bc ba a3 2c 3d
       -0.035886668 -0.17157798 -0.020977411 0.04214833
000370 68 fc 82 bd f3 7e a9 bd 68 f0 e9 bd 52 15 d6 bb
       -0.06395799 -0.08276167 -0.11422807 -0.0065333033
000380 a4 07 cc 3d 63 9b 16 bd ca e0 8f bd 37 4c 08 3d
       0.09962395 -0.036769282 -0.07025297 0.03327581
000390 b2 5c 95 bd b6 44 55 3e 6e 33 2d 3d be f9 6c bd
       -0.07293071 0.20826992 0.042285375 -0.05785536
0003a0 4e 0e 2c 3d 35 60 6c 3d f1 7f 06 bd 24 18 9b bc
       0.04200583 0.057708938 -0.03283686 -0.01893241
0003b0 74 89 f4 bd 45 12 d0 bd 93 50 80 bd 06 33 15 3c
       -0.119402796 -0.10159735 -0.06265368 0.009106403
0003c0 7c ee 2d 3d 47 81 89 bd 86 bb f0 3d ba 2a c8 bc
       0.042463765 -0.06714111 0.11754517 -0.024434436
0003d0 64 c0 95 bd 7e 01 8f 3c e8 7a f7 3c b6 dd 90 bd
       -0.07312086 0.017456766 0.030209973 -0.07073538
0003e0 8b cd 1d be eb 98 39 be e3 17 74 3d 35 61 19 be
       -0.1541044 -0.1812474 0.059593093 -0.14978488
0003f0 50 1d 84 be d3 0b b8 3d 2e 04 3c 3d aa dc ba 3d
       -0.25803614 0.0898663 0.045902424 0.091241196

net.0.scale f4 [64, 10]
000000 dc b6 81 3f 26 d1 7e 3f 5a 4c 83 3f a2 71 81 3f
       1.0133929 0.99537885 1.0257676 1.0112803
000010 e2 fb 7d 3f be 9d 80 3f 69 c6 7b 3f 50 cf 7f 3f
       0.9921247 1.0048139 0.98349625 0.9992571
000020 0d 0f 84 3f 09 fc 82 3f d1 da 7e 3f 1a 2f 82 3f
       1.0317093 1.0233165 0.9955264 1.0170624
000030 32 cc 80 3f 63 6a 81 3f 72 90 80 3f 08 f3 7e 3f
       1.0062315 1.0110592 1.0044081 0.99589586
000040 56 56 80 3f 38 1a 80 3f 86 91 7d 3f 70 ea 7d 3f
       1.0026348 1.0008001 0.99050176 0.9918585
000050 bc a8 7b 3f a1 6b 82 3f c2 42 7c 3f 29 f9 82 3f
       0.98304343 1.0189096 0.98539364 1.0232288
000060 6a e8 80 3f 25 be 80 3f 75 fb 7b 3f c1 f0 81 3f
       1.0070927 1.0058028 0.9843057 1.0151597
000070 7f c6 84 3f 93 aa 81 3f 5b fd 81 3f fc 74 7b 3f
       1.0373076 1.013018 1.0155443 0.9822538
000080 0f 10 82 3f da 47 84 3f ad c3 81 3f 4e ad 7b 3f
       1.0161151 1.0334427 1.013784 0.98311317
000090 f9 76 79 3f 14 df 83 3f 3d a9 80 3f d0 cf 86 3f
       0.9744716 1.0302453 1.0051647 1.0532169
0000a0 3a 04 81 3f 47 1a 82 3f 00 fa 80 3f 1a d6 80 3f
       1.0079415 1.0164269 1.0076294 1.0065339
0000b0 b1 1f 7b 3f b2 45 80 3f 15 d9 77 3f 2f 44 7d 3f
       0.9809523 1.0021269 0.96815616 0.98932165
0000c0 7a 05 85 3f be c3 82 3f 12 2b 79 3f 50 38 82 3f
       1.0392296 1.0215986 0.97331345 1.0173435
0000d0 33 d3 7b 3f 7c 19 81 3f d5 da 85 3f a0 78 81 3f
       0.9836914 1.0085902 1.0457407 1.0114937
0000e0 be d0 81 3f 57 5f 81 3f 2f 05 82 3f f6 89 80 3f
       1.0141828 1.010722 1.0157832 1.0042102
0000f0 80 c2 7d 3f b1 00 81 3f c6 77 7b 3f 2f 83 82 3f
       0.9912491 1.0078336 0.98229635 1.0196284
000100 ab 54 83 3f b4 c3 7e 3f 46 b2 81 3f 56 5d 7a 3f
       1.0260214 0.9951737 1.013253 0.9779867
000110 2a 7e 7e 3f 59 f1 7a 3f 97 bf 80 3f e2 43 82 3f
       0.9941126 0.9802452 1.0058469 1.0176966
000120 ab b3 81 3f f9 e2 78 3f 25 3b 82 3f 82 1d 81 3f
       1.0132955 0.9722133 1.01743 1.008713
000130 7e e8 7d 3f 1c 7f 84 3f a2 1f 7c 3f 63 2e 82 3f
       0.9918288 1.0351291 0.9848577 1.0170406
000140 6b 38 82 3f 40 27 80 3f b2 aa 81 3f 46 5f 7e 3f
       1.0173467 1.0011978 1.0130217 0.99364126
000150 90 03 80 3f 95 2f 83 3f 50 0d 80 3f 36 ab 84 3f
       1.0001087 1.0248896 1.0004063 1.036475
000160 14 df 80 3f 15 27 81 3f f2 a8 82 3f 38 c9 82 3f
       1.0068078 1.0090052 1.0207808 1.0217657
000170 27 f5 79 3f 5f 4d 7e 3f 96 86 82 3f 45 ff 7d 3f
       0.976397 0.9933681 1.0197322 0.99217635
000180 d4 89 82 3f 99 93 7e 3f 48 39 83 3f 54 d9 7b 3f
       1.0198312 0.99443966 1.0251856 0.9837849
000190 a6 cc 7e 3f 3c 66 7c 3f af 11 80 3f b4 ae 80 3f
       0.9953102 0.985935 1.0005397 1.0053315
0001a0 d8 85 80 3f 4b 89 81 3f 7c 18 82 3f 95 94 77 3f
       1.0040846 1.0120023 1.0163722 0.96711093
0001b0 a1 d7 80 3f 95 4f 7f 3f 01 e5 7d 3f 76 6f 80 3f
       1.0065805 0.9973081 0.9917756 1.0034015
0001c0 7f 9c 79 3f 45 46 81 3f 7b 6d 7c 3f 7a d3 7f 3f
       0.9750442 1.009957 0.98604554 0.9993206
0001d0 98 6a 84 3f 9c b4 83 3f ec 61 83 3f b4 17 80 3f
       1.034503 1.0289493 1.0264258 1.0007234
0001e0 74 b8 80 3f 7c b3 7c 3f 50 8a 81 3f ce 13 83 3f
       1.0056291 0.9871137 1.0120335 1.0240419
0001f0 10 88 87 3f 99 43 7f 3f 92 b0 7f 3f 95 22 7d 3f
       1.0588398 0.9971252 0.998788 0.98880893
000200 f1 67 7e 3f fe 11 82 3f 26 b6 7c 3f ff db 7f 3f
       0.9937735 1.0161741 0.98715436 0.9994506
000210 0c 87 81 3f a6 e5 80 3f f5 65 8b 3f 70 fe 7e 3f
       1.0119338 1.0070083 1.089049 0.9960699
000220 44 14 80 3f d7 3a 81 3f e3 b1 80 3f 27 05 7c 3f
       1.0006185 1.0096081 1.0054287 0.9844536
000230 2f c7 7e 3f 16 03 80 3f e3 1d 81 3f 09 37 7f 3f
       0.9952268 1.0000942 1.0087246 0.9969335
000240 b4 3f 81 3f bc cb 80 3f a5 e7 7e 3f d7 4b 7f 3f
       1.0097566 1.0062175 0.9957221 0.997251
000250 16 08 80 3f 04 61 7a 3f 68 85 80 3f 88 79 80 3f
       1.0002468 0.97804284 1.0040712 1.0037088
000260 8a 37 80 3f c2 e6 81 3f 7f 30 80 3f 30 d7 80 3f
       1.0016949 1.0148547 1.00148 1.006567
000270 08 c1 7d 3f 08 3e 76 3f 97 2b 80 3f f2 eb 80 3f
       0.9912267 0.961884 1.0013303 1.0072005
000280 43 66 7f 3f 29 a0 80 3f e4 e5 80 3f 17 bf 7b 3f
       0.99765414 1.0048877 1.0070157 0.98338455
000290 c7 d5 80 3f 53 d4 80 3f dc 3f 7c 3f 16 2d 81 3f
       1.006524 1.0064796 0.9853494 1.0091884
0002a0 8b ea 7c 3f a6 d9 7c 3f 1c c1 7c 3f ad 61 7f 3f
       0.98795384 0.98769605 0.9873216 0.99758416
0002b0 00 20 7e 3f 53 90 7e 3f cd b7 80 3f 62 f1 81 3f
       0.9926758 0.9943897 1.0056092 1.0151789
0002c0 7b 2b 82 3f b6 da 75 3f af 60 84 3f a0 cd 80 3f
       1.0169519 0.9603685 1.0342005 1.0062752
0002d0 03 c0 81 3f 3c 0f 80 3f 11 3a 80 3f c3 fa 7b 3f
       1.0136722 1.0004649 1.001772 0.98429507
0002e0 7d d0 81 3f 5c a8 79 3f 2f c7 7f 3f 6a 88 81 3f
       1.014175 0.9752252 0.99913305 1.0119755
0002f0 a3 bb 87 3f 06 20 86 3f ff 1e 7e 3f 5a 89 7f 3f
       1.0604137 1.0478523 0.99266046 0.99818957
000300 30 8c 80 3f 60 b4 7e 3f 5a 6e 6a 3f 42 33 82 3f
       1.0042782 0.9949398 0.91574633 1.0171893
000310 24 e8 7f 3f 4f c7 81 3f 2b 50 85 3f 1b 3f 78 3f
       0.99963593 1.0138949 1.041509 0.9697129
000320 20 43 82 3f 54 4b 7f 3f b3 7b 80 3f 70 55 7f 3f
       1.0176735 0.99724317 1.003775 0.9973974
000330 a3 82 7d 3f dd 00 80 3f 4d 70 7f 3f 46 c8 82 3f
       0.9902746 1.0000263 0.9978073 1.0217369
000340 9c 85 80 3f 8a 3d 82 3f 64 57 80 3f 4b de 7f 3f
       1.0040774 1.017503 1.002667 0.9994857
000350 d8 d0 80 3f b6 fa 7a 3f a8 14 85 3f 73 57 82 3f
       1.0063734 0.98038805 1.0396929 1.0182937
000360 24 7e 7b 3f ec 43 7e 3f 9e 4b 85 3f 25 83 82 3f
       0.9823935 0.9932239 1.0413702 1.0196272
000370 4c 15 7e 3f 1a 84 82 3f 49 e2 7e 3f b3 63 7e 3f
       0.99251246 1.0196564 0.99564034 0.9937088
000380 5c 19 80 3f 3d 24 82 3f 3e 9f 7d 3f 99 fa 82 3f
       1.0007739 1.0167309 0.9907111 1.0232726
000390 7d bc 7d 3f 0a 22 80 3f 0c b1 83 3f 3f 65 7d 3f
       0.99115735 1.0010388 1.0288405 0.98982614
0003a0 25 9e 7f 3f 4d 93 81 3f 1c 2e 7e 3f 6d 58 80 3f
       0.99850684 1.0123078 0.9928911 1.0026985
0003b0 74 ac 80 3f 1d bf 7e 3f b3 6b 7f 3f 33 0f 7d 3f
       1.0052629 0.99510366 0.9977371 0.9885132
0003c0 cf cc 82 3f 97 de 83 3f d0 55 7c 3f f5 6e 7e 3f
       1.0218753 1.0302304 0.9856844 0.99388057
0003d0 73 f4 80 3f 68 a3 7a 3f 0b 07 7a 3f d0 47 81 3f
       1.00746 0.9790559 0.97666997 1.010004
0003e0 37 ef 7f 3f 75 79 84 3f 99 8e 7e 3f 36 f7 80 3f
       0.9997439 1.0349566 0.99436337 1.0075443
0003f0 14 d5 7d 3f b9 6b 7e 3f 54 1c 81 3f 98 8b 83 3f
       0.99153256 0.9938312 1.008677 1.0276976

net.0.base_weight f4 [64, 10]
000000 03 80 a9 bb 4c 0f 82 3c 5f 48 83 3d 31 42 63 be
       -0.005172731 0.015876435 0.06410288 -0.22193219
000010 e6 41 89 3d 18 bf 53 3d cc 0f 24 3d 2e f1 3e 3d
       0.06702022 0.051695913 0.040054128 0.046616726
000020 52 f1 9c 3d bc 3f 87 3c 8b 74 a7 bd bc dd be 3d
       0.07663216 0.016509883 -0.08176526 0.09319636
000030 e7 2e 14 bd 5d c8 37 bd b1 f3 e6 ba fd c3 b4 bd
       -0.036177542 -0.044868816 -0.0017620233 -0.08826444
000040 cb f8 e4 3d 5e 06 e2 bc 44 b6 f6 3c bc 5d 78 3d
       0.11180266 -0.027590927 0.030116208 0.060636267
000050 46 e6 80 3d 2e 3e 9e bc f6 e6 4c 3e 9e 66 0a be
       0.06293921 -0.019316759 0.2000998 -0.13515708
000060 12 18 4e 3e 1d ec 32 3d f6 a1 f1 bc fe d1 14 3a
       0.2012637 0.043682206 -0.029496174 0.0005677043
000070 dc 26 12 3d 85 3a 48 3b db 97 3b bd c6 f6 4e 3e
       0.03568159 0.0030552458 -0.045799118 0.20211324
000080 7c 76 06 bd 02 fb 84 3d 4a b3 a9 3d 03 50 2b be
       -0.03282784 0.064931884 0.0828615 -0.16729741
000090 03 79 49 3d d6 23 58 3d ad f7 8d 3d 43 b7 1b 3c
       0.04918767 0.05276855 0.06932006 0.009504142
0000a0 5e 96 2b be 45 0b 15 be cd 8c 23 3e f3 19 1c be
       -0.1675658 -0.1455508 0.1597168 -0.15244274
0000b0 00 51 92 bc 41 0b 16 3c db 50 19 3e 4e 92 07 bc
       -0.01786089 0.009157957 0.1497225 -0.008274628
0000c0 b0 37 3b be 03 1e 77 bd 3a 59 90 3c 4c 0a ce bd
       -0.18282962 -0.060331356 0.017620672 -0.10060558
0000d0 5e cc e9 3d 42 22 51 3e 51 a0 5f bc ce dd f3 3d
       0.11415933 0.20423225 -0.013649062 0.1190754
0000e0 32 b0 1a 3d d0 1c a6 3d 7c 0f 8f be c0 a1 6b 3c
       0.03776569 0.08110964 -0.279415 0.014381826
0000f0 14 82 e6 3d 70 da 22 3d 92 04 0a bd c4 22 f4 bd
       0.11255279 0.0397591 -0.033695765 -0.119206935
000100 eb 5e 1b be df d2 a2 bd 26 fa 2b bd af 67 27 3b
       -0.15172927 -0.07950377 -0.041986607 0.0025543978
000110 be 24 08 3e dd 6d 03 3e d2 a4 10 3e fa 0c 46 be
       0.13295266 0.12834878 0.14125374 -0.19340888
000120 a7 e9 fd 3d a9 f6 6b bd e6 36 03 be aa 35 27 bd
       0.12398081 -0.05760828 -0.12813911 -0.040822662
000130 45 6a aa bc 6b 11 16 3e 70 ae c5 bc f5 9b bf 3c
       -0.020802626 0.14655082 -0.02413103 0.023389796
000140 74 cf 75 be a4 06 bc 3d 8e 75 85 3d 3b aa 0e bb
       -0.24004918 0.09180954 0.065165624 -0.0021768946
000150 bd 82 16 3d fe 1c 2d 3e f9 2c 1a be 0a 49 2a be
       0.036745775 0.16905591 -0.15056218 -0.16629425
000160 a7 00 63 3c 4d fe b8 3c f3 1c 9f 3d 21 6d 73 bd
       0.013855136 0.022582198 0.077691935 -0.059430245
000170 5b 59 44 3d 50 c4 1c bc 63 5d ac 3b b5 71 1e 3e
       0.04793678 -0.009568289 0.005260156 0.15473063
000180 5c 27 e9 3d e3 b3 56 bd f0 d0 f4 bd fb 06 0e be
       0.1138446 -0.052417647 -0.11953914 -0.1386985
000190 79 d4 cd 3d 15 15 7a bd 09 8b ac 3d 39 e1 a8 3d
       0.100502916 -0.06105526 0.08424956 0.08246083
0001a0 6c 3c 55 be 5d 7a 2d be 50 da fc bd ab e8 29 be
       -0.2082383 -0.16941209 -0.12346327 -0.16592662
0001b0 d4 55 75 bc 5f 1d 81 be 98 b1 2f 3e f8 d5 0b bd
       -0.014974076 -0.2521772 0.1715759 -0.034139603
0001c0 4b 23 17 be c5 84 b5 3c b6 a4 05 3e 26 42 eb bd
       -0.14759557 0.022158036 0.13051113 -0.11487226
0001d0 78 62 fe bc bc 1a 03 be fb 89 b0 bd 27 34 fc 3d
       -0.031052813 -0.12803167 -0.08620068 0.12314635
0001e0 eb 2f 91 bb 8c 1d 44 bd 40 9b 93 3b 6c 37 94 bd
       -0.004430761 -0.04787974 0.004504591 -0.072371334
0001f0 27 29 8c bd b3 11 7c 3d ab 5d a9 bd c3 2c 5b 3d
       -0.06843787 0.061540317 -0.08269819 0.053509485
000200 4a 8b 5a be f8 f8 31 bd 26 50 b4 bd 3e ea c4 bc
       -0.21342197 -0.043450326 -0.088043496 -0.024037477
000210 cc 91 89 be 9d de ea 3d 27 dd 9c bd ac 17 26 3e
       -0.26869047 0.11468241 -0.07659369 0.16219968
000220 fe 99 b0 bd cb ce eb bc 6e 98 d0 bd e9 63 16 3e
       -0.08623122 -0.02878513 -0.10185324 0.1468655
000230 89 db a3 3c a4 c8 65 3e b9 fc d2 3b 7f a2 3c bd
       0.020002143 0.2243982 0.0064388183 -0.046053406
000240 19 09 85 bc 97 f4 08 3c 03 2b 8b bd 5d b6 65 3c
       -0.01623969 0.008359096 -0.06795313 0.01402053
000250 d3 d1 8f be e2 80 3c bd 3b 74 34 be 87 8b 5a bd
       -0.2808977 -0.04602135 -0.17622463 -0.05335572
000260 fc d0 14 bd a4 d3 84 3d d6 11 ca bd 15 0c 5b bd
       -0.036332116 0.0648568 -0.09866683 -0.05347832
000270 93 7b fb 3d 8e ae b0 b8 f3 02 e1 3d 1e d7 7a 3d
       0.12279429 -8.424847e-05 0.10986891 0.061240308
000280 52 3f 23 3d 64 73 8f bd 54 a8 8c 3d 6d 20 ef bd
       0.03985531 -0.07004431 0.068680435 -0.116761066
000290 5d 8e 90 3c 73 b8 a5 3c fc 43 25 3e c4 29 cf bc
       0.01764601 0.020229554 0.16139215 -0.02528847
0002a0 30 92 45 bd e8 d4 7d bd 28 ab 4b bd f0 4f e9 3d
       -0.04823512 -0.06197062 -0.049723774 0.113922
0002b0 fb e7 37 bd 35 6d 68 3d ff cb 93 3d b7 82 8a 3d
       -0.04489897 0.056744773 0.072166435 0.06763213
0002c0 df 84 82 3d ef 38 0e bd d5 26 38 3d 58 8c 64 be
       0.063729994 -0.034722265 0.044958908 -0.22319162
0002d0 df 28 f2 3d f7 54 e8 bd 44 aa 1c 3d f6 71 75 3c
       0.11824202 -0.11344331 0.038248315 0.014980784
0002e0 5c b3 cb 3d 30 a3 1f bd d5 56 2f 3d 38 16 9b bd
       0.099463195 -0.038973987 0.04280742 -0.07572597
0002f0 0b 1f 8e ba 68 90 31 3e f1 b0 bf bd bc 95 04 3d
       -0.0010842992 0.17340243 -0.09359921 0.03236936
000300 b7 c4 b3 bd a3 bb a0 bd 8f ee fd 3c bf ab 17 3e
       -0.08777755 -0.07848289 0.030997543 0.1481161
000310 d9 29 63 bd 6a 71 c3 3b a8 fd 04 be 93 f8 ae 3c
       -0.05545983 0.0059644477 -0.12987387 0.021358764
000320 fd d2 40 bd 87 fa 8f bd 09 e2 11 bc 0d b0 31 bd
       -0.047076214 -0.07030206 -0.008903989 -0.043380786
000330 73 98 71 bd 25 65 fa bd 2f 81 26 3d d3 80 3a bd
       -0.058983278 -0.12226323 0.040650543 -0.045533013
000340 68 48 eb bd ac 6a 71 3e 46 1e 05 3d 93 e3 7d 3d
       -0.1148842 0.23575848 0.032499574 0.06198461
000350 47 3c ce 3a 8f cf cf bd b6 85 85 bc 76 07 2c be
       0.0015734517 -0.101470105 -0.01629911 -0.16799721
000360 ff 2c 2f bd 7f b4 75 3d 4f a2 42 bd 89 93 04 3e
       -0.04276752 0.059986588 -0.04751807 0.12946905
000370 ea 94 13 be c2 db 30 bd 50 c2 46 be 12 78 14 3e
       -0.14412275 -0.043178327 -0.19410062 0.14498928
000380 9d 5f 0d be 06 63 5f 3d 62 00 1a 3e ef ef 56 3c
       -0.13806005 0.054537795 0.15039209 0.013118728
000390 82 49 4a 3d 23 74 ca 3c 3e 76 97 bc 1a 2e 2a bc
       0.04938651 0.024713581 -0.018489 -0.010386968
0003a0 1c 96 08 3d 2d 9c 1a be 6b c9 be 3d a0 7b 9b bd
       0.03334628 -0.15098639 0.09315761 -0.07591939
0003b0 79 0c 2b be b6 3c 10 bd 87 b7 cf bd 45 19 84 bb
       -0.16703977 -0.03521415 -0.10142427 -0.0040313327
0003c0 c6 f0 5e be 09 35 59 3e 01 59 26 3e 8b c9 b9 bd
       -0.21771535 0.21211638 0.1624489 -0.090716444
0003d0 6b 23 a0 3c 75 8b a5 bd 1d 77 d7 3d 66 83 3a 3c
       0.019548139 -0.0808324 0.10520766 0.011383867
0003e0 bd 80 aa 3d 27 9d 24 be 46 15 d6 3d e0 c4 05 3d
       0.08325336 -0.16075574 0.10453276 0.032658458
0003f0 f1 6c 7d bd e1 87 00 bd f9 c6 1c bc 8f 3a 19 be
       -0.061871473 -0.031379584 -0.009568923 -0.14963745

net.0.grid_points f4 [5]
000000 00 00 00 c0 00 00 80 bf 00 00 00 00 00 00 80 3f
       -2.0 -1.0 0.0 1.0
000010 00 00 00 40
       2.0

net.2.coeff f4 [64, 64, 5]
000000 61 74 7c 3e a9 fe 02 bd bd 69 d4 bd 7d fd fd 3d
       0.2465377 -0.031981144 -0.103717305 0.12401865
000010 a0 fd 52 bd 51 c5 54 3d 84 ea db 3d ac 27 1d 3e
       -0.051511407 0.051945988 0.1073809 0.15347165
000020 25 38 a2 3d 30 f5 1b 3e dc a2 19 bc 5a e4 2a be
       0.07920865 0.1523025 -0.009377208 -0.16688672
000030 e1 f6 e2 bd 21 37 93 bb a8 49 d5 3d 25 ba 56 3d
       -0.11082245 -0.004492656 0.104144394 0.052423615
000040 3f fb 10 bd 5d 38 a6 bd 89 4a f2 bb 21 42 13 bd
       -0.035395857 -0.08116219 -0.007394139 -0.035951737
000050 66 71 01 be f7 58 df 3d 82 81 6a 3c 5e 88 ab bc
       -0.12640914 0.109056406 0.014313104 -0.020939048
000060 eb 4f a7 3d df 5c 90 3d e8 7e e5 bd 69 77 b6 3d
       0.0816954 0.07048964 -0.11205846 0.089094944
000070 5b 18 37 3e c3 66 ff 3d 01 e6 d3 3d 3d 66 9f bd
       0.17880385 0.12470772 0.10346604 -0.07783172
000080 12 d2 e1 bb 6b f4 14 bd cb 1e cc bd 52 2a 3b 3d
       -0.0068914974 -0.036365908 -0.09966811 0.045694657
000090 79 aa 17 3e 5f 0f 1b bd 98 e4 d2 3c 85 61 d7 bc
       0.14811124 -0.037856456 0.025743768 -0.026291618
0000a0 61 94 57 3d 5c 96 6b 3d 42 94 f9 bc 4e d5 35 be
       0.05263174 0.05751644 -0.030466203 -0.1775715
0000b0 24 ef 85 3d 81 81 e8 ba 64 9a 54 3e 6e 6b 67 3d
       0.06539753 -0.001773879 0.2076202 0.056498937
0000c0 f9 c1 1e bc d5 ad 4c bd d9 5f b1 3b 4c d0 25 bd
       -0.009689801 -0.049970467 0.0054130373 -0.04048185
0000d0 97 79 54 3e 8c 0e 02 be 4d db b5 bc 02 90 a3 bd
       0.20749508 -0.12700862 -0.022199297 -0.07986452
0000e0 ec 42 04 3d be 31 30 3d 3e 9e 0c bd 02 c3 b6 3c
       0.032290384 0.043016188 -0.0343306 0.022309784
0000f0 68 14 f2 bc 2c e6 32 be 13 97 ee bc dd 10 21 be
       -0.029550746 -0.17470616 -0.029124772 -0.15729089
000100 5a 22 4e 3c 58 3b d3 3d fd 9b 0c bd 50 7c 9d bd
       0.012581432 0.10314053 -0.03432845 -0.07689726
000110 f2 eb 65 bc 33 fe d9 bc e5 84 54 3d bc ac d3 bd
       -0.0140333045 -0.02661047 0.05188455 -0.10335681
000120 7f 35 d4 3c 01 99 b3 3d cd b8 32 be 78 2b b4 bd
       0.025904415 0.087694176 -0.17453308 -0.087973535
000130 3b da 0f be a2 d4 02 3e d1 c7 9d be 29 2e a2 bc
       -0.14048092 0.12776425 -0.3081651 -0.019797402
000140 3b 0e 74 3d c9 c1 8c 3d 32 1c 39 3d cf 12 b7 bd
       0.059583884 0.06872899 0.045192905 -0.08939134
000150 dd 73 1c be da cb 19 bd 87 04 0e 3d f1 a1 15 3e
       -0.15278573 -0.037547924 0.034672286 0.14612557
000160 1b 68 ff 3b be c0 f5 3d db c2 ea 3d 06 4d 1d 3d
       0.0077943928 0.11999653 0.11462947 0.038403533
000170 27 f0 24 bc d3 c4 5a 3d 16 21 89 be a0 80 3f bd
       -0.010067022 0.053410362 -0.26783055 -0.046753526
000180 19 dd 3a 3e 8a 8c c3 bc b8 b8 83 3c 25 68 8f bc
       0.18248405 -0.023870725 0.016079292 -0.017505715
000190 79 57 d6 bc 75 c3 29 3c 93 95 eb bd 64 8c 93 bd
       -0.026164757 0.010361542 -0.115031384 -0.07204512
0001a0 05 25 6c bd 8b b0 70 bd 6d 3a e8 bc 1c db 43 3d
       -0.057652492 -0.058762114 -0.028348172 0.04781638
0001b0 ba 2a 7b bd 33 f8 e9 3c 5b e5 14 3e a7 5d bf 3d
       -0.061320044 0.028560733 0.14540617 0.09344035
0001c0 5d 93 59 bd d9 79 bb 3c 72 fd e3 bd c7 c0 40 bd
       -0.053119052 0.02288525 -0.11132325 -0.047058847
0001d0 82 66 7e bd dd 67 57 3d fc a9 e6 ba 85 ae 06 3d
       -0.062109478 0.052589286 -0.0017598267 0.03288128
0001e0 23 a8 bf bd f1 dd 8d bb e6 9a 9d b9 30 f9 8d bd
       -0.093582414 -0.004329436 -0.00030060782 -0.06932294
0001f0 c8 16 15 be e5 df 11 3e 9e 24 f2 bd 4c c4 b5 bd
       -0.14559472 0.14245565 -0.118233904 -0.08875331
000200 d2 67 d5 3d 01 30 a0 bc 10 d6 95 bd 04 a0 91 3d
       0.10420193 -0.01955414 -0.0731622 0.07110599
000210 93 b0 a5 bd 5f 54 6b bd 5f ae 9d ba 4a 9c 8e bd
       -0.080903195 -0.05745351 -0.0012030116 -0.069634035
000220 6c 83 8d bd 40 d4 b4 3e c0 48 e5 3d e9 b8 01 be
       -0.06909832 0.35318184 0.111955166 -0.12668194
000230 81 d5 b7 bd e5 21 cb 3d 7d b6 8a 3d 58 6d 0f 3e
       -0.089762695 0.09918574 0.06773088 0.14006555
000240 53 d8 70 be 4f 36 0a 3e ba 8c 98 bd 20 e1 fa bd
       -0.23520021 0.1349728 -0.074487165 -0.122499704
000250 c0 6f b5 bc 8e ba 8a bd f3 73 61 3c bb 57 45 3c
       -0.022148013 -0.06773864 0.013760555 0.012044842
000260 d6 83 a5 3d 8c ed 0e bd a0 fc 73 be b9 9d 18 be
       0.08081786 -0.03489451 -0.23826838 -0.14903916
000270 43 43 1d 3c a5 f1 10 bb 54 7f 75 bc ae 97 0d 3e
       0.009598556 -0.0022116688 -0.014983971 0.13827392
000280 2e 3a 8d be 5c d3 ae bd 40 cf d6 3c 63 4b b2 bc
       -0.2758345 -0.08536407 0.026221871 -0.021764463
000290 9b 7a 3b be d9 e7 14 be 16 4a ac bd 62 00 17 bd
       -0.18308489 -0.14541568 -0.08412568 -0.0368656
0002a0 10 ec a5 3d ff 17 1b bd c8 0a da bd ae c0 25 3b
       0.08101666 -0.03786468 -0.106465876 0.0025291848
0002b0 a5 ae f9 bd 55 9f ba 3d 8d 84 f3 bd c7 6f 28 be
       -0.12191514 0.091124214 -0.118905164 -0.1644889
0002c0 c5 0d ca 3c e3 b4 08 3e e9 25 b2 3d a3 14 5e 3d
       0.024664769 0.13350253 0.08698637 0.0542189
0002d0 b7 41 2f 3d 20 26 80 3d c2 f2 08 3c d5 46 9b bd
       0.04278728 0.06257272 0.008358659 -0.075818695
0002e0 d6 6d 7a 3d 1f 32 1a be bb 94 b8 bb 3f 71 4e 3c
       0.061139904 -0.15058182 -0.0056329644 0.012600242
0002f0 ce 83 0b 3c 5a be 29 be 7b 55 ee 3d 08 a8 6b 3d
       0.008515311 -0.1657652 0.11637398 0.057533294
000300 d7 af 6a 3d 75 a8 0b be a4 64 42 3b 89 01 19 bd
       0.0572966 -0.1363848 0.0029662037 -0.03735498
000310 c6 e8 c7 bc 7b 7f 4b 3e 25 54 fb bc 39 61 72 3e
       -0.024402987 0.19872849 -0.030679772 0.236699
000320 2f dc 0f be 12 80 58 3e 38 f8 b5 3c e6 ea b4 3c
       -0.14048837 0.21142605 0.022213086 0.022084665
000330 bf 2e 3b be ff 3a 1a 3e 42 57 22 3e 8c c5 8c bc
       -0.18279551 0.15061568 0.15853599 -0.017184041
000340 40 5d ff bd 4a 5a 0f bd 6b 83 32 be 9c 57 49 be
       -0.12468958 -0.034998216 -0.17432944 -0.19662327
000350 4e e8 22 3e 46 91 b8 bd 2f 54 14 3e b1 f9 74 3c
       0.1590893 -0.09012084 0.14485238 0.014952109
000360 44 f4 aa 3d 16 99 43 be cf 9c 6c bb e6 05 01 3c
       0.08347371 -0.19101366 -0.0036104207 0.007874941
000370 b4 a5 44 3a 9c ef a0 3d 33 3c 0b be 84 07 88 3d
       0.00075014983 0.07858202 -0.13597183 0.066420585
000380 20 bd 77 bd 8b 2f 23 be 1d 74 d8 3d 26 9b 11 3e
       -0.060483098 -0.15936105 0.10569022 0.1421934
000390 54 cf d4 3c ab 4e 01 be a1 d0 0a 3e 5f dc 49 3b
       0.025977768 -0.12627666 0.13556148 0.0030801517
0003a0 3d c2 1d 3d 94 b0 dd bd d1 40 56 3d 7e 6e 7d 3d
       0.03851532 -0.10824695 0.052307907 0.06187295
0003b0 a9 16 fd bd c6 9b b5 bd 1e aa 91 bc 0e 27 5d 3c
       -0.12357838 -0.08867602 -0.017781314 0.013498081
0003c0 b8 4f 19 be 46 8d 12 be 62 be e2 3d ac 4e a0 bd
       -0.14971817 -0.14311704 0.11071469 -0.078275055
0003d0 09 37 b5 3d 59 94 1c be 39 bb 3b be 99 c5 dd 39
       0.08848388 -0.15290965 -0.18333139 0.00042299627
0003e0 58 af cb bd dc 66 c7 bd d4 27 81 3c 19 b8 46 be
       -0.099455535 -0.09736416 0.015766062 -0.19406165
0003f0 68 b9 a8 3d a5 b1 e2 3b 92 e0 b3 3c 95 cc f2 bd
       0.082384884 0.0069181495 0.02195767 -0.11855427

net.2.scale f4 [64, 64]
000000 28 e1 7e 3f f8 74 80 3f cc 4e 7f 3f b2 fa 7e 3f
       0.9956231 1.0035696 0.9972961 0.9960128
000010 83 5c 82 3f b1 bd 80 3f 44 ce 7d 3f 52 fb 7d 3f
       1.0184482 1.0057889 0.9914286 0.9921161
000020 7d 8e 7f 3f 88 ff 7f 3f cd 25 7d 3f c3 f4 7e 3f
       0.99826795 0.99999285 0.98885804 0.99592227
000030 83 d2 7f 3f 15 04 80 3f ad be 81 3f d6 06 80 3f
       0.9993059 1.0001246 1.0136315 1.0002086
000040 c8 59 81 3f 56 30 80 3f d3 69 77 3f 6a 41 78 3f
       1.0105524 1.0014751 0.9664585 0.96974814
000050 c3 34 7f 3f e4 e5 80 3f 18 40 80 3f ce 11 80 3f
       0.99689883 1.0070157 1.001956 1.0005434
000060 52 ca 7e 3f a6 84 7e 3f d0 00 7f 3f 6b 11 80 3f
       0.99527466 0.99421155 0.99610615 1.0005316
000070 8c a0 80 3f a8 2d 7f 3f 91 8c 80 3f 9d c3 7d 3f
       1.0048995 0.9967904 1.0042897 0.9912661
000080 c9 45 82 3f d2 00 80 3f a6 7b 7e 3f 4c 98 80 3f
       1.0177547 1.000025 0.9940742 1.0046477
000090 f3 12 7b 3f 54 43 7e 3f 64 38 83 3f db 34 81 3f
       0.9807579 0.99321485 1.0251584 1.0094255
0000a0 40 36 80 3f c6 2b 80 3f f6 30 82 3f 57 e9 7f 3f
       1.0016556 1.0013359 1.0171192 0.99965423
0000b0 fa f6 7c 3f 34 8e 80 3f 18 8b 80 3f 62 53 7e 3f
       0.98814356 1.0043397 1.0042448 0.9934598
0000c0 25 69 80 3f c4 45 7f 3f d4 11 80 3f 56 e2 7d 3f
       1.0032088 0.9971583 1.0005441 0.99173486
0000d0 63 08 80 3f e8 83 82 3f 6b 82 80 3f 55 63 80 3f
       1.000256 1.0196505 1.00398 1.0030314
0000e0 ba 65 7e 3f 65 f1 7d 3f 0e b7 7f 3f a7 9c 7f 3f
       0.9937397 0.99196464 0.99888694 0.9984841
0000f0 64 c8 7e 3f 05 61 81 3f 74 31 80 3f c9 e4 82 3f
       0.9952452 1.0107733 1.0015092 1.022607
000100 72 c9 80 3f 1a e0 7e 3f 4f 70 80 3f b0 d1 7e 3f
       1.0061476 0.995607 1.0034274 0.9953871
000110 a1 db 7f 3f ea 8f 80 3f 05 58 80 3f 06 de 7d 3f
       0.999445 1.0043919 1.0026861 0.99166906
000120 22 46 7b 3f c3 c4 80 3f aa eb 80 3f 1c b3 80 3f
       0.9815389 1.0060047 1.0071919 1.005466
000130 e3 bd 80 3f cc 83 80 3f 88 89 7f 3f f0 9e 80 3f
       1.0057949 1.0040221 0.9981923 1.0048504
000140 96 43 81 3f 7b 2f 7f 3f 36 22 81 3f c2 cd 7d 3f
       1.009875 0.99681824 1.0088565 0.99142087
000150 2e a0 80 3f dc ea 7e 3f e9 03 81 3f ee 14 80 3f
       1.0048883 0.99577117 1.0079318 1.0006387
000160 2a a4 7f 3f c5 34 80 3f 9f e8 80 3f dd 74 80 3f
       0.9985987 1.0016104 1.007099 1.0035664
000170 93 33 80 3f 33 16 7f 3f 10 1d 80 3f fc 05 81 3f
       1.0015739 0.9964325 1.0008869 1.0079951
000180 56 c7 81 3f 57 33 7f 3f 91 6b 80 3f c4 a1 81 3f
       1.0138958 0.99687713 1.0032827 1.0127492
000190 88 68 80 3f d9 21 7d 3f 3d 96 80 3f 50 da 7e 3f
       1.00319 0.9887977 1.0045849 0.9955187
0001a0 f4 23 80 3f da a1 80 3f 52 10 80 3f 2a a0 7e 3f
       1.0010972 1.0049393 1.000498 0.9946314
0001b0 c7 82 81 3f db 96 81 3f a2 02 7f 3f e1 61 7f 3f
       1.0118035 1.0124162 0.9961339 0.99758726
0001c0 2b 0c 7f 3f 57 59 7d 3f 44 e4 7d 3f 56 1b 7f 3f
       0.9962794 0.98964447 0.9917643 0.99651086
0001d0 13 22 7d 3f 46 3f 80 3f db f7 7e 3f dd de 80 3f
       0.9888012 1.001931 0.9959695 1.0068012
0001e0 c5 42 80 3f 21 46 7e 3f c6 bb 7e 3f c3 84 7c 3f
       1.0020376 0.9932576 0.9950527 0.9864008
0001f0 8c d5 7e 3f ee 34 7f 3f b6 06 7d 3f 2c e7 7e 3f
       0.99544597 0.9969014 0.98838365 0.9957149
000200 6b 59 80 3f 16 f1 7e 3f 59 33 7f 3f 5b 68 80 3f
       1.0027288 0.9958662 0.99687725 1.0031847
000210 c2 77 7f 3f db ae 7f 3f 69 ef 80 3f 44 fe 7d 3f
       0.9979211 0.99876183 1.0073062 0.99216104
000220 69 4d 7f 3f 4d 4e 7f 3f 4f 8e 80 3f 3c c6 7d 3f
       0.99727494 0.9972885 1.0043429 0.99130607
000230 19 06 81 3f 6a 14 84 3f 7e 75 80 3f 95 4b 80 3f
       1.0079986 1.031873 1.0035856 1.0023066
000240 ab b1 7d 3f 97 12 7e 3f 47 32 7f 3f 07 26 80 3f
       0.99099225 0.99247116 0.9968609 1.0011605
000250 7b af 7d 3f 3a 70 80 3f bc c7 7d 3f 20 85 7d 3f
       0.99095887 1.0034249 0.99132895 0.9903126
000260 c4 59 7e 3f 16 35 7f 3f d7 c4 7c 3f 8b b5 7d 3f
       0.9935572 0.9969038 0.98737854 0.9910514
000270 f0 80 7b 3f ab d5 80 3f 30 c1 80 3f 4b 75 80 3f
       0.9824362 1.0065206 1.0058956 1.0035795
000280 ce 0e 7d 3f 71 bb 7f 3f 62 57 80 3f e3 84 7f 3f
       0.98850715 0.9989539 1.0026667 0.99812144
000290 68 17 80 3f 4f 3c 80 3f 89 f3 7a 3f b3 1c 7c 3f
       1.0007143 1.0018405 0.98027855 0.9848129
0002a0 d5 59 80 3f 3c 7b 7d 3f 64 84 80 3f f5 43 7c 3f
       1.0027415 0.99016166 1.0040402 0.98541194
0002b0 ba b2 80 3f 7f 6d 81 3f ac b2 7e 3f 4a 23 7f 3f
       1.0054543 1.011154 0.9949138 0.9966322
0002c0 60 02 7f 3f 2c d4 7f 3f e6 9e 7d 3f 8e d4 81 3f
       0.99613 0.99933124 0.99070585 1.0142992
0002d0 0f 1c 7f 3f 45 19 7f 3f 5a 45 80 3f 2e 81 80 3f
       0.9965219 0.99647933 1.0021164 1.0039423
0002e0 13 e4 7e 3f f1 4c 80 3f 62 22 82 3f 01 ac 7f 3f
       0.99566764 1.0023481 1.0166743 0.9987183
0002f0 f5 ae 7d 3f cb 14 80 3f b0 ab 7d 3f aa 98 80 3f
       0.9909509 1.0006346 0.990901 1.0046589
000300 b2 ff 7f 3f f2 c2 7f 3f 45 8a 7f 3f 44 24 7f 3f
       0.99999535 0.9990684 0.9982036 0.9966471
000310 0e 48 80 3f 35 81 80 3f 0b 1c 80 3f 25 ac 82 3f
       1.0021989 1.0039431 1.0008558 1.0208784
000320 09 93 7f 3f 23 09 80 3f bd aa 80 3f 08 7b 7f 3f
       0.9983373 1.0002788 1.0052105 0.99797106
000330 d3 f7 7f 3f 63 f0 7f 3f a4 06 80 3f 06 30 81 3f
       0.99987525 0.99976176 1.0002027 1.009278
000340 69 48 80 3f 35 3b 82 3f 29 ee 81 3f b4 60 80 3f
       1.0022098 1.0174319 1.0150806 1.0029511
000350 3c cf 7f 3f af 51 80 3f 37 ae 80 3f 79 61 7d 3f
       0.9992559 1.0024928 1.0053166 0.98976856
000360 24 a8 7e 3f 86 4e 80 3f cd eb 7e 3f d2 c5 7e 3f
       0.9947531 1.0023963 0.99578553 0.995206
000370 4e 63 7f 3f b5 53 7f 3f fc 9a 81 3f b1 86 7a 3f
       0.997609 0.997371 1.0125422 0.9786177
000380 cf 24 80 3f d0 c9 80 3f a0 e5 7a 3f 04 8b 7f 3f
       1.0011233 1.0061588 0.9800663 0.99821496
000390 5c 52 7f 3f e5 4e 7f 3f a3 50 7e 3f f2 03 81 3f
       0.99735045 0.9972976 0.9934179 1.0079329
0003a0 fa bb 7f 3f b6 ed 7d 3f 5e f9 7f 3f 10 cf 7e 3f
       0.99896204 0.99190843 0.9998988 0.995347
0003b0 da b3 71 3f dc 8f 7f 3f d4 6b 7e 3f 99 53 80 3f
       0.94415057 0.99828887 0.9938328 1.0025512
0003c0 8d c6 7f 3f f8 e6 7f 3f 6d 51 80 3f 56 f6 7f 3f
       0.9991234 0.99961805 1.0024849 0.99985254
0003d0 08 02 80 3f a5 6b 80 3f 9e f3 7f 3f 49 d3 7f 3f
       1.000062 1.003285 0.99981105 0.9993177
0003e0 d8 b5 7f 3f 4f a6 80 3f 47 60 80 3f 70 ab 7f 3f
       0.99886847 1.0050753 1.0029382 0.9987097
0003f0 20 3d 80 3f a9 39 83 3f 92 0b 7d 3f 8b 1f 80 3f
       1.0018654 1.0251971 0.9884578 1.0009626

net.2.base_weight f4 [64, 64]
000000 06 05 70 bd 8a cb 9d bd 64 e8 80 3c 4c 46 a3 3d
       -0.05859854 -0.077048376 0.015735812 0.079723924
000010 fb 8a 00 3e f9 74 48 3e 03 6e 93 3c 11 25 f2 3b
       0.12553017 0.19575872 0.017996794 0.0073896726
000020 6d 08 0f be 03 ff 0e be 00 88 19 bd fc a7 02 3e
       -0.13968058 -0.13964467 -0.037483215 0.12759393
000030 ae e3 96 bd ae c0 12 3d ea 74 b0 3d a7 31 f0 bc
       -0.07367645 0.035828285 0.086160496 -0.029320551
000040 9f 13 82 bd 08 2e 2f 3d 49 db 69 3e b9 c9 4d bc
       -0.06351399 0.04276851 0.22837557 -0.012560301
000050 20 db a3 bd da b8 6a bd e1 b1 f7 bd 79 a9 3f 3e
       -0.08000779 -0.057305194 -0.120944746 0.18716992
000060 df c8 bb bc 66 b6 2a be f9 0e 32 bd a8 39 24 be
       -0.022922931 -0.16671142 -0.04347131 -0.16037619
000070 e4 5b 17 bd f2 5e 6f bd ab 1d ec bd 06 bf a1 bd
       -0.036952868 -0.058440156 -0.11529096 -0.07897763
000080 1c d9 13 bc e1 c3 8c 3e e7 49 72 bd e1 e1 bf 3c
       -0.009023931 0.27493194 -0.05915251 0.023423137
000090 5c 83 16 3e 9a 90 dd 3d 72 be ea 3c 4e c4 92 bd
       0.14698547 0.10818596 0.028655265 -0.071663484
0000a0 c5 9d b6 bc 2d bd ce 3d 36 2e 49 bd 04 76 90 bd
       -0.022292027 0.10094676 -0.049116336 -0.0705376
0000b0 5d 29 96 bd 7a b1 25 be ca 03 a4 bc 21 4e 64 3d
       -0.07332108 -0.16180983 -0.020021338 0.055738572
0000c0 b5 53 14 be b9 4f 7d bc 6a 22 2f bc b5 aa 12 bd
       -0.14485057 -0.015460902 -0.010689357 -0.03580733
0000d0 6a 84 66 bc fa c7 b1 3c f6 b2 06 3e 85 ae 73 3d
       -0.014069656 0.021701802 0.13154206 0.059492607
0000e0 84 c6 86 3d 94 fb 5e 3e e8 fb 2b 3e 43 eb e5 bd
       0.065808326 0.21775657 0.16795313 -0.11226513
0000f0 05 3e b4 bd 40 74 4c 3d ea 01 99 3d 3c 0a 97 bd
       -0.08800892 0.049915552 0.07471068 -0.07374999
000100 0b 7a d7 bd 9a ec 15 3e 05 fc 63 3c cf cf 8a 3c
       -0.10521325 0.14641038 0.013915067 0.016944794
000110 fb b0 aa bd 71 02 6b 3c 42 af 6a 3b ba 5d 01 bd
       -0.083345376 0.014343844 0.0035810028 -0.031583525
000120 7f f5 62 bd ca be d8 3d e1 43 0a be 30 e2 c4 3d
       -0.055409905 0.10583265 -0.13502456 0.09613454
000130 2e 8b 3a 3b d4 4e 0a bd d2 fb ed bd 2c cd b6 bd
       0.0028464305 -0.033766583 -0.116202965 -0.08925852
000140 e1 54 1e bd a4 79 01 3e b4 19 d6 bd 15 44 1b 3e
       -0.038655166 0.12644058 -0.10454121 0.1516269
000150 2e 33 b0 3d 7b 7f 4b bd b5 a6 bf 3c 98 e5 9c 3d
       0.08603512 -0.04968212 0.023394922 0.07660979
000160 1d a4 90 bc 68 37 09 bd 40 4c e8 bc 1d d4 25 3d
       -0.01765638 -0.033500105 -0.028356671 0.04048549
000170 d9 39 1d 3d 74 86 c6 3d 5d ea 4e 3d e6 34 b7 3d
       0.038385246 0.09693614 0.050516475 0.089456365
000180 bd 86 86 3d b7 61 32 3e 6b d5 a0 3d e8 29 2b bd
       0.06568668 0.17420088 0.07853206 -0.04178801
000190 e8 6f f5 3d 6a e1 0c be c0 de 91 3d 63 38 55 3e
       0.11984235 -0.13757864 0.07122564 0.20822291
0001a0 a7 af 24 bd 87 aa 0c 3c 39 9d 2b be 92 b4 15 bc
       -0.040206578 0.008585579 -0.16759194 -0.00913729
0001b0 54 e0 ec bd e1 ed 1f be 0d aa 3f 3d c2 7b 19 bd
       -0.11566225 -0.15618087 0.046793032 -0.03747154
0001c0 75 f7 83 3e 0c ef fd 3d 3e a4 0a bd 0e 93 8d 3d
       0.25774732 0.1239911 -0.03384804 0.06912814
0001d0 b5 65 29 3e 17 33 19 3e fa b4 d6 bc 21 3e a5 bd
       0.16542704 0.14960895 -0.026209343 -0.08068491
0001e0 2d f8 15 bd bf 7e 3f 3d 4e 67 b7 3c 82 5c 8b bd
       -0.036613632 0.046751734 0.022388127 -0.06804754
0001f0 7a a5 a6 bc 9c 8c 03 3d 93 15 93 bd be 89 e7 3d
       -0.020342577 0.032116517 -0.07181849 0.11305569
000200 e3 10 8f 3d a6 2f d5 3d 09 18 4b be 10 24 c3 3c
       0.06985643 0.10409479 -0.19833387 0.023820907
000210 c3 38 0b be 52 61 30 3c af 41 bf 3d b9 a0 26 bd
       -0.13595872 0.0107653905 0.093387 -0.04068062
000220 7f 76 7e bd 9c b2 16 bd 30 be 81 be e6 1e f5 bd
       -0.062124725 -0.03679143 -0.25340414 -0.11968784
000230 68 6c 5f 3d f7 6c fc bd 84 aa 9d 3c 6d ba 6a 3d
       0.054546744 -0.12325471 0.019246347 0.057306696
000240 9f 7d e4 3b ea c1 df bd da 9f 89 3d 96 39 a5 3d
       0.006972983 -0.10925658 0.067199424 0.08067624
000250 80 72 4a be c3 80 de 3d e6 6e 01 3e 67 9e a0 bb
       -0.19770241 0.10864403 0.1263996 -0.0049016955
000260 ab e3 1b 3d 44 2d 4e 3e d8 04 08 be 7d 4c 82 3b
       0.038058918 0.20134455 -0.13283098 0.0039764033
000270 80 de 00 3e 73 63 52 3e 9d 2d 96 bd ca 85 bb 3c
       0.12584877 0.2054575 -0.07332919 0.022890944
000280 2f 28 1a 3e 94 e9 85 be 11 43 a0 bd da 11 a0 bd
       0.15054391 -0.26154768 -0.07825292 -0.07815905
000290 a3 6e 98 bd 9c 0e ae bd 19 77 a0 3b a5 06 70 bd
       -0.07442977 -0.0849888 0.00489701 -0.058600087
0002a0 e6 4b da bd d4 da ba 3d ba a6 f2 3c bc 42 93 3d
       -0.10659008 0.091237694 0.029620517 0.07190463
0002b0 82 a2 e7 3c 5d ff d3 bd 8b 8b e0 bc 89 3e 3e 3d
       0.028275732 -0.10351441 -0.02741029 0.046446357
0002c0 c0 e8 ca 3d cd 3a a8 bd 0b a2 1f be 21 cb d3 bc
       0.09907675 -0.0821434 -0.15589158 -0.025853695
0002d0 73 54 60 3e 29 46 0e 3e 67 69 bd 3d a1 e0 ea 3c
       0.21907215 0.13893951 0.092486195 0.028671565
0002e0 4a 6e 7b bd 93 ff 63 bc ae e7 3b bd 45 a0 30 be
       -0.061384477 -0.013915914 -0.045875244 -0.17248638
0002f0 e1 47 c0 3c b2 c8 07 bc 21 13 48 3d 1e 28 3d 3e
       0.023471775 -0.008287596 0.048846368 0.18472335
000300 91 08 9a bc a0 7c 0c 3e f8 e0 17 ba 5d de 65 bd
       -0.018802913 0.13719416 -0.0005793716 -0.056120265
000310 d0 e4 bd 3b d3 9c 29 bd e3 e2 b8 3d 3e 0f d9 3d
       0.005795099 -0.041409325 0.0902765 0.1059861
000320 79 2b 5f be 9e 64 ae bd 13 39 67 3c 2b 0d 31 3e
       -0.21793927 -0.08515285 0.014112729 0.1729018
000330 a6 d0 e3 bc ba 8b 5e bc dc 2b 4b bb ac 07 58 be
       -0.027809452 -0.013583118 -0.0031001484 -0.21096677
000340 f4 f0 09 3d 86 b7 97 bb e3 28 9c bc 45 0b b2 bd
       0.033677056 -0.004630032 -0.019062465 -0.08693556
000350 b1 18 fe 3c 07 5f e6 3d f7 c3 57 bd 0b f5 96 bd
       0.031017633 0.11248594 -0.05267712 -0.07370957
000360 eb 11 b3 bd 48 e6 b3 3d d1 bc 0b 3e 62 fe 00 be
       -0.08743652 0.08784157 0.13646246 -0.1259704
000370 18 fe c7 bd c0 d5 97 3d 8f a4 04 bc 55 99 05 be
       -0.097652614 0.074138165 -0.008095874 -0.13046773
000380 78 73 8f 3c b1 d4 56 be 66 71 2d 3e 92 9a 30 3e
       0.017511114 -0.20979573 0.1693779 0.17246464
000390 0f 42 3f 3d 5c 04 58 3d 56 16 e7 bc aa 51 f0 bd
       0.046693858 0.052738532 -0.028208893 -0.11734326
0003a0 39 07 40 3c 94 5d 4a bd 72 bf 87 bd 76 66 c2 3d
       0.011720472 -0.04940565 -0.06628312 0.09492199
0003b0 e6 35 5d 3c 02 70 98 3d c0 02 81 bc a8 54 e6 3d
       0.01350162 0.07443239 -0.015748382 0.11246616
0003c0 88 54 ed 3d 1d 38 be bd 3f 0b ee bd 5b bd f5 3d
       0.11588389 -0.092880465 -0.11623239 0.11999007
0003d0 45 04 13 be a2 a2 4f 3d 3f 90 be 3b 31 ec d3 bc
       -0.14357097 0.050692208 0.0058155353 -0.02586946
0003e0 1c 2e 80 3d ec 0b 25 3d df 99 fc 3d a3 cb bb bd
       0.06258795 0.040294573 0.12334036 -0.091697
0003f0 57 70 ef bd d9 93 56 bd 94 91 d8 3d d4 c4 42 be
       -0.11691349 -0.052387092 0.10574642 -0.19020396

net.2.grid_points f4 [5]
000000 00 00 00 c0 00 00 80 bf 00 00 00 00 00 00 80 3f
       -2.0 -1.0 0.0 1.0
000010 00 00 00 40
       2.0

net.3.coeff f4 [1, 64, 5]
000000 57 5a 30 bd 87 8a 50 be d7 8d 8c 3d 7e 00 3d bd
       -0.043054905 -0.20365344 0.06862991 -0.046143048
000010 c6 14 a0 3d 25 15 e4 bd d4 a7 a0 3d d8 8e 07 be
       0.07816462 -0.111368455 0.07844511 -0.13238084
000020 cf 34 c5 bc a9 5b e0 bd 77 ae 0e bc 7f 73 3a bd
       -0.024073033 -0.10954983 -0.008708588 -0.045520302
000030 89 a6 e7 3d 26 5c a4 3d fc ab 0d be ef ad df bd
       0.11311061 0.080253884 -0.13835138 -0.10921847
000040 42 4b 17 be ec f1 1a 3d 30 a3 8e 3d 03 80 fe 3d
       -0.14774802 0.03782837 0.06964719 0.1242676
000050 c0 01 2c be 01 a4 67 3c c0 e1 fb 3c be 8d 70 3d
       -0.16797543 0.014138223 0.030747294 0.058728926
000060 df 6f 08 be eb d5 4c 3c 9f 16 0f 3e 26 a1 e6 3c
       -0.13323925 0.012502174 0.13973473 0.028153013
000070 4c 4d 10 3e bf 07 3f 3e c3 3a b4 3d 46 89 21 3d
       0.14091986 0.18655299 0.088002704 0.039437555
000080 35 9f b5 3d f7 5c 3e be 1f 96 81 bb f3 11 8f bd
       0.08868257 -0.18590151 -0.0039546634 -0.069858454
000090 f4 e8 93 bd 68 e2 08 bc 05 b2 e4 3c 41 ac fb bd
       -0.07222167 -0.008354761 0.027916918 -0.12288714
0000a0 42 91 a6 3d 12 c9 13 3e a6 7a 0a 3e cf f5 68 3e
       0.081331745 0.14432171 0.13523349 0.22750019
0000b0 b9 91 83 3c 2a 52 01 3d 7e df 9c 3c 20 41 f4 3b
       0.016060697 0.0315725 0.019149538 0.0074540526
0000c0 1c 53 9a 3d a9 80 35 bd fa b5 c6 bd 53 5b d5 3d
       0.07535383 -0.044312153 -0.09702678 0.10417809
0000d0 b8 cd 91 bd ce a2 78 bd 81 89 21 3d 27 fe 83 bd
       -0.07119316 -0.060702138 0.039437775 -0.0644496
0000e0 1a 0b 84 3c d5 e7 0c 3e 4a c9 8e bd 6e 8e 1a bc
       0.016118575 0.13760312 -0.069719866 -0.009433372
0000f0 4c c7 73 3e b6 2f f6 bd 55 ad 6a be 54 0f d6 bc
       0.23806494 -0.12020819 -0.22917683 -0.026130356
000100 b3 41 2e 3e 93 7a 65 bd f2 6f b0 bd 07 8a 1c 3e
       0.1701725 -0.0560251 -0.08615102 0.15287028
000110 3e ea 15 3d 4e be 14 bd 16 60 7b bb 7e a1 9f bd
       0.036600344 -0.0363143 -0.0038356832 -0.07794474
000120 5a b2 9b bd aa 48 29 bc 71 b0 1b 3e b6 95 fa bd
       -0.07602377 -0.010332266 0.15204026 -0.12235586
000130 c9 cc ad bd 73 49 dc 3d bd 0d c7 bd de d4 84 3d
       -0.08486325 0.10756197 -0.09719417 0.06485914
000140 eb 9f 1d bd ad 3c 6a bd e0 ba 77 3d 7d e5 8a bc
       -0.038482588 -0.05718677 0.060480952 -0.016955132
000150 f5 de 15 3d d1 6a 34 3d 2c f2 e8 3d 7e 37 de 3d
       0.03658958 0.04404718 0.113743156 0.10850428
000160 bb 4b 50 3e 7a e4 21 3e bd a9 23 bc d1 5a a2 3d
       0.20341389 0.15809813 -0.009989199 0.07927478
000170 a5 e6 ec 3c 0f bf 29 be 7c 1c 21 bd d1 fa 16 be
       0.028918574 -0.1657679 -0.039333805 -0.14744116
000180 d7 cc 12 be 29 71 48 3e cd 0a 1e be ee ad 24 3d
       -0.14335953 0.19574417 -0.15433808 0.040204935
000190 ee 6d ae 3d ae bf 9b 3d 72 a6 06 bd 16 32 0f 3e
       0.08517061 0.076049194 -0.03287358 0.1398395
0001a0 a6 56 4e bd 24 67 15 3e c4 99 da 3d 22 fb 74 3d
       -0.050375603 0.14590126 0.1067386 0.05980981
0001b0 ef 5a ff bd 00 35 82 bd 2d 57 3e be 8f de 03 3c
       -0.12468516 -0.06357765 -0.18587942 0.008048668
0001c0 ad 5b 0f 3e 89 87 2a 3c ca f2 af bd 92 69 cf bc
       0.13999815 0.010408291 -0.0859123 -0.025318895
0001d0 3f db 28 3e 58 f6 f8 3c b7 b3 01 bd d7 b8 aa be
       0.16489886 0.030390903 -0.03166553 -0.33344147
0001e0 04 09 12 3e 82 3f 59 3e 9e 2d bc bd d7 7b d3 bd
       0.14261252 0.21215633 -0.09188388 -0.10326355
0001f0 a7 db 8f 3e ad f7 39 3d 11 ed 37 bd 44 e4 d0 3d
       0.2809727 0.045402218 -0.04490382 0.10199788
000200 8c 72 2b 3e b8 7a eb 3b 31 52 4a bd 9e bf 39 be
       0.16742915 0.00718626 -0.04939479 -0.18139502
000210 08 d0 d0 3d 03 40 49 bd 3b 33 bd bc 83 90 16 3d
       0.10195929 -0.049133312 -0.023095718 0.03675891
000220 32 cd 1b 3e 43 98 b3 3b e9 73 0a bc ae 49 c2 3c
       0.15214995 0.0054807975 -0.008450487 0.023716774
000230 c6 45 f2 3c 76 70 29 bd ed a8 9f 3d 55 23 74 3e
       0.029574286 -0.041367017 0.07795892 0.23841603
000240 b1 a2 8c bd 82 4a e4 3d 2f 39 37 3e 32 2b d7 3d
       -0.068669684 0.11147024 0.17892908 0.10506286
000250 f7 ed 69 bd 88 79 2e be 66 50 df bc 5a 14 a8 3d
       -0.057111707 -0.17038548 -0.027260017 0.08207007
000260 2a 77 2c be 13 31 5f 3d 7e ae d2 3d fd 3d a5 bd
       -0.16842332 0.05449016 0.10287188 -0.08068464
000270 de 88 e3 3d 7a e8 0f bd 43 76 b3 bd af ce ae bd
       0.1111009 -0.035133816 -0.08762791 -0.085355155
000280 6f 2b 93 3d 85 33 f4 bd f4 d7 ae bc 10 e4 13 be
       0.07186019 -0.11923889 -0.021343209 -0.14442468
000290 09 71 94 bc 02 03 b1 bd db b9 00 3e e4 73 50 bd
       -0.018120306 -0.08643152 0.12570898 -0.050891772
0002a0 53 48 b9 bd fa 7c 0e 3e d6 2e 72 3d 59 de 6c 3c
       -0.09046998 0.13914862 0.059126697 0.014457309
0002b0 25 5c 16 3e 2f 38 1e 3e ad dd 22 3e ae 8b 02 be
       0.14683588 0.1545112 0.15904875 -0.12748596
0002c0 ac f2 d4 3c 20 72 9a 3a a5 62 da bd b7 41 af bd
       0.025994621 0.001178328 -0.10663346 -0.08557456
0002d0 96 92 2f be bb 25 f1 bd 8d 07 5f bd bd c4 5f 3e
       -0.17145762 -0.11774775 -0.05445056 0.21852393
0002e0 9c 31 19 bd be 48 1f be f0 e2 f0 bc 8b 2e cc bd
       -0.037400827 -0.15555093 -0.029405087 -0.09969815
0002f0 3f 2a 1a bd 0d 5c c5 ba 2f 14 0d be 8d 8c 6f bd
       -0.037637945 -0.001505734 -0.1377723 -0.05848365
000300 76 a4 fd bd ad ea da 3d ab 42 20 3d 4b 05 8e 3a
       -0.12384884 0.10689292 0.03912608 0.0010835318
000310 f2 51 3d 3d f5 63 22 bd 94 6b 16 3d f8 28 af bd
       0.046220727 -0.039646108 0.03672369 -0.08552736
000320 9b 04 17 3e 52 9b 27 be fa 19 f2 3d 8a 45 4f 3d
       0.1474785 -0.16367844 0.11821361 0.050603427
000330 ca 3f a8 3d 70 15 15 be 3c ce a7 3d 0b dd fa bb
       0.08215292 -0.14558959 0.08193633 -0.007655745
000340 42 87 a5 3d bb 1d 5f bb 3c 72 c4 3d 43 06 4a 3d
       0.08082439 -0.003404482 0.09592101 0.049322378
000350 26 a7 89 3c 29 28 0d be e5 eb fc 3c c5 3c 0d bd
       0.016803335 -0.13784851 0.030874202 -0.034481782
000360 e9 6b 21 3e d4 c5 73 3d ba 24 f2 3d e0 3c 23 3d
       0.1576382 0.059514835 0.11823411 0.039852977
000370 93 91 08 3e 00 d7 bb 3d fe 94 e2 bd ca 4a af bb
       0.13336782 0.09171867 -0.11063574 -0.0053494917
000380 d0 af f7 3d 01 ee 2c be 92 2a 09 be d0 d1 4b 3c
       0.120940804 -0.16887666 -0.13395146 0.01244016
000390 bf 3b d7 bc 44 1b 9d bd f0 9e 96 bd a7 d0 33 3b
       -0.026273606 -0.07671216 -0.07354534 0.00274376
0003a0 09 1c 23 3e 63 e0 a7 bd 23 df fe bd 8c 14 a1 3c
       0.15928663 -0.08197095 -0.12444904 0.019663118
0003b0 11 ce d1 bc d2 7f 96 3d c6 87 13 3c 98 8f d1 3d
       -0.025610955 0.073485985 0.009004539 0.102324665
0003c0 f9 c9 00 3e 9d 1e 0b 3e a3 7d 28 bc 9e 6a 15 3a
       0.12577046 0.13585897 -0.01028386 0.0005699786
0003d0 74 82 08 3e 98 5d 33 3c 51 db 7f bc d7 56 31 bd
       0.13331014 0.010947607 -0.015616254 -0.043295708
0003e0 49 be 27 bd d9 89 1a 3e b1 1f 7e 38 86 29 b3 bd
       -0.040952954 0.15091647 6.0587834e-05 -0.08748154
0003f0 09 ba 44 bd 56 82 a2 3d f1 7c fa bb 7e 00 f1 bc
       -0.04802898 0.07935016 -0.0076442887 -0.02941918
