data/trained_models/base_rho_a_snn.pth (torch, 118778 bytes, 5 tensors)

fc1.weight f4 [64, 374]
-0.0030641907 -0.046907984 0.07931093 -0.041916806 0.00323088 0.00562448 -0.027195077 0.00091783016
0.041184943 0.050808065 -0.06253419 -0.04676473 0.04134962 -0.03283548 -0.021272194 0.009401928
-0.034336235 -0.0051213726 0.0018891146 -0.052027673 0.046299484 -0.06532817 0.006022945 -0.07424876
-0.019768568 0.0144543415 -0.030778835 -0.025811272 -0.0029301743 0.04452788 -0.026565185 0.03305736
0.042471707 -0.037107006 -0.018904567 0.018356098 -0.061201207 -0.03039855 0.026380194 0.034109715
-0.03470765 0.01717111 0.009222971 0.00046373703 -0.00066307076 0.03451647 0.011538577 -0.05776224
-0.0070318705 -0.05145702 0.024835171 0.012969448 -0.0020346022 -0.03329676 0.019349935 -0.030796265
0.009689321 0.019297542 -0.019954996 -0.010746983 0.03501779 0.043649815 -0.01835311 -0.004396126
-0.024962341 0.050295964 -0.03303922 -0.058209963 -0.038654774 -0.004454259 -0.01283327 -0.010324526
-0.03307678 -0.0387944 0.0013840335 -0.06574154 0.031446267 -0.041176435 0.051704757 -0.00060085295
0.000967919 -0.03303377 -0.018098028 0.0075116195 0.04396663 0.017079929 -0.042796478 0.02117473
-0.020049969 -0.04148611 0.049892932 0.024266178 -0.025217649 -0.03617334 -0.015874842 -0.00600204
-0.02545717 0.009797537 -0.050550118 -0.056765936 -0.07270482 -0.013249374 -0.05153114 -0.039029628
-0.00046177642 0.020704933 0.020256843 0.0015620819 0.044504464 0.020532405 -0.009354487 -0.016401256
0.048892096 0.012908264 0.022565892 -0.05528807 -0.012527372 -0.009161832 0.010438238 -0.026834331
-0.0006735344 -0.015042506 0.0033014778 0.029617535 -0.028318163 0.050541207 0.016367776 0.03241285
-0.07385245 -0.042726126 -0.02202787 -0.029138604 0.01851374 0.03835322 -0.040329684 0.031180995
-0.020053847 -0.049280502 0.032419678 -0.0074442266 -0.021370418 -0.070261195 -0.006493163 -0.058533397
-0.035390995 -0.025423588 0.013870983 -0.047560155 -0.061863597 -0.04706396 0.04473956 0.036173217
0.020320034 0.010188823 -0.051535916 0.029642189 -0.0029025262 -0.02237196 -0.001538915 -0.038981862
0.029590176 -0.047242574 0.018292649 0.0046727364 -0.0040879897 0.014344011 -0.050103728 0.042593285
0.025340522 0.010197577 0.018689519 -0.0420844 0.017058475 -0.039372277 -0.025240123 0.05120953
-0.049940135 -0.05292781 -0.07354904 0.027551109 0.00658532 0.032543182 -0.045175735 -0.07574012
-0.017846217 -0.0068810745 0.03643871 -0.015961954 -0.024632921 0.03637474 -0.004408159 0.040950686
0.0137012815 -0.03310642 -0.042917226 -0.0150141185 -0.049704324 0.049202368 0.07423404 -0.026179735
-0.027603274 0.006575136 -0.031896718 -0.031299807 0.02611026 0.045108728 0.018109774 -0.06376363
0.016066441 -0.048745625 -0.05756689 -0.0012116974 -0.01483323 -0.063959524 -0.02147061 -0.017628785
-0.028959507 -0.06026985 -0.026943794 0.044202007 -0.008725018 -0.06428261 -0.051789235 -0.005570467
0.039249174 0.04995036 0.04598558 -0.008201678 -0.06453663 -0.003393239 0.026635429 -0.023196384
-0.048072442 -0.03238662 -0.03538743 -0.018854838 -0.07241385 -0.007211818 0.0014832288 -0.039252948
-0.0029643856 -0.054224163 0.00021124884 -0.06196896 0.016333504 -0.014368381 -0.07322926 0.031737797
-0.009401833 0.00087942503 0.027371079 -0.019711886 -0.044967797 -0.013007752 -0.050063536 0.015705606
00000000: 97d0 48bb 9622 40bd c56d a23d f5b0 2bbd
00000010: 2cbd 533b 8f4d b83b 36c8 debc 8a9a 703a
00000020: 8bb1 283d 1e1c 503d ed11 80bd 608c 3fbd
00000030: 385e 293d 7f7e 06bd 0643 aebc 8b0a 1a3c
00000040: 27a4 0cbd 30d1 a7bb 2b9c f73a f81a 55bd
00000050: 87a4 3d3d c7ca 85bd 205c c53b bc0f 98bd
00000060: b1f1 a1bc e7d1 6c3c e523 fcbc 2972 d3bc
00000070: 2b08 40bb de62 363d 3b9f d9bc 2867 073d
00000080: d0f6 2d3d 84fd 17bd c0dd 9abc 875f 963c
00000090: 1eae 7abd 6106 f9bc 471b d83c a1b6 0b3d
000000a0: 9c29 0ebd 6daa 8c3c f21b 173c bb21 f339
000000b0: edd1 2dba 2461 0d3d 4d0c 3d3c 1998 6cbd
000000c0: 9b6b e6bb 99c4 52bd 2173 cb3c cf7d 543c
000000d0: f656 05bb 2f62 08bd c183 9e3c 7348 fcbc
000000e0: f5bf 1e3c e115 9e3c a978 a3bc 1d14 30bc
000000f0: d06e 0f3d 26ca 323d 4359 96bc 610d 90bb
00000100: d37d ccbc 2403 4e3d 2254 07bd 926d 6ebd
00000110: 7854 1ebd 08f5 91bb a342 52bc 3328 29bc
00000120: 857b 07bd e0e6 1ebd 7568 b53a 80a3 86bd
00000130: cdcd 003d 9fa8 28bd 5ec8 533d 8f82 1dba
00000140: f2bb 7d3a 6b4e 07bd 5142 94bc 0824 f63b
00000150: 5a16 343d 35eb 8b3c 5c4b 2fbd a176 ad3c
00000160: d53f a4bc 57ed 29bd 885c 4c3d ddc9 c63c
00000170: 3e95 cebc 7f2a 14bd f50b 82bc c3ac c4bb
00000180: 8e8b d0bc d985 203c a40d 4fbd 6683 68bd
00000190: 44e6 94bd e713 59bc 5112 53bd 88dd 1fbd
000001a0: 951a f2b9 649d a93c aef1 a53c c5be cc3a
000001b0: 504a 363d 9333 a83c 9043 19bc ed5b 86bc
000001c0: 1443 483d 2f7d 533c 1bdc b83c be75 62bd
000001d0: 9b3f 4dbc 821b 16bc 2505 2b3c acd3 dbbc
000001e0: 2190 30ba d874 76bc 9b5d 583b 79a0 f23c
000001f0: 7efb e7bc 4c04 4f3d b715 863c 56c3 043d
00000200: f43f 97bd 9701 2fbd cb73 b4bc 15b4 eebc
00000210: 20aa 973c 4418 1d3d bd30 25bd 496f ff3c
00000220: f747 a4bc 5ada 49bd 7fca 043d b3ee f3bb
00000230: 0411 afbc 1ae5 8fbd 99c4 d4bb b7c0 6fbd
00000240: 26f6 10bd 2145 d0bc 1f43 633c 70ce 42bd
00000250: af64 7dbd 24c6 40bd d440 373d 5e2a 143d
00000260: 3376 a63c 05ef 263c 5317 53bd 2dd4 f23c
00000270: 4f38 3ebb 6745 b7bc 6bb5 c9ba 72ab 1fbd
00000280: 1967 f23c 6e81 41bd 77da 953c c11d 993b
00000290: 8bf4 85bb 2503 6b3c 9139 4dbd 4c76 2e3d
000002a0: ed96 cf3c bd13 273c c31a 993c b160 2cbd
000002b0: 37be 8b3c d344 21bd 60c4 cebc 16c1 513d
000002c0: 078e 4cbd d5ca 58bd e1a0 96bd ddb2 e13c
000002d0: abc9 d73b 004c 053d 310a 39bd a31d 9bbd
000002e0: 3b32 92bc a37a e1bb c240 153d a5c2 82bc
000002f0: fbca c9bc aefd 143d 5172 90bb e8bb 273d
00000300: 577b 603c 999a 07bd f9c9 2fbd c7fd 75bc
00000310: c396 4bbd 6c88 493d 0408 983d e276 d6bc
00000320: 4320 e2bc 3d74 d73b 22a6 02bd 3a34 00bd
00000330: 2fe5 d53c eec3 383d f35a 943c 8296 82bd
00000340: c59d 833c 7ea9 47bd 42cb 6bbd d1d1 9eba
00000350: 1307 73bc 36fd 82bd 22e3 afbc 3e6a 90bc
00000360: 7d3c edbc 85dd 76bd 3bb9 dcbc 2a0d 353d
00000370: 61f3 0ebc 9aa6 83bd f320 54bd 7788 b6bb
00000380: bec3 203d c098 4c3d 605b 3c3d 5560 06bc
00000390: c82b 84bd 1b61 5ebb 8b32 da3c 5806 bebc
000003a0: 9ce7 44bd d5a7 04bd 69f2 10bd 7675 9abc
000003b0: b64d 94bd 1d51 ecbb e668 c23a b3c7 20bd
000003c0: 2346 42bb 281a 5ebd ae82 5d39 2ad3 7dbd
000003d0: d7cd 853c 5c69 6bbc 39f9 95bd 7eff 013d
000003e0: 250a 1abc 3789 663a 5039 e03c d27a a1bc
000003f0: 2730 38bd 771e 55bc 6c0f 4dbd 0ba9 803c

fc1.bias f4 [64]
-0.021392066 -0.017671004 -0.011302157 -0.044578467 0.03876156 0.012073089 0.003891317 0.07134786
0.0020764293 -0.046064474 -0.042499058 0.021897556 0.051243838 -0.014365463 0.027553746 -0.022023138
-0.025917692 0.025676748 -0.032520924 0.033614904 -0.002254269 -0.0010198652 0.064457946 -0.050822116
0.032344572 -0.042181388 -0.02987648 0.011844294 0.050353907 0.037034962 0.07291785 -0.00025067636
0.051014595 -0.0054747597 0.05868333 -0.017378218 -0.027221797 0.0026392797 -0.022321457 -0.062343016
0.036224514 -0.042383432 -0.022513524 0.063114546 0.021338793 -0.007284458 0.03152717 -0.031192407
-0.018161137 -0.03756069 -0.017048419 0.022593241 0.037404273 -0.015097363 -0.035292163 0.004449248
-0.014315401 0.01399013 0.032317407 0.05646826 0.03806349 0.0033128387 0.058133386 0.059417088
00000000: 6a3e afbc c8c2 90bc af2c 39bc e997 36bd
00000010: 71c4 1e3d 35ce 453c 7705 7f3b d41e 923d
00000020: b414 083b 1aae 3cbd 7e13 2ebd 8162 b33c
00000030: 0fe5 513d 1e5d 6bbc 65b8 e13c de69 b4bc
00000040: 5751 d4bc 0b58 d23c a934 05bd c8af 093d
00000050: 5cbc 13bb ffac 85ba 8702 843d da2a 50bd
00000060: be7b 043d 64c6 2cbd 85bf f4bc 920e 423c
00000070: e63f 4e3d f9b1 173d f455 953d 366d 83b9
00000080: aef4 503d 9d65 b3bb ee5d 703d c45c 8ebc
00000090: 3f00 dfbc c4f7 2c3b 7ddb b6bc 645b 7fbd
000000a0: 2860 143d 409a 2dbd 486e b8bc 3342 813d
000000b0: b1ce ae3c 76b2 eebb a222 013d 3887 ffbc
000000c0: aac6 94bc 3dd9 19bd 20a9 8bbc 7615 b93c
000000d0: 3935 193d ee5a 77bc 848e 10bd ffca 913b
000000e0: 258b 6abc dc36 653c 425f 043d 434b 673d
000000f0: 76e8 1b3d 361c 593b 461d 6e3d 555f 733d

fc2.weight f4 [64, 64]
0.022416549 -0.09574783 0.019263985 -0.0366382 -0.050861023 0.096839555 0.08487424 -0.0990281
0.1291587 -0.090032995 0.056649737 0.033723004 -0.03727226 -0.0016515004 0.12983677 0.09736728
-0.08102239 0.031502683 -0.07641242 0.025623277 -0.13153161 -0.008475803 -0.028587347 0.008524109
-0.09795772 -0.068046525 -0.14272156 -0.086762734 0.13751109 -0.08948591 0.08319926 0.092619926
-0.030229783 0.117421396 0.13823411 0.08462801 -0.02551592 0.03532955 0.04126554 0.02994975
0.12167821 -0.12877926 -0.0034746993 -0.104792126 -0.095374756 -0.00820553 0.063587524 0.12779644
-0.10239272 -0.08593799 -0.07206946 0.041227974 0.13342918 0.04632772 -0.115937255 0.09762478
0.04530263 -0.084874205 0.060919315 -0.045011222 0.025625579 0.06048194 0.071712196 -0.09684855
0.04642542 -0.003374865 -0.11524741 0.00044020262 0.025890503 -0.0141842505 0.043961346 -0.10627068
0.0070049376 -0.08453344 -0.09439594 0.02775225 0.005743935 -0.027291946 -0.095767796 -0.11404596
-0.09417321 0.04670253 0.110196106 0.0717788 0.0897485 0.008050013 0.0023315002 0.012743171
-0.054003455 -0.05711307 -0.0049743783 -0.12049476 0.020650387 -0.030156996 -0.030500822 -0.089967385
-0.0028691485 0.08169674 0.0039657834 -0.0032476159 0.09414685 0.05965352 -0.051446214 0.082368605
-0.027946996 0.021742614 0.087527186 -0.07276936 -0.11622939 0.07067073 -0.018081388 -0.08613838
0.0027148253 0.076963104 0.091972835 -0.045161948 0.09566364 0.07670921 -0.09156977 -0.088018276
-0.06008695 -0.13428362 -0.0703461 0.06974807 0.08685385 0.050922647 -0.022291321 -0.079671875
0.054888677 -0.02403937 0.13541208 -0.024548609 -0.01052552 0.048551954 -0.094514914 -0.055377048
-0.007208736 0.017767366 -0.08439766 -0.12105596 0.016949005 -0.039695352 0.0010162601 -0.014108394
-0.016356515 0.058252577 0.040061083 0.07129907 -0.05047157 -0.09705512 0.011048219 0.09622218
0.052809894 -0.039046317 0.047638725 0.1317989 0.022107497 -0.061506998 0.077385694 -0.085397944
0.14060937 0.10075038 -0.07675915 -0.103492096 0.122416936 -0.10631302 -0.09548054 0.009066025
0.0064367964 0.046092495 -0.007377511 0.12751253 -0.066030435 -0.112551704 -0.09036407 0.12893906
-0.08690816 0.12687783 0.039254744 -0.042890813 -0.10254272 -0.06945768 -0.00634355 -0.05700838
-0.086611874 -0.049835842 0.061941464 -0.0035838247 0.024214644 -0.068112314 -0.07915128 0.007461079
0.068400785 -0.07677723 0.042265687 -0.10513952 -0.09078732 0.019155988 -0.057277612 -0.0033981851
-0.0077536143 -0.101532854 -0.034415413 0.035496853 -0.017124547 0.038858473 -0.04556237 0.06679957
0.011625306 0.11222441 -0.16443181 -0.184735 0.13194984 -0.024683034 0.03718198 0.061857216
-0.049550295 0.0014826632 0.057692356 -0.05723313 0.0018826352 0.047480248 -0.15973471 0.022743521
0.023478597 -0.015437029 -0.10472945 -0.11545504 -0.025857037 0.13046071 -0.04788235 -0.04071666
0.05311083 -0.093487196 0.0015200472 0.105898544 -0.055163007 0.119360335 -0.03324229 0.07701574
-0.032481536 0.07012511 0.027671216 0.059646264 -0.019599611 -0.08382187 0.09370669 -0.09798039
0.1191528 -0.11289413 0.030375795 -0.10731262 0.05981926 0.048750825 0.14612332 0.09446732
00000000: e9a2 b73c 7017 c4bd 81cf 9d3c f011 16bd
00000010: a653 50bd d153 c63d 8cd2 ad3d 3fcf cabd
00000020: 2e42 043e 3863 b8bd 8e09 683d 2221 0a3d
00000030: ccaa 18bd 2877 d8ba eef3 043e 7f68 c73d
00000040: 11ef a5bd f508 013d 1d7e 9cbd e8e7 d13c
00000050: 39b0 06be 18de 0abc 0330 eabc b4a8 0b3c
00000060: 0f9e c8bd fa5b 8bbd 9a25 12be a9b0 b1bd
00000070: b5cf 0c3e 6444 b7bd 6064 aa3d 84af bd3d
00000080: 73a4 f7bc a17a f03d 3e8d 0d3e 7351 ad3d
00000090: c306 d1bc b8b5 103d 0e06 293d 2e59 f53c
000000a0: 6d32 f93d b6de 03be c8b7 63bb 419d d6bd
000000b0: d753 c3bd 7d70 06bc 2d3a 823d 12dd 023e
000000c0: 46b3 d1bd 4200 b0bd 2799 93bd aade 283d
000000d0: a9a1 083e 23c2 3d3d 8370 edbd 80ef c73d
000000e0: 408f 393d 87d2 adbd 8886 793d b05d 38bd
000000f0: bcec d13c e9bb 773d d8dd 923d 8858 c6bd
00000100: 9528 3e3d d72c 5dbb d606 ecbd ffca e639
00000110: 5218 d43c 0f65 68bc d010 343d 71a4 d9bd
00000120: ad89 e53b de1f adbd a952 c1bd b058 e33c
00000130: 9e37 bc3b 5c93 dfbc e821 c4bd ee90 e9bd
00000140: e2dd c0bd 274b 3f3d 7fae e13d c300 933d
00000150: 10ce b73d 34e4 033c 15cc 183b bcc8 503c
00000160: ba32 5dbd 65ef 69bd 1c00 a3bb f5c5 f6bd
00000170: 002b a93c ce0b f7bc dcdc f9bc d240 b8bd
00000180: 5308 3cbb 9f50 a73d 67f3 813b f4d5 54bb
00000190: 10d0 c03d 4057 743d 44b9 52bd dfb0 a83d
000001a0: 19f1 e4bc 911d b23c 7441 b33d 1a08 95bd
000001b0: ad09 eebd d1bb 903d 6b1f 94bc 5269 b0bd
000001c0: 36eb 313b d59e 9d3d 415c bc3d bcfb 38bd
000001d0: 4ceb c33d b819 9d3d ee88 bbbd ed42 b4bd
000001e0: bc1d 76bd a581 09be 9e11 90bd 13d8 8e3d
000001f0: 6ee0 b13d 4494 503d 4a9c b6bc 022b a3bd
00000200: f3d2 603d 36ee c4bc 77a9 0a3e 2a1a c9bc
00000210: 3b73 2cbc 6ade 463d 0991 c1bd 0bd3 62bd
00000220: 4337 ecbb de8c 913c aed8 acbd 30ec f7bd
00000230: a4d8 8a3c 9897 22bd 0834 853a e526 67bc
00000240: 19fe 85bc 419a 6e3d 1717 243d 3f05 923d
00000250: 47bb 4ebd d6c4 c6bd 9703 353c 2210 c53d
00000260: 304f 583d 08ef 1fbd d320 433d 4af6 063e
00000270: c81a b53c c3ee 7bbd 647c 9e3d 1ee5 aebd
00000280: e7fb 0f3e 3756 ce3d e733 9dbd aaf3 d3bd
00000290: bbb5 fa3d a4ba d9bd 4d8b c3bd aa89 143c
000002a0: c3eb d23b 7ccb 3c3d 0cbf f1bb a592 023e
000002b0: f73a 87bd 8281 e6bd cc10 b9bd 9a08 043e
000002c0: e8fc b1bd 43ec 013e 95c9 203d 47ae 2fbd
000002d0: eb01 d2bd d43f 8ebd 8edd cfbb 9e81 69bd
000002e0: 9161 b1bd ab20 4cbd 55b6 7d3d 9ade 6abb
000002f0: ca5d c63c 787e 8bbd 111a a2bd 117c f43b
00000300: b615 8c3d 613d 9dbd c91e 2d3d 6353 d7bd
00000310: b4ee b9bd 05ed 9c3c ee9b 6abd 16b4 5ebb
00000320: 0812 febb 75f0 cfbd 2df7 0cbd 2665 113d
00000330: c748 8cbc 102a 1f3d 9c9f 3abd 37ce 883d
00000340: 1178 3e3c e9d5 e53d d060 28be 2c2b 3dbe
00000350: dc1d 073e 1334 cabc 224c 183d fe5d 7d3d
00000360: 40f5 4abd ec55 c23a d24e 6c3d 496d 6abd
00000370: c1c2 f63a a67a 423d 7f91 23be 9f50 ba3c
00000380: 3056 c03c 98eb 7cbc 657c d6bd b173 ecbd
00000390: 23d2 d3bc 7e97 053e 4820 44bd 83c6 26bd
000003a0: be8a 593d 3776 bfbd 523c c73a 56e1 d83d
000003b0: 9bf2 61bd 3173 f43d 1129 08bd 6eba 9d3d
000003c0: 5c0b 05bd c19d 8f3d bfae e23c a44f 743d
000003d0: 5d8f a0bc cdaa abbd 4be9 bf3d f1a9 c8bd
000003e0: 6206 f43d 0a35 e7bd a9d6 f83c b8c6 dbbd
000003f0: 0a05 753d f2ae 473d 5aa1 153e 1578 c13d

fc2.bias f4 [64]
-0.06639395 -0.13216181 0.061241753 -0.0042804903 0.005737806 -0.0039337985 -0.0988456 0.06726074
0.11693017 -0.103157915 0.107250854 -0.05815433 0.068955444 -0.0011883578 0.05600962 -0.09579826
-0.10883737 0.054807473 -0.011637472 0.1413122 0.061241448 -0.005222577 0.078049004 -0.035322063
0.077176996 -0.002430666 -0.023975005 0.08442084 -0.11477234 0.040324315 -0.035365544 -0.10375414
0.009160381 -0.083508484 -0.051086817 -0.045432907 -0.047711547 -0.03432942 0.10429691 0.12820446
-0.083113916 -0.04730728 -0.022475846 0.10677042 -0.013673552 -0.044185825 -0.08112585 0.09240126
-0.08805443 -0.03832437 0.05901937 0.13549401 -0.032149248 0.03868761 -0.09607006 0.024826761
-0.11077289 0.01676981 0.13360868 0.068147846 0.1402207 0.025714772 0.032664806 0.12677144
00000000: 8df9 87bd 6d55 07be a2d8 7a3d 5b43 8cbb
00000010: 3504 bc3b 18e7 80bb 906f cabd 00c0 893d
00000020: 1679 ef3d 7544 d3bd 56a6 db3d 3c33 6ebd
00000030: 8338 8d3d acc2 9bba 586a 653d e131 c4bd
00000040: 21e6 debd cd7d 603d 18ab 3ebc 25b4 103e
00000050: 50d8 7a3d 2722 abbb 28d8 9f3d dead 10bd
00000060: f90e 9e3d cf4b 1fbb 3b67 c4bc d5e4 ac3d
00000070: c30d ebbd 1c2b 253d 76db 10bd 0d7d d4bd
00000080: 6c15 163c 7f06 abbd 6940 51bd db17 3abd
00000090: 2f6d 43bd 029d 0cbd 9e99 d53d 0848 033e
000000a0: a137 aabd 47c5 41bd 441f b8bc 73aa da3d
000000b0: 0907 60bc 32fc 34bd 4f25 a6bd df3c bd3d
000000c0: e255 b4bd 04fa 1cbd 4bbe 713d f1be 0a3e
000000d0: eeae 03bd e676 1e3d 61c0 c4bd 7e61 cb3c
000000e0: e6dc e2bd d760 893c b7d0 083e 1991 8b3d
000000f0: 0496 0f3e c9a7 d23c 88cb 053d 5fd0 013e

fc_out.weight f4 [1, 64]
-0.0648593 0.07711162 0.14304663 0.09978122 0.15062416 0.14265838 -0.10128746 0.069865376
-0.023816954 0.12218436 -0.092772454 -0.103839144 -0.06812463 -0.050507456 0.06573502 -0.0818308
0.080235355 -0.114281595 0.10503526 -0.095451534 0.07180989 0.059344575 0.08296632 0.033204596
0.032404017 -0.08474646 0.011436403 -0.08379887 -0.053599995 0.11141549 0.06687298 -0.092268765
-0.05720908 -0.0871569 -0.0013342088 -0.102720864 0.023823595 -0.00011769365 0.114874534 0.05245003
0.09472946 0.0025513961 -0.06419287 0.014424007 0.11494722 0.12233644 0.07844166 0.05776982
0.026960189 -0.01429148 -0.13213223 0.04988489 0.11065846 0.062039334 0.051253345 -0.08634315
0.06361924 -0.06977443 -0.030602787 -0.06748812 -0.026654191 -0.042503163 0.0879079 -0.064522795
00000000: f4d4 84bd b2ec 9d3d d17a 123e 195a cc3d
00000010: 383d 1a3e 0a15 123e cd6f cfbd 9415 8f3d
00000020: c61b c3bc cb3b fa3d 7cff bdbd 9ea9 d4bd
00000030: ed84 8bbd e8e0 4ebd 15a0 863d e896 a7bd
00000040: 6f52 a43d 780c eabd ba1c d73d 187c c3bd
00000050: 1011 933d 4c13 733d 3fea a93d 8b01 083d
00000060: 13ba 043d 8d8f adbd c05f 3b3c be9e abbd
00000070: ab8b 5bbd ce2d e43d b3f4 883d 68f7 bcbd
00000080: 1154 6abd 517f b2bd 9ee0 aeba 515f d2bd
00000090: b329 c33c 4cd2 f6b8 5743 eb3d d8d5 563d
000000a0: 8501 c23d 5335 273b 8d77 83bd ac52 6c3c
000000b0: 7369 eb3d 878b fa3d 05a6 a03d 0ca0 6c3d
000000c0: 9ddb dc3c d026 6abc ac4d 07be 1954 4c3d
000000d0: e7a0 e23d f51c 7e3d 07ef 513d add4 b0bd
000000e0: ce4a 823d e5e5 8ebd b2b2 fabc 3637 8abd
000000f0: e459 dabc cc17 2ebd 0f09 b43d 8724 84bd
