data/trained_models/base_mu2_c_snn.pth (torch, 118778 bytes, 5 tensors)

fc1.weight f4 [64, 374]
000000 a9 49 06 bd e0 3d 65 bd 43 f6 f6 3c a0 34 8c 3b
       -0.03278509 -0.05596721 0.030146724 0.0042787343
000010 1d 5b d0 3b 63 a4 15 3c 92 11 53 bd 57 c3 2f bd
       0.006358518 0.009133431 -0.05153043 -0.0429109
000020 5f c2 67 bd 1b e5 d3 3c a9 a2 19 3c 07 70 44 bd
       -0.05658185 0.025866082 0.00937716 -0.0479584
000030 1a 33 81 3c 09 a2 f8 bc 18 34 3a bd 1f 85 ca 3c
       0.015771437 -0.030350702 -0.045459837 0.02472168
000040 23 05 11 3d 51 b3 56 bc 29 46 2e 3d 87 94 57 bd
       0.03540529 -0.013104276 0.04254738 -0.05263188
000050 6e 23 3b bd 58 23 9a 39 93 dd 84 bb 15 9e 0e bb
       -0.045688085 0.00029399502 -0.004054734 -0.0021761705
000060 d4 ee b8 bc ac f1 19 bb 5c e9 af ba 2f 40 cd 3c
       -0.02257482 -0.0023489995 -0.0013420987 0.02505502
000070 73 79 39 3d 1d a1 40 3d eb 59 17 3d dc be 04 bb
       0.04528184 0.04702865 0.036950987 -0.0020255363
000080 73 77 a9 3c 64 71 0a bd 53 b7 13 bb 56 8c 27 bd
       0.02068684 -0.033799544 -0.002253969 -0.04090532
000090 81 b1 b2 3c 7d 30 24 3d 6d 5f bf 3c 95 33 46 3d
       0.021813156 0.040085305 0.023360932 0.048389036
0000a0 7b b0 1f 3d b0 b5 28 3d 53 f4 39 bd f6 88 51 bd
       0.038986664 0.041188896 -0.04539902 -0.051156007
0000b0 e6 fd 1a bc 6b 34 4b 3d 10 fc db bc df 66 95 bc
       -0.009459948 0.049610537 -0.026853591 -0.01823753
0000c0 22 16 95 3c 37 ac 3c bd ed cd 2b bd dc 05 60 3c
       0.01819903 -0.046062674 -0.041944433 0.013673272
0000d0 8b 3f c0 3c 89 83 91 3c dd 3f f9 bc 2b 43 25 bd
       0.0234678 0.017762916 -0.03042596 -0.04034726
0000e0 31 b7 95 bb 73 71 4e 3c cb a2 15 3d f7 9a 1d 3d
       -0.0045689573 0.012600291 0.036532205 0.038477864
0000f0 66 fa 5f 3c fe 8a 7f 3c 68 72 9a bc 74 4e d0 3c
       0.0136705395 0.015597103 -0.018853381 0.025428034
000100 c5 3d 52 bd c1 af d0 bc dd ca b4 bc df e1 df 3a
       -0.05132844 -0.025474431 -0.022069389 0.0017080865
000110 b8 d6 fc 3c ec 6e 0f bd 29 ec 93 bc 9a 28 fe 3c
       0.030864105 -0.035017893 -0.018056946 0.03102522
000120 85 0c 82 3c 4c 6b df 3c cb 8a 11 3d 1c 8d a7 bc
       0.01587511 0.027272843 0.035532754 -0.020453028
000130 bc e1 7a bd c0 27 f2 3b dc 00 83 3a ae 77 eb 3c
       -0.061250433 0.0073899925 0.0009994763 0.028743591
000140 35 03 d6 3c c2 ba d6 3c 9a 0f 64 b9 e2 7a 79 bd
       0.026124576 0.0262121 -0.00021749586 -0.060908206
000150 74 45 1e bc 55 2b e4 bb 5d e2 bf bc 4b 9f 2a bd
       -0.009660114 -0.0069631734 -0.023423368 -0.04165582
000160 55 72 3d bd 91 36 00 3d ae 16 42 3c 79 ec 22 3d
       -0.046251614 0.03130204 0.011846228 0.0397763
000170 59 05 38 3d 5c c9 20 3b 20 34 37 bc 5a cf f0 bc
       0.044926975 0.0024534082 -0.011181861 -0.029395748
000180 0b 7d 08 3d 40 d4 2d 3c f5 7e 16 3d fb 6b 65 3b
       0.033322375 0.010609686 0.03674217 0.0035006988
000190 6d ef 1f bc c1 7a 51 bd 22 b4 7d bb 6c 5e 22 bc
       -0.009761673 -0.051142458 -0.0038712104 -0.009910207
0001a0 2e 56 88 3b 47 20 54 bd b6 c4 1a 3d 5c b6 95 bc
       0.004160664 -0.051788595 0.037785254 -0.018275432
0001b0 d4 71 c9 bc cc 68 9c bb d1 7c 20 ba 32 52 8b 3c
       -0.02459041 -0.004773235 -0.0006122115 0.017006967
0001c0 28 ee 1b bd 29 91 3d 3d 0e bc b9 3c ef 8e d9 3c
       -0.03806892 0.046281014 0.02267268 0.026557414
0001d0 2e 19 96 bc e0 41 d0 3b 3d 61 21 bd 22 48 3f bd
       -0.018322553 0.006355509 -0.039399374 -0.04669965
0001e0 c2 d3 77 bd d6 67 de bc 74 21 e8 bc 13 9f b3 bc
       -0.060504682 -0.027149122 -0.028336264 -0.021926438
0001f0 da 52 8e 3c ee 45 61 3c 3d 1a 00 3d a9 22 28 3d
       0.017373491 0.013749583 0.031275023 0.04104868
000200 3f ce a1 3c 07 3f 1b 3d 73 2e 20 bd 86 f0 14 bd
       0.019751666 0.037901904 -0.039106797 -0.036362194
000210 7c d4 c7 bc f4 48 e7 3c 80 f5 f5 bc 46 3b 4e 3c
       -0.024393313 0.028233029 -0.03002429 0.012587374
000220 b5 8b c5 bc de 4a 59 3b f9 c0 a9 bc 27 06 eb bc
       -0.024114469 0.0033156197 -0.0207219 -0.028689457
000230 7b 85 18 bd 18 c2 04 3d fa 9f a0 3c 69 9a d0 3c
       -0.037236672 0.032411665 0.019607533 0.025464254
000240 a2 2d 0c bd 8c 0d b8 bc 01 6a 3e bd f5 3f 0c 3d
       -0.034223206 -0.022467397 -0.046487812 0.03424068
000250 66 1c 4f 3c 40 34 b6 bc 34 29 2f bd 4c df 07 3b
       0.012641048 -0.022241712 -0.042763904 0.002073246
000260 10 90 dd bc 79 0c 90 3b fb fa 5f bc 3a 0f d2 bb
       -0.027046233 0.004396018 -0.013670678 -0.0064105066
000270 6c 17 b1 3a df 58 ba bc 45 06 4d bd 46 de 63 bc
       0.0013511009 -0.022747455 -0.050054807 -0.013907975
000280 3a 49 87 3c a3 55 0d 3d 77 33 9f 3c 22 99 09 bd
       0.01651441 0.034505498 0.01943372 -0.033593304
000290 3c 6c e7 bc d5 dc 03 3d 81 94 05 3d 77 47 21 3d
       -0.028249852 0.032193024 0.032612327 0.039374795
0002a0 d5 b6 4b 3d c4 4f 2a 3c ca ee 61 bc 91 32 26 3d
       0.04973491 0.010394994 -0.013789842 0.040575568
0002b0 54 c8 13 bc 77 7d 52 3d 08 78 8b bc c2 bd e7 bb
       -0.00901993 0.051389184 -0.017025009 -0.0070721814
0002c0 57 a0 0d 3d 7a 77 26 bd c5 35 60 bd fe 71 92 3c
       0.03457674 -0.040641285 -0.05473878 0.017876621
0002d0 fa ec fd 3a 38 9e 3e 3c ce 11 78 bc b4 19 9f 3c
       0.0019372993 0.011634402 -0.015140964 0.019421436
0002e0 1a a2 ce 3b 19 39 a8 bc a8 4f 05 bc d8 7e c3 3c
       0.006305945 -0.020535039 -0.008136667 0.023864195
0002f0 14 0a 93 3b 6f 31 35 bd 0b 46 06 bd 16 2c 43 3c
       0.0044872854 -0.044236597 -0.032781642 0.011912366
000300 96 99 78 bc 67 9f 37 bd 74 9d 8c 3b 1e 11 ac bc
       -0.0151733365 -0.044829752 0.004291231 -0.021004256
000310 f0 67 2d bd 0a 66 f7 bb f6 53 eb bc 75 68 a1 3c
       -0.04233545 -0.007550006 -0.02872656 0.01970313
000320 ec 0f a9 bc 0a 8b 27 3d f8 aa ff 3c 3e 21 6d bd
       -0.020637475 0.040904082 0.031209454 -0.05789303
000330 72 3a 41 3a 88 f6 6a 3c f4 6c 48 bc d3 6e 5e bd
       0.0007371075 0.014341004 -0.012233008 -0.05430491
000340 7a 17 00 bc f5 57 d7 3c c9 65 03 bd 5a 2c db ba
       -0.007818097 0.026287058 -0.03207949 -0.0016721592
000350 35 c1 32 bd fc c2 c0 3c 7b 03 6c bd 14 f3 30 bd
       -0.043641288 0.023530476 -0.057620507 -0.043200567
000360 76 49 1c bd 53 a6 d3 bc e7 e0 6d bd 1b 0e 19 3d
       -0.038155995 -0.025836146 -0.05807581 0.037366968
000370 a7 12 cc 3b eb 3e 1d bc a4 23 ae 3b 97 c9 5c 3c
       0.0062278095 -0.00959752 0.0053143073 0.013475797
000380 d1 76 1b bd 6d b0 34 3d 3a ba 37 bd d8 aa 3a 3c
       -0.03795511 0.044113565 -0.044855334 0.011393271
000390 23 11 96 bc e3 32 11 3d 60 28 0d 3d c0 5f 7a 3c
       -0.018318718 0.03544892 0.034462333 0.015281618
0003a0 d2 0b a8 bb 74 99 fb 3c 6c 2e 4e bd 74 16 96 3c
       -0.005128362 0.03071282 -0.05033724 0.018321253
0003b0 7e 38 c6 bb eb 44 89 bb 32 4e be bb c8 e0 ce bc
       -0.006049215 -0.004189124 -0.0058076615 -0.025253668
0003c0 07 78 0b 3d 01 75 1b bc 28 ab 7d bd da d0 c7 bb
       0.034050014 -0.009488345 -0.061930805 -0.006097895
0003d0 e0 f0 1a bd db ed 13 3d e3 fb 09 bc eb 5f 3a 3d
       -0.037827373 0.03611551 -0.008421871 0.04550163
0003e0 04 2f f9 bc 22 5b d3 3c 1a ef 9d bc 04 3a ae bc
       -0.030417927 0.025800291 -0.019279052 -0.021267898
0003f0 c7 5f d0 bc 85 2c 21 bd 5b 44 50 3d 1f d9 df bc
       -0.025436295 -0.039349098 0.05084644 -0.027325211

fc1.bias f4 [64]
000000 4d 6a 4b 3d 33 2f 5a 3d a8 2b ed bc 95 43 d9 bb
       0.049661923 0.05326767 -0.028951481 -0.006630371
000010 90 81 ed bc 53 f1 bb bc 49 20 04 bd 5e fb 91 3b
       -0.028992444 -0.02294222 -0.032257352 0.004455014
000020 6f b2 b8 3c c2 a1 1f 3d fa 2c 05 3d 40 ff 4c 3d
       0.022546021 0.038972624 0.032513596 0.050048113
000030 3e 03 9b 3b 7e 3c 79 bd 58 42 3b bc 6e 03 cb 3a
       0.004730611 -0.060848705 -0.011429392 0.0015488693
000040 48 ef 10 bd 95 27 f8 3c 63 72 41 3b 45 43 3a bd
       -0.035384446 0.030292312 0.0029517643 -0.04547431
000050 f3 64 98 3c 38 81 2d bd ca 61 45 3d bc d7 dd 3c
       0.018602824 -0.04235956 0.048188962 0.02708041
000060 22 ad 07 3d 8b 51 86 bc 26 69 df 3c 9a 73 2e 3c
       0.033124097 -0.016396305 0.027271818 0.010647679
000070 4d 62 2b 3c 0f 8c 12 bd 5e 7c 26 3d 20 49 bf bc
       0.010460448 -0.0357781 0.04064595 -0.023350298
000080 67 5c 6f 3a f9 72 18 bd 3f 07 0d 3d 92 72 86 3b
       0.00091308955 -0.03721902 0.03443074 0.0041030133
000090 79 bd 69 bd 63 a5 f8 3c 6f 77 86 3d 91 69 73 bd
       -0.05706546 0.0303523 0.06565749 -0.059426848
0000a0 01 bc 62 bd a2 f8 6e bc 52 30 70 bd 3c de 92 bb
       -0.055355076 -0.014585646 -0.05863983 -0.004482059
0000b0 e0 37 ea bc 7d 01 a8 3c 86 d0 7c bb 42 f9 e4 3a
       -0.028591096 0.020508522 -0.0038576438 0.0017469304
0000c0 0a ad 81 bd a2 08 81 bc a9 e9 0d bd b5 54 1b 3d
       -0.06331833 -0.015751187 -0.034646664 0.03792258
0000d0 81 8e a4 bc a8 87 26 3d 29 99 67 3d ed 3c 41 bc
       -0.020087482 0.040656716 0.05654255 -0.011794311
0000e0 17 f3 06 3d 6c f3 90 3c ca 64 17 bb 3b 5f 19 3d
       0.032946672 0.017694198 -0.0023100846 0.037444334
0000f0 29 d9 a2 bb 75 50 9a bc ca c8 42 bd 42 3e 5e bc
       -0.004969735 -0.018837193 -0.04755477 -0.013564648

fc2.weight f4 [64, 64]
000000 3c d2 5e bb bf cd 21 3e 24 c7 e2 bd e7 9f e1 3d
       -0.0033999821 0.15801142 -0.11073139 0.11016827
000010 aa d9 2e bd 65 ee fd 3d 3c c1 0d bb 06 52 5b bd
       -0.04268805 0.12398986 -0.002163007 -0.05354502
000020 ac fb cf bd d4 4f b9 bd 5e db ed bc 59 41 ca 3d
       -0.101554245 -0.09048429 -0.029035266 0.09875745
000030 1a b9 36 bd de a0 44 bd 9a c3 9a 3d 92 c8 9a 3d
       -0.04461012 -0.048004977 0.07556839 0.07557787
000040 4a 19 63 3c b6 c6 1b 3e 19 67 16 3d 66 ed e7 3d
       0.01386101 0.15212521 0.036719415 0.11324577
000050 af 04 49 3d c2 01 d2 bc 3a 34 f8 3c e3 4d 93 bd
       0.049076732 -0.025635604 0.030298341 -0.0719259
000060 b3 90 2d 3c dd 49 90 3d 34 d1 20 3c cf ba b0 3d
       0.010593581 0.07045338 0.009815503 0.08629381
000070 4a 47 fe 3d ce e9 e0 3d bc 5c 89 3d 10 08 3b 3d
       0.12415941 0.10982095 0.06707141 0.045661986
000080 c2 dc 3f bc 8a 19 af bd d1 15 fa 3d ee 27 6e 3c
       -0.011710348 -0.08549793 0.122111924 0.014535887
000090 0a e4 f4 bd 35 5c 56 3d a6 cb 20 3e f9 7e d8 3c
       -0.119575575 0.05233403 0.15702686 0.026427733
0000a0 9a 38 6c bd ba e6 b9 3c 82 6a d9 bd 24 0c 3a 3d
       -0.057671167 0.022693027 -0.10616018 0.045421734
0000b0 6e 4a 74 3d 0c c7 33 3d 3a c3 ad 3d 65 c9 9d bd
       0.059641294 0.043890998 0.08484502 -0.077044286
0000c0 9e c9 7a 3d 5f f7 b3 3d 05 50 6a bd 24 c5 85 3d
       0.061227433 0.08787417 -0.05720522 0.06531742
0000d0 e4 ec f7 bd da c2 6e bd f2 ec c4 3d 96 3e 10 3e
       -0.1210573 -0.058291294 0.09615506 0.14086375
0000e0 ac 0b a0 3c 61 39 71 3c d7 a9 bb 3c d9 00 d4 3d
       0.019536816 0.014723153 0.022908134 0.10351724
0000f0 93 9d b8 3d 4c d5 9d bd 5e 6a db 3d 3f 3f 69 bd
       0.0901443 -0.07706699 0.10713647 -0.05694508
000100 d7 b8 42 3d 6c 2b 84 3a 42 02 d9 bd 5b 72 7a bc
       0.04753956 0.0010083742 -0.10596134 -0.0152860535
000110 a6 01 50 3d 00 1b c4 3d 66 86 94 bd 38 f2 8b bd
       0.050782822 0.09575462 -0.07252197 -0.06833309
000120 5e 2d aa 3d 74 45 d7 bd 2c e2 4b bd 2e 7b ad 3c
       0.08309434 -0.10511294 -0.04977624 0.0211769
000130 cd a2 b6 3c a2 14 ed bc 6c e8 a3 bd ea 3a 74 bc
       0.022294426 -0.028940503 -0.08003315 -0.014906624
000140 95 10 96 3d 16 2d 27 3c 6c 42 cd 3d 4a ce ec 3d
       0.073273815 0.01020362 0.100224346 0.11562784
000150 70 ce b3 bd ae e1 63 bd 2a 5f b9 bd 4e e1 1a bd
       -0.08779609 -0.055635147 -0.09051354 -0.037812524
000160 db 84 05 3d b1 7d 09 be 45 d4 a3 3d f3 9a de bd
       0.032597404 -0.13426854 0.079994716 -0.10869398
000170 bc e0 13 3a 6c 69 aa 3d f2 97 7d 3d da f7 e2 3b
       0.0005641093 0.08320889 0.061912484 0.006926519
000180 f1 0a 91 3d 3a 6b fc 3d ea b2 04 3d a0 83 21 be
       0.07082165 0.12325139 0.03239719 -0.15772867
000190 50 c3 be 3d 9a 83 6b 3d d3 04 55 bd f6 a1 a8 3c
       0.09314597 0.057498552 -0.052006554 0.020585041
0001a0 6e d8 5f bd 61 ee 97 bd 62 c4 79 3d 18 30 bd bd
       -0.054649763 -0.07418514 0.0609783 -0.09237689
0001b0 e6 8a 4d 3d bc d2 2b bc bc 95 97 39 b9 11 b2 3d
       0.050181292 -0.010487255 0.00028912525 0.086947866
0001c0 5a 2a d9 3b 25 32 10 be 2f 62 45 3c 6a 58 a6 3d
       0.006627363 -0.14081629 0.012047335 0.081223324
0001d0 a2 29 df 3c e8 fa 13 be dc 50 5d 3d de ab 92 bd
       0.027241532 -0.14451182 0.05403219 -0.07161687
0001e0 1a b1 a2 3d af e6 3d bb 05 fb b2 3c c4 dd d2 bd
       0.07943936 -0.002897661 0.021848211 -0.10296205
0001f0 b2 f3 e2 bd fc 6c 05 bc 5a b7 4e 3d ba 55 70 3d
       -0.110816374 -0.00814366 0.050467826 0.058675505
000200 49 68 12 bd a0 d4 7c bd 12 00 f0 3c 7a ec 62 bd
       -0.035743985 -0.061726213 0.029296909 -0.055401303
000210 d6 d3 ea 3d b4 4d df 3d 7a 49 79 bc da 38 59 bc
       0.11466186 0.109034926 -0.015215272 -0.013258183
000220 3a 08 ca 3b 24 87 ab bd f5 7f 21 3e 69 c6 0c 3d
       0.0061655315 -0.083753854 0.15771468 0.034368906
000230 7b bb fa 3d d4 3f 8c 3c 6f 3c 55 bd b6 1d 9b bd
       0.1224279 0.01712028 -0.052059587 -0.07574026
000240 92 4b c8 3c 75 8e f7 bc 30 21 83 bb ea 6c 9e bd
       0.024450097 -0.030219296 -0.004001759 -0.077356175
000250 de 1c 22 3d 02 05 b2 3d c8 80 04 3d 42 58 4b 3c
       0.03957831 0.086923614 0.032349378 0.012411179
000260 21 cb 12 bd 40 75 1f 3e c2 c0 f9 bc b1 7a a4 3d
       -0.03583825 0.15572071 -0.030487422 0.08031214
000270 c4 88 90 bd f4 06 c7 bd 50 08 35 bb 92 51 e1 bd
       -0.07057336 -0.09718123 -0.0027623363 -0.110018864
000280 db 07 d0 3d dc b1 81 3b 86 b0 82 3c 01 59 9f bc
       0.10157748 0.00395797 0.015953314 -0.01945162
000290 bc ce 20 3b 6e 02 1f 3e e2 b1 23 3e ff 44 08 3c
       0.0024537286 0.1552827 0.15985826 0.008317231
0002a0 3c 14 ae 3a 69 c4 65 bd 9e 77 c1 3d 9a a1 71 3c
       0.0013281177 -0.056095514 0.09446643 0.0147480015
0002b0 0a 87 5a 3c 26 b2 44 bd 4a 3d 4e 3d 0d 68 2f bd
       0.01333786 -0.048021458 0.05035142 -0.04282384
0002c0 aa be dd 3c c5 da 99 3c ba 93 fd bc 62 68 d4 3d
       0.027068455 0.018781075 -0.03095423 0.10371472
0002d0 fe 50 b3 bd d9 f3 94 3d 07 b4 2f 3d 2c 72 b0 3d
       -0.087556824 0.07273073 0.042896297 0.086155266
0002e0 90 62 b5 bd 31 cf b9 bc 31 c1 19 3e 27 48 16 3e
       -0.0885669 -0.022681804 0.15015103 0.14675961
0002f0 01 4a 54 bc dc 04 81 bd bc 0d f7 3d 61 4c cc bc
       -0.012957097 -0.06299755 0.120631665 -0.024938764
000300 86 58 d1 3d 15 a6 bd 3d da 10 e5 bc b3 da ab 3d
       0.10221963 0.09260193 -0.027962137 0.08391323
000310 3b b5 a4 bd fc 6b 50 3d 86 90 96 bd f1 fd 6d 3d
       -0.080423795 0.050884232 -0.073517844 0.058103506
000320 28 ef 89 bd ea 8f c6 3d 52 79 f6 bc 97 d3 ac 3c
       -0.067350686 0.09695418 -0.030087147 0.021096988
000330 05 94 ea 3d 46 a5 da 3d 82 21 eb 3d fc 3a 1d bb
       0.11454014 0.10676055 0.114810005 -0.0023991456
000340 c6 09 8d bd 1c 1a ea 3c 59 e6 c9 bd 02 69 df bc
       -0.0688663 0.028576903 -0.098583885 -0.027271751
000350 33 48 f3 3b f0 cc 10 bd d4 6c bd bc 9c 39 1e 39
       0.0074243783 -0.035351694 -0.023123182 0.00015089515
000360 db 60 1f 3d 3d 9f 89 bc ad 77 d8 bd 0a 38 15 3e
       0.038910728 -0.016799564 -0.10569701 0.14572158
000370 cc 7e 80 bd a8 3b a2 bd a1 7d 0a 3e 54 a3 d9 3d
       -0.062741846 -0.07921535 0.13524486 0.106268555
000380 a6 50 11 3e 1a c3 e0 bc 2f 44 1b 3c 8b 09 94 3c
       0.14190921 -0.027436782 0.009476705 0.018070957
000390 f8 4c c2 bd b3 6f 0b 3e e6 9a 46 bc 77 22 52 bd
       -0.09487337 0.13616829 -0.012121892 -0.0513024
0003a0 9c 80 be bc 15 36 4c 3c 24 e7 88 bd 18 7e 03 3d
       -0.023254685 0.012464066 -0.066847116 0.032102674
0003b0 c6 f5 fd 3d ca d2 6f 3d 8e 34 60 bd bb e2 94 bd
       0.12400393 0.058550633 -0.05473762 -0.07269808
0003c0 e4 6f 9d bd ec 92 7d 3c c6 1c 49 bd 3e 34 82 bc
       -0.07687357 0.015476923 -0.049099706 -0.015894052
0003d0 ca 99 c3 bd 34 6c ac 3d bd 3f df 3d 48 cc 67 3d
       -0.09550817 0.084190756 0.10900829 0.056591302
0003e0 6e 92 60 bd e5 66 07 3d c3 17 f1 3a 43 0b ea 3d
       -0.054827146 0.033057112 0.0018393922 0.11427929
0003f0 d6 3a 72 bc b6 e3 47 3d bc 8f 10 3b 4f ef 03 3d
       -0.014784535 0.048801146 0.0022058329 0.032210644

fc2.bias f4 [64]
000000 77 70 fd bb 71 b4 02 be 18 04 00 3d d0 15 07 3e
       -0.007734354 -0.12764145 0.031253904 0.13191915
000010 4b 4e eb 3c 96 61 61 bc fa a7 7b 3d d7 b5 92 bd
       0.028723856 -0.013756176 0.06143949 -0.071635894
000020 64 80 ad bd 10 2d 97 3d d9 95 ad bd 1a c6 53 3d
       -0.08471754 0.07381642 -0.08475847 0.051702596
000030 1d 0c 2c 3d 3a 00 d6 3d 1a 55 4f bd c7 f9 e6 bd
       0.04200374 0.10449262 -0.05061827 -0.1127811
000040 72 0e 7d bd d6 d5 0c 3d fd b4 03 3e 64 f2 16 3e
       -0.061781354 0.034383617 0.1286201 0.14740902
000050 5d 64 ac 3d 0e 33 d8 3c df 48 86 3b 6c 80 81 bd
       0.0841758 0.026391532 0.0040980424 -0.06323323
000060 b5 54 1d bd 75 72 a0 3d 18 93 02 3d a2 bd 03 be
       -0.03841086 0.07834331 0.03187856 -0.12865308
000070 e5 b1 9e 3b 34 2b e1 3d 11 f7 94 bd fb 93 a0 3d
       0.004842984 0.109945685 -0.07273687 0.07840725
000080 59 03 c1 3d aa 7a c6 bd 47 3a 2f bd 64 84 06 3d
       0.09424467 -0.09691365 -0.042780187 0.0328411
000090 dc b6 9d bd 88 4b e1 bc 03 c6 fd bd c4 fa da bc
       -0.07700893 -0.027501836 -0.12391283 -0.026730902
0000a0 36 85 2b 3d e2 58 a3 3d 32 96 df 3d 6e c8 26 3e
       0.041875087 0.079759374 0.10917319 0.16287395
0000b0 c7 a7 10 3d 19 19 d4 3d 62 1c d8 3d 27 54 d6 3d
       0.035316255 0.103563495 0.105522886 0.104652695
0000c0 b5 e2 aa 3d c8 e3 a4 bd 32 20 88 3d 9c 8b 28 bd
       0.08344022 -0.08051258 0.06646766 -0.041148767
0000d0 84 92 19 bd 0c 7d f6 bc 10 2b 66 bc a0 70 69 bc
       -0.037493244 -0.030088924 -0.014048353 -0.014248043
0000e0 9b 15 a3 bd 26 30 76 3d a3 fe a3 bd bd 0e 9f 3d
       -0.07963105 0.06010451 -0.080075525 0.07766483
0000f0 9f 1a e9 bc c0 ff 9f 3b 6a b2 aa 3d 77 01 0e 3d
       -0.028455077 0.0048827827 0.08334811 0.034669366

fc_out.weight f4 [1, 64]
000000 96 ee 8c 3d 8a 52 8e bd 63 44 bc 3d 54 04 0b 3e
       0.06881444 -0.06949337 0.09192731 0.1357587
000010 1a 3b eb bb 44 11 81 bc ca 8c e1 bd 4a 3a 65 bd
       -0.0071786763 -0.015755303 -0.110131815 -0.055963792
000020 1a 5e ea bb ba a9 33 3e 18 65 25 bd 9f de 99 3d
       -0.007152331 0.17545214 -0.040379614 0.07513165
000030 de 45 a5 3d 3a 59 09 3e 1f 71 dc bc 36 6e 90 bd
       0.08069967 0.13412943 -0.02690941 -0.07052271
000040 18 09 2a 3e 3c 41 25 3e 38 87 d3 3d ea 93 02 3e
       0.16605031 0.16138166 0.10328525 0.12751737
000050 94 1c 8b bd f2 44 84 bd 86 14 df bd 32 93 fc 3d
       -0.0679256 -0.06458463 -0.108925864 0.12332763
000060 75 70 30 3e 59 59 9a 3d b9 08 b6 3d 50 ba a6 bd
       0.17230399 0.07536573 0.088883825 -0.08141005
000070 7e f4 81 bd 7f ca 85 bd f0 5a 8d bd bc 9f 11 3e
       -0.06345461 -0.06532764 -0.069021106 0.1422109
000080 27 17 fd 3d 1f b9 a9 3d 2c a6 de bd 1d 2c 7f 3d
       0.123579316 0.08287262 -0.108715385 0.06229793
000090 54 d9 fb bd ec 3a 3b bd f4 0c d6 bd fc 55 27 bb
       -0.122973114 -0.04571049 -0.10451689 -0.0025533428
0000a0 b0 12 63 bd e8 2c 07 bd 91 ec 9c 3d 84 88 db 3d
       -0.055437744 -0.03300181 0.07662309 0.10719398
0000b0 07 85 35 3e 8b b7 22 3e 7f 37 99 3d 20 a9 e0 3d
       0.17726527 0.15890329 0.07481288 0.10969758
0000c0 a6 79 e3 3d 84 c0 c9 bd aa ff b1 3d 4a 99 e3 bd
       0.11107187 -0.098511726 0.08691342 -0.11113222
0000d0 4c 16 c0 bd 84 35 f0 bd 8b 7f 93 3d 6c 77 b8 bd
       -0.09379253 -0.11728957 0.07202061 -0.09007153
0000e0 16 26 d4 bd de 58 da bd 20 5a ea bd de 44 a4 bd
       -0.10358827 -0.10661481 -0.11442971 -0.08020948
0000f0 86 ee 23 3e da 20 e1 bd ef 9f ec bd 3b 03 d5 bd
       0.16008958 -0.10992594 -0.115539424 -0.10401007
