data/trained_models/base_Boil(K)_kan.pth (torch, 138818 bytes, 12 tensors)

net.0.coeff f4 [64, 10, 5]
00000000: 754e 33bd 1b7b cabd cca4 ba3d 070d 183e
00000010: 4e94 1d3d 2371 673d b9ae 51be 2d07 82bd
00000020: 3c24 053d 5e63 23be d022 b53c 45ee debd
00000030: f983 ac3c 35f9 163d 73e7 b2bc 5d5d a7bd
00000040: 7827 e7bb 0887 31bd a86a bc3d f082 1d3c
00000050: e045 cdbc 9722 743d ae16 b43d f9fe 03bd
00000060: 6181 19be 7e87 e83c 8b95 383e 6b13 5ebc
00000070: 4fcb ca3d b063 613d 2994 73bd 3e8c ff3d
00000080: ca35 58bd ba8d 423d 5c9b 653c 505f 1bbd
00000090: 2f25 503c beb8 353e a021 18be b395 e3bd
000000a0: 8540 953c 3591 e9bd 0059 66bd b383 073e
000000b0: 400a b93d d405 ca3c 7a05 07be a4f1 723d
000000c0: dda1 093e c58d f23d 6da9 05be a0e4 d63d
000000d0: 590b 113e e753 533d 16c5 21be 34b2 4b3e
000000e0: 1d64 f83b 6a68 8a3d f892 5cbb 83a8 d73d
000000f0: 6339 c33d 7a25 733d 0c6c 473e 60c9 35be
00000100: c566 f23c 81b5 023d d684 40bd 0647 cf3c
00000110: c154 d7bd 7531 adbd 7250 afbd e0e7 1cbb
00000120: 5b86 a23d 7f84 d13d be2c 473e de21 883d
00000130: abcf af3d d597 253d bcd1 de3c 04c3 8ebd
00000140: a420 3ebe 3a75 e93d 4c0d 883d 8cfe d3bd
00000150: 7a70 6cbd e2d3 0dbe 9d84 e13d 17f1 913c
00000160: 000a ba3c 67f6 f4bd ca78 263d 17b8 debd
00000170: 7009 873d b11c 683d d82e 83bd 3e84 df3d
00000180: 95bf 50bd 97f3 d0bc 48dc a7bc 6d80 473d
00000190: f9da 263d a5ee ae3d 5609 6e3d 1920 7bbe
000001a0: d863 7e3c bd10 71bd 6407 1b3d a380 2abd
000001b0: f68b 0fbe aaeb 74bd a78d a53d feae 233e
000001c0: e4ef babc b9d1 20be 4a80 b93c 6cca 8abd
000001d0: 102b 01bd 5079 8fbc 28fb 93bc 5455 85bd
000001e0: 82d1 b7bd 5bd3 b13d 68ce 08be 9180 84bd
000001f0: adf9 b9bd 8120 4ebd 0c6a d5bd 6319 a0bd
00000200: 4941 b13d 9553 cbbd 6959 923d 7677 6e3d
00000210: 890c 4abd e496 17be 17b6 663d 0335 46be
00000220: 3e02 813d 9400 d0bd f54d 4d3d c128 0cbd
00000230: ebd0 8e3d 19b2 453e 6c79 17be 981a 703c
00000240: b3ce 403b b4b7 743d 3106 e03d d947 713d
00000250: edb3 84bc ae76 6e3d 589d b4bd 38ce 2f3c
00000260: 40e5 3e3e 1aae de3d 040c 403d 2355 06bd
00000270: 4040 03be dedf b93c 670d f6bc 3ba7 7e3c
00000280: 2d0a 0a3d 387f 99bd 7784 e03c a64d 98bd
00000290: adc3 1b3e 2885 503d d8a1 08be ef05 883d
000002a0: c226 b3bd 0192 eabd 7b29 acbc 632b b63d
000002b0: 4ddb 103e f075 f8bb b493 00bd 2154 323d
000002c0: e21d b43c 971b 883d 0af8 24bd d113 9f3b
000002d0: b22e 2e3e 8101 01be c2d5 09bd 2c9e a93d
000002e0: dc09 27be 4e9e 013d 9715 063e 0e53 bb3d
000002f0: 8725 72bd 6876 acbd 28cc ba3d 7035 123c
00000300: e7be bc3c 26d0 2ebd 10ef 17bd 0b11 3d3d
00000310: f83c 913c f403 a53d e29a b1bc 0ad3 cb3d
00000320: 33cb 93bd 976c 68bc 708c d43c 7c0d 5b3c
00000330: 61fc b63c eecc da3d cc1b 56bd 7196 493d
00000340: a101 103e 92b7 d9bd b358 1a3e eabc f3bd
00000350: 9dad 8abd 19dd 8bbc 0348 283e 35d7 7a3b
00000360: 165d 823b 344d a73d 6afb a5bd 1b51 8ebd
00000370: 7f8a 0d3e 69f5 b3bd ee96 6cbc efed 9d3b
00000380: c5cb 5b3d c283 0f3e 9c3c 10be a883 19bd
00000390: 9476 a7bc 82e6 2bbd aefe 983d da6d 02bd
000003a0: fd97 fabd 5729 66be 5db4 673d ef53 4a3e
000003b0: 25a2 ed3d 2c32 5b3d 91b4 5b3d f5d9 ca3d
000003c0: dec8 d63d ea43 f2bb e08a 723d 8e0a 923c
000003d0: 150b 753d 0c39 1d3e e1b2 5bbd e001 a3bd
000003e0: 21df 013e 0212 8ebd 2ac2 1abe 39d4 4f3d
000003f0: 0219 f33d 842c f6bd 4f65 8e3d 224e 3ebe
-0.043775994 -0.09886762 0.09113464 0.1484872 0.038471512 0.05650438 -0.20476808 -0.06349025
0.03250526 -0.15955874 0.022111326 -0.1088529 0.021059023 0.036858756 -0.02183888 -0.081721045
-0.0070542656 -0.043341666 0.092000306 0.009613737 -0.025057733 0.0596033 0.08793388 -0.032225583
-0.1499076 0.02838492 0.18025796 -0.013554434 0.09902059 0.05502671 -0.05946747 0.12477921
-0.052785672 0.047498442 0.014014091 -0.037932694 0.012704178 0.17746255 -0.14856577 -0.11112537
0.018219242 -0.11404649 -0.05623722 0.13233833 0.09035158 0.024660982 -0.13185683 0.059312478
0.13440652 0.11843447 -0.13052912 0.104928255 0.14164485 0.051593687 -0.15797839 0.19892198
0.007580294 0.06758197 -0.0033656936 0.10530188 0.0953243 0.059361912 0.1947481 -0.177526
0.02959002 0.031911377 -0.047001682 0.025302421 -0.105142124 -0.08456699 -0.085602656 -0.002394192
0.079357825 0.1023035 0.19450662 0.06647085 0.085845314 0.040428 0.027199619 -0.0697079
-0.18567139 0.11399312 0.06643161 -0.10351285 -0.057724454 -0.13850358 0.11011622 0.017815156
0.022709846 -0.1196106 0.040642537 -0.10874956 0.06593597 0.056667987 -0.06405419 0.10913895
-0.050963957 -0.025506778 -0.02049078 0.04870646 0.040736172 0.085416116 0.058114372 -0.24523963
0.015526734 -0.058853853 0.037848845 -0.041626584 -0.14018235 -0.05979506 0.08083659 0.15984723
-0.022819467 -0.15705003 0.02264418 -0.0677689 -0.03153521 -0.017513901 -0.018064097 -0.06510416
-0.08975507 0.08682891 -0.13359988 -0.064698346 -0.09080825 -0.050323967 -0.104206175 -0.07817342
0.0865503 -0.099280514 0.0714596 0.058219396 -0.04932836 -0.14803654 0.056326 -0.1935616
0.06299256 -0.1015636 0.050123174 -0.034218553 0.06973442 0.1930622 -0.14792413 0.014654778
0.0029420077 0.059745505 0.10938681 0.05890641 -0.016199077 0.05821865 -0.088190734 0.010730319
0.1864214 0.10873051 0.04688646 -0.032796036 -0.12817478 0.022689756 -0.030035688 0.015542801
0.03370111 -0.07494968 0.027406914 -0.07436685 0.15211363 0.050908238 -0.13342988 0.06641757
-0.08747627 -0.11453629 -0.021015873 0.08894994 0.14146157 -0.0075824186 -0.03139086 0.043537263
0.021986905 0.06645887 -0.04027561 0.004854657 0.1701 -0.1259823 -0.03365112 0.08282122
-0.16312355 0.03164511 0.13094173 0.09146701 -0.05911782 -0.08421022 0.09120971 0.008923873
0.023040248 -0.042678975 -0.037093222 0.04615883 0.017729267 0.080573946 -0.0216803 0.09952362
-0.072164916 -0.014186046 0.025945872 0.013369914 0.02233714 0.106836185 -0.052272603 0.049215738
0.14063121 -0.106307164 0.15072899 -0.11901267 -0.06771395 -0.017073201 0.1643372 0.0038275246
0.003978382 0.08169022 -0.08104594 -0.069490634 0.13822363 -0.08787043 -0.014440281 0.0048196237
0.053661127 0.14015105 -0.1408562 -0.037479073 -0.020442285 -0.041967876 0.07470451 -0.031843044
-0.12236021 -0.22476707 0.056568492 0.1975858 0.11603192 0.053514645 0.053639 0.09904853
0.10487531 -0.00739335 0.059214473 0.017827298 0.05982502 0.15353793 -0.05363739 -0.07959342
0.12682773 -0.069370285 -0.1511313 0.0507395 0.11870004 -0.120202094 0.06952917 -0.18584493

net.0.scale f4 [64, 10]
00000000: aec7 7c3f b84d 7c3f 8e4b 7c3f 7af6 813f
00000010: 7c4d 7c3f ec35 7c3f ec84 813f d0f9 813f
00000020: e962 7d3f dc39 7c3f 7131 813f 4e94 7e3f
00000030: d8aa 7e3f 4cf1 7c3f 06f0 803f 8f33 7f3f
00000040: 5691 813f 3237 813f c38a 7d3f 60ab 7d3f
00000050: 8764 7f3f f391 7f3f 7276 7e3f b280 7f3f
00000060: 10d9 7f3f 6937 803f 2d04 803f 6555 803f
00000070: 0e51 803f 3201 803f 9fa5 813f 3592 7e3f
00000080: 4728 813f 6800 803f 1a85 813f cae6 7f3f
00000090: 250a 813f bdfc 7f3f 2a03 803f 06a2 813f
000000a0: ac53 7c3f c0e7 813f 58b4 813f 4a3d 823f
000000b0: d206 7c3f 9032 823f a51e 813f a5d3 813f
000000c0: 6c10 813f 3b7d 813f 5613 7d3f d4db 813f
000000d0: 12db 7c3f 7a17 7e3f 859b 7d3f 2e13 7f3f
000000e0: 4a1f 803f f3ab 803f 0430 813f 6343 803f
000000f0: 3241 803f c36e 803f f576 7f3f a754 7d3f
00000100: 5779 813f 85bf 803f e321 803f 4d63 7d3f
00000110: 197a 813f e547 803f 5a74 7c3f a09b 7b3f
00000120: 202b 823f 05c8 813f 05e1 813f 3c44 813f
00000130: 86f5 813f 6249 7c3f 1de8 813f 8200 823f
00000140: 5e48 7c3f 9433 7c3f e5d0 813f 0c02 813f
00000150: 6f30 813f 5bc1 813f 7ce5 813f 23a1 813f
00000160: 34f4 813f 41e7 7c3f cd44 7c3f 6cdd 813f
00000170: ec2c 7c3f a315 7c3f dbd3 813f bafa 7c3f
00000180: 92ef 813f f62f 7c3f 3bfc 813f 9055 7c3f
00000190: cdd9 813f 7afe 813f c3a0 7f3f 6e08 823f
000001a0: 80f2 813f 6449 7f3f bf12 823f edcf 7b3f
000001b0: 4ce8 7c3f 9a31 823f 7b16 813f c390 803f
000001c0: 778c 7e3f b73f 7e3f 20b8 803f d6b5 803f
000001d0: fd09 803f 62c4 803f abcb 803f e1d7 803f
000001e0: f3a7 813f fa07 7d3f afa5 813f 56cd 803f
000001f0: 0bfa 803f d96c 7d3f 20d5 7e3f 94e6 803f
00000200: 3a49 813f 66c1 7c3f 6a94 803f ed73 7f3f
00000210: c12a 7f3f 29a5 813f 20a2 7e3f d910 823f
00000220: 0fad 813f 2e08 7e3f 74d6 7b3f a6f2 803f
00000230: 1f13 823f d804 7c3f 9346 823f b238 823f
00000240: c60a 823f 582c 823f 3531 823f e529 7e3f
00000250: b6c6 813f fe86 7b3f e5fd 813f 0ebf 7b3f
00000260: 5119 823f d7de 7b3f cd15 823f c928 823f
00000270: dd1e 823f feb3 7b3f 6418 7c3f d11a 823f
00000280: 17e4 7e3f c798 803f 3c94 813f be28 803f
00000290: 77e5 7c3f 54b5 7f3f a6af 7f3f e137 813f
000002a0: e070 813f ec88 813f 746b 7d3f 6ccf 803f
000002b0: 5cc8 803f 430b 813f 9112 813f 6234 7d3f
000002c0: 62c0 803f f5cc 803f 5067 7e3f 366d 7e3f
000002d0: e1bf 7b3f a0df 813f 6e8b 7c3f 7bcf 813f
000002e0: 7318 823f bf6a 7c3f d014 823f 164f 813f
000002f0: 23fd 7b3f 2b12 7c3f 34a6 7b3f c2d7 7c3f
00000300: 3d06 803f a643 823f 80f5 7c3f 70d6 7e3f
00000310: 2c99 7b3f b787 7b3f c366 813f b27b 7b3f
00000320: 4547 803f 5c04 803f 6419 803f d094 803f
00000330: b6a5 7f3f 0618 803f 8065 7f3f 8236 803f
00000340: abf5 7d3f 91d8 803f f8f3 813f 8966 7b3f
00000350: 5e4f 823f bd1d 823f c345 823f 6c3f 7f3f
00000360: 4b3e 823f 4e97 7b3f 5075 7b3f 1561 7c3f
00000370: f077 803f 3f71 7c3f e76c 7e3f c5e1 7f3f
00000380: f9e5 7b3f 3a79 7f3f c553 803f 607c 7f3f
00000390: 9d3d 7f3f 7372 813f 2898 7c3f 5c85 7c3f
000003a0: 9fe7 7c3f ebc6 813f e213 823f dbbc 813f
000003b0: 956b 7c3f 0ed0 813f f26a 7c3f 4975 7c3f
000003c0: ddde 813f 407c 813f 9a9a 803f d434 823f
000003d0: 5c42 823f ea9b 813f 43b0 7c3f 921d 823f
000003e0: 87c5 7d3f 3c28 823f 93a2 7c3f 30ab 813f
000003f0: b7a3 7c3f 2c51 803f c209 7c3f e2de 7b3f
0.9874219 0.9855609 0.9855279 1.0153344 0.9855573 0.9851978 1.011869 1.0154362
0.9897905 0.98525786 1.0093213 0.99445045 0.99479437 0.9880569 1.0073249 0.9968805
1.0122478 1.0094969 0.9903986 0.9908962 0.9976277 0.99832076 0.99399483 0.9980575
0.99940586 1.001691 1.0001274 1.002606 1.0024736 1.0000365 1.0128669 0.99441844
1.0090417 1.0000124 1.0118744 0.9996153 1.0081221 0.99995023 1.0000966 1.0127571
0.98565173 1.014885 1.0133162 1.0174954 0.98447907 1.017168 1.0087477 1.0142714
1.0083137 1.0116342 0.9885763 1.0145211 0.98771775 0.9925457 0.9906543 0.9963864
1.0009549 1.0052475 1.0092778 1.0020565 1.0019896 1.0033802 0.9979089 0.98957294
1.0115155 1.0058447 1.0010341 0.98979646 1.0115386 1.002194 0.9861504 0.9828434
1.0169411 1.0139166 1.0146796 1.0098948 1.0153053 0.98549473 1.014896 1.0156405
0.98547924 0.985162 1.0141875 1.007875 1.0092906 1.0137132 1.0148158 1.01273
1.015265 0.98790365 0.9854248 1.0145698 0.98506045 0.98470515 1.0142778 0.9882008
1.0151236 0.9851068 1.01551 0.9856806 1.0144593 1.0155785 0.9985468 1.0158823
1.015213 0.9972136 1.0161971 0.98364145 0.98791957 1.0171387 1.0084985 1.0044178
0.9943308 0.9931597 1.005619 1.0055492 1.0003048 1.0059931 1.0062155 1.0065881
1.0129379 0.98840296 1.0128688 1.0062664 1.0076307 0.98994213 0.9954395 1.0070367
1.0100472 0.987326 1.0045292 0.99786264 0.9967461 1.0128528 0.99466133 1.0161391
1.0130938 0.9923123 0.98374104 1.007405 1.0162085 0.9844489 1.0177788 1.0173552
1.0159538 1.0169783 1.0171267 0.99282676 1.0138767 0.98252857 1.0155607 0.983384
1.0163976 0.983869 1.0162903 1.0168697 1.0165669 0.9832152 0.9847472 1.0164434
0.9956679 1.0046624 1.0123363 1.0012434 0.98787636 0.9988606 0.99877393 1.0095178
1.0112572 1.011991 0.98992085 1.00633 1.0061145 1.0081562 1.0083791 0.98908055
1.005871 1.0062548 0.9937639 0.9938539 0.9833966 1.014637 0.9865025 1.0141443
1.0163711 0.9860038 1.0162601 1.010226 0.9843313 0.9846522 0.9830048 0.9876672
1.0001904 1.0176895 0.98812103 0.99545956 0.98280597 0.9825396 1.0109485 0.9823562
1.002175 1.000133 1.0007749 1.0045414 0.9986223 1.0007331 0.9976425 1.0016634
0.99202985 1.0066091 1.0152578 0.9820333 1.0180471 1.0165325 1.017754 0.9970615
1.017526 0.9827775 0.9822588 0.98585635 1.0036602 0.986103 0.9938492 0.9995387
0.98397785 0.9979435 1.0025564 0.99799156 0.9970339 1.0113052 0.9866967 0.9864099
0.98790926 1.013883 1.0162318 1.0135759 0.9860166 1.0141618 0.98600686 0.9861646
1.0146137 1.0116043 1.0047181 1.0172372 1.0176501 1.0125706 0.98706454 1.0165274
0.9912953 1.0168529 0.9868557 1.0130367 0.9868731 1.0024772 0.9845239 0.9838697

net.0.base_weight f4 [64, 10]
00000000: fe89 c53c 95a9 2ebe 98c8 61bd f3a7 a3bd
00000010: deee f2bd 1513 7fbc 864c cc3d e865 f2bd
00000020: f25a e23d b483 8abd 459c a6bd 28d4 8bbd
00000030: 13e4 8bbd 1d09 403c a54c f2bd a846 34be
00000040: 63e0 2d3e 7c8e a6bd 6b79 193d c163 493d
00000050: e9e9 5fbd 2adb 483d c2cc fabd 06d3 e4bd
00000060: 2a34 b7bb 7057 0fbc 4b0f 843e f5a7 b83c
00000070: 1dab cf3d 1b9e 14be 3bb1 103e 12ce ad3d
00000080: 4a80 52bd bb51 c7bd 6af2 373e 5c08 c7bd
00000090: f25d 38be 272f bdbd 0818 cfbd 80de d4bc
000000a0: 45ae 6f3d 2636 07be 239f b43c 2e7d 723e
000000b0: 48da 033e e63d e5bc 1e5d 7cbd ed87 b6bd
000000c0: 0184 013e d00b 0a3e f115 dcbd 5f5d dcbd
000000d0: c89f f93c 5622 97bd f199 d53c 2647 ab3d
000000e0: d8d7 1bbd f2ed 453d 1c39 1bbd 4a62 6f3d
000000f0: 452c b4bd 6ccf adbc 4c48 28be e65c d5bd
00000100: 3a8b 753c 4833 173e 90b4 cf3d 1ecb c43c
00000110: cbe3 453d e8c8 f1ba 09ee 58bc 4e62 e9bd
00000120: fbc0 abbc 03ea c5bd 819c b0bd c45a 263e
00000130: 7f49 9c3d 37e7 0a3e d228 623d cfb0 d33d
00000140: fffa a2bc 9a29 c13e 0146 eebd 1cd8 313e
00000150: 1801 f9bb 71b3 0dbe ddc8 3c3e b1be 8fbc
00000160: 5fda 8cbd 5199 e63d a1dd 66be 8fcc 9a3d
00000170: 6556 21bc 0b4b 70bd 107c e9bd d888 f93c
00000180: bed4 57bd 652f 3bbb e448 7dbb 8585 93bd
00000190: ef88 393c b96f 033d 2546 92bc 49ea 15be
000001a0: 6b77 4cbe ee33 55bd 6ecd 78bc b6c5 4c3e
000001b0: 3c6d bdbd 7126 c8bc 587d eb3c 1922 563d
000001c0: d29e 773e 455c 15be 7d00 3d3e 49d0 06be
000001d0: 5843 2ebd c7cc d5bd f261 e53d 21ba df3c
000001e0: 40cb 443d 1d35 4dbd 3c65 5e3d 1e1d 11be
000001f0: 2ed5 a73d 60e8 22bd aec9 c7ba c36f 74be
00000200: c31a 333d 3390 34be 3d6c aebd 9482 803e
00000210: 902b 1dbd 05ad d63d 9ed7 0bbe 00a8 6dbd
00000220: 88b4 0dbe 9245 003d a456 1f3d 7567 633e
00000230: 1711 0a3e 5ccd a1bd 8c7b 183e 21ca 18be
00000240: 419d 91bd 873c a33d 7655 f73d fb4a bf3c
00000250: 9ad8 b23c 7f64 02be 601d 44bd 281b 533d
00000260: f4e8 b03d 6f10 523d 4f1e 0b3d d666 f13c
00000270: 9e7f 4bbd 04d6 063d 5087 8ebd 5f81 67be
00000280: 8ce1 1a3d 551e 603e 659d 91bd 143b 29bd
00000290: fe61 9a3c f7f1 b1bd ece4 e0bd 4124 d03d
000002a0: 2b36 18bd 2ee6 743d 0622 adbd c1ab b33d
000002b0: 2319 12bb 7ee6 13ba 4262 ab3c f04b f0bd
000002c0: 9912 17be 1647 84bd eecd 7d3e e501 663d
000002d0: 032c 723e 7613 c33d 6de5 843b aeab 1c3e
000002e0: cc51 1dbe 0620 3fbe 24cd cdbc 6c3f adbd
000002f0: 250b adbd f0ed 71bd d904 01bc e975 883e
00000300: 4551 f83d 4800 07be 5201 7b3e 90bb c13d
00000310: c773 113d 0011 72bc 3a79 6f3d 2eca b3bd
00000320: 7530 85bd 0dab cf3b 1a8b 093d 39ff 3e3d
00000330: 8f8e 343e 40bf a9bd 5848 443e 97ba 3e3d
00000340: efc6 303e 6811 f53d 9f2d 8ebd f75c 98bd
00000350: 999c aabd 3bbb 0e3e d7b6 6f3c 4fd1 f63d
00000360: c964 5ebd 4c6d 30be 79c1 d43d e255 fa3d
00000370: 0758 803d 584d debc 7d73 463d c94d 713e
00000380: c4a3 923d 8676 3d3e 84ac 103d 678f 963d
00000390: e3f6 063e 85db 433d 0ef6 0b3e 945e 03bc
000003a0: 59d6 41be b18b 08bd 8f77 9d3e ba1c 08be
000003b0: ce13 d1bd 06fc 52be ec0d 173e eff4 7bbd
000003c0: 704a 5f3e d9ec acbd bce1 fa3d 4b41 81bd
000003d0: e20a 803d 375f 4dbd 508e 51bb ec00 00be
000003e0: d610 a0bd 826b 0b3e 642f 9f3d 73aa 093d
000003f0: edae 023e e02d 16be b68a 50bc e134 37be
0.024113651 -0.17056878 -0.05512294 -0.07991018 -0.118619666 -0.015568514 0.09975533 -0.11835843
0.11052503 -0.06763402 -0.08135275 -0.06827575 -0.06830611 0.011720923 -0.11831025 -0.17605078
0.16980128 -0.081326455 0.03746931 0.0491674 -0.054666433 0.049037136 -0.12246086 -0.11173062
-0.0055909352 -0.008748874 0.25792918 0.022541026 0.10140059 -0.14513437 0.14130108 0.084865704
-0.051391877 -0.09732386 0.17963567 -0.09718391 -0.18004587 -0.09237509 -0.101120055 -0.025985003
0.058515806 -0.1320425 0.022048539 0.23680565 0.12876236 -0.027983617 -0.06161224 -0.089126445
0.12648012 0.13481069 -0.107463725 -0.107599966 0.030471697 -0.07379596 0.026074382 0.0836318
-0.03804764 0.048322625 -0.03789626 0.058443345 -0.08797506 -0.02121707 -0.16433829 -0.104181096
0.0149868075 0.14765656 0.101418614 0.024022635 0.048312943 -0.0018446716 -0.013240346 -0.11395703
-0.020966044 -0.09663775 -0.08623601 0.16245562 0.07631206 0.13564764 0.05521471 0.10336458
-0.019895075 0.37727052 -0.11634446 0.17367595 -0.0075990073 -0.13837983 0.18435998 -0.017546983
-0.068775885 0.112597115 -0.22545482 0.07558548 -0.009847258 -0.058665317 -0.11400616 0.03046076
-0.05269312 -0.0028562185 -0.0038648183 -0.07203201 0.011324151 0.03208897 -0.017855713 -0.14640154
-0.1996743 -0.052051477 -0.015185697 0.19997296 -0.092493504 -0.024432393 0.028746292 0.05227861
0.24181679 -0.1458598 0.18457218 -0.13165392 -0.042544693 -0.10439449 0.11200322 0.027310433
0.048045397 -0.05009948 0.054295763 -0.14171264 0.08194958 -0.03977239 -0.00152426 -0.23870759
0.043726694 -0.17633133 -0.085167386 0.25099623 -0.038371623 0.104822196 -0.1365647 -0.058021545
-0.13838398 0.031316347 0.038900986 0.22207434 0.13483082 -0.07900497 0.1489088 -0.14920856
-0.07110072 0.07970529 0.12076847 0.023351183 0.0218318 -0.12733649 -0.047879577 0.05153957
0.08638182 0.051285204 0.03396445 0.029467981 -0.049682252 0.032918945 -0.069594026 -0.22607945
0.037812755 0.21886571 -0.07110099 -0.041316107 0.018845554 -0.08688729 -0.109811634 0.10163165
-0.037161034 0.05978983 -0.08453755 0.08772994 -0.0022292815 -0.0005641951 0.020920876 -0.11733234
-0.14753188 -0.06458871 0.24785587 0.05615415 0.23649602 0.09525196 0.00405567 0.15299866
-0.15363234 -0.1866456 -0.025122233 -0.084593624 -0.08449391 -0.059064806 -0.007874691 0.26652458
0.12124876 -0.13183701 0.24512222 0.09459603 0.035510805 -0.014774561 0.05846522 -0.08778797
-0.06503383 0.0063375295 0.033579923 0.046630118 0.17632507 -0.08288431 0.19168222 0.046564665
0.17263387 0.119662106 -0.06942295 -0.07439607 -0.0833065 0.1393861 0.014630995 0.12051641
-0.054295335 -0.17229193 0.103884645 0.12223412 0.0626679 -0.02713649 0.048449982 0.23564829
0.07160142 0.18502244 0.035320774 0.073515706 0.13180117 0.047816772 0.13668081 -0.008018155
-0.18929423 -0.033336345 0.30755278 -0.13292208 -0.102088556 -0.20603952 0.14751405 -0.061512884
0.2180574 -0.084436126 0.12250087 -0.06311282 0.06252076 -0.050139632 -0.0031975694 -0.12500352
-0.07815711 0.1361523 0.07772711 0.03360982 0.12762041 -0.14665937 -0.012728384 -0.17891265

net.0.grid_points f4 [5]
00000000: 0000 00c0 0000 80bf 0000 0000 0000 803f
00000010: 0000 0040
-2.0 -1.0 0.0 1.0 2.0

net.2.coeff f4 [64, 64, 5]
00000000: eaa8 e93c eb6c 813d c57a 82bd 0d99 dc3d
00000010: baf9 c33d d5b9 de3d d0d2 15be 0c1a ae3d
00000020: 9eb3 ab3e e1f9 24bd 653a 03be 0b17 343d
00000030: db22 5ebd d7d3 e33d fd0a f33d 6744 e73c
00000040: 8419 03be de7f 07be 20d8 3f3c 34c6 94bb
00000050: b073 37be b72f fd3d 5fc2 023d 2498 67bd
00000060: cd7a ee3d 59e5 8ebd 891e b03d ca83 e8bd
00000070: 6dbd 8f3d d48b 9a3d ecb4 263e 75ac 36bd
00000080: 9824 acbd 3f35 1c3d 260e 37be 517b 96bd
00000090: b5e9 073e 989f 43bd a251 813d 9683 583d
000000a0: 6eb1 133e 51a6 c03d 8f2a 2d3c afd2 ccbc
000000b0: 3b9f ab3d b47e a73d 4c2d de3c 1a72 be3d
000000c0: 24d6 51bd 34ab ef3d 7cf4 ce3d 8fb7 533d
000000d0: 4a58 f83c efd5 e4bc 24a3 893d 10ab 82bd
000000e0: 5338 a23c 2b2f 30bd 68b1 393e 3452 863d
000000f0: d532 c83d 8bef c1bd 3765 bebd 44b6 083d
00000100: 494b a63d 3534 1a3d 7048 913b 0a13 093d
00000110: 346a fc3d cbd1 a73d cce8 1a3d 89a6 b1bc
00000120: dabb 1d3d 5597 50bd ebad 2c3c 851e b4bd
00000130: c38c 373c a0e3 f3bd 1765 9fbc 8109 8cbd
00000140: 0648 0a3d eb4e 273d 6bf6 173e 1de4 933d
00000150: 910f 84bd 7198 62be 73ae fcbb 6ec2 043c
00000160: 2a69 943d 24e6 963d cf19 5dbd 533b 1ebe
00000170: ca8f f03c 1fc8 59be 9ede 903c 92f2 c7bd
00000180: 3f36 633d f8c4 fe3d e82f 93bc 4156 5cbd
00000190: b969 b4bd e47b 90bd 8250 04bc 791b dc3d
000001a0: 4aa7 8f3c 4a0d 08be d2ad 763c 061d 8ebc
000001b0: f29d 2ebc 6a6d 18bd 4c8a aa3d b93a 5bbd
000001c0: 8be7 2b3c 0f0e 923d 471f 2bbc 01c7 d1bc
000001d0: cec7 ba3b a66d 8ebd faf9 3c3d 2fcb 28bd
000001e0: c70f c7bd 4124 eebd c538 c0bd c052 dbbc
000001f0: 8736 533d a357 b8bc 92be ffbb 14aa 07bd
00000200: 334b 83bd 6167 e43d e7e1 543d 5b91 7e3d
00000210: ee03 babc 4e47 163d f254 06be d958 e3bb
00000220: 9c78 e0bb b036 893d b6a4 973d 4c73 a0bd
00000230: cdcf 9abd adfe 91bc aa51 593c 4169 a63d
00000240: 1835 b53c b435 1bbd 9fcd 81bc ab42 e2bd
00000250: f2b5 003e edce 053d e124 f7bc 610b 953b
00000260: e635 173d 5c52 76bb 2dab 5c3d 5f04 b1bd
00000270: 796d a43d abd5 03be 765d d2bc b8b3 cabd
00000280: 2e02 49be ec5d bd3d 22b1 81bd ace8 4c3c
00000290: d2dd 10bd f2e2 0dbd a29d 5dbd 2a0f c93d
000002a0: ff9f 4ebe b4fd 2dbe e684 c43c 8c27 3fbd
000002b0: ac0d 8b3a a8bb 45be 808a 0dbd fc2b d1bd
000002c0: 69a9 d23d 49de aebd 729b 0e3d 5d09 71be
000002d0: 2195 e73d 5d78 aabc a4b9 49be 1cd6 853d
000002e0: c28f 66bd 0b1d 863d 857b a839 6298 1ebd
000002f0: 8b48 ce3a 6ba6 0d3e d273 bcbc bac4 07bd
00000300: 0777 6a3c 9e48 0c3d 2859 c43c 5e9f 943e
00000310: 455a b13c 1899 6c3c 0f2b 0a3e 0c0f 013e
00000320: 76e3 16be 6cb9 1cbd 7b87 9abd 5959 5d3d
00000330: 907e 943d c502 9bbd b4a5 433a 712b 4d3d
00000340: c3af 8fbd f5d7 79bd 6232 d43c 133f 603e
00000350: 6d94 bebd 55f8 ef3d bde0 4cb9 2cca 91bc
00000360: 4d5f 913d f2ed 253d ccf1 d53c a6e6 b8bc
00000370: 5fdc 013e 67f1 433e 61ce 653d 7627 703d
00000380: ec45 9c3d 3f3f d1bd c874 3ebb 5e2e debc
00000390: e76c f7bd 1964 fabc e94a 2d3e 4438 813c
000003a0: 20f3 4e3e b5ae dfbc 143f a63d 5d07 23bc
000003b0: c44c b03d ef49 70bc 5e22 713d 84d5 b9bd
000003c0: 6c0d d9bd b084 b7bc 57e7 9ebd 9926 a93c
000003d0: 07ca 6dbd a717 e1bd 7a78 903d 37c1 f7bd
000003e0: a7fa b5bc 20d3 bd3d dac9 0b3e 667d 4b3e
000003f0: 79c4 ad3d 5e6d c3bd 98b9 3bbd 068c a4bb
0.028522927 0.063196026 -0.06371073 0.107713796 0.09569116 0.108752884 -0.146312 0.08501062
0.33535475 -0.040277366 -0.12815244 0.043967288 -0.05423246 0.111243896 0.1186733 0.028230859
-0.12802702 -0.13232371 0.011709243 -0.004540229 -0.17915225 0.123626165 0.031923648 -0.056541577
0.11644516 -0.06977338 0.08599574 -0.11353262 0.07018552 0.07546201 0.16279954 -0.04459806
-0.08405417 0.038136717 -0.17876491 -0.073477395 0.13272746 -0.047759622 0.06314398 0.052859865
0.14423153 0.09406722 0.010569229 -0.025002806 0.0837998 0.081784636 0.027121209 0.09299107
-0.05122961 0.11702576 0.101052254 0.051688727 0.030315537 -0.027934043 0.0672057 -0.06380284
0.019802248 -0.043013733 0.18134081 0.06558648 0.097753204 -0.09469517 -0.09296649 0.033376947
0.08119828 0.037647445 0.004433684 0.033465423 0.12324944 0.08194312 0.03781967 -0.021685855
0.038509227 -0.05092557 0.010539512 -0.08794884 0.011202994 -0.119086504 -0.019457383 -0.0683775
0.033760093 0.040846746 0.14840095 0.072212435 -0.064482816 -0.22128464 -0.0077112257 0.008102996
0.07246621 0.073681146 -0.05397969 -0.15452318 0.029365439 -0.21267746 0.017684277 -0.097630635
0.055471655 0.124399126 -0.01796718 -0.053793196 -0.088092275 -0.0705488 -0.008075835 0.107474275
0.017535824 -0.1328632 0.01505609 -0.017347824 -0.010657774 -0.03721372 0.08327159 -0.0535228
0.010492216 0.07131588 -0.010444469 -0.025607588 0.005700088 -0.069545075 0.046136834 -0.041209396
-0.09719806 -0.11628009 -0.09385828 -0.026772857 0.051565673 -0.022502726 -0.0078047 -0.033121184
-0.064108275 0.111525305 0.05197325 0.06215034 -0.022706952 0.036689095 -0.13118342 -0.0069380817
-0.0068503153 0.06699884 0.07404463 -0.07834491 -0.07559166 -0.017821634 0.013264099 0.08125544
0.022120044 -0.037893012 -0.015845118 -0.11047872 0.12569407 0.032668043 -0.030168952 0.0045484756
0.036916636 -0.003758571 0.053874183 -0.08643412 0.08028693 -0.12874477 -0.025679331 -0.0989756
-0.19629738 0.0924643 -0.063326135 0.012506645 -0.035367794 -0.03464026 -0.05410541 0.098173454
-0.20178221 -0.16991311 0.023989152 -0.046668574 0.0010608933 -0.19309866 -0.034555912 -0.102134675
0.10286219 -0.08538491 0.034816213 -0.23538728 0.11307741 -0.020809347 -0.19699723 0.06534979
-0.056289442 0.06548508 0.00032135486 -0.038719542 0.0015738172 0.13833015 -0.023004446 -0.033146597
0.014310605 0.03424894 0.023968294 0.29027838 0.02164949 0.014440797 0.13492988 0.12603396
-0.14735207 -0.03826277 -0.07545372 0.054040287 0.072507024 -0.075688876 0.00074633514 0.050090257
-0.07015946 -0.06099697 0.02590293 0.21899061 -0.09305654 0.117172875 -0.00019538678 -0.017796598
0.07098255 0.040510125 0.026116274 -0.02257092 0.12681721 0.19135056 0.05610502 0.058631383
0.07630524 -0.10217141 -0.0029061306 -0.027121719 -0.12081318 -0.030565308 0.16923107 0.0157739
0.20209932 -0.027304986 0.081175 -0.009950486 0.08608392 -0.014666065 0.058870666 -0.09073928
-0.10598263 -0.022402138 -0.07758968 0.020648288 -0.058053996 -0.109908395 0.07054229 -0.120974
-0.022214247 0.092687845 0.13651219 0.19872054 0.0848474 -0.095423445 -0.045831293 -0.005021575

net.2.scale f4 [64, 64]
00000000: 8b4a 7b3f 414e 813f 2f76 7c3f b90b 7e3f
00000010: fc09 813f 1c7a 7c3f a252 7c3f 5a29 7e3f
00000020: 8469 803f 57e7 813f 7f51 803f 3a7e 803f
00000030: 3e2c 7c3f b303 823f eec9 7c3f f84a 7c3f
00000040: f2c0 813f 1d3a 813f 02db 7c3f 1818 813f
00000050: fb49 7c3f d45d 7c3f c4cb 7c3f 4ccc 7c3f
00000060: 4d96 7c3f 8850 7c3f 8308 7c3f d3ca 813f
00000070: d812 813f 5595 7c3f 40da 803f 723f 7c3f
00000080: 56b8 7b3f f509 813f cad6 7d3f 3461 7c3f
00000090: 5053 7e3f 2757 7c3f 8cc3 813f 47af 803f
000000a0: 2a6c 7c3f c65e 813f e0d7 7c3f f5d1 813f
000000b0: 05d4 813f 84cb 7c3f 29eb 813f 0be7 7b3f
000000c0: 5ff1 7b3f 9875 7c3f 26c6 813f 8e69 7c3f
000000d0: 9e54 7c3f 13cc 813f 3f59 7c3f fbc4 7d3f
000000e0: 694b 7e3f 1e9a 7d3f 2e63 7c3f 8236 813f
000000f0: b4e4 813f 92d0 813f d2c0 813f a14e 813f
00000100: 5529 823f 30f8 7b3f 1f38 823f 60b1 7b3f
00000110: ca77 7b3f e73a 823f 709d 7b3f 48a0 7b3f
00000120: 31cc 7b3f f725 823f 3c51 823f 9d63 823f
00000130: 07c8 7b3f a2a3 7b3f fb18 823f 292a 823f
00000140: 872f 823f 40d8 7b3f a719 823f 4ab2 7b3f
00000150: c69c 7b3f b6e9 7b3f d704 7c3f b048 7b3f
00000160: 563c 823f e06f 7d3f bd31 823f 7c32 823f
00000170: 2d38 7c3f af3f 823f 8414 823f e9a9 7b3f
00000180: 32b2 7b3f 319c 7b3f 8704 7c3f 672f 823f
00000190: 5b01 7c3f f832 823f 0ab4 7b3f cf46 803f
000001a0: a220 823f b833 823f 7334 823f d0ac 7b3f
000001b0: 3532 823f 9d0d 823f 1035 823f 861a 823f
000001c0: 62ba 7b3f f6c3 7b3f 352b 823f 5929 823f
000001d0: 71b6 7b3f 072e 823f 0dc3 7b3f c9d9 7b3f
000001e0: 48bb 7b3f fa32 823f dc20 823f d9d7 7b3f
000001f0: 8129 823f 9140 7c3f 7935 823f 4650 823f
00000200: 5c7b 823f 5463 803f 870f 7b3f b341 7d3f
00000210: 22fc 813f c731 7f3f 41d0 813f d1fd 7c3f
00000220: 1917 7e3f 9136 7b3f 6d72 823f f3a7 803f
00000230: 5c37 803f 8e08 7f3f 5da5 813f dd6f 823f
00000240: 4522 7b3f 8af4 7b3f 435d 823f 5832 823f
00000250: be7a 823f d78c 813f 2f6b 823f 165e 823f
00000260: 8b63 803f 650c 7e3f f974 823f 742e 813f
00000270: dab2 7b3f 985c 803f 27a2 7c3f 9978 823f
00000280: 4cea 813f 22b2 813f 07cb 7e3f 9b8b 803f
00000290: b3f7 813f 444a 803f 87ea 7e3f df24 7d3f
000002a0: dc2f 7c3f 3e8e 7d3f 36dc 7d3f 0e64 823f
000002b0: d75f 823f 74dd 803f 0475 823f 2f76 823f
000002c0: beb3 803f d274 823f 751f 7b3f 18e6 7c3f
000002d0: 3346 813f d7c6 7c3f d97f 823f a2eb 803f
000002e0: 2bb5 813f f68b 803f 757b 823f 3b65 7b3f
000002f0: dc6d 823f 432c 813f 5836 823f 5269 823f
00000300: ac2e 7c3f 31d6 813f e8f6 813f e940 7c3f
00000310: 2261 7c3f 34f9 813f 1e19 823f f4f1 813f
00000320: ca00 823f 6590 7c3f 1508 7c3f 2224 7c3f
00000330: 5bf2 813f 3cec 7b3f 040e 7c3f d9f8 813f
00000340: a019 7c3f 8ff9 813f d8fb 813f a906 7c3f
00000350: ef30 7c3f a9e4 813f 8f25 7c3f 553c 7c3f
00000360: 86ef 813f 6a4f 7c3f 660d 823f 2cfd 813f
00000370: 64f8 813f 5988 7d3f 73ef 813f 5bed 803f
00000380: edfa 813f 54fc 813f 84ec 813f 9b2d 7c3f
00000390: 9607 823f eff5 813f 2c21 7c3f b8f2 813f
000003a0: 7401 823f 42f7 813f 0731 7c3f 1956 7c3f
000003b0: 0067 7c3f 6cda 813f 2d4c 7c3f a362 7d3f
000003c0: e520 7c3f 3904 823f 34fa 813f 5dc2 813f
000003d0: c407 823f 9d35 7c3f 062b 7c3f aafe 813f
000003e0: 55ee 813f 13fa 813f 1107 823f 7bfa 813f
000003f0: 890b 7c3f 42f9 813f 2276 813f d61e 7c3f
0.9816062 1.0102006 0.98617834 0.9923664 1.0081172 0.98623824 0.9856359 0.9928185
1.0032201 1.0148724 1.0024871 1.0038521 0.9850501 1.0157379 0.9874562 0.98551893
1.0137007 1.009586 0.9877168 1.0085478 0.98550385 0.9858067 0.9874842 0.9874923
0.9866684 0.9856038 0.9845049 1.0140022 1.0083876 0.9866536 1.0066605 0.9853431
0.9832815 1.0081164 0.9915587 0.9858582 0.99345875 0.98570484 1.0137801 1.005349
0.98602545 1.0107048 0.987669 1.0142199 1.0142828 0.9874804 1.014989 0.9839942
0.9841518 0.98616934 1.0138595 0.98598564 0.98566616 1.0140404 0.9857368 0.99128693
0.99333817 0.9906329 0.98588836 1.009476 1.014792 1.0141776 1.0136969 1.0102121
1.0168864 0.9842558 1.0173377 0.9831753 0.9822966 1.0174226 0.98287106 0.98291445
0.98358446 1.0167836 1.0181041 1.018665 0.9835209 0.9829656 1.0163873 1.0169116
1.0170754 0.98376846 1.0164078 0.9831892 0.9828609 0.9840349 0.98444885 0.9815779
1.0174663 0.9899883 1.0171429 1.0171657 0.9852322 1.0175685 1.0162511 0.9830614
0.9831878 0.98285204 0.9844441 1.0170716 0.9843957 1.0171804 0.9832159 1.0021609
1.0166209 1.0172033 1.0172256 0.98310566 1.0171572 1.0160404 1.0172443 1.0164344
0.9833127 0.9834589 1.0169436 1.0168868 0.9832526 1.0170296 0.983445 0.9837919
0.98332644 1.0171807 1.0166278 0.9837623 1.0168916 0.9853602 1.0172569 1.0180748
1.0193896 1.0030313 0.9807057 0.98928374 1.015507 0.9968533 1.0141679 0.98824793
0.99253994 0.98130137 1.019117 1.0051254 1.0016894 0.9962243 1.012859 1.0190388
0.98099166 0.9842001 1.0184711 1.0171614 1.0193708 1.0121106 1.018896 1.0184963
1.0030378 0.9923766 1.0191947 1.0092301 0.9831978 1.0028257 0.98684925 1.0193053
1.0149627 1.0132487 0.99528545 1.0042604 1.0153717 1.0022664 0.9957661 0.98884386
0.9851053 0.9904517 0.9916414 1.0186784 1.0185498 1.0067582 1.019196 1.0192317
1.0054853 1.0191901 0.98094875 0.98788595 1.0099548 0.98740906 1.0195266 1.007191
1.0133413 1.0042713 1.0193926 0.9820134 1.0189776 1.0091633 1.0172834 1.0188391
0.98508716 1.0143491 1.0153475 0.98536545 0.9858571 1.0154176 1.0163915 1.0151963
1.0156491 0.9865783 0.9844983 0.98492634 1.0152086 0.9840734 0.98458886 1.0154067
0.984766 1.0154284 1.0154982 0.9844766 0.98512167 1.0147907 0.9849481 0.9852956
1.0151222 0.98558676 1.0160339 1.0155387 1.0153928 0.99036175 1.0151199 1.0072435
1.0154701 1.015513 1.0150304 0.9850709 1.0158565 1.0153178 0.98488116 1.0152197
1.0156693 1.0153582 0.9851231 0.98568875 0.98594666 1.0144782 0.98553735 0.9897863
0.98487693 1.0157539 1.0154481 1.013744 1.015862 0.9851931 0.9850315 1.0155842
1.0150858 1.0154442 1.0158406 1.0154566 0.984551 1.0154192 1.0114176 0.9848455

net.2.base_weight f4 [64, 64]
00000000: 98f5 81bc eb08 f63d ad80 8f3c 8a3c b6bd
00000010: 1c0f 4dbd d7da 07be f434 3cbe 8be0 2a3e
00000020: d8bb 1b3b 3bf7 cd3d fb81 533d dcf9 98bc
00000030: d9b0 3c3c 9bed 523c 00eb 2c3e 7dc8 773e
00000040: c372 18bd 2ac1 6a3d 166f d6bc 60eb 3c3e
00000050: 5693 e83d ed8e ca3c 9c1d 12be c780 f0bc
00000060: fd8a 22bd dd5a ad3d 5022 21bd fdb6 d4bc
00000070: a7ba 3f3e 5a52 13bd 1089 18bd c600 88bb
00000080: 2968 163e ba66 bbbd f701 fabd a9f1 623e
00000090: 0dd5 8e3e 0512 9dbe 4585 39bd aca4 eebd
000000a0: a870 ba3c 62e0 933d 854c 65bd db1d e53d
000000b0: 4fe5 ac3d bf2e 2a3d 5131 ec3c fdf8 68bd
000000c0: 30fa f83c 27bb 3bbd a1af 93bc d0c0 2a3e
000000d0: aab7 28bd 9f44 0b3d 2f2f aa3d 1790 203b
000000e0: 45ef dcbd 824a 08bd 4186 cebd 6c9d 6c3d
000000f0: eb60 fb3c 708b efbd 29e2 4f3d 735e c83c
00000100: 2a4a 973c 60e7 66bb 1826 0fbc 54c7 8fbb
00000110: d82f 3e3b 64d6 21be b25e ddbd 59a8 9d3d
00000120: a47a 45be 5002 ff3d 28d3 193e cfd1 aa3b
00000130: ba21 943d 2228 72bc 3e65 b63c 5ecc 50be
00000140: 0336 dd3d 1987 153c 5fbf 813e dfb4 833c
00000150: c257 2b3c 3e1f b53c b4b9 08be f16d c0bd
00000160: 3b46 c6bd bd89 b03d 6f1e e9bd 2403 633c
00000170: da87 5dbd 15f4 cfbd 00b4 aebd 023d 25bd
00000180: 7e6a cabd 665f f13d 5898 dc3d ab1f 30be
00000190: 9077 86bd 3126 3f3d 941e bdbd e910 07be
000001a0: c890 ebbc de6b 30be b594 d4bd 3425 813c
000001b0: f352 283e 044a bf3d 687e a83d a275 f93d
000001c0: 25ef b43b 1324 073d 93bd 4d3c f062 b6bd
000001d0: 21f7 4f3e 734e a3bd 980c 17bc a214 593b
000001e0: d351 d23d eb6b 42be 41c0 29bd c07e 833d
000001f0: 7fdb fc3d 2797 71bd 15f9 30be 05ff f3bd
00000200: 78a8 363d 95e1 363e 02b3 e7bc 635e 233e
00000210: ad09 dbbc d25b 2a3d 6215 82bd 731e 03be
00000220: 8e08 e0bb 200a a6bc e7bb c23c 4e75 6ebd
00000230: cfc0 f13b 42d5 de3d 8056 39be 9cc6 62bc
00000240: 40d8 1dbd 7c23 14be 6a88 a43d d7c2 0c3e
00000250: 7d89 79be a827 0fbe 0708 103e 749d 86be
00000260: ad93 30bd 9070 873d a0d0 563b 5562 9abe
00000270: b728 6a3d 9e1b 993c ae19 b13b e1c0 2abd
00000280: 4bb2 36bc 6565 2d3d 4d51 64bb 5660 c9bc
00000290: 2aa8 293d 6cfb 18be 8b28 23bb 2b9c 61be
000002a0: 2959 7fbd 8682 7bbe f18e 0fbd 33a4 963c
000002b0: 5737 c6bd 9efd cdbc 65db 79bd 8df2 033e
000002c0: fa45 b2bd ab48 74bd 24e5 dcbd 646d d33d
000002d0: aa70 0c3e c187 85bc 3856 f3bd 2071 023e
000002e0: 295c 9bbd 4c49 59bd ce6f 8cbe bfca 0a3e
000002f0: 6338 01be 0caf a8bc 0e3f a1bd b8d9 a6be
00000300: 900c 00be eb3b 133e 68d9 02be 48ca 803e
00000310: 5711 cc3d f138 193e 0092 27bc 07f0 38bc
00000320: 9811 6a3d 72ad f4bd 7e67 99bd 0869 9d3d
00000330: bc43 4b3b a41d bc3d 5175 893d b31a e6bb
00000340: ea9f 23bd a258 2bbd c2d7 bf3d f621 2abd
00000350: 0f90 323d 51f1 45bd 920f 9abd 86b5 a63d
00000360: c388 e73c 85e3 82bb c7eb 8d3c b57a babd
00000370: 7042 8abd b278 febd 0dee 6f3e 955d 14bc
00000380: 0b8a 133e 4151 be3d 7271 7ebd f08e 05bd
00000390: 35df 673d 38a1 febd 8cfa c93d 40be 073d
000003a0: aeb1 7b3c ff46 67be 4a72 cbbd 0b5b 42bd
000003b0: 1c73 033e 48c5 eabb fec6 b7bc b95e debd
000003c0: c6a1 8ebd 7d09 513e b6e1 d93c 613e 253e
000003d0: 8173 42be d0de 84bd 7223 f63c 77d1 b43c
000003e0: 7c9c 193d b781 163e c8bf b33d 47c5 cdbc
000003f0: 00b1 c9bd ad5a 2c3e 9029 113e 5d4d 0a3d
-0.015864179 0.1201342 0.017517412 -0.08898266 -0.050063238 -0.13267075 -0.18379575 0.16687219
0.0023763087 0.10056921 0.05163763 -0.01867383 0.011516773 0.012874032 0.1688652 0.24197574
-0.03721882 0.05731312 -0.026176017 0.18449163 0.11356227 0.024726355 -0.14269108 -0.02935828
-0.03968333 0.084645964 -0.039339364 -0.025966162 0.18723546 -0.03596721 -0.037240088 -0.004150483
0.14688171 -0.09150453 -0.12207406 0.22162499 0.2789692 -0.3067781 -0.04529311 -0.116525024
0.022758797 0.07220532 -0.055981178 0.11187335 0.08442175 0.041548487 0.02883211 -0.05687808
0.030392736 -0.04583278 -0.018028082 0.16675115 -0.04119078 0.03400099 0.08309781 0.0024499947
-0.107878245 -0.03327418 -0.10084201 0.057767317 0.030685863 -0.116965175 0.050752793 0.0244591
0.018467981 -0.0035233125 -0.00873711 -0.0043877754 0.0029020216 -0.1580444 -0.10809077 0.076981254
-0.19285065 0.12451613 0.15021956 0.0052129994 0.07232995 -0.014780076 0.022265073 -0.2039046
0.108013175 0.009126448 0.25341317 0.016077457 0.010457935 0.022109624 -0.1335209 -0.0939597
-0.09681364 0.086200215 -0.11382758 0.013855729 -0.054084636 -0.10153977 -0.08530426 -0.040341385
-0.09883593 0.11785774 0.10771245 -0.1719958 -0.065657735 0.04666728 -0.09234348 -0.13190044
-0.02875556 -0.17228648 -0.10379926 0.01576481 0.16437893 0.09340289 0.08227235 0.1218064
0.0055216723 0.032993387 0.012557405 -0.089055896 0.20309116 -0.079739474 -0.009219311 0.003312387
0.10269513 -0.1898648 -0.041443113 0.0642066 0.12346553 -0.05898204 -0.17282517 -0.119138755
0.044594258 0.1785949 -0.0282836 0.15953974 -0.026738012 0.041591473 -0.06351735 -0.12804584
-0.0068369573 -0.0202685 0.02377124 -0.05821734 0.007377721 0.108805194 -0.18099403 -0.0138412975
-0.03853631 -0.14466661 0.080338314 0.137462 -0.24368854 -0.13979971 0.14065562 -0.26292002
-0.043109585 0.066132665 0.0032778159 -0.30153146 0.057167735 0.018689927 0.0054046726 -0.04168785
-0.011150907 0.042333025 -0.0034838498 -0.02458207 0.04142014 -0.1493966 -0.0024895992 -0.2203223
-0.06234089 -0.2456151 -0.03504843 0.018388843 -0.09678524 -0.025145348 -0.061000247 0.12885495
-0.08704753 -0.059639614 -0.107858926 0.10323599 0.13714853 -0.016300084 -0.11881679 0.12738466
-0.075859375 -0.053048417 -0.2742905 0.13553904 -0.12619166 -0.020591281 -0.07873355 -0.3258798
-0.12504792 0.14378326 -0.12778246 0.25154328 0.09964245 0.14963128 -0.01022768 -0.011287696
0.057145685 -0.119471446 -0.07490443 0.07686049 0.0031015715 0.09185341 0.067118295 -0.0070222258
-0.039947428 -0.041832574 0.093673244 -0.041536294 0.043594416 -0.04832584 -0.07522501 0.081400916
0.028263455 -0.0039944076 0.017324341 -0.09105436 -0.06750953 -0.124253646 0.23430653 -0.009055515
0.14408128 0.09292842 -0.06211991 -0.03260702 0.05660935 -0.12433094 0.09862241 0.03314042
0.015362186 -0.22585677 -0.09933908 -0.047450107 0.1283688 -0.007164631 -0.022433754 -0.10857911
-0.069644496 0.20413776 0.026596885 0.16137077 -0.18989374 -0.064878106 0.030046199 0.022072537
0.03750275 0.1469792 0.08776814 -0.025118483 -0.09848213 0.16831465 0.14176011 0.033765186

net.2.grid_points f4 [5]
00000000: 0000 00c0 0000 80bf 0000 0000 0000 803f
00000010: 0000 0040
-2.0 -1.0 0.0 1.0 2.0

net.3.coeff f4 [1, 64, 5]
00000000: 98bb a3bd c442 17be 8434 72bb d87c 103c
00000010: 20c1 a2bd 5192 8e3c 30ba 893d e258 823d
00000020: 334c 243d 3f4b 053c 8649 8abd 0950 0c3e
00000030: cebc 783c ef35 9f3d 7926 b23d d2cf dd3d
00000040: 18ff 82bc 1804 abbd bb36 bc3d 16d4 223c
00000050: 0de4 203e 8505 533d 32a2 b9bd 231f e3bb
00000060: 6c57 cb3d 846a 183b 8f48 ccbc 0b9b 0f3e
00000070: a219 573e 491a a3bc 63c1 4cbe e603 673c
00000080: 8bf3 133d 7041 22bd 514b d1bd 3455 073e
00000090: d419 ff3b 5daa a7bd 991e 92bd c4b1 26be
000000a0: 8baf a5bd 2088 033b 62d3 2bbe 4253 b33b
000000b0: 3c82 24bb 57aa 0b3e 47b4 0f3e 8a73 2fbe
000000c0: e6fe 013e dba7 df3d 1eca 093e f37b 153e
000000d0: 731a bfbd 7335 c6bb 6a08 bcbc 7ddb 633e
000000e0: 72a0 ed3d 05fc 3fbd c761 4f3d 186d 17be
000000f0: 01b3 f63c dbf7 693d 4cd6 153e e0cf dcbd
00000100: dcff 9f3d 445d f53c cb0f 43bb f488 8bbd
00000110: 64cd c2bc 4c4d bc3b 26d3 8a3d b55b 7abd
00000120: bb70 a4bd 7920 bdbd 6c4b 42bc 0a8c 883d
00000130: 8ea3 8f3d 841d f13d 49ee 8b3c 08e1 5bbc
00000140: 2ac1 15be f200 0cbe d711 58bd 9b1e 80bc
00000150: 3458 0ebe 7196 033c 7033 683d d6a1 133e
00000160: 0ccc 733d a492 02be 1d13 a83d d170 c53d
00000170: 4ed6 10bd 2180 0abc e42f 08bd 9c7d 04bd
00000180: 79a1 f3bd 84bd ad3a 2be9 98bd f417 5abb
00000190: 48f0 083e 44b8 493d 5412 adbd f6c5 0b3e
000001a0: 9361 f8bd 2c51 013e 869e 93bc 4dad 723d
000001b0: 75b8 533e cfd3 4cbd 8cc7 32be 5c0a 6cbc
000001c0: d8d2 193d b708 7a3e e6f2 92bd b763 2dbd
000001d0: a6e4 c4bd 018d 8f3e fc21 b63d db43 413d
000001e0: 2000 3d3e 1061 9a3b 4a68 e6bc 8d0f 05be
000001f0: 2e24 453e 76d6 bf3d 5c25 51bc fa06 263e
00000200: 8680 d9bd f7dd 4abc a8ed 0fbe ec2d 22be
00000210: 0df8 53bc 889f ca3d bad9 893d cb5f 9abc
00000220: 13ec 02be cd68 03be b980 96bd 8337 b43d
00000230: e4df 93bd e525 cfbd 120d 23be 1764 073e
00000240: 706e 4d3e 0145 93bd a9ff e43d 2fb2 5d3e
00000250: c387 0cbe fdf8 b0bd 4bd1 b33c d7e4 a7bc
00000260: abea cf3d ead8 e4bb 2da8 ffbd d278 683d
00000270: 76bc b33c 88c1 813d e070 80bd 78f6 1f3e
00000280: ce83 17be 5af0 0d3e 4597 c4bd 1497 303e
00000290: 4850 953c 07a4 613d 2f39 53bb 6e68 b7bc
000002a0: b887 51bd 3382 0e3e 2403 dd3a a732 9cbd
000002b0: 9977 813d a657 a9bd 2ce6 a2bd 3b25 06be
000002c0: 4ee1 0dbb ca59 13bd b0b8 08be 44b9 a93d
000002d0: 277d d03d fed1 ab3d 6df3 21bc da98 063e
000002e0: a113 74bd 4f4d 3ebd b8ff 2c3d a837 48bd
000002f0: c092 ac3b 9791 babc a8e5 c639 7e8c 813c
00000300: c6a3 0f3d 36dd b43c 8bac 00be 74fe 943d
00000310: 709a a33d a565 2a3e ea07 1e3c 3e06 37bc
00000320: ef1c 123e 6eed 403d 82c9 ba3d 9099 d9bb
00000330: f8b7 9abc 4244 a73d 5adc fb3d 554b f03d
00000340: 01a8 513e d19b b53d cd29 37bd 39c0 b23d
00000350: c315 303e 4bb3 2a3e c019 39be fe57 b4bd
00000360: 0043 9dbd 24bd e83c be7a 63bc 1cbb 453d
00000370: 1b91 5a3e 8591 3fbe d5c4 96bd 0e4f 363d
00000380: 3aef 4d3d fbd9 17be a4bf 41bd a693 5abe
00000390: 73cd a53d 97d2 cabc eb8c 223e f266 043e
000003a0: d0f7 95bd 05a1 3b3c c2d1 38be 8102 23be
000003b0: 1070 9d3d 215e 23bd 6fcf 2a3e 4d07 083e
000003c0: 89d7 98bb 4e70 ed3d 2861 063e a1cd 61be
000003d0: c112 58bd ea05 0a3c 3929 23be 07b1 d5bb
000003e0: dda1 76bd 4b34 89bd 12e4 d73d 3a7c d53d
000003f0: b4d4 03bd 55b9 f73c 6dbe 8abd fe7f 46be
-0.07994765 -0.14771563 -0.0036957571 0.008818828 -0.07946992 0.017403753 0.067249656 0.06364609
0.04011173 0.008135616 -0.06752305 0.13702406 0.015181733 0.07773959 0.08698744 0.10830654
-0.015990779 -0.0835039 0.091901265 0.009938261 0.15711994 0.051518936 -0.090641394 -0.006931202
0.09928784 0.0023256848 -0.024936942 0.14023988 0.21005872 -0.019909995 -0.19995646 0.014100051
0.036120933 -0.039613187 -0.102194436 0.13216096 0.0077850614 -0.08186791 -0.07134742 -0.1627875
-0.08090123 0.002007015 -0.16779855 0.0054725716 -0.002510204 0.13639198 0.14033614 -0.17133918
0.12694892 0.10920688 0.13456008 0.14598064 -0.09331217 -0.006048852 -0.02295323 0.22251697
0.11602868 -0.046871204 0.050630357 -0.1478771 0.030114653 0.05712114 0.14632529 -0.107818365
0.07812473 0.0299517 -0.0029764052 -0.06813231 -0.023779579 0.005746519 0.067785546 -0.061122615
-0.08029314 -0.09234709 -0.011858802 0.06667335 0.070136175 0.11773208 0.017081397 -0.013420351
-0.14624467 -0.13672236 -0.05275139 -0.015639594 -0.13900834 0.0080314735 0.05668968 0.14417204
0.059520766 -0.12751251 0.082067706 0.09640659 -0.035360627 -0.0084534 -0.033248797 -0.032346353
-0.11896033 0.0013255333 -0.07466348 -0.0033278437 0.1337291 0.049247995 -0.084507614 0.13649735
-0.12127986 0.12628621 -0.018019926 0.059247304 0.20675834 -0.050006684 -0.17458934 -0.014406767
0.037554592 0.24417387 -0.071752355 -0.042331424 -0.09613924 0.28037265 0.08893201 0.047183853
0.18457079 0.004711278 -0.0281259 -0.12994213 0.19252083 0.09367077 -0.012765255 0.16213599
-0.10620217 -0.012382022 -0.14055502 -0.1583783 -0.012937558 0.098937094 0.06730981 -0.018844506
-0.12785368 -0.12832947 -0.07348771 0.087996505 -0.07220438 -0.1011465 -0.15922955 0.13221775
0.2006166 -0.07190896 0.11181576 0.21650003 -0.13723664 -0.08641241 0.021950385 -0.020494862
0.10152181 -0.006983866 -0.12483249 0.05675585 0.021940451 0.06335741 -0.06271529 0.15621364
-0.14796373 0.13861218 -0.09599165 0.17245132 0.018226758 0.05508807 -0.003223013 -0.022388663
-0.051154822 0.13916855 0.0016861898 -0.07626849 0.063216396 -0.08268671 -0.07954058 -0.1310014
-0.0021649185 -0.0359743 -0.13351703 0.0828729 0.10180121 0.08389662 -0.009884697 0.13144246
-0.059589032 -0.046460446 0.04223606 -0.048881203 0.0052665174 -0.0227745 0.0003793661 0.015814062
0.035068296 0.022078138 -0.1256582 0.072750956 0.07988441 0.16640337 0.009645442 -0.011170922
0.1426885 0.04710143 0.09120466 -0.0066406205 -0.018886551 0.08167316 0.12297888 0.117331184
0.20474245 0.0886761 -0.0447176 0.0872807 0.17195801 0.16669957 -0.18076229 -0.08805846
-0.07678795 0.028410502 -0.0138842445 0.048274145 0.21344416 -0.18707855 -0.073617615 0.044508986
0.050276972 -0.14829247 -0.047301903 -0.21345386 0.08095827 -0.02475862 0.15874068 0.12929896
-0.07322657 0.011451964 -0.18048766 -0.15918924 0.0768739 -0.03988469 0.16680692 0.13284035
-0.0046643657 0.11593686 0.13123 -0.22051097 -0.05275226 0.008424262 -0.15933694 -0.0065213474
-0.06021296 -0.06699427 0.10541548 0.10424085 -0.03218527 0.03023974 -0.06774602 -0.19384763

net.3.scale f4 [1, 64]
00000000: f152 7c3f d23c 823f 923c 823f 93aa 803f
00000010: 4a37 7c3f 5f31 823f c476 7c3f bec9 7b3f
00000020: 09cc 7b3f 8655 7f3f f02b 823f e934 823f
00000030: 813c 823f 4bf5 7b3f 159a 7b3f 072f 823f
00000040: 0af9 7b3f 742b 823f 467c 803f c88e 7b3f
00000050: b21c 7e3f e194 803f 12d0 7b3f 8f33 823f
00000060: 4258 803f 2749 823f d43e 803f 208b 7b3f
00000070: 8456 7e3f 2c3d 823f c8f6 813f 7ce9 803f
00000080: 2280 7f3f 462f 823f db20 813f cd0b 7c3f
00000090: 9d31 823f 4df2 7c3f d233 823f 5632 823f
000000a0: 8713 823f c62d 823f 2926 823f 5a28 823f
000000b0: b670 7b3f 5216 7c3f be30 823f 9e98 803f
000000c0: fe13 823f 0aab 7b3f 2939 823f 64a3 7f3f
000000d0: d81e 7c3f d934 823f b500 7c3f cfab 7b3f
000000e0: 46dd 813f aae6 7b3f f235 823f c322 823f
000000f0: 43a2 7d3f 49cc 7b3f a237 823f c29e 7b3f
0.9856406 1.0174811 1.0174735 1.0052055 0.98521864 1.0171317 0.9861872 0.9835471
0.9835821 0.99739873 1.0169659 1.0172397 1.0174714 0.9842116 0.98281986 1.0170602
0.9842688 1.0169511 1.0037925 0.9826474 0.99262536 1.0045434 0.98364365 1.0171984
1.0026934 1.0178574 1.0019174 0.9825916 0.9935076 1.0174918 1.0153437 1.0071254
0.9980489 1.0170677 1.0088152 0.98455507 1.0171391 0.9880722 1.0172064 1.0171611
1.0162209 1.0170219 1.0167896 1.0168564 0.9821886 0.9847156 1.0171125 1.0046575
1.0162351 0.9830786 1.0173694 0.9985869 0.98484564 1.0172378 0.9843858 0.98309034
1.0145652 0.9839884 1.0172713 1.0166858 0.99075717 0.9835859 1.0173228 0.9828912

net.3.base_weight f4 [1, 64]
00000000: d2a1 a9bd ea85 3bbe 0950 6d3d 9ac3 183e
00000010: f96c 393e 0280 833e eee9 52be e472 1c3e
00000020: dd14 173d 9f86 233d 37e2 8abd e796 8e3d
00000030: 6bdf d93c 9588 9d3d 46d7 073d d8b1 e6bd
00000040: 645b f2bb 5210 153b 7fe6 5ebd 6c36 6bbd
00000050: 1780 e8bc e4ba 123e ee5e e2bd 53cf 9a3d
00000060: c4c0 6fbe 3fcb febc 8a61 8abd 153b 013e
00000070: eb26 5fbd a156 3c3d 45a9 d5bc a5c3 75bd
00000080: d996 5f3d 5f70 abbd 4d8d 9fbc 0ec9 1bbe
00000090: 5f14 0ebe aa3b 81bd 3020 fd3b 010f af3b
000000a0: d75b 93be 3089 f5bc 803d b6bd 15ca 90bc
000000b0: 1a70 0abe ae3c c7ba b16d 4cbd 73d8 70bd
000000c0: f1a8 10be f04a a43d d77f 123b c46f 5b3d
000000d0: 08a8 1f3c 6c62 b6bd 6dfb 5f3d 7fa4 b1bc
000000e0: 7488 c83c 9089 36bc fec2 e8bd 46bc b7bd
000000f0: c62a 85be e730 443d ae66 633d 4f82 9bbd
-0.08282818 -0.18312803 0.057937656 0.14918366 0.18107976 0.256836 -0.2059705 0.15278202
0.03688513 0.039923307 -0.06781428 0.06962376 0.026595792 0.076920666 0.033164285 -0.1126439
-0.0073961485 0.0022745323 -0.054419037 -0.057424948 -0.02838139 0.14329106 -0.11053263 0.07559075
-0.23413378 -0.031102775 -0.06756885 0.12620194 -0.054480474 0.045981053 -0.02608169 -0.060001034
0.05458722 -0.083710425 -0.019476557 -0.15213415 -0.13874958 -0.06310208 0.0077247843 0.005342365
-0.28781006 -0.029972643 -0.08898449 -0.017674485 -0.13519326 -0.0015200579 -0.049909297 -0.058800172
-0.14126946 0.08022106 0.002235403 0.053573385 0.009744652 -0.08905491 0.054683138 -0.021684883
0.024479128 -0.011141196 -0.11365317 -0.08971457 -0.26009196 0.0478982 0.055517845 -0.07593214

net.3.grid_points f4 [5]
00000000: 0000 00c0 0000 80bf 0000 0000 0000 803f
00000010: 0000 0040
-2.0 -1.0 0.0 1.0 2.0
