data/trained_models/base_Melt(K)_snn.pth (torch, 118886 bytes, 5 tensors)

fc1.weight f4 [64, 374]
0	0xbcee79a6	-0.02911074
1	0xbc7c391f	-0.015394478
2	0x3c71e311	0.0147636095
3	0xbd624f4d	-0.05525141
4	0x3c697b05	0.014250522
5	0xbd7d7f25	-0.061888833
6	0xbb90b3ba	-0.0044159563
7	0x3d48b368	0.04899922
8	0xbd9de29c	-0.07709238
9	0xbd879541	-0.06620265
10	0x3d0e602b	0.03475968
11	0xbd9821d2	-0.07428326
12	0x3d040f51	0.03224117
13	0xbda958cc	-0.0826889
14	0x3ce12e81	0.027487995
15	0xbd020e16	-0.031751715
16	0xbbdb954c	-0.006701147
17	0x3cc8071d	0.024417454
18	0x3ce41826	0.027843546
19	0x3cfbd116	0.030739348
20	0xbcf242c6	-0.029572856
21	0x3c4c9eb4	0.01248901
22	0x3c6bcff8	0.014392845
23	0xbc8c8868	-0.017154887
24	0x3d09369f	0.033499356
25	0xbc05d7e8	-0.008169152
26	0xbc9b6942	-0.01897109
27	0x3c4e5ca1	0.012595327
28	0xbcca7d78	-0.024718031
29	0xbd4e2e1f	-0.050336953
30	0xbcb4a2b4	-0.02205024
31	0x3d1a2e81	0.037642006
32	0xbc6597e2	-0.014013262
33	0x3bd69d6f	0.0065495293
34	0xbc73f63d	-0.014890251
35	0xbb56287a	-0.0032677935
36	0x3d46ea97	0.048563566
37	0xbc387e79	-0.011260622
38	0xbd901900	-0.07036018
39	0xbd2b3fb9	-0.041808818
40	0xbd21dd62	-0.039517768
41	0xbd394772	-0.04523415
42	0xbd06d80f	-0.032920893
43	0x3a036dc7	0.00050136115
44	0x3d6649d0	0.056222737
45	0xbd170709	-0.036871944
46	0x3c8b494a	0.01700272
47	0xbcf0db7e	-0.029401537
48	0x3c9c38c9	0.019070046
49	0xbd3f2f70	-0.0466761
50	0x3c009b7c	0.00784957
51	0x3d5ae491	0.053440634
52	0xbd845b10	-0.06462681
53	0xbd73db9b	-0.059535604
54	0xbd6dc4ce	-0.058049016
55	0xbd775867	-0.06038704
56	0x3cc59754	0.02412001
57	0x3cbe2b87	0.023214115
58	0x3cd040de	0.025421556
59	0x3b286760	0.0025696382
60	0xbc2ed5f8	-0.010671131
61	0x3d15509b	0.036453824
62	0x3d864cea	0.06557639
63	0x3c8795f6	0.016551
64	0x3ccb158a	0.024790544
65	0xbceeb34b	-0.029138228
66	0x3c745030	0.014911696
67	0x3b523524	0.0032075131
68	0xbc728800	-0.014802933
69	0x3cd8fd7c	0.026488058
70	0xbcc6b172	-0.024254534
71	0xbd737016	-0.059433065
72	0xbcdb613b	-0.026779762
73	0x3ccb0b82	0.02478576
74	0xbd06c3ba	-0.032901503
75	0x3d39943d	0.045307387
76	0xbcc9173b	-0.02454721
77	0xbd66766c	-0.05626528
78	0xbc98a5f0	-0.018633813
79	0xbda71bc2	-0.08159591
80	0xbd64f47e	-0.05589723
81	0xbd143064	-0.03617896
82	0x3cf6ffd2	0.030151282
83	0x3c40e6d6	0.011773786
84	0x3d0685d3	0.03284247
85	0xbd26871c	-0.040656194
86	0xbd7316ed	-0.059348036
87	0xbd61d079	-0.055130456
88	0x3b9f4e28	0.004861612
89	0xbd274d84	-0.04084541
90	0x3c3647ac	0.011125486
91	0x3d21a4e7	0.039463904
92	0xbb910da0	-0.004426673
93	0xbd2b8e50	-0.041883767
94	0xbc04fbd4	-0.008116681
95	0xbbaaf400	-0.0052170753
96	0xbd2bd334	-0.041949466
97	0xbc3b6acc	-0.011439037
98	0xbd529d89	-0.05141977
99	0x3ca74d48	0.020422593
100	0xbd30c8ca	-0.043160237
101	0xb912ab30	-0.00013987417
102	0xbcb5e643	-0.022204524
103	0xbd18ac87	-0.03727391
104	0xbc8afbf2	-0.01696584
105	0x3c3536c1	0.011060418
106	0x3d0dcc13	0.03461845
107	0xbd4eb68c	-0.05046706
108	0xb9c339ec	-0.00037236453
109	0xbb94c360	-0.004539892
110	0xbd36b66f	-0.044607576
111	0x3cadb07e	0.021202322
112	0x3c2aa528	0.010415353
113	0xbcebec61	-0.028799238
114	0xbcef47ec	-0.0292091
115	0xbb29d343	-0.0025913275
116	0x3cb2158e	0.021738794
117	0x3d179d6b	0.03701536
118	0xbc8ba8b2	-0.017048214
119	0xbd84484d	-0.06459103
120	0xbd28afb3	-0.041183185
121	0xbc0305ee	-0.007997019
122	0xbc2d9e5c	-0.010596838
123	0x3d4da8bf	0.050209757
124	0xbd4d019a	-0.050050355
125	0xbd5342d6	-0.05157741
126	0x3ca6856a	0.020327289
127	0x3d0daabd	0.034586657
128	0x3d3ce282	0.046114452
129	0xbc21401c	-0.009841945
130	0xbd2e4bae	-0.042552643
131	0x3b3a14c5	0.0028393727
132	0xbd34d9f5	-0.044153173
133	0xbd18a7ff	-0.03726959
134	0xbd366f28	-0.0445396
135	0x3c7f53f0	0.015583977
136	0xbcd50c74	-0.026006915
137	0x3c816e3e	0.015799638
138	0xbc526929	-0.012842455
139	0xbd467319	-0.04844961
140	0xbc1d938d	-0.009617698
141	0x3ceeed23	0.02916581
142	0xbd08c9e1	-0.03339565
143	0xbd4351ed	-0.047685552
144	0x3cc03a4d	0.0234653
145	0xbc89ca4f	-0.016820101
146	0xbccbeaff	-0.024892328
147	0xbc8dc20c	-0.017304443
148	0x3d02a63c	0.031896815
149	0xbce262be	-0.027634975
150	0xbd466cac	-0.04844348
151	0xbd02352c	-0.03178899
152	0x3b858b50	0.0040754452
153	0xbb86b7eb	-0.00411128
154	0xbd1d02b5	-0.03833266
155	0xbcaed885	-0.021343479
156	0xbd2dba96	-0.04241427
157	0xbd5c35a9	-0.05376211
158	0x3d08d331	0.033404533
159	0x3b48e39c	0.0030653244
160	0x3d285da7	0.04110494
161	0xbbb9b9d0	-0.0056679025
162	0x3c93f354	0.018060364
163	0xb80fcb30	-3.428309e-05
164	0x3ca49d1a	0.020094443
165	0xbc5cc474	-0.013474572
166	0xbb40723c	-0.0029364964
167	0x3d228467	0.03967705
168	0xbc97041a	-0.018434573
169	0xbd21b645	-0.039480466
170	0x3d032f95	0.0320278
171	0xbce3f65b	-0.027827432
172	0x3d251941	0.040307287
173	0x3cd9681a	0.026538897
174	0xbca3832e	-0.019960012
175	0x3d1ea8cb	0.038735192
176	0xbcadef61	-0.021232309
177	0xbd49a273	-0.04922719
178	0xbd5112bc	-0.051043257
179	0x3ccc4046	0.024932992
180	0xbd2ee7b8	-0.042701453
181	0xbd0ffc58	-0.035152763
182	0x3d52b157	0.051438656
183	0xbc276a13	-0.010218161
184	0x3ca18c42	0.0197202
185	0xbd47fdad	-0.04882591
186	0xbd1d2599	-0.038365934
187	0x3cfdf5c6	0.031000983
188	0x3bca25ec	0.0061690714
189	0xbcf6f3fa	-0.030145634
190	0xbc909ba8	-0.017652348
191	0x3d0b841b	0.034061532
192	0x3d399a9d	0.045313466
193	0xbd429132	-0.04750175
194	0xbd4b5f35	-0.049651343
195	0xbbaf7bc8	-0.005355332
196	0x3c7c38f8	0.015394442
197	0xbd4b8feb	-0.049697798
198	0xbd272768	-0.040809065
199	0xbd0116c4	-0.03151585
200	0xbd23cf64	-0.039992705
201	0xbd462072	-0.048370786
202	0x3d715fae	0.058929138
203	0xbc39afa5	-0.011333381
204	0xbbd4e22f	-0.0064966897
205	0xbd786d64	-0.060651198
206	0xbd4a753b	-0.049428206
207	0xbd0a4238	-0.033754557
208	0xbce274a1	-0.027643504
209	0x3c7bc568	0.01536689
210	0xbc64df7d	-0.013969299
211	0xbd06e651	-0.03293449
212	0xbcd4d4a2	-0.025980297
213	0xbb34243b	-0.0027487415
214	0x3a7daab0	0.00096766185
215	0xbd6b894f	-0.057503995
216	0xbd1b6698	-0.037939638
217	0x3d743a94	0.059626177
218	0x3c81a579	0.015825974
219	0xbd0ec73c	-0.034857973
220	0x3aeca986	0.0018055893
221	0xbd5cee05	-0.05393793
222	0x3cc5a6a4	0.024127312
223	0x3c61b636	0.013776353
224	0xbcce07d8	-0.025150225
225	0x39f64f6c	0.0004697995
226	0xbb814680	-0.003945172
227	0x3ceb8b7a	0.028753031
228	0x3cdddb57	0.027082128
229	0x3d050d37	0.032483306
230	0x3c971434	0.01844225
231	0x3c7287bf	0.014802872
232	0xbbc36219	-0.005962622
233	0x3d3b54cb	0.04573516
234	0xbd420604	-0.04736902
235	0xbbade44c	-0.005306756
236	0xbd0f7c90	-0.0350309
237	0xbd8f8fa5	-0.0700982
238	0xbce8dd69	-0.02842589
239	0xbb7b8f1c	-0.003838486
240	0x3cae8d70	0.021307677
241	0x3d365c60	0.04452169
242	0xbd708a57	-0.05872568
243	0xbd4b969e	-0.049704187
244	0xbd6caad3	-0.0577801
245	0x3cf90f39	0.030402767
246	0x3c2756a3	0.010213527
247	0xbd212771	-0.039344255
248	0xbb6fc1dc	-0.0036584055
249	0x3cdaa0e6	0.02668805
250	0xbcc9ea8d	-0.024647975
251	0xbc611471	-0.013737784
252	0xbd5399ab	-0.05166022
253	0xbd15bdca	-0.03655795
254	0x3c2ab414	0.0104189105
255	0x3d4d488b	0.05011801

fc1.bias f4 [64]
0	0x3be8c6d0	0.0071037784
1	0xbc930cf1	-0.017950507
2	0x3cf14168	0.029450133
3	0x3d4aef18	0.049544424
4	0xbd12c670	-0.035833776
5	0x3c3c7e9d	0.011504796
6	0x3c842a71	0.016133519
7	0x3be4df12	0.0069846
8	0xbcdcc398	-0.026948735
9	0xba2cd907	-0.0006593619
10	0x3c67e103	0.014152768
11	0xbd2345f8	-0.03986165
12	0xbd1f9100	-0.038956642
13	0xbc874d12	-0.016516242
14	0x3cee0890	0.029056817
15	0x3d7d8449	0.061893735
16	0xbcaf2cfc	-0.021383755
17	0xbcd5647d	-0.026048893
18	0xbb6c72b6	-0.0036079115
19	0x3d869356	0.06571071
20	0xbd500e44	-0.050794855
21	0xbce55b2e	-0.02799758
22	0x3ca32abd	0.01991784
23	0x3d7c9bd8	0.06167206
24	0x3d21fab4	0.03954573
25	0xb951c7e9	-0.00020006266
26	0x3d80c564	0.06287649
27	0xbc7baad8	-0.015360557
28	0x3d3ab67d	0.04558419
29	0x3c9c84fb	0.019106379
30	0x3d14eab1	0.03635663
31	0x3d29a0d3	0.04141314
32	0xbd32ab23	-0.04362024
33	0x3b967a8f	0.004592247
34	0x3c83992e	0.016064253
35	0x3caf2582	0.02138019
36	0xbd037509	-0.032094035
37	0x3d10841e	0.035282247
38	0x3c8ab6e5	0.016932914
39	0xbc8d0164	-0.017212577
40	0xbb984ecc	-0.004648065
41	0x3cd96360	0.026536644
42	0x3d02188f	0.031761702
43	0xbd48e48a	-0.049046077
44	0x3b048a29	0.0020223951
45	0x3d2bcead	0.04194515
46	0x3ceed2d1	0.02915326
47	0x3d70946c	0.058735296
48	0xbd044b48	-0.032298356
49	0xbb0017b7	-0.0019545385
50	0x3be96b8a	0.0071234154
51	0xbcc4e2fb	-0.024034014
52	0x3d4d203a	0.05007956
53	0x3cf8f77c	0.030391447
54	0xbd3c00b1	-0.045899097
55	0x3d26a0c8	0.040680677
56	0xbb863709	-0.004095916
57	0x3d72bbe3	0.059261214
58	0xbcc94853	-0.02457062
59	0x3bc5071e	0.0060128113
60	0x3ce39336	0.027780157
61	0xbbe0a3d4	-0.0068554673
62	0xbd48e1ba	-0.049043395
63	0xbd19a9fb	-0.03751562

fc2.weight f4 [64, 64]
0	0xbda4e045	-0.080505885
1	0xbd2e96e9	-0.042624388
2	0xbca2a7b7	-0.019855363
3	0xbda69844	-0.08134511
4	0xbd89dddc	-0.067317694
5	0x3de25979	0.11052222
6	0xbb2dfcf4	-0.0026548477
7	0x3daf402a	0.0855716
8	0xbda2ca56	-0.07948749
9	0xbd8f719f	-0.070040934
10	0xbe114d4c	-0.14189643
11	0x3dd17e22	0.10229136
12	0xbdb8dd13	-0.090265416
13	0xbd3de2cb	-0.046358865
14	0x3d3d515b	0.046220165
15	0x3c7b601d	0.015342739
16	0x3d52aa3e	0.051431887
17	0x3bc80846	0.006104502
18	0xbd5c8a1c	-0.05384265
19	0xbde4a10a	-0.11163528
20	0xbda81503	-0.08207133
21	0xbe02eff8	-0.12786853
22	0x3d81957d	0.06327341
23	0xbdf2b478	-0.11850828
24	0xbc404fc2	-0.011737766
25	0xbdaa63b3	-0.08319797
26	0xbd1067a0	-0.035255075
27	0xbe0ac2fd	-0.13550945
28	0x3c7f558b	0.01558436
29	0x3da4f199	0.080538936
30	0xbc2047e6	-0.009782767
31	0xbdb1965e	-0.086712584
32	0x3db5d5e0	0.08878684
33	0x3a998cf2	0.0011714979
34	0x3d670015	0.056396563
35	0x3dce0050	0.10058653
36	0x3d64bb1d	0.055842508
37	0x3cf109ae	0.029423561
38	0xbe00a51c	-0.12562984
39	0xbdced210	-0.1009866
40	0xbd2116d5	-0.039328415
41	0x3b71cd8f	0.0036896204
42	0xbd6aabae	-0.057292633
43	0xbdf38774	-0.1189107
44	0xbd4f2c65	-0.050579447
45	0x3cdb3f7b	0.026763668
46	0x3cb6a181	0.022293808
47	0xbd4d86eb	-0.050177496
48	0xbda08865	-0.07838515
49	0xbde651ec	-0.11246094
50	0x3d6f2105	0.0583811
51	0xbd84ec2c	-0.06490359
52	0xbd183f87	-0.03716996
53	0x3970f765	0.00022980345
54	0x3a3e9c3c	0.00072712055
55	0xbe083684	-0.13302046
56	0xbdb544e0	-0.088510275
57	0x3da1d43b	0.07901808
58	0x3d074465	0.03302421
59	0x3da5c82f	0.080948226
60	0x3dace3df	0.084419005
61	0xbdbed179	-0.093172975
62	0x3db34478	0.08753294
63	0xbc12688f	-0.0089360615
64	0xbd83c7c0	-0.06434584
65	0xbc93dc57	-0.018049402
66	0x3cf5921b	0.029976895
67	0xbd322486	-0.043491863
68	0xbc96bc0d	-0.018400216
69	0x3d7ab03e	0.061203234
70	0x3debf8e2	0.1152208
71	0xbdc287b9	-0.09498543
72	0xbd1a73de	-0.037708156
73	0xbdc6fb54	-0.09715906
74	0xbd23461e	-0.03986179
75	0xbcf13219	-0.029442834
76	0x3ca73e1a	0.020415355
77	0xbd81a055	-0.06329409
78	0xbd3992d2	-0.045306034
79	0x3e085932	0.13315275
80	0x3dae60e3	0.085145734
81	0xbd6d0062	-0.057861693
82	0xbcfc75dd	-0.03081792
83	0x3df9da09	0.1219979
84	0x3d50c456	0.05096849
85	0x3d53d99d	0.051721204
86	0xbd1395c1	-0.03603149
87	0x3e0a8f4a	0.13531223
88	0x3df82120	0.12115693
89	0x3c5680f4	0.013092268
90	0x3df7b9da	0.12095995
91	0x3d71e18d	0.059052993
92	0x3b65f339	0.00350876
93	0xbbc4e235	-0.0060084113
94	0x3cbde67c	0.023181193
95	0x3d08f4af	0.033436473
96	0xbbaa38b6	-0.0051947488
97	0x3e0c40cb	0.13696592
98	0x3d1365f9	0.03598592
99	0xbd2e3190	-0.042527735
100	0x3cddc9c0	0.027073741
101	0x3c4edefc	0.012626406
102	0xbcf2c6d8	-0.029635832
103	0x3c035fd9	0.008018457
104	0x3bb550de	0.0055333218
105	0x3caa9584	0.020823248
106	0x3c87cc8e	0.016577031
107	0xbd1ab111	-0.03776652
108	0x3b40473d	0.0029339336
109	0xbd838f11	-0.06423772
110	0xbc989871	-0.018627377
111	0xbde13cf8	-0.10997957
112	0x3df42fa9	0.11923153
113	0xbcbcef5f	-0.02306336
114	0x3b50d2ce	0.003186393
115	0xbda7d864	-0.0819557
116	0xbdcca80b	-0.09992989
117	0x3dcedff8	0.101013124
118	0xbde9d9e6	-0.11418514
119	0x3dec9d1c	0.11553404
120	0xbdc1388d	-0.09434614
121	0x3d7fc24e	0.062441163
122	0xbd5e6ee6	-0.05430498
123	0x3c35da40	0.011099398
124	0xbda7971d	-0.081831194
125	0x3d7b2142	0.061311014
126	0x3bf8c71f	0.0075920965
127	0x3e099c00	0.13438416
128	0xbb8ea81d	-0.0043535368
129	0xbdd385c4	-0.10328248
130	0xbd9c570f	-0.076337926
131	0x3cc6b26a	0.024254996
132	0x3d2c36d2	0.04204447
133	0x3d99d9f5	0.07512275
134	0xbdbc200e	-0.091858014
135	0x3db66b5f	0.08907198
136	0x3dfe5860	0.124192
137	0xbd0fe21f	-0.035127755
138	0x3ca71f8b	0.020400783
139	0xbda61092	-0.08108629
140	0xbcd16fe2	-0.025566045
141	0x3bdabb0d	0.00667513
142	0x3dcb0a4f	0.099140756
143	0x3bad635e	0.0052913865
144	0x3dad984e	0.084763154
145	0xbc96e62b	-0.0184203
146	0xbd4b126d	-0.04957812
147	0x3d1347c0	0.035957098
148	0x3df2d75a	0.11857481
149	0x3e079718	0.13241231
150	0x3ca3b6ed	0.019984687
151	0xbda5e271	-0.08099831
152	0x3d2eb45e	0.04265248
153	0x3d704ee2	0.05866898
154	0x3c499a7f	0.012304901
155	0x3de15075	0.11001674
156	0xbdb361d6	-0.08758895
157	0xbdad5b05	-0.08464626
158	0xbdd5a211	-0.10431302
159	0x3cc3080a	0.023807544
160	0x3cc27a8e	0.02374008
161	0x3dff69a3	0.124713205
162	0x3dd38154	0.10327402
163	0xbd35df59	-0.044402454
164	0x3dba4dd2	0.09096874
165	0xbd3edb48	-0.04659584
166	0xbdb936e2	-0.09043671
167	0xbdcb5821	-0.09928919
168	0x3dbbfb5d	0.09178803
169	0xbc1e96e5	-0.009679531
170	0xbcab4008	-0.020904556
171	0x3d851482	0.06498052
172	0xbdf21720	-0.11820817
173	0xbde7eb70	-0.11324203
174	0xbd64e03d	-0.055877913
175	0xbd80380d	-0.06260691
176	0xbd946a93	-0.0724689
177	0xbdb63424	-0.08896664
178	0x3d64ab33	0.05582733
179	0x3e050fa4	0.12994248
180	0xbdbf287f	-0.09333896
181	0xbdcaae7f	-0.09896564
182	0xbc9f54c0	-0.019449592
183	0xbd4faf88	-0.05070451
184	0xbd897e9f	-0.06713604
185	0x3b949a33	0.0045349835
186	0x3e0c9013	0.13726835
187	0x3dd96b10	0.10616124
188	0x3d32f5db	0.043691497
189	0x3de9ae79	0.11410231
190	0xbde8477c	-0.113417596
191	0xbc8dac40	-0.01729405
192	0xbdb0bf4f	-0.08630239
193	0x3d0bb65b	0.034109455
194	0xbda6ca16	-0.081440136
195	0x3d61ea5f	0.055155154
196	0xbd1573ed	-0.03648751
197	0xbd5c824f	-0.05383521
198	0x3d388eb1	0.045057956
199	0xbdcc9f9f	-0.09991383
200	0x3db061e2	0.0861242
201	0x3def9d9f	0.11699986
202	0x3d8bbb00	0.06822777
203	0x3cc2bae9	0.023770766
204	0xbdc9f535	-0.09861223
205	0xbe0fa9b2	-0.14029577
206	0xbda66623	-0.0812495
207	0x3d1f9ae6	0.038966082
208	0xbc8c718c	-0.017143987
209	0xbcdbce0a	-0.026831646
210	0xbcf8dd0d	-0.030378843
211	0xbe0598e1	-0.130466
212	0xbdc8ff93	-0.09814372
213	0xbd4576c3	-0.048208963
214	0xba751d5b	-0.00093503826
215	0x3d6aae75	0.05729528
216	0xbcb2c4a7	-0.021822287
217	0x3dd4311a	0.10360928
218	0x3dd966a8	0.10615283
219	0x3dd1d595	0.10245816
220	0x3d84b2de	0.06479429
221	0xbcf14e18	-0.029456183
222	0xbbebfb5c	-0.007201595
223	0x3db08712	0.086195126
224	0xbc812f7a	-0.015769709
225	0xbd18ce9e	-0.03730642
226	0x3d04c5e0	0.03241527
227	0xbde489bc	-0.11159083
228	0xbe098c81	-0.13432504
229	0x3dc4fdc8	0.096187174
230	0xbd88e5fb	-0.0668449
231	0xbdff3f70	-0.124632716
232	0xbda67674	-0.08128062
233	0xbd89bd00	-0.06725502
234	0xbdaa93c7	-0.083289675
235	0x3ccd07b7	0.025028093
236	0xbd163e08	-0.03668025
237	0xbd0ff2d9	-0.035143707
238	0x3d4db4cc	0.05022125
239	0x3dca54aa	0.0987943
240	0x3caae62a	0.020861704
241	0x3dcefc43	0.10106709
242	0xbdab09d3	-0.08351483
243	0x3d7d2f8a	0.061812915
244	0x3c399fb1	0.011329577
245	0x3dd25533	0.10270157
246	0x3ded59bc	0.11589381
247	0x3a9945c8	0.001169377
248	0x3dcb68d6	0.09932105
249	0x3c4e6d0f	0.012599244
250	0xbdacce2f	-0.08437764
251	0x3c8753fd	0.01651954
252	0x3ccd4d43	0.025061255
253	0xbdbc6ba8	-0.09200221
254	0xbe0aea6d	-0.13565989
255	0x3ca5a95d	0.02022236

fc2.bias f4 [64]
0	0xbc1c8595	-0.009553333
1	0xbd0d9167	-0.034562495
2	0x3c6bbdab	0.014388482
3	0x3d1af29c	0.037829027
4	0x3e0ebb7b	0.13938706
5	0xbc8b1952	-0.016979847
6	0xbdb2adff	-0.08724593
7	0x3d208ff0	0.03919977
8	0x3ba10228	0.004913587
9	0x3d45eeea	0.04832355
10	0x3cf15f9b	0.029464534
11	0x3d5b3d42	0.053525217
12	0x3d0e0835	0.034675796
13	0x3ddc9265	0.1077011
14	0x3d4ad13f	0.04951596
15	0x3dbcbadb	0.09215327
16	0x3dddce5b	0.10830375
17	0x3c48e90a	0.012262592
18	0xbbf4133c	-0.007448582
19	0x3d9a1392	0.07523264
20	0x3dd16b66	0.10225563
21	0xbdc0b854	-0.09410158
22	0x3d860af8	0.06545061
23	0x3d860d68	0.06545526
24	0x3be97756	0.0071248217
25	0xbd35373f	-0.04424214
26	0x3d82288d	0.06355391
27	0x3dbf778f	0.09348976
28	0x3d17b4e6	0.037037753
29	0xbd2ecbe6	-0.04267492
30	0x3dc7e1d1	0.09759868
31	0xbd68b03f	-0.056808706
32	0x3dcce964	0.10005453
33	0x3d5f6819	0.054542635
34	0x3d94ce16	0.0726587
35	0x3ce3edf4	0.027823426
36	0x3d9207ac	0.071303695
37	0x3d3986e1	0.045294646
38	0x3e112665	0.14174803
39	0xbcb6ad96	-0.02229957
40	0x3dad007a	0.084473565
41	0xbdd71fd7	-0.1050412
42	0x3cb0f988	0.02160336
43	0xbdd964c4	-0.10614923
44	0xbd2b50dc	-0.04182516
45	0xbdcb829c	-0.09937021
46	0x3d82f4e5	0.06394366
47	0xbd162c0e	-0.036663108
48	0x3dc6827c	0.09692857
49	0xbdf90e5f	-0.12160944
50	0x3dcb91bd	0.09939907
51	0xbd9cf2cb	-0.076634966
52	0xbe03cbf6	-0.12870774
53	0x3d8e0f93	0.06936564
54	0x3d4d930b	0.05018906
55	0xbddba65e	-0.107250914
56	0xbdbbd3d5	-0.09171263
57	0xbda0200a	-0.07818611
58	0x3db48281	0.08813954
59	0xbe07af16	-0.13250384
60	0x3e0d05de	0.1377177
61	0xbe01e66a	-0.12685552
62	0x3d365a57	0.04451975
63	0xbc2caabc	-0.010538753

fc_out.weight f4 [1, 64]
0	0xbc1c14af	-0.009526416
1	0x3e072cb3	0.13200645
2	0x3da10318	0.07861918
3	0xbd936a91	-0.0719806
4	0x3e01d3a3	0.12678389
5	0xbd86aaea	-0.06575568
6	0xbcad0b6f	-0.021123616
7	0xbd55cff1	-0.05220026
8	0xbdbc6d4a	-0.09200533
9	0x3dd3d7a4	0.103438646
10	0xbcd90eb9	-0.026496278
11	0xbc2fd0c4	-0.010730926
12	0xbded2a0f	-0.11580288
13	0xbd294a2d	-0.041330505
14	0xbd722b33	-0.05912323
15	0x3de6bb17	0.11266153
16	0x3df4b071	0.11947716
17	0x3dfb05ef	0.12256991
18	0x3da9af79	0.08285422
19	0x3e00adbf	0.12566279
20	0x3d0bd3e1	0.03413761
21	0xbccaa356	-0.024736088
22	0xbdd61ef8	-0.104551256
23	0x3af0343a	0.0018326112
24	0xbd960a96	-0.07326238
25	0xbc53f7de	-0.012937514
26	0xbdf36c5e	-0.11885904
27	0x3d84fe5a	0.06493826
28	0x3b526730	0.0032104962
29	0xbda30987	-0.079608016
30	0x3db6639f	0.0890572
31	0x3d09bcc5	0.03362729
32	0x3da10355	0.07861964
33	0xbd8c80f0	-0.068605304
34	0xbdc5c416	-0.09656541
35	0x3e0e8e3b	0.13921444
36	0xbdf1d337	-0.11807864
37	0x3d1ea034	0.038727
38	0x3e0cf4d8	0.13765275
39	0x3ddcd844	0.10783437
40	0x3a8700e8	0.0010299953
41	0x39fe127d	0.0004846043
42	0x3db3755f	0.08762621
43	0xbd75210c	-0.05984597
44	0xbddfafad	-0.10922179
45	0xbd7988d6	-0.060921513
46	0x3cdf11b6	0.027230125
47	0xbdd107bc	-0.10206553
48	0xbd956a64	-0.07295683
49	0xbb8abef0	-0.0042341873
50	0x3ccd7d51	0.02508417
51	0x3e00ae17	0.1256641
52	0xbc3d90bb	-0.011570151
53	0x3d1a4a94	0.03766878
54	0x3d0a0788	0.03369859
55	0xbc69813c	-0.014252003
56	0x3d9af948	0.07567078
57	0x3dc7571c	0.09733412
58	0xbd5aa83c	-0.053383097
59	0xbbce94cc	-0.006304359
60	0x3e094afe	0.13407513
61	0xbddc8362	-0.10767247
62	0x3dbe8e13	0.09304442
63	0x3df2df42	0.11858989
