data/trained_models/base_cp_b_kan.pth (torch, 138770 bytes, 12 tensors)

net.0.coeff f4 [64, 10, 5]
0	0x3e229763	0.15878062
1	0x3d9e62c2	0.0773368
2	0x3e070580	0.13185692
3	0xbdfaf25e	-0.12253259
4	0x3e5dd867	0.21664582
5	0xbcabf891	-0.02099255
6	0xbd8ea0f9	-0.06964297
7	0x3e1f8015	0.15576203
8	0xbd57113d	-0.052506674
9	0xbd8cc93c	-0.0687432
10	0xbc877ceb	-0.016539058
11	0xbcd038d4	-0.025417723
12	0xbd834c49	-0.064110346
13	0x3d9a5f5b	0.07537719
14	0xbcccbb0d	-0.024991537
15	0x3d642302	0.05569745
16	0x3d0bfe71	0.0341782
17	0xbd7b7c8e	-0.06139808
18	0xbcc4732d	-0.023980701
19	0x3e6e5223	0.2327352
20	0xbcc89f96	-0.024490159
21	0xb9e94ca2	-0.0004449832
22	0xbcca3654	-0.024684109
23	0x3c719406	0.014744764
24	0x3dbb80d9	0.09155435
25	0x3cb04544	0.021517403
26	0x3daeb7dc	0.08531162
27	0xbd0a84c9	-0.03381804
28	0xbd158845	-0.03650691
29	0x3ddca461	0.1077354
30	0xba482570	-0.0007634973
31	0x3d39fc4a	0.045406617
32	0x390b927d	0.00013310644
33	0x3e300f59	0.17193355
34	0xbd0a457d	-0.033757675
35	0x3d3df0bb	0.046372157
36	0x3e2a3271	0.16620804
37	0xbc13ccb5	-0.009020974
38	0x3d711833	0.05886097
39	0x3da1c7a1	0.07899404
40	0xbda7806d	-0.08178792
41	0x3dc2f419	0.09519214
42	0x3d732de2	0.05936993
43	0x3d34a33c	0.044100985
44	0x3d7b310f	0.061326083
45	0x3dacb9bc	0.084338635
46	0xbcdc1f7d	-0.026870484
47	0x3e0615d3	0.13094263
48	0x3d8012d7	0.062535934
49	0x3e2f546a	0.17122045
50	0xbd9cf648	-0.07664162
51	0xbd775536	-0.060383998
52	0xbe7d5ac3	-0.24741654
53	0x3cf4f495	0.029901782
54	0xbdb19869	-0.08671648
55	0xbc703a9c	-0.014662411
56	0xbe451507	-0.19246303
57	0x3d8260ae	0.063660964
58	0xbe070af6	-0.13187775
59	0xbda78662	-0.08179928
60	0x3c82be54	0.015959896
61	0xbe2d65b6	-0.16933331
62	0x3c656bee	0.014002783
63	0x3ce6885b	0.028141191
64	0xbd950a5b	-0.07277366
65	0xbd61be26	-0.05511298
66	0x3d053619	0.032522295
67	0xbb838ee3	-0.004014836
68	0x3e6921df	0.22766827
69	0x3dd7b7df	0.105331175
70	0xbe88e5bc	-0.26737773
71	0xbda3098b	-0.079608046
72	0xbdbc82e1	-0.09204651
73	0x3e12cac0	0.14335155
74	0xbd40ce2f	-0.047071632
75	0xbe0582b9	-0.13038148
76	0x3da75078	0.08169645
77	0xbdb36661	-0.087597616
78	0xbd8cea97	-0.06880682
79	0xbe674574	-0.22585088
80	0xbce79f9f	-0.028274355
81	0x3daa6ad3	0.08321156
82	0xbdeb8b37	-0.115011625
83	0x3cdffeb6	0.027343135
84	0xb98b4b5c	-0.00026568293
85	0xbd8c046b	-0.0683678
86	0x3dc23261	0.09482265
87	0xbc8495ce	-0.016184714
88	0xbb8ec38a	-0.004356806
89	0x3e018add	0.12650628
90	0xbcf00666	-0.029299926
91	0x3d40c811	0.0470658
92	0x3e1c88cd	0.1528656
93	0xbe72b10b	-0.23700349
94	0x3e1b5ee1	0.15172912
95	0xbe30d715	-0.17269547
96	0xbe06d992	-0.13168934
97	0xbd3ba6eb	-0.045813482
98	0xbdeb8ccf	-0.115014665
99	0xbd4dd919	-0.05025587
100	0x3b5715d9	0.0032819419
101	0x3dd39a04	0.103321105
102	0xbe16d296	-0.1472877
103	0xbcd65049	-0.02616133
104	0x3e53568b	0.20638482
105	0xbd242191	-0.040071074
106	0x3dbd10fe	0.09231757
107	0xbd11f27d	-0.035631645
108	0x3d2956b0	0.041342437
109	0x3da47350	0.080298066
110	0xbe05ccf4	-0.13066465
111	0x3cccc865	0.0249979
112	0xbda6455d	-0.08118699
113	0xbd901c8d	-0.07036696
114	0xbc3158b9	-0.010824376
115	0x3d6246b4	0.05524321
116	0x3d273032	0.040817447
117	0xbe0d9b3e	-0.13828751
118	0x3ce3892f	0.027775375
119	0xbb73e038	-0.0037212502
120	0x3d54ecb9	0.05198357
121	0xbe08afbd	-0.13348289
122	0xbdfe3e97	-0.12414282
123	0xbdd931d6	-0.106052086
124	0xbe4df4a1	-0.2011285
125	0xbb3c67b8	-0.0028748345
126	0xbda95aaf	-0.0826925
127	0x3b37d189	0.0028048477
128	0x3d2ce916	0.042214476
129	0xbe4c3042	-0.19940284
130	0x3bc392ec	0.005968442
131	0x3d0a51cd	0.033769418
132	0x3a26153d	0.0006335562
133	0x3d68623f	0.05673432
134	0xbe13f953	-0.14450578
135	0x3d5d8863	0.054085147
136	0xbd20c6b1	-0.039251987
137	0xbd1c12fc	-0.038104042
138	0xbe162844	-0.14663798
139	0x3d3317b1	0.043723766
140	0x3ce212a1	0.027596774
141	0x3e4fc5d3	0.20290308
142	0xbd2f3f85	-0.042785186
143	0xbca8dce5	-0.020613143
144	0xbd9efc5d	-0.07762978
145	0x3d09183d	0.03347038
146	0x3d96d2d1	0.07364429
147	0x3d3d8c76	0.046276532
148	0x3db5fb34	0.08885804
149	0x3e4a20f8	0.19739139
150	0xbddb0c69	-0.106957264
151	0x3d960ba9	0.07326443
152	0x3d5f477c	0.054511532
153	0x3e63c417	0.22242771
154	0xbbac863a	-0.0052650245
155	0x3d9c1ccc	0.0762268
156	0x3cdd32ae	0.027001705
157	0x3de90c33	0.1137928
158	0x3d8aef83	0.067839645
159	0x3b92dca0	0.004481867
160	0x3d8aecdd	0.06783459
161	0x3d91addc	0.07113239
162	0x3d8ec90d	0.06971941
163	0xbdb33d96	-0.08751981
164	0xbe00d8a6	-0.12582645
165	0x3d2e6962	0.04258097
166	0xbc93882b	-0.018009266
167	0xbe0a953d	-0.13533492
168	0x3d0880d1	0.033325974
169	0x3d8575bc	0.06516597
170	0x3d90402d	0.070434906
171	0xbdf1d7a0	-0.11808705
172	0x3ce70e1d	0.028204972
173	0xbc1f4c71	-0.009722815
174	0x3c97a948	0.018513337
175	0x3cc32512	0.023821387
176	0x3d1f572c	0.038901493
177	0x3d95aa3c	0.0730786
178	0xbe2bbab7	-0.16770445
179	0x3e0853c5	0.13313206
180	0xbe03fb96	-0.12888941
181	0x3e08aab2	0.13346365
182	0x3e0ecf88	0.13946354
183	0x3da00118	0.078127086
184	0xbb2c279a	-0.0026268722
185	0xbdd6f3cd	-0.1049572
186	0xbe2328d5	-0.15933545
187	0x3d789b19	0.060694788
188	0x3d89666d	0.06708989
189	0xbe19fa75	-0.15036948
190	0xb88a4bf5	-6.594501e-05
191	0xbe36ddcb	-0.17858045
192	0xbe4892d8	-0.19587266
193	0x3e56374a	0.20919529
194	0xbdbcbf72	-0.09216203
195	0x3e49b83d	0.19699188
196	0xbdd902a4	-0.10596207
197	0x3e12fbe3	0.143539
198	0x3cc7aa22	0.024373118
199	0xbd5fee8d	-0.05467086
200	0x3eadb491	0.33926824
201	0xbcdd9ee9	-0.027053313
202	0xbdb860d9	-0.09002847
203	0x3de436c3	0.111432575
204	0x3d2b67d6	0.041847073
205	0x3b46d372	0.0030338434
206	0x3acea3d7	0.0015765381
207	0xbdb2c585	-0.0872908
208	0xbe03fba2	-0.12888959
209	0x3c86ca2f	0.01645383
210	0xbbdd4acc	-0.0067533012
211	0xbdd3cf01	-0.10342217
212	0x3e51ebbb	0.2050008
213	0x3e306619	0.17226447
214	0xbc277421	-0.010220558
215	0x3c0527a6	0.008127129
216	0x3e85f23e	0.2616138
217	0x3c8c9b02	0.017163757
218	0xbc30afe0	-0.010784119
219	0x3d97c3f7	0.07410424
220	0x3cfce80a	0.030872364
221	0x3d9e2181	0.07721234
222	0x3c391171	0.011295662
223	0xbd895db3	-0.06707325
224	0x3d40f209	0.047105823
225	0x3d0aa638	0.033849925
226	0x3dd4f084	0.10397437
227	0xbe533a04	-0.206276
228	0xbce78e75	-0.028266171
229	0xbd225911	-0.03963572
230	0xbd7e4079	-0.062073205
231	0xbe4814af	-0.1953914
232	0x3de7d92c	0.11320719
233	0x3d9b4aad	0.07582603
234	0xbe144973	-0.14481144
235	0x3dc72a77	0.097248964
236	0x3d8e1b53	0.069388054
237	0xbd87b887	-0.06626993
238	0x3d85cf81	0.06533719
239	0x3df9cb5f	0.12196993
240	0xbe0ad141	-0.13556387
241	0x3df34b7f	0.11879634
242	0x3dbc9ddb	0.09209796
243	0xbe11e310	-0.14246774
244	0xbd30ddf6	-0.04318043
245	0x3c2de912	0.01061465
246	0x3ccaa14b	0.024735114
247	0xbe532c54	-0.20622379
248	0xbcab3a52	-0.020901833
249	0x3c9b8d2e	0.018988218
250	0x3cea7fa6	0.02862532
251	0x3caab36c	0.020837508
252	0x3bf4b271	0.007467561
253	0x3d846d69	0.06466181
254	0xbd3a3bb8	-0.04546711
255	0x3d12aa6f	0.03580707

net.0.scale f4 [64, 10]
0	0x3f7f8166	0.9980682
1	0x3f8039fe	1.0017698
2	0x3f8023d0	1.0010929
3	0x3f7f8425	0.9981101
4	0x3f803955	1.0017496
5	0x3f7f7f43	0.9980356
6	0x3f803ea5	1.0019118
7	0x3f7f8f28	0.99827814
8	0x3f7f8a5e	0.99820507
9	0x3f7fb979	0.99892384
10	0x3f7f82e1	0.9980908
11	0x3f7f832d	0.99809533
12	0x3f803e9e	1.0019109
13	0x3f803e7a	1.0019066
14	0x3f801d36	1.0008914
15	0x3f7f8309	0.9980932
16	0x3f7f7f10	0.99803257
17	0x3f7f8317	0.998094
18	0x3f803e89	1.0019084
19	0x3f7f7d89	0.99800926
20	0x3f804139	1.0019904
21	0x3f80413b	1.0019907
22	0x3f7f7d98	0.99801016
23	0x3f7f7e12	0.99801743
24	0x3f803ff4	1.0019517
25	0x3f7f7e4b	0.9980208
26	0x3f7f7d96	0.99801004
27	0x3f80413d	1.0019909
28	0x3f7f7da1	0.9980107
29	0x3f80413f	1.0019912
30	0x3f7f82be	0.9980887
31	0x3f7f828d	0.9980858
32	0x3f803d21	1.0018655
33	0x3f7f803b	0.9980504
34	0x3f7f80e5	0.9980605
35	0x3f803e6e	1.0019052
36	0x3f803ec8	1.0019159
37	0x3f803fa2	1.0019419
38	0x3f7f9219	0.998323
39	0x3f7f7cda	0.99799883
40	0x3f80393b	1.0017465
41	0x3f7f7cd9	0.9979988
42	0x3f7f96b9	0.9983936
43	0x3f801c0f	1.0008563
44	0x3f801762	1.0007136
45	0x3f7f7e97	0.99802536
46	0x3f7fe4a3	0.99958247
47	0x3f801e6f	1.0009288
48	0x3f7f9b13	0.99846
49	0x3f7fe821	0.99963576
50	0x3f804187	1.0019997
51	0x3f7f7cda	0.99799883
52	0x3f7f7cd6	0.9979986
53	0x3f7f7cd7	0.99799865
54	0x3f7f7d52	0.998006
55	0x3f7f7cf0	0.99800014
56	0x3f7f7cd5	0.99799854
57	0x3f7f7cd5	0.99799854
58	0x3f804192	1.002001
59	0x3f7f7cd5	0.99799854
60	0x3f7f7e3b	0.9980199
61	0x3f804161	1.0019952
62	0x3f804184	1.0019994
63	0x3f803fb1	1.0019437
64	0x3f80404a	1.001962
65	0x3f7f7cf5	0.99800044
66	0x3f7f7d71	0.99800783
67	0x3f7f8521	0.99812514
68	0x3f7f7cf7	0.99800056
69	0x3f7f9a5b	0.998449
70	0x3f803f73	1.0019363
71	0x3f804120	1.0019875
72	0x3f80416d	1.0019966
73	0x3f7f7ce2	0.9979993
74	0x3f803e59	1.0019027
75	0x3f804159	1.0019943
76	0x3f8037a5	1.0016981
77	0x3f804054	1.0019631
78	0x3f804155	1.0019938
79	0x3f7f7cf2	0.99800026
80	0x3f7f7cd6	0.9979986
81	0x3f804082	1.0019686
82	0x3f80418f	1.0020007
83	0x3f804133	1.0019897
84	0x3f80418a	1.0020001
85	0x3f804155	1.0019938
86	0x3f804169	1.0019962
87	0x3f7f7fb7	0.9980425
88	0x3f7f7cd6	0.9979986
89	0x3f80417e	1.0019987
90	0x3f803fb0	1.0019436
91	0x3f7f85eb	0.9981372
92	0x3f7f7f42	0.99803555
93	0x3f7f816a	0.99806845
94	0x3f7f7e6e	0.9980229
95	0x3f803fa6	1.0019424
96	0x3f7f7f63	0.9980375
97	0x3f80191c	1.0007663
98	0x3f802235	1.0010439
99	0x3f7f7e88	0.99802446
100	0x3f80103b	1.0004953
101	0x3f7f8489	0.9981161
102	0x3f804164	1.0019956
103	0x3f804179	1.0019981
104	0x3f7f81f8	0.9980769
105	0x3f80408f	1.0019702
106	0x3f7f7d28	0.9980035
107	0x3f7f8216	0.9980787
108	0x3f803fe2	1.0019495
109	0x3f804120	1.0019875
110	0x3f804084	1.0019689
111	0x3f7f7cf7	0.99800056
112	0x3f80309b	1.0014833
113	0x3f80416d	1.0019966
114	0x3f803faf	1.0019435
115	0x3f7f7eba	0.99802744
116	0x3f7f814d	0.9980667
117	0x3f803ccb	1.0018553
118	0x3f804038	1.0019598
119	0x3f7fa767	0.9986481
120	0x3f804190	1.0020008
121	0x3f800cdd	1.0003926
122	0x3f7fec88	0.99970293
123	0x3f801414	1.0006127
124	0x3f7f8255	0.99808246
125	0x3f7fecff	0.99971
126	0x3f7f7e7f	0.9980239
127	0x3f7f7d5c	0.9980066
128	0x3f804186	1.0019996
129	0x3f803f2d	1.001928
130	0x3f7f7ced	0.99799997
131	0x3f7fe863	0.9996397
132	0x3f7fa942	0.9986764
133	0x3f804115	1.0019861
134	0x3f7f7cda	0.99799883
135	0x3f7f7cd8	0.9979987
136	0x3f804133	1.0019897
137	0x3f804163	1.0019954
138	0x3f7f7cd7	0.99799865
139	0x3f7f7d48	0.9980054
140	0x3f80417f	1.0019988
141	0x3f7f7f96	0.99804056
142	0x3f7f7d02	0.9980012
143	0x3f7f7d14	0.9980023
144	0x3f804058	1.0019636
145	0x3f7f7ceb	0.99799985
146	0x3f80416f	1.0019969
147	0x3f7f7cd8	0.9979987
148	0x3f804163	1.0019954
149	0x3f804184	1.0019994
150	0x3f803a83	1.0017856
151	0x3f7f8469	0.99811417
152	0x3f804143	1.0019916
153	0x3f7f97ea	0.9984118
154	0x3f803e51	1.0019017
155	0x3f7feae6	0.999678
156	0x3f7f8fb0	0.99828625
157	0x3f804093	1.0019706
158	0x3f7f7e96	0.9980253
159	0x3f7f8382	0.9981004
160	0x3f7f852a	0.9981257
161	0x3f7f8950	0.998189
162	0x3f7f7d1e	0.9980029
163	0x3f803cde	1.0018575
164	0x3f7f854c	0.9981277
165	0x3f7f7d30	0.99800396
166	0x3f804176	1.0019977
167	0x3f80415d	1.0019947
168	0x3f7f7d03	0.9980013
169	0x3f8039fb	1.0017694
170	0x3f7f7e09	0.9980169
171	0x3f7f8d0e	0.9982461
172	0x3f7f7d42	0.99800503
173	0x3f7f7dbb	0.99801224
174	0x3f7f7db6	0.99801195
175	0x3f7f7da2	0.99801075
176	0x3f7f7d79	0.9980083
177	0x3f803e9c	1.0019107
178	0x3f80409f	1.0019721
179	0x3f800833	1.0002502
180	0x3f7f88b9	0.99818
181	0x3f7f8332	0.99809563
182	0x3f803ade	1.0017965
183	0x3f7f8de8	0.99825907
184	0x3f7f8e1a	0.99826205
185	0x3f803f6c	1.0019355
186	0x3f804070	1.0019665
187	0x3f803e62	1.0019038
188	0x3f80396a	1.0017521
189	0x3f804131	1.0019895
190	0x3f804071	1.0019666
191	0x3f8040ff	1.0019835
192	0x3f804187	1.0019997
193	0x3f7f7cfd	0.9980009
194	0x3f7f7f03	0.9980318
195	0x3f8040e2	1.0019801
196	0x3f803de6	1.001889
197	0x3f7f849c	0.9981172
198	0x3f7f8a3a	0.9982029
199	0x3f7f7cd7	0.99799865
200	0x3f801243	1.0005573
201	0x3f801da3	1.0009044
202	0x3f7fe4bc	0.99958396
203	0x3f7fddba	0.999477
204	0x3f800cb4	1.0003877
205	0x3f801d4b	1.000894
206	0x3f802f2b	1.0014395
207	0x3f7fe51a	0.99958956
208	0x3f7fd16e	0.9992894
209	0x3f7feb06	0.9996799
210	0x3f7f7cfa	0.99800074
211	0x3f7f7cee	0.998
212	0x3f80418b	1.0020002
213	0x3f804179	1.0019981
214	0x3f804190	1.0020008
215	0x3f7f7ce8	0.99799967
216	0x3f7f7d2d	0.9980038
217	0x3f7f7d13	0.99800223
218	0x3f804191	1.0020009
219	0x3f80418e	1.0020006
220	0x3f7f8bc8	0.99822664
221	0x3f7fb997	0.9989256
222	0x3f7f83df	0.99810594
223	0x3f803b0c	1.001802
224	0x3f803b62	1.0018122
225	0x3f7f8758	0.99815893
226	0x3f7f884f	0.99817365
227	0x3f7f832f	0.99809545
228	0x3f7f854f	0.9981279
229	0x3f7f7fd5	0.9980443
230	0x3f803bc4	1.0018239
231	0x3f801512	1.000643
232	0x3f8008e0	1.0002708
233	0x3f803c8e	1.001848
234	0x3f7f9b71	0.9984656
235	0x3f800bce	1.0003603
236	0x3f7f7cf8	0.9980006
237	0x3f7f873a	0.99815714
238	0x3f803884	1.0017247
239	0x3f803be1	1.0018274
240	0x3f7f8c8f	0.9982385
241	0x3f802721	1.0011941
242	0x3f803e0a	1.0018933
243	0x3f7f7d35	0.99800426
244	0x3f7f7d70	0.9980078
245	0x3f7f873d	0.9981573
246	0x3f7f7ef2	0.9980308
247	0x3f7f899c	0.9981935
248	0x3f803f5f	1.0019339
249	0x3f7f7cdf	0.99799913
250	0x3f7f7cfe	0.998001
251	0x3f7f7cfd	0.9980009
252	0x3f7fc191	0.99904734
253	0x3f80410c	1.0019851
254	0x3f7f7cdc	0.99799895
255	0x3f804155	1.0019938

net.0.base_weight f4 [64, 10]
0	0xbc3200ff	-0.010864495
1	0xbda53803	-0.08067324
2	0xbdd37b7d	-0.10326288
3	0x3d193f30	0.037413776
4	0x3d543967	0.051812556
5	0xbe1ed91f	-0.15512513
6	0xbc32fcf9	-0.010924571
7	0xbe801398	-0.2501495
8	0x3da917aa	0.08256467
9	0xbe14f205	-0.14545448
10	0xbd2df044	-0.042465463
11	0x3d3e77a5	0.04650082
12	0xbd9c7431	-0.07639349
13	0x3df14334	0.11780396
14	0x3d3af4ea	0.045643725
15	0xbe833f12	-0.25634056
16	0x3b0ffeac	0.0021971865
17	0x3d1398f4	0.03603454
18	0xbe0fc2c5	-0.14039142
19	0x3e48f6d0	0.19625401
20	0x3debe3b5	0.11518041
21	0xbd0e9cf7	-0.034817662
22	0x3bd2fd4c	0.0064388867
23	0x3db1b884	0.08677772
24	0x3e052ba8	0.13004935
25	0xbd057d4a	-0.032590188
26	0x3d9aaba4	0.07552269
27	0x3cd8dd0a	0.026472587
28	0x3de0c186	0.10974412
29	0x3d8b9be3	0.068168424
30	0xbd87f8e7	-0.06639271
31	0xbc367868	-0.0111371055
32	0xbd8c5d8c	-0.0685378
33	0xbe5a1ee5	-0.21300848
34	0xbdce65b2	-0.100779906
35	0xbb1d1d43	-0.002397374
36	0xbddab27f	-0.10678577
37	0x3cf9dcb1	0.030500742
38	0x3b79988c	0.003808531
39	0x3e13e287	0.14441882
40	0xbd3dcef0	-0.04633993
41	0xbdc9ae78	-0.098477304
42	0xbc571c77	-0.013129345
43	0xbd860ad5	-0.06545035
44	0x3d68e4b1	0.056858722
45	0xbe16065f	-0.14650868
46	0x3d862568	0.065501034
47	0xbd2558f9	-0.040368054
48	0xbd94426f	-0.07239234
49	0x3dc388b9	0.09547562
50	0xbc0f9ad7	-0.008764944
51	0xbde383d3	-0.11109128
52	0xbe133428	-0.14375365
53	0xbce86c0e	-0.028371837
54	0xbd8bc687	-0.068249755
55	0xbdafbf7f	-0.08581447
56	0xbc7519bc	-0.014959749
57	0x3d736c10	0.05942923
58	0xbd2fcfed	-0.042922903
59	0xbd5e968e	-0.0543428
60	0xbe19b87c	-0.15011781
61	0x3dfde212	0.12396635
62	0x3d6b4949	0.057442937
63	0xbe1dcd3a	-0.15410319
64	0x3cde27fc	0.027118675
65	0xbd3eab92	-0.04655034
66	0xbc47558c	-0.012166392
67	0xbde97d37	-0.11400836
68	0x3d9ef942	0.07762386
69	0xbe613e42	-0.21996406
70	0xbd928eed	-0.07156167
71	0x3db197ff	0.08671569
72	0xbe9498af	-0.29022738
73	0x3d0ad7d9	0.033897255
74	0x3dfdeb76	0.12398426
75	0x3d23f51a	0.04002867
76	0xbca45da0	-0.020064175
77	0xbe2b58d1	-0.167331
78	0x3e87b0f3	0.2650219
79	0xbd972e44	-0.07381871
80	0x3c5e807e	0.01358044
81	0xbae5d01d	-0.0017533336
82	0x3e2af59c	0.16695255
83	0x3cc08c53	0.023504412
84	0xbdad6b1a	-0.084676936
85	0x3e120c80	0.14262581
86	0xbe3c0d99	-0.18364562
87	0xbe22379b	-0.15841524
88	0xbe0da5ea	-0.13832822
89	0x3e8e310d	0.27771798
90	0xbddfa65d	-0.10920403
91	0x3e2e2ab6	0.1700848
92	0xbd10aa00	-0.035318375
93	0x3e1c646f	0.15272687
94	0x3d062cb0	0.03275746
95	0x3e13dee2	0.14440492
96	0xbdf53994	-0.11973873
97	0xbdc78158	-0.09741467
98	0x3e5a0470	0.21290755
99	0x3e668126	0.22510204
100	0xbd680cd0	-0.056652844
101	0x3b9ebba0	0.004844144
102	0xbdf30d38	-0.11867756
103	0xba2269d3	-0.00061955786
104	0x3d71b9dd	0.059015144
105	0xbe464b3b	-0.19364636
106	0xbe419021	-0.18902637
107	0x3d5af7be	0.05345892
108	0x3db32ee1	0.08749176
109	0xbb83555e	-0.0040079793
110	0xbe50db9c	-0.20396274
111	0xbd029b53	-0.03188641
112	0xbd7a9074	-0.061172917
113	0xbe3f5d6e	-0.18687984
114	0x3b88b802	0.004172326
115	0xbdbece15	-0.09316651
116	0xbd938885	-0.072037734
117	0x3e04d07a	0.12970152
118	0xbcce1eea	-0.025161225
119	0x3d9de763	0.07710149
120	0x3e4f2479	0.20228757
121	0xbd7bd78a	-0.06148485
122	0x3dbd0eae	0.092313156
123	0xbd9a6895	-0.07539479
124	0xbe1f543f	-0.15559481
125	0xbe3cc387	-0.18433963
126	0xbd284817	-0.041084375
127	0x3cbf8a10	0.023381263
128	0xbd40a30d	-0.047030497
129	0x3d34400a	0.044006385
130	0xbd5dba64	-0.054132834
131	0xbe0c6881	-0.1371174
132	0xbd9783d4	-0.07398191
133	0xbd9953cc	-0.07486686
134	0x3d12e8c4	0.035866514
135	0x3d8b4253	0.0679976
136	0x3e1fd478	0.15608394
137	0x3dc7ba94	0.09752384
138	0xbe14b744	-0.14523035
139	0x3c479c16	0.01218321
140	0xbda027d6	-0.07820098
141	0xbdc52cf9	-0.096277185
142	0x3dfa70d7	0.12228554
143	0x3d83b834	0.06431618
144	0xbe1376bc	-0.14400762
145	0xbd2a6066	-0.04159584
146	0x3bb3c6c8	0.005486343
147	0x3da48176	0.08032505
148	0x3e4cb881	0.19992258
149	0xbe259379	-0.16169538
150	0x3d73f1d5	0.0595568
151	0x3e906a13	0.28205928
152	0x3dc0b5f3	0.09409704
153	0xbda337a0	-0.07969594
154	0xbe22520a	-0.15851608
155	0x3dc3cc74	0.09560481
156	0x3d86f76a	0.06590159
157	0xbce57e3b	-0.028014293
158	0xbdd61b29	-0.10454399
159	0x3d3385a2	0.043828614
160	0x3d25b987	0.040460136
161	0xbde3e2d1	-0.11127246
162	0x3e14ff3e	0.14550492
163	0x3e16f0c9	0.1474029
164	0xbcb9eece	-0.022696879
165	0x3e2e1939	0.17001809
166	0xbd05f8fe	-0.03270816
167	0x3e46d959	0.19418849
168	0x3cda41b2	0.026642654
169	0xbd07e05d	-0.033172954
170	0x3d6f0851	0.05835754
171	0xbd6fa3b3	-0.058505725
172	0x3d4d7a0f	0.050165232
173	0x3c693867	0.014234639
174	0xbcb9ba12	-0.022671733
175	0xbb29d5fd	-0.00259149
176	0x3d0b5737	0.03401872
177	0x3d397cf0	0.045285165
178	0x3d50fc8c	0.051022097
179	0xbdcb7299	-0.09933967
180	0x3bc18607	0.00590587
181	0x3d6ae1ac	0.057344124
182	0xbd8034af	-0.062600486
183	0x3ca8b82b	0.02059563
184	0xbdeda2f9	-0.1160335
185	0xbceb5192	-0.02872542
186	0xbd97a2c1	-0.0740409
187	0xbd329c95	-0.04360636
188	0x3de31860	0.110886335
189	0xbd7c1855	-0.061546642
190	0x3da876ef	0.0822581
191	0xbd2a4006	-0.041564964
192	0xbce57929	-0.028011875
193	0xbd4242f4	-0.047427133
194	0xbc9431f3	-0.018090224
195	0xbde41ee2	-0.11138703
196	0x3c982bee	0.018575635
197	0x3cbec1f6	0.023285847
198	0xbd6ac323	-0.057315003
199	0x3d284804	0.041084304
200	0xbd808851	-0.06276
201	0x3dbde69a	0.092724994
202	0xbd5fceae	-0.054640464
203	0xbdc41abd	-0.095754124
204	0xbdfadc6e	-0.12249075
205	0x3da72097	0.08160513
206	0x3e109154	0.14117938
207	0xbcb49e65	-0.022048185
208	0xbde01621	-0.10941721
209	0x3e3092ba	0.17243472
210	0xbdd73363	-0.10507848
211	0xbd823e9a	-0.063595966
212	0xbaef6f6e	-0.0018267462
213	0xbb4e5bdc	-0.0031487858
214	0xbe4cd055	-0.20001347
215	0x3c07b1e2	0.008282157
216	0xbe1917d6	-0.14950499
217	0xbd4d4b07	-0.05012038
218	0x3d4fd7ec	0.05074303
219	0xbe53bb45	-0.20676906
220	0xbd07420c	-0.03302197
221	0x3cc1e028	0.023666456
222	0x3c0bbcd4	0.008528907
223	0x3d48c59a	0.049016573
224	0xbe25a600	-0.16176605
225	0xbd56b9e7	-0.052423384
226	0xbd809e7e	-0.0628023
227	0xbdfd9f71	-0.12383927
228	0xbc241474	-0.010014642
229	0x3d7c442e	0.06158846
230	0xbd8bbd7c	-0.06823251
231	0x3e713ac8	0.2355758
232	0x3deae268	0.11468965
233	0x3daaf67b	0.08347794
234	0xbe309f53	-0.17248277
235	0xbd482a6c	-0.04886858
236	0xbdaa9288	-0.0832873
237	0x3bc13f3c	0.0058974307
238	0x3db0b881	0.08628941
239	0xbda50478	-0.08057493
240	0xbd678fed	-0.056533743
241	0xbd6983eb	-0.057010572
242	0x3cfa843e	0.030580636
243	0x3d808a37	0.062763624
244	0xbc55dd48	-0.013053246
245	0xbe1c96ac	-0.15291852
246	0x3d541a4d	0.051782895
247	0xbdc3aa84	-0.09554008
248	0x3e3e1dad	0.18566008
249	0x3ca7ce70	0.02048418
250	0x3e3a8886	0.18216142
251	0xbce4b70e	-0.027919319
252	0x3ce487aa	0.02789672
253	0x3ba9e8b0	0.005185209
254	0xbcb36ac6	-0.0219015
255	0x3cc93952	0.024563465

net.0.grid_points f4 [5]
0	0xc0000000	-2.0
1	0xbf800000	-1.0
2	0x00000000	0.0
3	0x3f800000	1.0
4	0x40000000	2.0

net.2.coeff f4 [64, 64, 5]
0	0x3c332be3	0.010935756
1	0x3e35377b	0.17696945
2	0xbdbd768a	-0.09251125
3	0x3e31e9a0	0.17374277
4	0x3d943b32	0.07237853
5	0x3c427126	0.011867797
6	0xbd314d86	-0.043286823
7	0xbd78dfbf	-0.060760256
8	0x3d8b4a45	0.06801275
9	0xbce51437	-0.02796374
10	0x3d4edc94	0.05050333
11	0x3dd6d4f4	0.10489836
12	0xbc957658	-0.018244907
13	0xbdecedbc	-0.11568782
14	0x3dc02bee	0.09383379
15	0xbceb9b79	-0.028760659
16	0xbe1b0f2a	-0.15142503
17	0x3cb6af08	0.022300258
18	0x3cac9d24	0.021071024
19	0xbe3f9ec4	-0.18712908
20	0xbd6bd181	-0.057572845
21	0xbddd69a1	-0.10811163
22	0xbd03cacc	-0.032175824
23	0xbdd2a5be	-0.10285519
24	0x3c9f8fbb	0.019477716
25	0x3e926279	0.28590754
26	0x3e1d6838	0.15371788
27	0xbe1e51b9	-0.15460862
28	0x3def6e26	0.11690931
29	0x3df37d0e	0.11889087
30	0xbe0d1190	-0.13776231
31	0x3c0c4b99	0.008562946
32	0xbe0353ad	-0.12824889
33	0xbd9467a7	-0.072463326
34	0xbdc299db	-0.09502002
35	0x3de5c95c	0.11220047
36	0x3d066e52	0.032820053
37	0x3e066cad	0.13127394
38	0xbd283034	-0.041061595
39	0x3e38f8e9	0.18063702
40	0x3c6b9ddb	0.014380897
41	0xbdd017db	-0.101608
42	0xbdb69064	-0.08914259
43	0xbd477fbd	-0.048705805
44	0x3deb8f05	0.11501888
45	0xbca8dd7d	-0.020613426
46	0x3b97233d	0.004612355
47	0x3e175b92	0.14781025
48	0x3d5e6ce0	0.05430305
49	0x3dc0de73	0.09417429
50	0x3e1ced85	0.15324982
51	0x3b51d706	0.0032019033
52	0x3cbd0410	0.023073226
53	0x3c35802f	0.011077925
54	0x3de83391	0.113379605
55	0xbd24fd63	-0.04028071
56	0xbd99d402	-0.075111404
57	0x3d6d2d48	0.05790451
58	0xbc98485d	-0.018589193
59	0x3c817fe7	0.015808059
60	0x3db225d1	0.08698619
61	0xbbc18e71	-0.005906873
62	0xbe44ce92	-0.19219425
63	0xbd60ef91	-0.05491597
64	0xbdc5cb03	-0.09657862
65	0x3e0dc545	0.13844784
66	0xbb4721ce	-0.003038514
67	0x3d82978d	0.06376562
68	0xbdac1099	-0.08401603
69	0x3dbe8c5a	0.09304114
70	0x3ab728f4	0.0013973997
71	0x3d5a61ea	0.053316034
72	0xbcb2f991	-0.021847518
73	0xbc0b0e59	-0.0084873075
74	0x3d35f581	0.044423584
75	0xbd907105	-0.07052807
76	0x3dff20a4	0.124573976
77	0xbd8c070b	-0.06837281
78	0x3e204091	0.1564963
79	0x3cb9fa5c	0.022702388
80	0xbe031aa3	-0.1280313
81	0x3dd5bc9d	0.10436366
82	0xbcf21e78	-0.029555544
83	0x3e1d8361	0.15382148
84	0xbdfe212b	-0.1240867
85	0xbd985e11	-0.07439817
86	0x3ce8146b	0.028330049
87	0xbcf787c8	-0.030216113
88	0x3d46df39	0.048552725
89	0x3de29094	0.11062732
90	0xbd83cba1	-0.064353235
91	0x3dabd74b	0.08390673
92	0xbd264dd9	-0.040601585
93	0x3c9a4117	0.018829865
94	0xbde13bc3	-0.10997727
95	0xbe6acf4c	-0.2293064
96	0xbbf609d4	-0.007508496
97	0xbcb767be	-0.022388335
98	0xbc29978b	-0.010351072
99	0x3c6ed47e	0.014577029
100	0xbe091fa5	-0.13390978
101	0x3dd35c1c	0.10320303
102	0xbdd74971	-0.10512055
103	0xbd33b287	-0.04387143
104	0xbc9760d6	-0.018478792
105	0x3e5720ff	0.21008681
106	0xbd3d954c	-0.04628496
107	0x3daec237	0.08533137
108	0xbd9dda2c	-0.077076286
109	0x3de4ccf3	0.111719035
110	0x3e15b692	0.14620426
111	0xbce17b4b	-0.027524611
112	0x3d278609	0.04089931
113	0x3d39464a	0.04523305
114	0xbe18b8b0	-0.14914203
115	0xbe0c9c40	-0.1373148
116	0x3cc5f642	0.024165276
117	0xbdb86f9c	-0.09005663
118	0x3d86d118	0.0658285
119	0x3da17a8b	0.07884701
120	0xbd6a568f	-0.057211455
121	0xbe14a112	-0.14514568
122	0x3b7a3a2c	0.0038181646
123	0xbd948587	-0.07252031
124	0xbcf0c029	-0.029388504
125	0xbdab100a	-0.083526686
126	0x3e26ba34	0.16281968
127	0xbcabb7a1	-0.020961585
128	0x3c9af955	0.018917719
129	0x3ccd6e37	0.025076969
130	0xbe9c979a	-0.30584413
131	0xbe01d749	-0.12679781
132	0xbd4b398f	-0.04961544
133	0xbcbc2e0f	-0.022971181
134	0x3d370b69	0.044688616
135	0x3cc68ead	0.024237955
136	0xbe839f2a	-0.2570737
137	0xbcbc4538	-0.022982225
138	0xbd5129be	-0.0510652
139	0x3dbec044	0.093140155
140	0xbd985c4d	-0.0743948
141	0x3e2e2bd1	0.17008902
142	0xbd5ae86c	-0.05344431
143	0x3d397737	0.045279708
144	0xbdd63a33	-0.10460319
145	0xbd929759	-0.071577735
146	0xbd6dbee8	-0.05804339
147	0x3e07246f	0.13197492
148	0x3dbf7529	0.093485184
149	0x3bd68743	0.006546886
150	0xbcb4e1a4	-0.02208025
151	0x3e5c7fa9	0.21533073
152	0x3d837f12	0.06420721
153	0xbde1fc6c	-0.11034474
154	0x3cee6414	0.029100455
155	0xbd4c0647	-0.049810674
156	0xbaa08a55	-0.0012248257
157	0x3daa4cb7	0.083154134
158	0x3e285725	0.16439493
159	0xbd7abf2b	-0.06121747
160	0xbdf3d111	-0.119051106
161	0x3d2136f9	0.039359067
162	0xbb2b4114	-0.002613132
163	0x3d8a2aa3	0.067464136
164	0xbd837928	-0.06419593
165	0x3d379d26	0.044827603
166	0x3c8b37ff	0.016994474
167	0x3d455386	0.048175357
168	0x3e921ba3	0.2853671
169	0xbcb2ec85	-0.021841297
170	0x3cefa317	0.029252572
171	0x3e12bbc5	0.14329441
172	0xbe18518f	-0.14874862
173	0xbddf0430	-0.108894706
174	0x3d9edfdb	0.07757541
175	0x3c607977	0.0137008345
176	0x3d27d33d	0.040972937
177	0xbdbd20b2	-0.09234752
178	0xbe0ca97f	-0.13736533
179	0xbe1bfa46	-0.1523219
180	0x3e6fa5b7	0.23403059
181	0xbdb5c67d	-0.08875749
182	0x3d542875	0.051796395
183	0x3d167a4b	0.03673772
184	0x3badad94	0.005300233
185	0xbd3fe431	-0.04684848
186	0x3d9d2542	0.07673122
187	0x3d3ab122	0.045579083
188	0x3e5f4b0b	0.2180597
189	0x3e0f6be5	0.14006002
190	0xbdacd320	-0.084387064
191	0xbe151b43	-0.14561181
192	0xbe115456	-0.14192328
193	0x3c6fc7b6	0.014635017
194	0xbc583ab1	-0.013197587
195	0x3d298cd2	0.041394062
196	0xbe03433d	-0.12818618
197	0x3c717850	0.014738157
198	0x3da0bc7c	0.078484505
199	0xbe5ea561	-0.21742775
200	0x3d2764c1	0.04086757
201	0xbcb4520f	-0.022011785
202	0xbd645e89	-0.05575422
203	0xbe1468c7	-0.14493094
204	0x3c3c5a9b	0.011496211
205	0x3df7ce8c	0.120999426
206	0xbdf98f8c	-0.121855825
207	0x3e34ffa2	0.17675641
208	0xbc87168b	-0.016490242
209	0x3d0477ff	0.032341
210	0xbe19fc2c	-0.15037602
211	0x3ca7e1fd	0.020493502
212	0x3cb6173c	0.022227876
213	0xbe284dd3	-0.16435938
214	0x3d0618d6	0.03273853
215	0xbe08d78d	-0.13363476
216	0x3e146a8f	0.14493774
217	0xbdce1270	-0.100621104
218	0xbdbdc5c9	-0.0926624
219	0xbd2ac9a4	-0.041696206
220	0x3dda99ae	0.10673843
221	0xbe6b8a5d	-0.23002
222	0xbda88b95	-0.08229748
223	0xbddbd287	-0.10733514
224	0xbcf01964	-0.029308982
225	0xbd28c502	-0.041203506
226	0xbd3347a4	-0.043769494
227	0xbdaef46f	-0.08542716
228	0x3db75a93	0.089528225
229	0xbe4c7b99	-0.19969024
230	0xbbae7209	-0.0053236526
231	0xbd366892	-0.04453332
232	0xbd3de882	-0.046364315
233	0xbdcd1f95	-0.100157894
234	0x3de79469	0.11307604
235	0x3e6f4ee6	0.23369941
236	0xbdd53265	-0.104100026
237	0xbd2d2f0f	-0.042281207
238	0xbda8af6e	-0.082365856
239	0xbcf3d5f7	-0.029765112
240	0x3e26b5a1	0.16280223
241	0xbdb17a86	-0.086659476
242	0xbd94f927	-0.072740845
243	0x3d932e93	0.07186618
244	0x3de686ef	0.11256205
245	0x3d103bd2	0.0352133
246	0x3ca009af	0.019535867
247	0x3d49b132	0.049241252
248	0x3dd7ca95	0.10536686
249	0x3d19fed0	0.037596524
250	0xbe209a28	-0.15683806
251	0xbc6224ab	-0.013802688
252	0x3dc8d37b	0.09805962
253	0xbda0b5bc	-0.07847163
254	0x3de1ae3d	0.110195614
255	0x3d19b8f0	0.037529886

net.2.scale f4 [64, 64]
0	0x3f7f7cfb	0.9980008
1	0x3f804188	1.0019999
2	0x3f804190	1.0020008
3	0x3f7f935a	0.99834216
4	0x3f80418d	1.0020005
5	0x3f804192	1.002001
6	0x3f80418b	1.0020002
7	0x3f7f7cd9	0.9979988
8	0x3f80417b	1.0019983
9	0x3f7f7cf8	0.9980006
10	0x3f7f7cfc	0.99800086
11	0x3f7f7ce8	0.99799967
12	0x3f80418d	1.0020005
13	0x3f7f7cf0	0.99800014
14	0x3f80418c	1.0020003
15	0x3f7f7cdc	0.99799895
16	0x3f803f80	1.0019379
17	0x3f804190	1.0020008
18	0x3f80418f	1.0020007
19	0x3f80418f	1.0020007
20	0x3f80418b	1.0020002
21	0x3f7f7cf5	0.99800044
22	0x3f7f7cf2	0.99800026
23	0x3f80418e	1.0020006
24	0x3f804191	1.0020009
25	0x3f804155	1.0019938
26	0x3f80418d	1.0020005
27	0x3f804187	1.0019997
28	0x3f804186	1.0019996
29	0x3f7f7ce8	0.99799967
30	0x3f7f7d02	0.9980012
31	0x3f7f7cf8	0.9980006
32	0x3f7f8034	0.99805
33	0x3f7f7ce5	0.9979995
34	0x3f80418a	1.0020001
35	0x3f80418b	1.0020002
36	0x3f7f7cf3	0.9980003
37	0x3f7f7cec	0.9979999
38	0x3f804187	1.0019997
39	0x3f7f7cf1	0.9980002
40	0x3f804185	1.0019995
41	0x3f7f7cf8	0.9980006
42	0x3f80418e	1.0020006
43	0x3f80418f	1.0020007
44	0x3f80418c	1.0020003
45	0x3f80417d	1.0019985
46	0x3f80418d	1.0020005
47	0x3f80418e	1.0020006
48	0x3f80418b	1.0020002
49	0x3f7f7ce4	0.9979994
50	0x3f7f7d10	0.99800205
51	0x3f804147	1.0019921
52	0x3f7f7d0c	0.9980018
53	0x3f7f7cef	0.9980001
54	0x3f80418d	1.0020005
55	0x3f80418c	1.0020003
56	0x3f7f7cf5	0.99800044
57	0x3f80418f	1.0020007
58	0x3f80418f	1.0020007
59	0x3f80418d	1.0020005
60	0x3f7f7d7b	0.99800843
61	0x3f804190	1.0020008
62	0x3f80418d	1.0020005
63	0x3f7f7cea	0.9979998
64	0x3f804188	1.0019999
65	0x3f7f7ced	0.99799997
66	0x3f7f7ce2	0.9979993
67	0x3f7f7cde	0.9979991
68	0x3f7fd448	0.9993329
69	0x3f7f7cfa	0.99800074
70	0x3f7f7cee	0.998
71	0x3f7f7ced	0.99799997
72	0x3f80418c	1.0020003
73	0x3f7f7cd9	0.9979988
74	0x3f7f7ce0	0.9979992
75	0x3f80418b	1.0020002
76	0x3f804191	1.0020009
77	0x3f7f7d8c	0.99800944
78	0x3f80418f	1.0020007
79	0x3f7f7cee	0.998
80	0x3f7f7ce1	0.99799925
81	0x3f804190	1.0020008
82	0x3f804126	1.0019882
83	0x3f7f7cdf	0.99799913
84	0x3f7f7ce1	0.99799925
85	0x3f7f7cdc	0.99799895
86	0x3f80418f	1.0020007
87	0x3f7f7cde	0.9979991
88	0x3f7f7cdf	0.99799913
89	0x3f80418f	1.0020007
90	0x3f80418f	1.0020007
91	0x3f7f7ce2	0.9979993
92	0x3f7f7ce4	0.9979994
93	0x3f7f7ce7	0.9979996
94	0x3f80418d	1.0020005
95	0x3f7f7cda	0.99799883
96	0x3f7f7ce2	0.9979993
97	0x3f804106	1.0019844
98	0x3f80418e	1.0020006
99	0x3f804190	1.0020008
100	0x3f80417e	1.0019987
101	0x3f7f7ce2	0.9979993
102	0x3f7f7cdb	0.9979989
103	0x3f7f7cf3	0.9980003
104	0x3f804192	1.002001
105	0x3f7f7ed8	0.99802923
106	0x3f804191	1.0020009
107	0x3f804190	1.0020008
108	0x3f7f7ce1	0.99799925
109	0x3f7f7d13	0.99800223
110	0x3f7f7cde	0.9979991
111	0x3f804183	1.0019993
112	0x3f7f7cde	0.9979991
113	0x3f804176	1.0019977
114	0x3f7f7de0	0.99801445
115	0x3f80418f	1.0020007
116	0x3f7f7cea	0.9979998
117	0x3f7f7ce0	0.9979992
118	0x3f7f7ce3	0.99799937
119	0x3f804192	1.002001
120	0x3f80418f	1.0020007
121	0x3f7f7cdd	0.997999
122	0x3f80417e	1.0019987
123	0x3f804191	1.0020009
124	0x3f7f7d19	0.9980026
125	0x3f7fda69	0.9994264
126	0x3f804191	1.0020009
127	0x3f80418c	1.0020003
128	0x3f8040fc	1.0019832
129	0x3f7f7d35	0.99800426
130	0x3f7f7f2e	0.99803436
131	0x3f8040e7	1.0019807
132	0x3f7f7d92	0.9980098
133	0x3f7f7ec8	0.9980283
134	0x3f7f7ce6	0.99799955
135	0x3f7f87dc	0.9981668
136	0x3f7f7d02	0.9980012
137	0x3f7f7d1e	0.9980029
138	0x3f80268d	1.0011765
139	0x3f7f7dce	0.9980134
140	0x3f7f7cf3	0.9980003
141	0x3f7f7d81	0.9980088
142	0x3f80412b	1.0019888
143	0x3f804185	1.0019995
144	0x3f8040b7	1.0019749
145	0x3f804097	1.0019711
146	0x3f80415a	1.0019944
147	0x3f7f7d6d	0.9980076
148	0x3f7f84ba	0.998119
149	0x3f7f7d8d	0.9980095
150	0x3f80418a	1.0020001
151	0x3f8040a8	1.0019732
152	0x3f7f7cd8	0.9979987
153	0x3f804080	1.0019684
154	0x3f7f7ebf	0.99802774
155	0x3f7f8166	0.9980682
156	0x3f804188	1.0019999
157	0x3f7f7cef	0.9980001
158	0x3f7f7cf3	0.9980003
159	0x3f7f7d5c	0.9980066
160	0x3f7f7e5e	0.99802196
161	0x3f804159	1.0019943
162	0x3f7f7cd5	0.99799854
163	0x3f804133	1.0019897
164	0x3f804183	1.0019993
165	0x3f804183	1.0019993
166	0x3f80415b	1.0019945
167	0x3f7f7cd9	0.9979988
168	0x3f804155	1.0019938
169	0x3f804191	1.0020009
170	0x3f804190	1.0020008
171	0x3f804181	1.001999
172	0x3f803f2d	1.001928
173	0x3f7f7cd7	0.99799865
174	0x3f804139	1.0019904
175	0x3f80418b	1.0020002
176	0x3f803fac	1.0019431
177	0x3f804187	1.0019997
178	0x3f804188	1.0019999
179	0x3f804103	1.001984
180	0x3f8040d9	1.001979
181	0x3f7f7dc5	0.99801284
182	0x3f804179	1.0019981
183	0x3f7f7fb2	0.9980422
184	0x3f7f7efd	0.99803144
185	0x3f7f7f03	0.9980318
186	0x3f8040f6	1.0019825
187	0x3f804180	1.0019989
188	0x3f804176	1.0019977
189	0x3f804149	1.0019923
190	0x3f7f7ce4	0.9979994
191	0x3f804091	1.0019704
192	0x3f7f7cf2	0.99800026
193	0x3f80415a	1.0019944
194	0x3f803ff9	1.0019523
195	0x3f7f89eb	0.9981982
196	0x3f8040f4	1.0019822
197	0x3f7f7dce	0.9980134
198	0x3f804142	1.0019915
199	0x3f7f7ce5	0.9979995
200	0x3f804190	1.0020008
201	0x3f804177	1.0019978
202	0x3f8040d9	1.001979
203	0x3f7f96de	0.9983958
204	0x3f7f7cf0	0.99800014
205	0x3f7f7d68	0.9980073
206	0x3f804160	1.0019951
207	0x3f804184	1.0019994
208	0x3f7f7e49	0.9980207
209	0x3f7f7e2f	0.99801916
210	0x3f7f7cdd	0.997999
211	0x3f7f7d73	0.99800795
212	0x3f7f7d5e	0.9980067
213	0x3f7f7d7d	0.99800855
214	0x3f7f7cfc	0.99800086
215	0x3f7f7d0c	0.9980018
216	0x3f7f98aa	0.9984232
217	0x3f7f7d74	0.998008
218	0x3f803dba	1.0018837
219	0x3f7f7d21	0.99800307
220	0x3f804158	1.0019941
221	0x3f7f7cf0	0.99800014
222	0x3f7f7cda	0.99799883
223	0x3f7f7d17	0.99800247
224	0x3f8037ef	1.001707
225	0x3f80418a	1.0020001
226	0x3f804190	1.0020008
227	0x3f804125	1.001988
228	0x3f7f8771	0.9981604
229	0x3f7f7cd9	0.9979988
230	0x3f80417e	1.0019987
231	0x3f7f7cd8	0.9979987
232	0x3f803e86	1.0019081
233	0x3f80415f	1.001995
234	0x3f804170	1.001997
235	0x3f7f7df5	0.9980157
236	0x3f7f80dc	0.99806
237	0x3f804190	1.0020008
238	0x3f8039b2	1.0017607
239	0x3f804141	1.0019914
240	0x3f7f7df4	0.99801564
241	0x3f804181	1.001999
242	0x3f7f7cdb	0.9979989
243	0x3f804186	1.0019996
244	0x3f7f7d66	0.9980072
245	0x3f7f860c	0.99813914
246	0x3f80418f	1.0020007
247	0x3f7f7da5	0.99801093
248	0x3f803f8e	1.0019395
249	0x3f804111	1.0019857
250	0x3f7f7e2a	0.99801886
251	0x3f8040d2	1.0019782
252	0x3f804147	1.0019921
253	0x3f7f7d55	0.99800617
254	0x3f804180	1.0019989
255	0x3f7f7e6b	0.99802274

net.2.base_weight f4 [64, 64]
0	0x3e62bdea	0.22142759
1	0xbd103de3	-0.03521527
2	0xbda74aa4	-0.081685334
3	0x3e4db869	0.20089878
4	0x3be0a3fe	0.006855487
5	0x3d9be301	0.07611657
6	0x3e0e6eb5	0.13909419
7	0x3d346e57	0.04405054
8	0xbd10d411	-0.035358492
9	0x3d865197	0.06558531
10	0x3b9903bd	0.004669635
11	0xbdb8ae4d	-0.0901762
12	0xbb05f026	-0.002043733
13	0x3cddaf4d	0.027061129
14	0x3d9f3246	0.07773261
15	0x3c7fe0ee	0.015617592
16	0x3dcc5b2e	0.09978329
17	0xbc30fd36	-0.010802558
18	0xbd3892e4	-0.04506196
19	0xbd12ad41	-0.03580976
20	0x3db7bdcd	0.089717485
21	0xbe9426ca	-0.28935844
22	0x3e24085c	0.16018814
23	0xbd154645	-0.036443967
24	0xbe0678d7	-0.13132034
25	0x3e1ecbf7	0.15507494
26	0xbd4ca327	-0.04996028
27	0xbe880e0c	-0.26573217
28	0xbe3c0126	-0.18359813
29	0x3d9d714a	0.07687624
30	0xbe356e9d	-0.17717977
31	0xbe3ee3ef	-0.18641637
32	0x3e7efd39	0.24901284
33	0xbcfe7972	-0.031063769
34	0x3d26f6b5	0.040762622
35	0x3e11038d	0.14161511
36	0x3d07bc8c	0.033138797
37	0xbce9db9a	-0.028547097
38	0xbdf9b519	-0.12192745
39	0x3d07aed9	0.033125732
40	0x3d68402c	0.056701824
41	0x3ce8fcc7	0.028440846
42	0x3d482ce1	0.048870925
43	0x3dbf2a11	0.093341954
44	0xbd893bac	-0.06700835
45	0xbd8ec2d6	-0.06970756
46	0x3adcb65b	0.0016839014
47	0xbd8a06ae	-0.06739555
48	0xbd6cf7ec	-0.057853624
49	0x3d12e6e3	0.035864722
50	0x3df6044a	0.12012537
51	0xbcdd9193	-0.027046954
52	0x3e392443	0.18080239
53	0xbcac853f	-0.02105963
54	0x3e087dc1	0.13329221
55	0x3c336e87	0.010951645
56	0xbe8cb819	-0.27484205
57	0xbdb1c31b	-0.086797915
58	0xbd02977d	-0.03188275
59	0x3bb9104a	0.0056476938
60	0x3d11a608	0.03555873
61	0x3e46facf	0.19431613
62	0xbda77a4f	-0.081776254
63	0xbc8520fb	-0.016251078
64	0x3dc9f0e1	0.09860397
65	0x3df3bd2e	0.119013175
66	0xbdf4ed80	-0.11959362
67	0xbae9e409	-0.0017844449
68	0x3d52cd24	0.05146517
69	0xbb9f2004	-0.0048561115
70	0x3d6564a1	0.05600417
71	0xbdea91af	-0.11453568
72	0xbd15f7c2	-0.036613233
73	0x3c9d7b49	0.019223826
74	0xbd7c8cb0	-0.061657608
75	0xbe833b80	-0.25631332
76	0xbd88e748	-0.066847384
77	0xbdd30f23	-0.103056215
78	0x3cc5c38d	0.024141097
79	0xbd296e44	-0.041364923
80	0xbdb5703c	-0.08859298
81	0x3e343a55	0.17600377
82	0xbda24899	-0.07924003
83	0xbc20d46e	-0.009816272
84	0x3d3e92e9	0.046526823
85	0xba0a6712	-0.0005279641
86	0xbb775d15	-0.003774469
87	0x3de70756	0.11280696
88	0xbe475c8f	-0.19468902
89	0xbcc8587c	-0.024456255
90	0x3d19ce9d	0.037550557
91	0x3d783479	0.060596917
92	0x3dd075c1	0.1017871
93	0xbd43735c	-0.047717437
94	0xbd16e544	-0.03683974
95	0xbd826a67	-0.06367951
96	0xbbebfa78	-0.007201489
97	0xbded2780	-0.115798
98	0x3e07955d	0.13240571
99	0xbbe96f0c	-0.0071238335
100	0x3c168152	0.009186106
101	0x3cf16a75	0.029469708
102	0x3d76fdc1	0.060300592
103	0x3c93e89b	0.01805525
104	0x3d532c2e	0.051555805
105	0xbe3ba279	-0.18323697
106	0x3dd5cdf1	0.10439671
107	0x3db4b885	0.08824257
108	0x3c2e2e76	0.010631194
109	0xbdbd22a9	-0.092351265
110	0xbe1bf924	-0.15231758
111	0xbdf9243a	-0.12165113
112	0x3ddafbc3	0.10692551
113	0xbd141130	-0.036149204
114	0x3e089e60	0.13341665
115	0xbcec0cf0	-0.028814763
116	0x3c7f6641	0.015588344
117	0x3db3d4c9	0.0878082
118	0x3d335fe5	0.043792624
119	0x3e300283	0.17188458
120	0xbcf77376	-0.030206423
121	0xbdb8260a	-0.089916304
122	0x3cdbf45a	0.026849914
123	0x3d277119	0.040879343
124	0x3d2c0b3c	0.0420029
125	0x3d84b111	0.06479085
126	0xbdd42d26	-0.10360174
127	0x3d779088	0.06044057
128	0x3da77ccd	0.08178101
129	0x3dc2a4c2	0.09504081
130	0x3deba881	0.11506749
131	0x3e8297b5	0.25506368
132	0x3d11fb7f	0.035640236
133	0xbe835a9f	-0.25655076
134	0x3d86c246	0.065800235
135	0x3d7289dc	0.059213504
136	0xbcd36ac8	-0.025807753
137	0x3d3dd8b1	0.04634923
138	0xbcfd762f	-0.030940143
139	0xbc96ec5d	-0.018423254
140	0x3da4602c	0.08026156
141	0x3e3f30e9	0.18671001
142	0xbd8f4368	-0.069952786
143	0x3d701f7d	0.05862378
144	0x3b5bbc11	0.0033528844
145	0xbce610f7	-0.028084261
146	0xbdfe999c	-0.124316424
147	0x3d2a3565	0.041554827
148	0x3d634111	0.055481974
149	0xbd1a130e	-0.03761583
150	0xbdd9c940	-0.106340885
151	0xbe31495b	-0.17313139
152	0x3d417973	0.047234964
153	0x3ddf9886	0.109177634
154	0xbccba20d	-0.024857545
155	0x3deb563e	0.11491059
156	0x3d72051e	0.05908691
157	0xbd90e3ae	-0.070746765
158	0x3de74709	0.11292846
159	0x3df59dbe	0.119929776
160	0x3db1dcdc	0.08684704
161	0xbca878c1	-0.020565392
162	0x3c180d3d	0.0092805
163	0x3dc56c67	0.09639817
164	0xbd31ae22	-0.043378957
165	0xbd7a11f6	-0.061052285
166	0xbdd222a3	-0.10260513
167	0xbd98cb24	-0.07460621
168	0x3e8f7dea	0.28025752
169	0x3d8550a6	0.06509523
170	0xbe7f3404	-0.24922186
171	0x3c05b199	0.008160018
172	0xbe1c32b0	-0.15253711
173	0xbd34eaef	-0.044169363
174	0xbe0a36fa	-0.13497534
175	0x3dee8a60	0.11647487
176	0xbd98a74e	-0.07453786
177	0xbd67a801	-0.056556705
178	0x3cda4984	0.026646383
179	0xbd777cea	-0.06042186
180	0x3cc87c3e	0.024473306
181	0xbe8a95e0	-0.2706747
182	0xbb24e1df	-0.0025159044
183	0x3d43613d	0.047700156
184	0x3d98245f	0.07428812
185	0x3cccac28	0.024984434
186	0xbda324e5	-0.079660214
187	0x3d98fe1d	0.07470343
188	0x3cc0294f	0.023457197
189	0x3c9f2cf4	0.019430615
190	0xbe369919	-0.1783184
191	0xbe2187b3	-0.15774421
192	0x3d81cf45	0.06338362
193	0x3d4215e8	0.047384173
194	0x3e505887	0.2034627
195	0xbcb87e53	-0.022521174
196	0x3b983862	0.004645393
197	0xbe0a2ec1	-0.13494398
198	0x3c0b7059	0.0085106725
199	0xbc5c8f14	-0.013461847
200	0xbc9a466a	-0.018832404
201	0xbd1d06bf	-0.03833651
202	0xbd01f572	-0.031728216
203	0xbd81a80e	-0.06330882
204	0x3d5a5fa3	0.053313863
205	0xbd14dfd2	-0.036346264
206	0xbc5ad616	-0.013356706
207	0xbdead742	-0.114668384
208	0x3e2e6dde	0.17034099
209	0x3e2af452	0.16694763
210	0xbdd4cc79	-0.103905626
211	0x3dc8d46d	0.09806142
212	0xbdfac305	-0.12244228
213	0xbdc0625f	-0.09393763
214	0xbc187a06	-0.009306436
215	0x3d84cc0b	0.064842306
216	0x3dbb54a0	0.09147
217	0x3e13c1f4	0.14429456
218	0xbd9c3dfc	-0.0762901
219	0x3c253267	0.010082818
220	0xbc3bc8bb	-0.011461432
221	0xbdbc80bd	-0.092042424
222	0xbde5f6eb	-0.112287365
223	0xbe2ad02a	-0.16680971
224	0xb917ec30	-0.00014488469
225	0x3df4ccf7	0.119531564
226	0xbe36d8a6	-0.17856082
227	0x3df9d987	0.12199693
228	0x3d8a57ee	0.067550525
229	0x3d78621a	0.060640432
230	0x3d300117	0.04296979
231	0x3d530749	0.05152062
232	0xbded2f8a	-0.11581333
233	0xbd2ea98f	-0.042642172
234	0xbd7bd89a	-0.061485864
235	0xbd7fa257	-0.06241068
236	0x3d6bd861	0.057579402
237	0x3da95bfc	0.08269498
238	0x3e0d54ea	0.13801923
239	0xbcf6643e	-0.030077096
240	0x3d80e297	0.062932186
241	0xbca41e1d	-0.02003389
242	0xbb726f30	-0.0036992542
243	0xbe0de128	-0.13855422
244	0x3af582ea	0.0018731032
245	0x3c16b16e	0.009197576
246	0x3db0b826	0.086288735
247	0xbc09e921	-0.008417399
248	0x3e300673	0.1718996
249	0x3df094d8	0.1174714
250	0xbe741d4a	-0.23839298
251	0xbd267d92	-0.040647097
252	0x3d1a3612	0.03764922
253	0xbe2ba437	-0.16761862
254	0xbda0c7f4	-0.07850638
255	0x3c4e9881	0.012609602

net.2.grid_points f4 [5]
0	0xc0000000	-2.0
1	0xbf800000	-1.0
2	0x00000000	0.0
3	0x3f800000	1.0
4	0x40000000	2.0

net.3.coeff f4 [1, 64, 5]
0	0xbe2f776d	-0.17135401
1	0xbcf62cb7	-0.030050619
2	0xbe1f0a9e	-0.15531394
3	0x3df1611d	0.11786101
4	0xbd94f879	-0.07273955
5	0xbdb077cd	-0.086166
6	0x3d2d0ba1	0.04224742
7	0x3c879df4	0.01655481
8	0xbdc439c6	-0.09581332
9	0xbb840eff	-0.004030108
10	0xbdc9e682	-0.09858419
11	0x3dfaf664	0.122540265
12	0x3e0070b1	0.12542988
13	0x3e0d70bf	0.1381254
14	0x3cbe8625	0.023257324
15	0xbd041fe4	-0.032256976
16	0xbdd99eef	-0.10626017
17	0x3dbdb5d7	0.09263199
18	0xbb803012	-0.0039119804
19	0x3ca2a42e	0.019853678
20	0xbd928901	-0.07155038
21	0x3cf5d0dd	0.03000682
22	0xbd50eb79	-0.051005814
23	0xbe32b1ff	-0.17450713
24	0x3e41e6bc	0.18935674
25	0xbc87fbb5	-0.016599515
26	0x3d4c1f94	0.049834803
27	0x3ca4a723	0.020099228
28	0xbe077d45	-0.1323138
29	0x3d94a7fe	0.072586045
30	0xbdec80c6	-0.11547999
31	0xbe10938f	-0.14118789
32	0xbcf5a94a	-0.02998795
33	0xbdefc593	-0.11707606
34	0xbd9a6f1f	-0.07540726
35	0xbddb89bb	-0.107196294
36	0x3d1229e8	0.035684496
37	0xbb57205f	-0.003282569
38	0xbd2be38a	-0.041965045
39	0x3e843644	0.2582265
40	0xbe0cadd1	-0.1373818
41	0x3d3eb510	0.046559393
42	0x3ce9d298	0.028542802
43	0x3d905c11	0.0704881
44	0x3d719ffb	0.05899046
45	0x3b4d564b	0.0031331952
46	0xbd794a54	-0.0608619
47	0xbc11e748	-0.008905239
48	0x3e068c21	0.13139392
49	0xbb294fec	-0.002583499
50	0xbd487bcc	-0.048946187
51	0xbcca2970	-0.024677962
52	0x3c85d134	0.016335107
53	0x3d001d18	0.031277746
54	0xbd2cafb7	-0.042159762
55	0x3d5a25a7	0.053258564
56	0x3c795269	0.015217402
57	0x3e323e19	0.17406501
58	0xbd96a802	-0.07356264
59	0xbe201b55	-0.15635426
60	0x3c191e40	0.009345591
61	0xbe016d67	-0.1263939
62	0xbd456eba	-0.0482013
63	0xbdd034b9	-0.10166306
64	0xbe1bbaa0	-0.1520791
65	0x3d290a50	0.0412696
66	0x3e405a63	0.1878448
67	0x3db4005f	0.08789133
68	0xbe0ee383	-0.13953976
69	0xbe3e6235	-0.1859215
70	0x3d733d9b	0.059384923
71	0xbcee31ae	-0.029076423
72	0x3e060537	0.13087927
73	0xbdf6aa4d	-0.12044201
74	0x3d5159cf	0.05111104
75	0x3d7ae40e	0.061252646
76	0x3cb614eb	0.022226771
77	0x3c761ba8	0.015021242
78	0x3e557314	0.2084468
79	0xbe34ccb0	-0.17656207
80	0xbd2e902e	-0.04261797
81	0xbd4bd91f	-0.04976761
82	0x3e1ac867	0.1511551
83	0xbd989cfc	-0.074518174
84	0xbd927be1	-0.07152534
85	0x3d0e67ae	0.034766845
86	0xbdb02d5e	-0.08602403
87	0x3dc1de62	0.09466244
88	0x3e1f24d6	0.15541396
89	0xbcea30cf	-0.028587727
90	0x3e0b34e2	0.13594392
91	0xbd82ccdd	-0.06386731
92	0x3bd2f54c	0.006437933
93	0x3e07f4d0	0.13276982
94	0xbd1a7aba	-0.037714697
95	0x3da9136d	0.08255658
96	0x3e0094c4	0.1255675
97	0xbd646b01	-0.05576611
98	0x3d81efab	0.06344541
99	0x3e247f46	0.16064176
100	0xbcd466bb	-0.025927892
101	0x3dccd1e6	0.100009724
102	0xbb3941ef	-0.002826806
103	0x3d82a072	0.06378259
104	0x3dbe5e7d	0.09295366
105	0x3e4be8c3	0.1991301
106	0xbe60c11b	-0.21948664
107	0xbe6e6f50	-0.2328465
108	0xbd623342	-0.055224665
109	0xbd5a62de	-0.053316943
110	0x3d95972c	0.07304224
111	0x3da80846	0.08204703
112	0x3e41fe36	0.1894463
113	0xbc2487c2	-0.010042133
114	0x3d8b2ef1	0.06796063
115	0xbd7c99db	-0.061670166
116	0x3daa05be	0.083018765
117	0xbe833805	-0.25628677
118	0x3d0c63e1	0.03427494
119	0x3ba61d22	0.005069391
120	0xbe0204a0	-0.12697077
121	0xbd3d4ab1	-0.04621381
122	0xbe3ed6be	-0.18636605
123	0xbd797f5a	-0.060912468
124	0xbe196a6c	-0.14982003
125	0xbdf30a83	-0.11867239
126	0x3de19aff	0.11015891
127	0x3c30b8c5	0.01078624
128	0xbd796b13	-0.06089313
129	0xbdd2fbab	-0.10301908
130	0x3e847035	0.25866857
131	0x3e49e9eb	0.19718139
132	0xbe292b7a	-0.16520491
133	0x3e577d05	0.21043785
134	0xbe24d821	-0.16098072
135	0xbc5e568f	-0.013570442
136	0x3e512117	0.20422779
137	0x3cbc206b	0.022964677
138	0x3e36b05a	0.1784071
139	0x3daf948c	0.08573255
140	0xbd46ab71	-0.048503343
141	0x3c18a380	0.009316325
142	0xbda62a00	-0.081134796
143	0x3cfb66ec	0.030688725
144	0xbdb5377f	-0.08848476
145	0xbe0e31a3	-0.13886122
146	0x3c384945	0.011247938
147	0xbda7d0a1	-0.0819409
148	0xbd25742d	-0.040393997
149	0xbdbf6038	-0.09344524
150	0xbcd8e11b	-0.026474526
151	0xbc6e5041	-0.014545501
152	0x3cf41a0e	0.02979758
153	0xbcbe7780	-0.023250341
154	0x3da8c136	0.08239977
155	0xbceaf2e7	-0.028680278
156	0xbb24840e	-0.0025103125
157	0xbca99f23	-0.020705765
158	0x3d97d902	0.07414438
159	0x3e344308	0.17603695
160	0x3dbfa7e5	0.09358195
161	0x3d98cee0	0.07461333
162	0x3d649c04	0.05581285
163	0xbd33e2da	-0.043917514
164	0xbe0dee87	-0.13860522
165	0x3dabf889	0.08397014
166	0xbc654382	-0.013993146
167	0xbcdbd1b2	-0.026833389
168	0x3dfbb60b	0.12290581
169	0xbe1088bd	-0.14114662
170	0x3e35b71c	0.17745632
171	0xbc03309a	-0.008007193
172	0xbcf252f7	-0.029580576
173	0x3d8371e1	0.06418205
174	0xbdeeacdc	-0.11654064
175	0x3d9ccb85	0.07656006
176	0x3e052181	0.13001062
177	0x3d86a443	0.06574299
178	0x3d9374e4	0.072000295
179	0x3c5d5e17	0.013511202
180	0x3dba96ec	0.09110817
181	0xbe309a6e	-0.1724641
182	0xba9b8237	-0.0011864369
183	0xbdcc77be	-0.099837765
184	0x3ac95bc5	0.0015362432
185	0xbc2cafe9	-0.010539987
186	0xbdd44bd8	-0.103660285
187	0xb93dcd00	-0.00018100813
188	0xbc867ff2	-0.016418431
189	0x3cc0d6f0	0.02353999
190	0xbd647127	-0.055771973
191	0x3da1b9fd	0.078968026
192	0xbc1899bd	-0.009313998
193	0xbdd3b724	-0.10337666
194	0xbc066d25	-0.008204733
195	0xbd4b6d22	-0.049664624
196	0x3c8dcaa2	0.017308537
197	0x3de8b178	0.113619745
198	0xbe3ba190	-0.1832335
199	0xbe9464f1	-0.28983262
200	0xbdbe33d8	-0.09287232
201	0xbc7e7631	-0.015531109
202	0xbca86aba	-0.020558704
203	0x3d78f5fb	0.06078146
204	0x3d44774b	0.04796533
205	0x3e255913	0.1614726
206	0xbd72ed0e	-0.059308104
207	0xbd9e3855	-0.07725588
208	0xba850fbd	-0.0010151785
209	0x3e045db7	0.12926374
210	0x3dadda41	0.08488894
211	0x3e175d78	0.14781749
212	0x3db73208	0.089450896
213	0x3a34d13c	0.00068976334
214	0xbcbc4282	-0.022980932
215	0x3dbdbcc2	0.09264518
216	0xbe07af83	-0.13250546
217	0xbd63c2f8	-0.05560586
218	0xbcf61588	-0.030039564
219	0xbc4bcd84	-0.012439135
220	0x3d5ce77b	0.053931694
221	0xbe1e967a	-0.1548709
222	0xbe54c881	-0.20779611
223	0xbd1ec7cd	-0.038764764
224	0x3c36eab0	0.011164352
225	0xbdb679fb	-0.08909985
226	0x3d9a31b5	0.07529012
227	0x3e04d1fb	0.12970726
228	0xbdab19bf	-0.0835452
229	0x3d3be8a1	0.04587615
230	0xbcf6f7ee	-0.030147519
231	0x3d15ca22	0.036569722
232	0xbcef59af	-0.02921757
233	0x3e49cce0	0.1970706
234	0x3d0f458d	0.03497844
235	0x3d1cb78d	0.038260985
236	0x3d483d95	0.048886854
237	0xbe47a776	-0.19497475
238	0xbbfff819	-0.007811558
239	0xbd275398	-0.040851206
240	0xbdd5f411	-0.104469426
241	0xbbdcf9e1	-0.006743655
242	0x3c4dddda	0.012565101
243	0xbe4008ad	-0.1875331
244	0x3c1d7239	0.009609752
245	0x3dbfdefb	0.09368702
246	0xbd9ff7f3	-0.078109644
247	0x3d87bebd	0.06628177
248	0x3cedf234	0.029046156
249	0xbdc14357	-0.09436672
250	0xbbec050e	-0.007202751
251	0xbe1ce7ca	-0.15322796
252	0xbd1ae32d	-0.037814308
253	0x3d30bd41	0.043149237
254	0xbd1b1d69	-0.037869845
255	0xbd86cc54	-0.06581941

net.3.scale f4 [1, 64]
0	0x3f7f846b	0.9981143
1	0x3f80409d	1.0019718
2	0x3f7f7ded	0.9980152
3	0x3f804191	1.0020009
4	0x3f80418c	1.0020003
5	0x3f7f7f20	0.9980335
6	0x3f8040fc	1.0019832
7	0x3f7f7ce1	0.99799925
8	0x3f7f848d	0.9981163
9	0x3f7f7f00	0.9980316
10	0x3f7f7fae	0.998042
11	0x3f803b37	1.0018071
12	0x3f80409b	1.0019716
13	0x3f804160	1.0019951
14	0x3f7fe987	0.9996571
15	0x3f7f7ed0	0.99802876
16	0x3f80410b	1.001985
17	0x3f7f7d52	0.998006
18	0x3f7f8a9f	0.99820894
19	0x3f7f9231	0.99832445
20	0x3f804115	1.0019861
21	0x3f80417f	1.0019988
22	0x3f7f7e79	0.99802357
23	0x3f80415c	1.0019946
24	0x3f80417b	1.0019983
25	0x3f7f7d56	0.9980062
26	0x3f80417f	1.0019988
27	0x3f80418b	1.0020002
28	0x3f804187	1.0019997
29	0x3f8040f7	1.0019826
30	0x3f7f7f7e	0.9980391
31	0x3f7f7d99	0.9980102
32	0x3f7f9d01	0.99848944
33	0x3f804188	1.0019999
34	0x3f804137	1.0019902
35	0x3f7f7d2c	0.9980037
36	0x3f7f7cf0	0.99800014
37	0x3f803fa7	1.0019425
38	0x3f80418f	1.0020007
39	0x3f7f8631	0.99814135
40	0x3f7f7cd9	0.9979988
41	0x3f80418f	1.0020007
42	0x3f7f7d9f	0.9980106
43	0x3f80417d	1.0019985
44	0x3f7f8368	0.99809885
45	0x3f7f7e32	0.99801934
46	0x3f7fcb39	0.9991947
47	0x3f7f7dfd	0.9980162
48	0x3f804190	1.0020008
49	0x3f8040f4	1.0019822
50	0x3f80418d	1.0020005
51	0x3f80405d	1.0019642
52	0x3f80410f	1.0019854
53	0x3f804192	1.002001
54	0x3f7f7df1	0.99801546
55	0x3f7f7d0e	0.99800193
56	0x3f80412d	1.001989
57	0x3f7f7dda	0.9980141
58	0x3f80418f	1.0020007
59	0x3f7fd565	0.9993499
60	0x3f7f7e3e	0.99802005
61	0x3f804026	1.0019577
62	0x3f7f7cdb	0.9979989
63	0x3f8040f4	1.0019822

net.3.base_weight f4 [1, 64]
0	0xbc462921	-0.012094767
1	0x394b3f48	0.00019383163
2	0x3d8fa7fa	0.07014461
3	0xbd9d624a	-0.07684763
4	0xbe2305fd	-0.15920253
5	0x3da7e6da	0.08198328
6	0xbe11ac7f	-0.14225958
7	0x3daaa948	0.08333069
8	0xbca7ec82	-0.020498518
9	0xbdf034f2	-0.117288485
10	0x3d807512	0.062723294
11	0x3cf2714f	0.029595045
12	0x3d5116c6	0.05104711
13	0x3d820c51	0.063500054
14	0xbcff6b16	-0.031178992
15	0x3be2e2e5	0.0069240206
16	0x3d097249	0.033556256
17	0xbdd116a8	-0.102093995
18	0x3c4dfbd6	0.012572249
19	0xbdeaad4f	-0.11458837
20	0x3e532dae	0.20622894
21	0xbdf1fee0	-0.11816192
22	0x3d9b2172	0.075747386
23	0x3e4c33dc	0.19941658
24	0xbd719ab9	-0.058985446
25	0xbd5b7437	-0.053577628
26	0xbd7c604c	-0.061615273
27	0xbe317574	-0.17329961
28	0x3d767011	0.06016547
29	0xbd7fbefc	-0.062437996
30	0xbd4a7439	-0.049427245
31	0x3d0b2389	0.033969436
32	0xbe29c749	-0.16579928
33	0x3e825012	0.25451714
34	0xbdaae9d7	-0.08345383
35	0x3d8d2164	0.068911344
36	0xbced0963	-0.02893514
37	0x3c359476	0.011082759
38	0xbe825f42	-0.254633
39	0x3d6995e3	0.05702771
40	0xbe5d8f39	-0.21636666
41	0xbc40cd67	-0.011767722
42	0x3b97c28c	0.004631346
43	0xbdb2fa72	-0.08739175
44	0xbd81b524	-0.06333378
45	0xbd481bdb	-0.04885469
46	0xbdb6ffff	-0.08935546
47	0xbe1fe38a	-0.15614143
48	0xbcc5f9cf	-0.02416697
49	0x3b9e4cd9	0.0048309383
50	0xbe2b1c9e	-0.16710135
51	0x3e1648c3	0.14676194
52	0xbdf35a00	-0.118824005
53	0x3d849594	0.06473842
54	0x3d0d9d55	0.03457387
55	0x3c33b92b	0.01096944
56	0x3d9f3ce1	0.077752836
57	0x3a68093a	0.00088514725
58	0x3cb22a7a	0.02174877
59	0x3e018b85	0.12650879
60	0xbca008f6	-0.019535523
61	0xbad2fded	-0.0016097404
62	0xbd84d564	-0.064860135
63	0x3e71e506	0.23622522

net.3.grid_points f4 [5]
0	0xc0000000	-2.0
1	0xbf800000	-1.0
2	0x00000000	0.0
3	0x3f800000	1.0
4	0x40000000	2.0
