data/trained_models/base_rho_a_kan.pth (torch, 138786 bytes, 12 tensors)

net.0.coeff f4 [64, 10, 5]
-0.12077684 0.067952 -0.021222586 0.124168605 -0.046450067 0.047998674 -0.018702319 0.045687955
-0.007085436 0.06792382 -0.26749822 -0.042104345 0.13096336 0.10036584 -0.008261169 -0.046046738
0.0082693705 -0.06680546 0.046571936 0.01829521 -0.027833128 -0.047190797 -0.23239858 -0.023160836
0.024219615 0.16239329 -0.109980226 0.030628314 -0.0050626514 -0.07426149 0.13031206 0.025440702
-0.00785294 -0.10357832 -0.14592189 -0.060133398 0.091276236 -0.046571672 -0.0024851444 0.26668411
0.09268818 -0.021657106 0.06048626 0.06830645 0.083382405 -0.09409299 -0.058474135 -0.14557053
0.18742228 -0.051560067 0.013334885 0.013661974 0.124024354 0.07194364 -0.076373965 -0.005599782
0.016440319 0.13094312 0.117111556 -0.02363024 0.011246593 0.022825228 0.08123387 -0.15352048
-0.017081691 0.0018087176 0.09669451 -0.040761385 0.12710963 -0.040649414 -0.06500796 -0.12619805
0.18474625 -0.25410786 -0.11737431 -0.14217323 -0.06430679 -0.039234675 0.0006256126 0.041442465
-0.03876589 0.02767956 -0.019321676 -0.03957376 0.101015426 0.03499258 -0.013151625 0.061988164
0.112953536 0.055819035 -0.047060404 0.04019395 0.041163083 -0.16956133 -0.119682066 0.02873013
-0.0070773256 -0.05359722 0.08955977 -0.003662038 0.2354881 -0.06054286 -0.034348965 -0.056463063
0.09820601 -0.08035413 -0.14402814 -0.1430987 -0.083958715 0.06985698 -0.02355295 0.13831592
-0.041604515 -0.06864984 0.16733281 0.06970152 0.20726298 0.07455961 0.000873005 0.16444765
0.07539276 -0.03247529 0.024173804 0.0020853747 0.09503913 -0.10080423 0.20565313 0.07665805
-0.07622795 0.057441674 0.038591646 0.06464156 -0.03465184 0.14765254 -0.072165065 -0.11741803
0.06115717 -0.02427202 0.00069703 0.18360312 0.009918712 -0.03010986 -0.05253527 0.03129077
-0.09151913 -0.07379887 -0.070135854 0.014926463 0.1456341 0.05990715 -0.08482666 0.20349917
0.027549876 -0.07604864 0.058833573 0.10613 0.070689246 0.06714249 0.16175003 0.11852275
-0.02882741 -0.0549007 -0.034105025 -0.025782866 0.13126878 0.12544253 0.050791997 -0.097051
0.01870831 0.033188783 0.10340245 -0.26463556 0.039759032 0.09656579 -0.07616738 0.16421026
-0.008208112 -0.036823075 0.05468737 0.2066183 -0.12080786 -0.14992535 0.08801378 0.17795716
-0.18183094 -0.056839045 0.09486851 -0.014992943 0.11746635 -0.054769453 0.0773497 -0.08405584
-0.031808816 0.084905215 0.019688878 -0.12128564 -0.082171425 0.02621587 -0.03275953 -0.09680571
-0.1208144 -0.022268286 0.036629427 0.07050674 0.023707833 -0.3060173 0.09909731 -0.07756745
0.06982951 0.15455684 -0.08764036 -0.2283736 -0.14059253 0.05365576 -0.09841741 0.08818533
-0.04757146 -0.028789505 -0.065634064 0.071713 0.024724336 -0.07761912 0.19049163 0.039473165
0.109251074 0.03316433 -0.023828497 -0.018224366 -0.0029921036 -0.050326183 -0.025985764 0.11842729
0.121116586 0.19831645 -0.01521052 0.07782228 0.14238939 0.042559545 -0.021793574 -0.043659534
-0.12841009 0.043321084 0.13177788 0.13336198 0.04610437 -0.031804554 -0.03028368 0.109898634
0.060924824 0.02042106 0.002510779 -0.011976255 0.08996365 0.014453255 0.083434165 0.086028025
00000000: d959 f7bd 6b2a 8b3d fdda adbc 1c4c fe3d
00000010: 6d42 3ebd 429a 443d 9b35 99bc 4b23 3b3d
00000020: f22c e8bb a51b 8b3d 87f5 88be 9b75 2cbd
00000030: 421b 063e 9b8c cd3d db59 07bc 819b 3cbd
00000040: 417c 073c 4dd1 88bd 37c2 3e3d d6df 953c
00000050: 4d02 e4bc 234b 41bd e5f9 6dbe cbbb bdbc
00000060: 3768 c63c 6d4a 263e 503d e1bd 3be8 fa3c
00000070: 99e4 a5bb 6816 98bd 8670 053e 0569 d03c
00000080: 9ea9 00bc df20 d4bd 8c6c 15be 704e 76bd
00000090: 09ef ba3d f0c1 3ebd cedd 22bb d28a 883e
000000a0: 4dd3 bd3d 3e6a b1bc 71c0 773d 41e4 8b3d
000000b0: 65c4 aa3d d3b3 c0bd 9382 6fbd 7110 15be
000000c0: a0eb 3f3e a630 53bd 907a 5a3c 79d6 5f3c
000000d0: 7b00 fe3d 3057 933d f469 9cbd 607e b7bb
000000e0: d9ad 863c f415 063e 2fd8 ef3d 3494 c1bc
000000f0: a143 383c f9fb ba3c f15d a63d 7934 1dbe
00000100: e7ee 8bbc 7e12 ed3a c507 c63d 69f5 26bd
00000110: 0729 023e 0080 26bd e522 85bd 103a 01be
00000120: 1f2e 3d3e 6d1a 82be f161 f0bd dc95 11be
00000130: 47b3 83bd 8ab4 20bd 2700 243a 93bf 293d
00000140: fbc8 1ebd 3fc0 e23c 7e48 9ebc 1818 22bd
00000150: 2de1 ce3d 6154 0f3d ea79 57bc 4de7 7d3d
00000160: 2f54 e73d 80a2 643d 69c2 40bd 69a2 243d
00000170: 9f9a 283d 7ca1 2dbe df1b f5bd 735b eb3c
00000180: e9e8 e7bb c288 5bbd 1d6b b73d cdfe 6fbb
00000190: cb23 713e cafb 77bd 80b1 0cbd d045 67bd
000001a0: 3c20 c93d b590 a4bd 1d7c 13be 7788 12be
000001b0: 8cf2 abbd 2d11 8f3d 1ef2 c0bc b0a2 0d3e
000001c0: 7f69 2abd 4a98 8cbd 4b59 2b3e acbf 8e3d
000001d0: bf3c 543e b5b2 983d 60da 643a f764 283e
000001e0: 8567 9a3d cf04 05bd 2408 c63c c8aa 083b
000001f0: e0a3 c23d 7372 cebd bc96 523e e5fe 9c3d
00000200: 661d 9cbd f647 6b3d 4612 1e3d cb62 843d
00000210: 16ef 0dbd 3a32 173e 47cb 93bd dd78 f0bd
00000220: f17f 7a3d 1ed6 c6bc e4b8 363a 7502 3c3e
00000230: 1882 223c f4a8 f6bc 392f 57bd c02a 003d
00000240: 626e bbbd dd23 97bd 63a3 8fbd 208e 743c
00000250: 1b21 153e 3361 753d 9ab9 adbd 1662 503e
00000260: 47b0 e13c 64bf 9bbd 79fb 703d af5a d93d
00000270: 86c5 903d 0082 893d cda1 253e 0ebc f23d
00000280: 7627 ecbc 8edf 60bd b6b1 0bbd 9736 d3bc
00000290: 536b 063e 0274 003e 450b 503d adc2 c6bd
000002a0: 2b42 993c f6f0 073d aac4 d33d 507e 87be
000002b0: 5eda 223d 49c4 c53d a5fd 9bbd bc26 283e
000002c0: 517b 06bc cbd3 16bd ddff 5f3d bf93 533e
000002d0: 1c6a f7bd 0886 19be 9240 b43d 673a 363e
000002e0: e431 3abe 0fd0 68bd 6c4a c23d f6a4 75bc
000002f0: 3392 f03d ef55 60bd 8569 9e3d 7825 acbd
00000300: f649 02bd c9e2 ad3d 924a a13c 9b64 f8bd
00000310: 7e49 a8bd aac2 d63c db2e 06bd 1242 c6bd
00000320: 8a6d f7bd fb6b b6bc bd08 163d d665 903d
00000330: ee36 c23c 4dae 9cbe 88f3 ca3d afdb 9ebd
00000340: c602 8f3d 2644 1e3e ca7c b3bd c5da 69be
00000350: 7df7 0fbe 24c6 5b3d 118f c9bd 839a b43d
00000360: 4bda 42bd f8d7 ebbc 276b 86bd 44de 923d
00000370: b18a ca3c c6f6 9ebd 3d10 433e 9dae 213d
00000380: 07bf df3d 52d7 073d fb33 c3bc 444b 95bc
00000390: 2b17 44bb d422 4ebd 19e0 d4bc 028a f23d
000003a0: f90b f83d 7813 4b3e 8b35 79bc 4a61 9f3d
000003b0: 86ce 113e eb52 2e3d 7088 b2bc 57d4 32bd
000003c0: ef7d 03be 7371 313d c8f0 063e 0b90 083e
000003d0: f0d7 3c3d 7e45 02bd 7b15 f8bc 8912 e13d
000003e0: 4f8c 793d 114a a73c e28b 243b 0e38 44bc
000003f0: dd3e b83d 58cd 6c3c 88df aa3d 762f b03d

net.0.scale f4 [64, 10]
1.015355 0.99892765 0.9982348 1.0085781 0.99257505 1.0183666 1.0042183 1.0080746
0.9862473 0.98578924 1.012455 0.998604 0.99637896 0.9825141 1.0061375 0.9941101
1.0077177 0.99891907 0.97986954 0.99124354 1.0005144 0.9926084 1.0150384 1.0053042
1.0088133 0.9816523 1.0069222 0.9858791 1.0074861 1.0091586 1.0051075 1.007355
1.0208814 1.012535 1.0027431 1.0059974 0.9927465 0.97248185 0.9832206 0.9910856
1.0091941 1.0041623 0.9903802 1.0188766 1.0107541 0.9992475 1.0045779 0.99968284
1.0088072 0.9914212 1.0168235 0.9901972 0.98222345 1.0203595 0.9796276 1.0062251
0.99586433 0.99747497 0.97906125 1.0127391 0.9934197 0.99714845 1.0020258 1.0028775
1.0070955 1.0127585 1.0142399 0.97975534 0.9743159 1.0286174 0.9745805 0.9816893
0.9923144 1.0069606 0.98359865 1.0129665 1.0277023 1.0031912 1.0209957 0.99811006
1.0195532 1.0135467 1.0174545 0.9899358 0.9985828 1.0009146 1.0289615 1.0337522
1.0305084 1.0222789 0.9878836 1.0077547 1.0006148 1.0090876 0.9810147 0.98028094
0.97034335 1.0141094 1.0214379 0.99596006 1.0013843 0.996789 1.0033394 1.0014617
0.9945193 0.9943731 0.99666417 1.00006 0.99419886 0.9956479 1.0107503 1.0077143
0.9968222 1.0066503 0.9864024 1.0175772 1.0032355 1.0058744 0.98278195 1.0168909
1.0011654 0.99174774 0.9985806 0.989867 0.99284166 0.9894595 0.98807967 0.998673
1.0064553 0.9931947 0.9956904 1.0045696 0.9980257 1.0024849 1.0043539 1.0142362
0.99940896 0.9874392 1.0204259 1.0191419 0.98041505 0.9664041 0.9941169 0.9946677
1.0345651 0.9962135 0.9919704 1.0334052 1.0100912 1.0025562 1.0050893 0.97020864
0.9995985 1.0012298 1.0080637 1.0134306 0.99532 1.0077322 1.0157074 1.0005485
1.000418 0.9908975 1.0076116 0.98366165 1.0181278 0.9882191 0.98447305 1.0062171
0.9676777 0.99320924 1.003524 0.98977417 1.0009638 1.0011308 1.0307565 0.97950834
0.99492985 0.98989475 1.0218464 0.9926753 0.9931174 1.0048813 0.9942782 0.99329317
1.0115782 1.0161458 0.9879549 0.99930906 1.0010833 0.9918043 1.0051985 1.0050244
1.0063136 1.011895 0.98705745 0.9948791 0.9983062 0.99410343 0.98481214 0.9918431
1.0015525 1.0004349 0.9803863 1.0031768 0.9873216 0.99562305 1.0015433 1.0052912
1.0179143 0.99316907 0.9988993 0.99596477 0.99545026 0.9992776 1.0237554 0.9987125
1.0036201 0.9989256 0.9937028 0.99555576 1.0035142 0.9925799 0.99628437 0.9838223
0.9713639 0.99534744 0.99671096 1.0168214 0.9878351 0.9773681 0.981041 1.0111575
0.9880371 0.99190384 1.0178566 0.98870295 0.98996407 0.9808016 0.9789358 0.9847175
1.0046973 1.0206656 0.9916399 1.0019675 0.9981332 1.0077025 0.9934647 1.0125145
1.0026555 1.0113398 1.004678 0.9922917 0.9893794 1.0095168 0.99562585 1.0060632
00000000: 27f7 813f b9b9 7f3f 518c 7f3f 1619 813f
00000010: 6619 7e3f d659 823f 3a8a 803f 9708 813f
00000020: b47a 7c3f af5c 7c3f 2098 813f 83a4 7f3f
00000030: b112 7f3f 0b86 7b3f 1dc9 803f 007e 7e3f
00000040: e5fc 803f 29b9 7f3f bbd8 7a3f 23c2 7d3f
00000050: db10 803f 961b 7e3f c7ec 813f cfad 803f
00000060: cb20 813f 914d 7b3f d4e2 803f 9362 7c3f
00000070: 4ef5 803f 1c2c 813f 5da7 803f 02f1 803f
00000080: 3eac 823f bf9a 813f e359 803f 86c4 803f
00000090: a224 7e3f 92f4 783f 58b4 7b3f c9b7 7d3f
000000a0: 462d 813f 6488 803f 8f89 7d3f 8c6a 823f
000000b0: 6460 813f afce 7f3f 0296 803f 37eb 7f3f
000000c0: 9820 813f c8cd 7d3f 4627 823f 907d 7d3f
000000d0: ff72 7b3f 249b 823f e0c8 7a3f fccb 803f
000000e0: f7f0 7e3f 855a 7f3f c2a3 7a3f 6fa1 813f
000000f0: c150 7e3f 1f45 7f3f 6242 803f 4a5e 803f
00000100: 81e8 803f 12a2 813f 9dd2 813f 3fd1 7a3f
00000110: c46c 793f bca9 833f 1c7e 793f fd4f 7b3f
00000120: 5108 7e3f 16e4 803f 1fcd 7b3f e3a8 813f
00000130: c08b 833f 9268 803f fdaf 823f 2484 7f3f
00000140: b880 823f e6bb 813f f33b 823f 6f6c 7d3f
00000150: 1fa3 7f3f f81d 803f 03b5 833f fe51 843f
00000160: b3e7 833f 09da 823f f1e5 7c3f 1bfe 803f
00000170: 2514 803f c829 813f c823 7b3f b1f3 7a3f
00000180: 6c68 783f 56ce 813f 7abe 823f 3df7 7e3f
00000190: 5c2d 803f 902d 7f3f 6d6d 803f e62f 803f
000001a0: d198 7e3f 3c8f 7e3f 6225 7f3f f701 803f
000001b0: d183 7e3f c8e2 7e3f 4460 813f c8fc 803f
000001c0: bd2f 7f3f ebd9 803f de84 7c3f f83f 823f
000001d0: 056a 803f 7ec0 803f 9997 7b3f 7b29 823f
000001e0: 3026 803f 2ee3 7d3f faa2 7f3f ec67 7d3f
000001f0: df2a 7e3f 384d 7d3f caf2 7c3f 09a9 7f3f
00000200: 87d3 803f 0242 7e3f 91e5 7e3f bd95 803f
00000210: 9d7e 7f3f 6d51 803f ab8e 803f 7ed2 813f
00000220: 44d9 7f3f d1c8 7c3f 519d 823f 3e73 823f
00000230: 7bfc 7a3f 4266 773f 727e 7e3f 8ba2 7e3f
00000240: a16c 843f d907 7f3f c6f1 7d3f 9f46 843f
00000250: ab4a 813f c353 803f c4a6 803f 985f 783f
00000260: b0e5 7f3f 4c28 803f 3b08 813f 18b8 813f
00000270: 4bcd 7e3f 5efd 803f b302 823f f911 803f
00000280: b20d 803f 75ab 7d3f 6bf9 803f 40d1 7b3f
00000290: 0352 823f edfb 7c3f 6d06 7c3f b9cb 803f
000002a0: bab9 773f f642 7e3f 7973 803f d761 7d3f
000002b0: 951f 803f 0e25 803f d4ef 833f 0fc1 7a3f
000002c0: b9b3 7e3f be69 7d3f ddcb 823f f81f 7e3f
000002d0: f13c 7e3f f39f 803f 0489 7e3f 7648 7e3f
000002e0: 657b 813f 1111 823f 9dea 7c3f b8d2 7f3f
000002f0: 7f23 803f e3e6 7d3f 58aa 803f a4a4 803f
00000300: e2ce 803f c685 813f ccaf 7c3f 66b0 7e3f
00000310: ff90 7f3f 907d 7e3f a61c 7c3f 6ee9 7d3f
00000320: df32 803f 400e 803f 99fa 7a3f 1968 803f
00000330: 1cc1 7c3f 27e1 7e3f 9232 803f 62ad 803f
00000340: 044b 823f 5440 7e3f ddb7 7f3f 8cf7 7e3f
00000350: d4d5 7e3f a8d0 7f3f 6b0a 833f 9fab 7f3f
00000360: a076 803f 97b9 7f3f 4f63 7e3f bedc 7e3f
00000370: 2773 803f b719 7e3f 7e0c 7f3f c7db 7b3f
00000380: 4eab 783f 17cf 7e3f 7328 7f3f 3427 823f
00000390: c3e2 7c3f cc34 7a3f 8125 7b3f 9c6d 813f
000003a0: 00f0 7c3f 69ed 7d3f 2049 823f a31b 7d3f
000003b0: 496e 7d3f d015 7b3f 899b 7a3f 7216 7c3f
000003c0: ec99 803f 2ca5 823f 1ddc 7d3f 7940 803f
000003d0: a885 7f3f 65fc 803f b453 7e3f 139a 813f
000003e0: 0457 803f 9573 813f 4a99 803f d406 7e3f
000003f0: f847 7d3f d937 813f 56e1 7e3f aec6 803f

net.0.base_weight f4 [64, 10]
-0.003265847 -0.0605103 0.032895103 -0.05280187 -0.048512544 0.02743648 0.083021395 0.06048517
0.0062770303 0.0077310894 -0.07813727 0.07584668 0.13994567 0.010268959 0.14909203 0.019380728
-0.21577086 0.168664 0.0017372987 0.09045714 -0.13042875 -0.13692445 -0.016023794 -0.0022661092
-0.014842541 0.014855313 0.31973463 0.006283335 0.08097411 0.10328979 0.091614954 -0.029267672
-0.028615065 0.102514245 0.030895539 0.032115616 -0.06345632 0.040588483 0.09088805 0.18448165
0.15550324 0.08746994 0.017450623 0.1269406 0.1921314 0.11049481 -0.042534087 -0.05333927
0.03700511 0.18277918 0.10085927 -0.13690907 -0.10171391 0.12987077 0.15611263 -0.07020962
-0.15048759 0.09511568 0.18703818 -0.11269687 -0.122459814 0.02573892 -0.0549047 0.018081725
0.056423794 -0.019280208 0.106232785 0.10792106 -0.08468937 -0.060049135 -0.0413687 0.027548067
-0.13209145 0.012519802 -0.29780245 -0.0880729 -0.045871567 -0.10634438 0.0020303628 -0.108264856
0.07810173 0.03775487 -0.026450543 -0.06231037 -0.0628724 0.053636834 -0.048347432 0.03872592
-0.063138574 -0.024472281 -0.019658871 0.26592693 0.16067395 -0.05359972 0.043212347 0.13813427
0.15266348 -0.030188711 -0.25301468 0.13107938 0.050471667 0.10119086 -0.11018719 0.0103032775
-0.026375297 0.035629973 -0.080351695 0.05503427 -0.0038761515 0.11000507 -0.09204228 -0.11658557
-0.0709426 -0.084205404 -0.19249655 -0.13684194 0.015854888 0.14312181 -0.116206616 -0.06488508
0.087950006 -0.08118954 0.0071588173 -0.12912384 -0.13478325 0.026059318 -0.06307477 -0.121187896
0.12042361 -0.1498066 0.058257565 0.04421369 0.11967312 0.05408469 -0.021566616 -0.067059696
-0.059961095 0.0713317 0.051629294 0.1407383 0.15497202 0.14157443 0.010063971 0.0007437917
0.08318694 0.17563577 0.05504688 0.19934382 -0.01723821 0.037635252 0.031435326 0.20996329
0.1439758 -0.37387648 -0.12840003 0.09209498 0.14954698 0.017335894 0.016699113 -0.026877066
-0.027150057 0.15501893 0.019352013 0.03852224 0.07266627 -0.104226425 -0.027104588 0.09044932
-0.02438361 -0.12239092 0.017621765 0.052667573 0.18435742 -0.013946957 0.005879994 -0.13052596
-0.029839298 0.15743509 0.07155671 -0.07556407 -0.17758238 -0.010340251 0.06191677 0.07144622
-0.11640001 0.0018818447 0.05506192 -0.034362867 -0.02894901 0.03986093 -0.0165485 -0.12723841
0.08095728 0.060863793 -0.16918495 -0.025524473 0.14297193 -0.0034216286 0.11866088 -0.06725975
-0.04329201 0.18920755 -0.03918986 0.09776857 -0.1468345 0.016119758 0.2282458 0.01751475
0.17314066 -0.2186171 -0.1589406 -0.11647412 -0.0028052037 -0.01443991 -0.0049687433 0.0637115
0.1353904 -0.025204668 -0.040362902 0.12594832 -0.105779886 0.08669163 0.22415157 0.012106032
0.018403973 0.14747882 -0.043318644 -0.20775749 -0.0051650465 -0.0042565065 -0.056208115 0.16555429
-0.002718411 -0.066994764 0.11309472 -0.049504753 -0.21835351 0.0661215 -0.061361227 0.021761036
0.17949067 -0.01091186 0.079158634 0.045904037 0.1213216 -0.03218389 -0.062415183 -0.16523527
-0.020829394 0.03885649 -0.091354415 0.072485074 0.08957735 -0.03641177 -0.006980544 -0.1282114
00000000: d207 56bb a6d9 77bd 04bd 063d c646 58bd
00000010: 17b5 46bd 78c2 e03c 1f07 aa3d 4cbf 773d
00000020: 8caf cd3b 1455 fd3b 6f06 a0bd 8155 9b3d
00000030: eb4d 0f3e 233f 283c 95ab 183e 55c4 9e3c
00000040: 09f3 5cbe 41b6 2c3e 12b6 e33a 9841 b93d
00000050: 1d8f 05be ec35 0cbe 5544 83bc 0183 14bb
00000060: 212e 73bc b363 733c 42b4 a33e 6fe4 cd3b
00000070: c1d5 a53d 9989 d33d 9fa0 bb3d c2c2 efbc
00000080: 246a eabc fdf2 d13d a418 fd3c aa8b 033d
00000090: 63f5 81bd 1c40 263d 8423 ba3d c2e8 3c3e
000000a0: 3e3c 1f3e 7123 b33d 9cf4 8e3c b7fc 013e
000000b0: 18be 443e 1a4b e23d 3938 2ebd 477a 5abd
000000c0: ac92 173d 772a 3b3e 4e8f ce3d e431 0cbe
000000d0: 624f d0bd d8fc 043e fddb 1f3e 10ca 8fbd
000000e0: 6b19 1abe 02cc c23d f086 3f3e 9ecd e6bd
000000f0: 36cc fabd 6dda d23c c0e3 60bd 2020 943c
00000100: a31c 673d 87f1 9dbc 9390 d93d b705 dd3d
00000110: 9f71 adbd 15f6 75bd 3a72 29bd 7cac e13c
00000120: fb42 07be db1f 4d3c 9079 98be 915f b4bd
00000130: d3e3 3bbd 15cb d9bd d60f 053b f7b9 ddbd
00000140: cdf3 9f3d daa4 1a3d cfae d8bc 2939 7fbd
00000150: 3fc3 80bd 4cb2 5b3d f507 46bd 129f 1e3d
00000160: cc4e 81bd 187a c8bc a40b a1bc 9327 883e
00000170: b687 243e 618b 5bbd 6eff 303d 1273 0d3e
00000180: d153 1c3e 514e f7bc 248b 81be ac39 063e
00000190: 61bb 4e3d 273d cf3d d2a9 e1bd 14cf 283c
000001a0: 0211 d8bc bcf0 113d 6e8f a4bd 9d6b 613d
000001b0: 0807 7ebb 574a e13d aa80 bcbd 6ac4 eebd
000001c0: 5b4a 91bd e273 acbd d11d 45be 4b20 0cbe
000001d0: 1ce2 813c 868e 123e bcfd edbd 78e2 84bd
000001e0: 221f b43d b446 a6bd 8394 ea3b 0a39 04be
000001f0: 9f04 0abe 5a7a d53c 582d 81bd 5c31 f8bd
00000200: a7a0 f63d e766 19be 7c9f 6e3d 6a19 353d
00000210: 2e17 f53d e887 5d3d 79ac b0bc 9856 89bd
00000220: c499 75bd 5b16 923d 3d79 533d b31d 103e
00000230: fcb0 1e3e e3f8 103e 5be3 243c 04fb 423a
00000240: ea5d aa3d ddd9 333e d678 613d c920 4c3e
00000250: 2637 8dbc 6c27 1a3d 54c2 003d 9e00 573e
00000260: 646e 133e bd6c bfbe 4c7b 03be 4b9c bc3d
00000270: d822 193e 0104 8e3c 94cc 883c 4b2d dcbc
00000280: cc69 debc 48bd 1e3e 1d88 9e3c 7fc9 1d3d
00000290: 0ed2 943d aa74 d5bd 710a debc 7e3d b93d
000002a0: 23c0 c7bc 17a8 fabd 855b 903c f4b9 573d
000002b0: 31c8 3c3e c781 64bc f7ac c03b 99a8 05be
000002c0: 8b71 f4bc aa36 213e 538c 923d 56c1 9abd
000002d0: 28d8 35be 286a 29bc 709c 7d3d 6552 923d
000002e0: 2163 eebd 3ba8 f63a 9c88 613d 14c0 0cbd
000002f0: 7926 edbc 3745 233d b890 87bc c94a 02be
00000300: eecc a53d 504c 793d d23e 2dbe b318 d1bc
00000310: 3c67 123e 673d 60bb 7a04 f33d 7bbf 89bd
00000320: f652 31bd a0bf 413e 8c85 20bd e33a c83d
00000330: c85b 16be 950d 843c 44b9 693e 187b 8f3c
00000340: c94b 313e 29dd 5fbe 53c1 22be fc89 eebd
00000350: 82d7 37bb 5f95 6cbc d7d0 a2bb 2d7b 823d
00000360: c8a3 0a3e 057a cebc 9253 25bd 99f8 003e
00000370: 20a3 d8bd 628b b13d fd87 653e 6158 463c
00000380: eec3 963c b004 173e e46e 31bd 61be 54be
00000390: 8d3f a9bb 2a7a 8bbb 7b3a 66bd 1087 293e
000003a0: 5e27 32bb 8d34 89bd 349e e73d 7fc5 4abd
000003b0: 1098 5fbe b66a 873d e955 7bbd 3344 b23c
000003c0: 67cc 373e a8c7 32bc ec1d a23d df05 3c3d
000003d0: 7677 f83d 41d3 03bd 10a7 7fbd 6f33 29be
000003e0: 68a2 aabc fc27 1f3d 0618 bbbd 0e73 943d
000003f0: 5474 b73d 8224 15bd 0cbd e4bb d949 03be

net.0.grid_points f4 [5]
-2.0 -1.0 0.0 1.0 2.0
00000000: 0000 00c0 0000 80bf 0000 0000 0000 803f
00000010: 0000 0040

net.2.coeff f4 [64, 64, 5]
-0.22224964 0.045355048 -0.16634673 0.071971886 -0.02738434 0.048716404 0.032604482 0.06177128
-0.031595025 -0.054966327 0.14480144 0.15235251 -0.12516546 -0.06860816 -0.13507414 0.0657542
0.0445507 -0.10105083 0.060715802 0.0032055716 0.30248705 -0.0606946 -0.08741194 -0.022654215
-0.058595274 -0.122838445 0.18386887 0.035858463 0.0123563735 0.04649633 -0.0040829624 0.008316635
0.21894635 0.0892239 -0.07425467 0.020721016 -0.11981336 0.09050941 0.11986155 0.057933018
-0.008800966 -0.038108658 0.04426277 -0.102055356 -0.064974725 -0.026478525 -0.06605945 -0.05614898
-0.061729025 0.26149124 -0.014853194 0.0045311535 0.026032548 -0.10219256 -0.11246741 -0.08268112
-0.10362487 0.08937731 0.074447855 0.06330291 0.07394981 0.15730077 0.057145517 0.07359443
0.08092143 -0.054513685 0.025159534 -0.023098474 -0.07130485 0.17281005 -0.08606467 0.03934378
-0.121121086 0.08372844 0.04087983 0.10774785 0.086315826 -0.08522111 -0.030327598 -0.003577179
0.06323913 0.042243633 -0.10527638 0.015626045 0.10014058 -0.0924681 -0.13171442 -0.03802723
0.031108314 0.07400486 0.090577394 -0.15201816 0.19682801 0.009727133 -0.16986257 0.1319347
-0.04394659 -0.20894691 0.03246079 0.050826035 0.07410005 -0.10220083 -0.10836275 -0.115881525
-0.0492833 0.1594865 0.133041 0.0037739673 0.006238997 -0.09586512 -0.019996852 -0.08626186
0.037514135 -0.081767105 -0.033875372 0.059838038 0.016300488 0.08932457 0.10578831 0.03904433
0.11968504 0.04212686 -0.08001404 0.049439818 0.1289622 0.2300011 0.12404237 -0.12904967
0.15820773 -0.0061429837 -0.13249521 -0.06767347 -0.05165071 0.20302859 0.03839052 -0.037003525
0.10046947 -0.07006348 -0.070326686 -0.051425457 -0.14441614 -0.04231486 0.01787532 -0.07921384
-0.047621433 -0.16760209 -0.108719885 0.02493906 0.04712198 -0.0050687715 -0.21165003 -0.056824405
-0.037881356 -0.21399169 0.08321559 -0.04879571 0.15550601 0.017207948 -0.069193065 0.12112863
0.021482583 0.0030350108 0.15755224 0.07072428 0.04291141 -0.012820197 0.14351429 -0.08474048
-0.09103331 0.10906285 0.044290293 0.060621377 -0.010973445 -0.16846503 -0.05126588 0.13624969
0.018495852 0.05510969 0.052044097 0.052061424 -0.07649633 -0.038987372 0.03470161 0.056630936
-0.013786358 0.03816586 -0.059343792 -0.12394779 -0.14214504 0.0048618405 -0.12133019 -0.06352183
-0.04296925 -0.015947172 0.19041802 0.08816899 -0.04097421 0.018613694 0.06631485 -0.14742185
0.08254585 0.008884682 -0.005180037 -0.07451203 -0.037736494 -0.026576793 -0.119516656 -0.20842256
0.050544344 0.13006186 0.092564754 0.08877949 0.0019604492 -0.23687029 0.11051983 -0.04314142
0.22965941 -0.08821262 -0.076788045 0.074843794 0.028073393 -0.17374332 -0.16369882 -0.019858042
0.001140152 0.109386906 -0.07436089 0.060501013 0.10784192 -0.038171243 -0.13938949 0.0150043545
0.073352285 -0.13421907 -0.020696176 0.09042223 0.13126454 -0.21219082 -0.03968623 0.120939136
0.015061461 -0.08483165 -0.092258446 -0.03819459 -0.008177607 0.015454442 -0.11296925 -0.024217864
-0.025980094 0.15347275 -0.18203375 0.016572915 -0.08811379 -0.05310126 0.11789497 -0.012482365
00000000: 6995 63be 37c6 393d cc56 2abe ff65 933d
00000010: 2055 e0bc da8a 473d 478c 053d e203 7d3d
00000020: c969 01bd 5f24 61bd d446 143e 4c02 1c3e
00000030: 602b 00be 6f82 8cbd e050 0abe 23aa 863d
00000040: cb7a 363d bdf3 cebd 22b1 783d 9114 523b
00000050: 95df 9a3e e79a 78bd 0805 b3bd 5595 b9bc
00000060: 9901 70bd b992 fbbd 1f48 3c3e 53e0 123d
00000070: 6372 4a3c f072 3e3d 5fca 85bb 7f42 083c
00000080: 7933 603e 05bb b63d d512 98bd 1fbf a93c
00000090: b560 f5bd ff5c b93d f979 f53d 2c4b 6d3d
000000a0: ed31 10bc d317 1cbd e14c 353d 6602 d1bd
000000b0: 7811 85bd 7ee9 d8bc 2d4a 87bd 79fc 65bd
000000c0: 93d7 7cbd 2ee2 853e d05a 73bc 127a 943b
000000d0: 3642 d53c 554a d1bd 5055 e6bd b854 a9bd
000000e0: 4739 d4bd 730b b73d 1e78 983d f5a4 813d
000000f0: ff72 973d 7413 213e 6b11 6a3d adb8 963d
00000100: 22ba a53d be49 5fbd 5e1b ce3c 0339 bdbc
00000110: 4708 92bd 1ef5 303e ac42 b0bd f226 213d
00000120: 550e f8bd d179 ab3d 9c71 273d e8aa dc3d
00000130: 5ac6 b03d 6888 aebd 9571 f8bc 1b6f 6abb
00000140: 8483 813d a907 2d3d 259b d7bd 3102 803c
00000150: 8116 cd3d ea5f bdbd 25e0 06be 71c2 1bbd
00000160: ddd6 fe3c dc8f 973d a480 b93d a6aa 1bbe
00000170: 488d 493e 8e5e 1f3c 74f0 2dbe e419 073e
00000180: 5701 34bd 2ef6 55be 9bf5 043d f62e 503d
00000190: c4c1 973d ab4e d1bd 4aed ddbd 4b53 edbd
000001a0: 49dd 49bd 6e50 233e e63b 083e aa54 773b
000001b0: 8070 cc3b ef54 c4bd 70d0 a3bc 0faa b0bd
000001c0: 6ca8 193d 8375 a7bd e7c0 0abd bb18 753d
000001d0: 9a88 853c cdef b63d 8ba7 d83d f3ec 1f3d
000001e0: 6e1d f53d 378d 2c3d 67de a3bd 6881 4a3d
000001f0: ab0e 043e 6985 6b3e ed09 fe3d 9925 04be
00000200: 3501 223e 154b c9bb d3ac 07be 6398 8abd
00000210: b28f 53bd bae6 4f3e 613f 1d3d 0291 17bd
00000220: f0c2 cd3d 717d 8fbd 7007 90bd 80a3 52bd
00000230: d3e1 13be 5952 2dbd 436f 923c de3a a2bd
00000240: b10e 43bd e29f 2bbe 88a8 debd 004d cc3c
00000250: fa02 413d f017 a6bb c9ba 58be b5c0 68bd
00000260: 7b29 1bbd a320 5bbe ef6c aa3d 03de 47bd
00000270: f83c 1f3e aff7 8c3c 18b5 8dbd 4a12 f83d
00000280: 3efc af3c 08e7 463b 6055 213e e4d7 903d
00000290: e0c3 2f3d ce0b 52bc 69f5 123e 6b8c adbd
000002a0: ac6f babd 585c df3d bd69 353d 1f4e 783d
000002b0: f7c9 33bc 1982 2cbe 2cfc 51bd 0a85 0b3e
000002c0: 9d84 973c b3ba 613d 312c 553d 5c3e 553d
000002d0: 1caa 9cbd 39b1 1fbd 4723 0e3d d7f5 673d
000002e0: 2de0 61bc ce53 1c3d 7a12 73bd 57d8 fdbd
000002f0: 788e 11be 1350 9f3b f67b f8bd bc17 82bd
00000300: 8600 30bd a5a3 82bc f1fc 423e f291 b43d
00000310: 93d4 27bd bf7b 983c 14d0 873d c1f5 16be
00000320: cc0d a93d 0f91 113c 4dbd a9bb c399 98bd
00000330: 9591 1abd 93b7 d9bc 26c5 f4bd b96c 55be
00000340: 9607 4f3d f02e 053e 9792 bd3d 05d2 b53d
00000350: e17a 003b 208e 72be 3858 e23d 0fb5 30bd
00000360: d62b 6b3e d1a8 b4bd 0d43 9dbd b447 993d
00000370: 2cfa e53c c5e9 31be aaa0 27be 55ad a2bc
00000380: 2771 953a 3e06 e03d 864a 98bd e9cf 773d
00000390: 39dc dc3d 7359 1cbd 1ebc 0ebe d3d4 753c
000003a0: b939 963d b970 09be 078b a9bc 4a2f b93d
000003b0: 366a 063e 8d48 59be 078e 22bd f0ae f73d
000003c0: 59c4 763c 37bc adbd fff1 bcbd ee71 1cbd
000003d0: 5ffb 05bc a134 7d3c 6c5c e7bd 8b64 c6bc
000003e0: 35d4 d4bc f627 1d3e 0e67 3abe ecc3 873c
000003f0: 0175 b4bd b580 59bd eb72 f13d d582 4cbc

net.2.scale f4 [64, 64]
0.99939376 0.99900675 1.0019771 1.001475 0.9978808 0.99569666 1.0014651 0.99945396
0.99478394 0.99686426 0.99362487 1.0022386 1.0003467 1.0019214 0.9957732 1.0005939
1.0005242 1.0002978 1.0009518 1.0001543 0.999224 1.0011308 0.9935011 0.99965614
0.9955247 0.9938597 0.9869393 0.9968312 1.0048239 0.9994876 1.000335 1.0064534
1.0001026 1.0005718 1.0072907 0.99865276 0.9989273 0.99952346 1.0112619 1.0008126
1.0036414 1.0005474 0.99937767 0.99725777 0.99922085 1.0008588 1.0017214 0.99938756
0.99833876 0.9993088 0.9985475 0.99770737 1.0131874 1.0002728 0.9950411 1.0013297
0.9975325 0.99997455 0.99729085 1.0090922 1.0003631 0.9928598 1.0002484 0.99612963
0.99870354 0.99631315 0.9979621 1.0058926 0.9908126 1.0022188 1.0014763 0.9998142
1.0022124 1.0000618 0.99543226 1.0032558 1.0003275 0.99962664 1.0027351 0.9943801
1.004468 1.013644 1.0040727 1.0023091 0.9999585 1.0024956 0.9967538 1.0001426
0.99770695 0.99866647 0.9983319 1.0003915 1.0014918 0.9968533 0.9977881 1.0037979
1.0004485 1.0056634 1.0003189 1.002138 1.0009565 0.99743474 1.0051367 0.9985464
0.9979222 0.99736005 1.0001361 0.9974879 0.98251384 1.0100676 0.9994141 0.9976771
0.99955285 1.0006237 0.9990761 1.002275 0.99916977 1.0081629 1.0025024 0.9959781
0.9993152 1.0008743 0.9975033 1.0044385 0.9957703 1.0046656 0.9991244 0.9974001
1.0005665 0.99729675 0.99609977 0.9988755 0.99607104 0.99932647 1.0141239 0.99921066
1.0005066 1.0025194 0.9848716 1.0027405 0.99568415 0.9985093 1.0014406 1.0002608
1.0039197 0.99746543 0.99954385 1.0030525 0.9988031 0.9988819 0.9990221 0.99972504
1.0041852 1.0010082 1.0045035 1.0039052 1.0019864 0.99918264 0.9991055 1.0016474
0.99807507 1.0009239 0.9990928 1.0055901 1.0009313 0.99869335 0.9927607 1.0051308
1.0021629 0.9972945 1.0002952 1.0006695 0.9998595 1.0025069 0.9999133 0.9985466
1.004819 0.99164563 1.0079509 0.99674964 1.0021898 1.0007495 1.0028551 1.0033774
1.0007042 1.000607 1.0013344 0.9965561 1.0047436 0.9999669 0.9944864 0.9996911
0.9995917 1.0039535 0.99899864 0.9987456 1.0013256 1.0010281 1.0020195 0.99294317
0.99364954 0.98369145 0.9970524 0.998883 0.9884457 1.0025069 1.0012357 1.0015346
1.0026237 0.9996717 1.0045497 1.001178 0.9984291 1.0009772 1.0026726 0.9984907
0.9985627 0.98763084 0.99646306 1.0021051 1.0000213 0.98874754 0.9989741 0.9964835
0.9985863 0.9990657 1.000531 0.99605554 1.0015819 0.9996747 0.99912596 0.9966576
1.001333 1.0069212 1.001062 0.9989155 0.9995782 0.9896411 0.99837756 0.99815506
0.9992594 0.9989285 1.001158 1.0083424 0.9968963 1.0076035 0.9922052 1.0009111
1.0008954 0.9931868 0.9985772 0.9995993 0.9929318 1.0023748 0.99549645 0.99844
00000000: 45d8 7f3f e8be 7f3f c940 803f 5530 803f
00000010: 1e75 7f3f fae5 7e3f 0230 803f 37dc 7f3f
00000020: 29aa 7e3f 7f32 7f3f 335e 7e3f 5b49 803f
00000030: 5c0b 803f f63e 803f feea 7e3f 7613 803f
00000040: 2d11 803f c209 803f 301f 803f 0e05 803f
00000050: 25cd 7f3f 0e25 803f 1756 7e3f 77e9 7f3f
00000060: b5da 7e3f 976d 7e3f 0ea8 7c3f 5430 7f3f
00000070: 129e 803f 6bde 7f3f fa0a 803f 77d3 803f
00000080: 5d03 803f bd12 803f e7ee 803f b5a7 7f3f
00000090: b3b9 7f3f c5e0 7f3f 0871 813f a11a 803f
000000a0: 5277 803f f011 803f 37d7 7f3f 494c 7f3f
000000b0: f0cc 7f3f 241c 803f 6838 803f ddd7 7f3f
000000c0: 2193 7f3f b4d2 7f3f cfa0 7f3f c069 7f3f
000000d0: 20b0 813f f008 803f 03bb 7e3f 922b 803f
000000e0: 4a5e 7f3f 55fe 7f3f 744e 7f3f ef29 813f
000000f0: e60b 803f 0f2c 7e3f 2408 803f 5a02 7f3f
00000100: 09ab 7f3f 610e 7f3f 727a 7f3f 17c1 803f
00000110: e5a5 7d3f b548 803f 6030 803f d3f3 7f3f
00000120: 7f48 803f 0602 803f a6d4 7e3f b06a 803f
00000130: bb0a 803f 88e7 7f3f a059 803f b28f 7e3f
00000140: 6892 803f 16bf 813f 7485 803f aa4b 803f
00000150: 48fd 7f3f c751 803f 422b 7f3f ac04 803f
00000160: b969 7f3f 9ba8 7f3f ae92 7f3f d40c 803f
00000170: e230 803f c731 7f3f 0a6f 7f3f 737c 803f
00000180: b20e 803f 94b9 803f 730a 803f 0f46 803f
00000190: 581f 803f e257 7f3f 52a8 803f bda0 7f3f
000001a0: d477 7f3f fd52 7f3f 7604 803f 5e5b 7f3f
000001b0: 0786 7b3f e549 813f 9ad9 7f3f c467 7f3f
000001c0: b2e2 7f3f 7014 803f 74c3 7f3f 8c4a 803f
000001d0: 97c9 7f3f 7b0b 813f 0052 803f 6cf8 7e3f
000001e0: 1fd3 7f3f a61c 803f 605c 7f3f 7191 803f
000001f0: cdea 7e3f e298 803f 9ec6 7f3f 9d55 7f3f
00000200: 9012 803f d74e 7f3f 6500 7f3f 4eb6 7f3f
00000210: 83fe 7e3f dcd3 7f3f d0ce 813f 45cc 7f3f
00000220: 9a10 803f 8e52 803f 8c20 7c3f cd59 803f
00000230: 28e5 7e3f 4e9e 7f3f 352f 803f 8c08 803f
00000240: 7180 803f e559 7f3f 1be2 7f3f 0664 803f
00000250: 8fb1 7f3f b9b6 7f3f eabf 7f3f fbed 7f3f
00000260: 2489 803f 0921 803f 9293 803f f77f 803f
00000270: 1741 803f 6fca 7f3f 61c5 7f3f fb35 803f
00000280: d981 7f3f 461e 803f 8cc4 7f3f 2db7 803f
00000290: 841e 803f 5eaa 7f3f 9125 7e3f 20a8 803f
000002a0: e046 803f b14e 7f3f ac09 803f f015 803f
000002b0: cbf6 7f3f 2552 803f 51fa 7f3f c0a0 7f3f
000002c0: e99d 803f 7ddc 7d3f 8904 813f fc2a 7f3f
000002d0: c147 803f 8f18 803f 8e5d 803f ac6e 803f
000002e0: 1317 803f e413 803f ba2b 803f 4d1e 7f3f
000002f0: 709b 803f d5fd 7f3f a996 7e3f c2eb 7f3f
00000300: 3ee5 7f3f 8c81 803f 60be 7f3f cbad 7f3f
00000310: 702b 803f b021 803f 2d42 803f 8631 7e3f
00000320: d15f 7e3f 34d3 7b3f d33e 7f3f ccb6 7f3f
00000330: c70a 7d3f 2552 803f 7e28 803f 4932 803f
00000340: f955 803f 7cea 7f3f 1695 803f 9a26 803f
00000350: 0d99 7f3f 0520 803f 9357 803f 169d 7f3f
00000360: cea1 7f3f 60d5 7c3f 3418 7f3f fb44 803f
00000370: b300 803f 8f1e 7d3f c4bc 7f3f 8b19 7f3f
00000380: 5aa3 7f3f c5c2 7f3f 6611 803f 7ffd 7e3f
00000390: d633 803f aeea 7f3f b8c6 7f3f f424 7f3f
000003a0: ae2b 803f cbe2 803f cd22 803f edb8 7f3f
000003b0: 5be4 7f3f 1e59 7d3f ac95 7f3f 1787 7f3f
000003c0: 77cf 7f3f c7b9 7f3f f225 803f 5d11 813f
000003d0: 9934 7f3f 27f9 803f 2901 7e3f db1d 803f
000003e0: 571d 803f 7d41 7e3f c1a2 7f3f bde5 7f3f
000003f0: c730 7e3f d14d 803f dbd8 7e3f c499 7f3f

net.2.base_weight f4 [64, 64]
-0.067241356 0.014405508 -0.0061188075 -0.215597 -0.056903087 -0.041593432 -0.054467965 -0.27300662
-0.020422863 -0.03394276 -0.12530668 0.09541098 0.1367591 -0.023758471 -0.00060155813 -0.047258005
0.1259291 0.0849032 0.104616754 -0.016895825 0.17159691 0.16455038 -0.08338406 -0.036139473
0.15712139 -0.10628049 0.08678129 0.018294886 -0.1112093 0.009025566 0.0029453433 0.008405796
-0.025779631 0.098718934 -0.019719385 0.10040741 -0.072847985 0.18392068 0.026729625 0.07756874
-0.023615554 -0.18684557 -0.03886728 0.09917527 -0.020292364 -0.16088577 0.031655468 -0.023029275
-0.13936856 0.04654577 -0.087230206 -0.0015649071 -0.14891641 -0.048191402 -0.04332203 -0.06345697
0.0577881 0.15706581 0.08217327 0.1180107 0.11695577 0.19904728 0.10623688 0.10217747
0.012749335 0.2500985 -0.13061133 -0.07558583 -0.032436963 -0.028209694 -0.05065005 0.07581704
0.019290097 0.03406636 -0.005796925 0.0051019494 0.07646883 -0.20385362 -0.09053216 -0.16518937
0.12220864 -0.21229722 -0.17908394 0.14162941 0.07029226 -0.10757466 0.05863925 0.18720995
0.0118206125 -0.12861092 -0.18274829 -0.083281316 0.057519935 -0.028773488 -0.010910781 0.09964451
0.088994496 -0.07150789 0.09469109 0.023562534 -0.052105892 -0.024838988 0.09316654 0.2662992
-0.10061956 -0.13712889 -0.15744218 -0.12465002 -0.109973535 0.109597765 -0.22513504 -0.07735946
0.10351176 -0.1976404 -0.11875045 -0.19145465 0.022235168 -0.029318402 -0.2548555 -0.16031006
0.048430227 0.09264696 0.13115287 0.050081447 -0.085568465 -0.13406864 0.1465468 -0.07165437
0.2176311 0.0012442617 0.111247756 -0.14256895 0.00841271 0.0050532264 -0.04349452 -0.04953124
0.034793403 -0.087250195 -0.04687986 0.011092771 -0.07198208 0.05078815 -0.19307685 -0.072132245
0.019396883 -0.123612955 0.044172127 -0.0076500713 -0.065335825 -0.13210134 0.048433546 0.027092265
0.05221282 0.0726115 0.029015776 -0.11520897 0.12258455 0.045875046 -0.15256935 0.032769457
0.009551979 -0.09007286 0.12490256 -0.042596042 -0.0022840719 -0.0018539327 0.018157229 -0.13897638
-0.0027976537 0.0030755834 -0.018727113 0.062048748 -0.1371087 0.05206937 -0.021213694 0.17197563
-0.11828309 -0.020161454 0.0982927 -0.0792159 -0.004546134 0.08324297 -0.12278858 0.17287341
-0.11090971 -0.029659934 0.082785554 0.020847706 -0.1466937 -0.013153925 0.057811793 -0.013643146
0.24084905 -0.09109966 0.065498516 -0.02717834 0.16230598 -0.07717066 0.086665936 -0.02546639
-0.13066427 0.14235215 0.15748842 0.07891257 -0.20111434 -0.08797705 -0.031033646 -0.018096453
-0.11950221 -0.008849948 0.10179672 -0.078209564 0.0040981523 0.042595018 0.15998362 -0.03796585
0.22621417 0.06673363 0.085769534 0.060966767 0.012151609 -0.05766882 0.071985476 -0.07276095
0.06907616 -0.017821044 -0.03911558 0.05566304 0.07401699 -0.0358984 0.0793908 -0.008635108
-0.07488341 0.11085019 -0.0042259735 -0.05075188 -0.013454386 0.0408616 0.06281041 0.032725476
0.017180473 0.12419052 0.0028650344 -0.1536399 -0.03608927 0.047589116 0.08538077 -0.032847036
0.021527339 -0.022295266 0.12150142 -0.12635005 -0.010306901 -0.042769387 -0.13645099 -0.10713032
00000000: d6b5 89bd 1405 6c3c 4780 c8bb 76c5 5cbe
00000010: 3613 69bd e05d 2abd cd19 5fbd 86c7 8bbe
00000020: d94d a7bc 9007 0bbd 6550 00be d566 c33d
00000030: 940a 0c3e 20a1 c2bc e2b1 1dba 9c91 41bd
00000040: 8ff3 003e bbe1 ad3d 4f41 d63d 1d69 8abc
00000050: 1ab7 2f3e e57f 283e 43c5 aabd fc06 14bd
00000060: 6ee4 203e 96a9 d9bd 64ba b13d 28df 953c
00000070: b4c1 e3bd f8df 133c a906 413b 77b8 093c
00000080: ce2f d3bc 272d ca3d 8c8a a1bc 66a2 cd3d
00000090: 5331 95bd b455 3c3e 16f8 da3c 5cdc 9e3d
000000a0: 6875 c1bc 7254 3fbe 4c33 1fbd 671c cb3d
000000b0: 2c3c a6bc 3dbf 24be 2aa9 013d e4a7 bcbc
000000c0: a2b6 0ebe c7a6 3e3d c0a5 b2bd 921d cdba
000000d0: 8b7d 18be 5964 45bd 7172 31bd baf5 81bd
000000e0: 37b3 6c3d dcd5 203e 764a a83d 98af f13d
000000f0: 8286 ef3d 0dd3 4b3e b992 d93d 6c42 d13d
00000100: 96e2 503c e90c 803e fabe 05be becc 9abd
00000110: 9fdc 04bd 0418 e7bc 6d76 4fbd f745 9b3d
00000120: 4406 9e3c 2b89 0b3d 22f4 bdbb 412e a73b
00000130: b19b 9c3d 01bf 50be ed68 b9bd 6727 29be
00000140: 8648 fa3d 7164 59be c861 37be 4d07 113e
00000150: 63f5 8f3d 1a50 dcbd b62f 703d f7b3 3f3e
00000160: 3eab 413c 95b2 03be 5e22 3bbe 658f aabd
00000170: 069a 6b3d 61b6 ebbc 22c3 32bc 6c12 cc3d
00000180: bf42 b63d bb72 92bd 67ed c13d 3706 c13c
00000190: fd6c 55bd 227b cbbc 19ce be3d 5e58 883e
000001a0: a111 cebd 846b 0cbe 8638 21be 8248 ffbd
000001b0: ce39 e1bd cb74 e03d cd89 66be a36e 9ebd
000001c0: f9fd d33d 3f62 4abe 7033 f3bd b00c 44be
000001d0: 8726 b63c 252d f0bc 6c7c 82be 5228 24be
000001e0: c65e 463d b0bd bd3d f04c 063e 3422 4d3d
000001f0: 853e afbd 4a49 09be 5d10 163e 87bf 92bd
00000200: b0da 5e3e 7f16 a33a ddd5 e33d 98fd 11be
00000210: 77d5 093c 8995 a53b 4f27 32bd 45e1 4abd
00000220: 8783 0e3d 3bb0 b2bd 1905 40bd 74be 353c
00000230: 576b 93bd 3c07 503d f0b5 45be 12ba 93bd
00000240: 36e6 9e3c ca28 fdbd d5ed 343d 73ad fabb
00000250: cace 85bd 9345 07be 4162 463d 99f0 dd3c
00000260: 1cdd 553d 57b5 943d 7eb2 ed3c aef2 ebbd
00000270: 9c0d fb3d 79e7 3b3d 243b 1cbe 4439 063d
00000280: e77f 1c3c 1f78 b8bd eacc ff3d 3079 2ebd
00000290: 5eb0 15bb a9ff f2ba 78be 943c d34f 0ebe
000002a0: d758 37bb ba8f 493b 9a69 99bc d426 7e3d
000002b0: 3966 0cbe b146 553d 57c8 adbc 611a 303e
000002c0: 683e f2bd a229 a5bc af4d c93d f23b a2bd
000002d0: bcf7 94bb 4a7b aa3d 9478 fbbd ba05 313e
000002e0: a124 e3bd 64f9 f2bc 798b a93d cfc8 aa3c
000002f0: e036 16be 8f83 57bc 0fcc 6c3d 8087 5fbc
00000300: 22a1 763e 7592 babd 1624 863d 1ca5 debc
00000310: 8a33 263e a70b 9ebd e97d b13d e49e d0bc
00000320: dbcc 05be c3c4 113e a544 213e ea9c a13d
00000330: ebf0 4dbe 502d b4bd 463a febc 033f 94bc
00000340: 93bd f4bd 5fff 10bc cc7a d03d 562c a0bd
00000350: cb49 863b 1d78 2e3d bfd2 233e 1482 1bbd
00000360: b0a4 673e a4ab 883d f0a7 af3d 4ab8 793d
00000370: 8b17 473c 2436 6cbd 1f6d 933d b103 95bd
00000380: cd77 8d3d 70fd 91bc a937 20bd eefe 633d
00000390: 3896 973d 330a 13bd a597 a23d 457a 0dbc
000003a0: 795c 99bd 6d05 e33d 097a 8abb 34e1 4fbd
000003b0: c96f 5cbc 7e5e 273d bfa2 803d 260b 063d
000003c0: 10be 8c3c 9957 fe3d 4dc3 3b3b c753 1dbe
000003d0: 58d2 13bd ceec 423d 1ddc ae3d 9d8a 06bd
000003e0: 1a5a b03c 90a4 b6bc bdd5 f83d e861 01be
000003f0: 47de 28bc f42e 2fbd cfb9 0bbe 2467 dbbd

net.2.grid_points f4 [5]
-2.0 -1.0 0.0 1.0 2.0
00000000: 0000 00c0 0000 80bf 0000 0000 0000 803f
00000010: 0000 0040

net.3.coeff f4 [1, 64, 5]
-0.008660226 0.10293181 0.07258595 -0.019806746 0.002601201 -0.05569372 0.016329763 0.11841241
-0.024355004 -0.01982346 -0.11990437 0.123684764 0.112079084 0.030383596 0.11243618 0.039986596
0.016948963 0.02196622 0.055979636 -0.08178067 0.060644846 -0.05394283 0.06992183 0.042924624
0.080549985 0.0006356499 -0.023455318 0.080933966 0.0026492507 -0.14999656 -0.029788258 -0.033519696
0.017872129 -0.01660505 -0.07293686 0.08426648 0.14190428 -0.14391686 -0.09639023 0.07201914
0.07868908 -0.20344514 -0.09360874 0.03460139 -0.0040987493 0.13364357 -0.035856992 -0.11434144
-0.03787461 -0.13856845 -0.092256404 0.1324715 0.009502063 0.09995754 -0.03748949 0.061994657
-0.038041763 0.045156386 0.0136138415 0.08344577 0.082231745 -0.083065934 0.043245815 0.0017332616
-0.04885451 0.02252943 0.10682158 -0.12824976 -0.23252709 -0.066572696 -0.066966236 0.0038274191
0.18954088 -0.07199062 -0.055878155 -0.024282772 -0.002159358 -0.021496119 -0.014996922 0.12098481
0.10087784 0.04803216 0.15527807 0.09362252 0.1114817 -0.102990136 -0.09640267 -0.09697268
0.15515864 -0.10260233 -0.07182537 0.028853467 -0.03166068 -0.07836077 -0.04486858 0.24754025
-0.0071976897 -0.03999803 -0.0042892336 0.0889167 -0.07971497 0.11422044 -0.098592386 -0.1989069
-0.014296665 0.07474695 -0.12893568 -0.35638338 0.045149896 -0.060127337 -0.13132174 -0.1581395
0.089970306 0.13080762 -0.011793619 -0.1710061 -0.1626236 -0.10920978 -0.026816266 0.06555278
-0.018076573 0.046590567 -0.069230415 -0.031138694 -0.09911664 -0.1346749 0.101495676 -0.023641538
0.08637614 0.055754993 0.054136246 0.02304598 0.11193701 -0.09988092 0.06828521 0.104249895
0.10153182 0.078365535 -0.03713729 0.0009887064 0.03740782 0.009986692 -0.04425658 -0.1601247
0.19043235 -0.06468937 0.05008817 0.17273827 0.10019564 0.03466715 -0.06727644 0.19059338
0.015458717 0.14762814 0.04050234 0.021194793 0.06629618 -0.0020836152 0.07616442 0.046834383
-0.2065773 -0.031867143 -0.081975386 0.026676713 0.17328104 0.0088896 0.27260363 -0.06836842
-0.05877579 -0.08057922 -0.065806225 -0.008234035 -0.029081415 -0.14258629 0.1009131 -0.15577318
-0.07736731 0.08530883 0.020574685 -0.04188033 -0.05534728 -0.028035074 -0.13397895 0.010155293
-0.049806092 0.075201735 0.08481844 -0.02806158 -0.06540902 -0.073261745 -0.0034228782 0.0007378407
0.07018829 0.015934533 0.19845621 0.15840307 -0.04901806 0.04347961 0.043282315 0.11754797
-0.019708334 0.18890552 -0.016214963 -0.07629341 0.15159786 0.032912526 -0.11628656 0.11410365
0.08629977 0.03773541 -0.09133202 -0.062160503 -0.13728955 -0.080093406 -0.17798819 0.09498734
-0.16611479 0.1326159 -0.11326739 -0.03561671 0.07865998 -0.08618102 0.027755994 0.10842758
-0.016117994 0.058382 -0.052192017 -0.007932171 -0.058055192 0.12003859 -0.10255973 -0.03974176
-0.17276809 -0.036664415 -0.042256843 -0.10545145 -0.19931348 -0.13648759 -0.09194068 0.12463535
0.06276412 -0.10695744 -0.09501026 -0.050070006 0.03074389 0.07248064 -0.15754318 -0.06769681
0.16378765 0.11558945 -0.31824154 0.04959743 0.07434288 -0.16844033 -0.03781361 -0.069952205
00000000: 9fe3 0dbc eacd d23d f1a7 943d c241 a2bc
00000010: e978 2a3b 191f 64bd ffc5 853c 3582 f23d
00000020: 2584 c7bc cf64 a2bc 6c90 f5bd 704e fd3d
00000030: b889 e53d 05e7 f83c f144 e63d fcc8 233d
00000040: 8dd8 8a3c 81f2 b33c e74a 653d a07c a7bd
00000050: bb66 783d 28f3 5cbd 2d33 8f3d bbd1 2f3d
00000060: 64f7 a43d bea1 263a 5e25 c0bc b5c0 a53d
00000070: 0d9f 2d3b b398 19be 8106 f4bc f34b 09bd
00000080: 9268 923c 5007 88bc ec5f 95bd e793 ac3d
00000090: 5b4f 113e f15e 13be 3e68 c5bd c57e 933d
000000a0: be27 a13d ec53 50be f0b5 bfbd 30ba 0d3d
000000b0: cd4e 86bb dcd9 083e c8de 12bd d82b eabd
000000c0: 6822 1bbd e3e4 0dbe edf0 bcbd 9ca6 073e
000000d0: 8aae 1b3c 8ab6 cc3d 948e 19bd 1cee 7d3d
000000e0: aed1 1bbd e7f5 383d 970c 5f3c 9ee5 aa3d
000000f0: 1e69 a83d 791e aabd 8622 313d 9c2e e33a
00000100: ab1b 48bd a48f b83c 46c5 da3d e853 03be
00000110: 951b 6ebe 4457 88bd 9825 89bd 70d5 7a3b
00000120: 0117 423e d16f 93bd 7ee0 64bd aaec c6bc
00000130: 0484 0dbb a118 b0bc a6b5 75bc e2c6 f73d
00000140: 0a99 ce3d 5fbd 443d 3701 1f3e 2abd bf3d
00000150: 8450 e43d 7eec d2bd c36e c5bd 9d99 c6bd
00000160: e8e1 1e3e 2c21 d2bd 2e19 93bd 1b5e ec3c
00000170: a1ae 01bd 9d7b a0bd 1ec8 37bd 317b 7d3e
00000180: 99da ebbb f9d4 23bd b38c 8cbb f519 b63d
00000190: 9a41 a3bd 68ec e93d ceea c9bd 40ae 4bbe
000001a0: 8f3c 6abc ee14 993d b707 04be e277 b6be
000001b0: 19ef 383d 1548 76bd 3579 06be 52ef 21be
000001c0: 5a42 b83d 6ff2 053e 063a 41bc 391c 2fbe
000001d0: cd86 26be 61a9 dfbd c9ad dbbc 8940 863d
000001e0: 5215 94bc c0d5 3e3d adc8 8dbd 9316 ffbc
000001f0: aafd cabd 38e8 09be f7dc cf3d e6ab c1bc
00000200: f9e5 b03d 595f 643d f8bd 5d3d ecca bc3c
00000210: 3b3f e53d 5e8e ccbd 1ed9 8b3d f880 d53d
00000220: eaef cf3d 1c7e a03d 451d 18bd 7b97 813a
00000230: f138 193d 399f 233c 6346 35bd bbf7 23be
00000240: b300 433e dc7b 84bd 4129 4d3d 4de2 303e
00000250: 5f33 cd3d 24ff 0d3d 3bc8 89bd e92a 433e
00000260: 8f46 7d3c d52b 173e c8e5 253d b4a0 ad3c
00000270: 4bc6 873d 438d 08bb 17fc 9b3d 69d5 3f3d
00000280: 0089 53be 1f87 02bd b6e2 a7bd 1f89 da3c
00000290: 9670 313e afa5 113c b492 8b3e be04 8cbd
000002a0: e2be 70bd b806 a5bd 6ac5 86bd 0ce8 06bc
000002b0: 263c eebc 2402 12be 87ab ce3d 0183 1fbe
000002c0: c172 9ebd 65b6 ae3d 3e8c a83c b58a 2bbd
000002d0: d4b3 62bd d0a9 e5bc c731 09be 6362 263c
000002e0: 7901 4cbd 5e03 9a3d 4ab5 ad3d 66e1 e5bc
000002f0: 2af5 85bd 410a 96bd 5e52 60bb a76b 413a
00000300: e1be 8f3d 2389 823c 1b38 4b3e 6a34 223e
00000310: 29c7 48bd ad17 323d cc48 313d fdbc f03d
00000320: 5f73 a1bc 7370 413e 3ed5 84bc b83f 9cbd
00000330: 783c 1b3e 49cf 063d a627 eebd 2daf e93d
00000340: efbd b03d 7290 1a3d 480c bbbd 039c 7ebd
00000350: a295 0cbe 0308 a4bd 8942 36be b988 c23d
00000360: ff19 2abe 76cc 073e bcf8 e7bd d4e2 11bd
00000370: 7c18 a13d ad7f b0bd 8a60 e33c 470f de3d
00000380: e209 84bc f721 6f3d 4cc7 55bd f0f5 01bc
00000390: 48cb 6dbd cbd6 f53d d60a d2bd 41c8 22bd
000003a0: 1eea 30be 6d2d 16bd 8315 2dbd eef6 d7bd
000003b0: d518 4cbe 67c3 0bbe 654b bcbd d240 ff3d
000003c0: 7a8a 803d 810c dbbd bd94 c2bd 3516 4dbd
000003d0: 9cda fb3c bb70 943d 0053 21be a0a4 8abd
000003e0: f3b7 273e 29ba ec3d 8ef0 a2be ad26 4b3d
000003f0: 1441 983d 9f7b 2cbe 72e2 1abd 1a43 8fbd

net.3.scale f4 [1, 64]
0.99479187 1.002272 0.9999128 0.99587625 0.9952606 1.0000695 0.9890796 0.999357
1.0005338 0.9959366 0.998368 0.9984752 0.9937386 1.0015764 0.99815196 0.99583703
1.0001584 1.00189 0.99998987 1.0208169 0.9965619 0.996145 1.0002595 1.0004721
0.9882187 1.0071472 0.99919313 1.0015486 0.9905346 1.0010033 1.0004008 0.99904317
1.0018419 0.9954302 1.0032649 1.0009221 0.99881613 1.0001191 1.0004464 0.99974686
0.98153985 1.0035665 1.0005745 1.0066084 1.001549 1.0020578 1.0019311 1.0049655
0.99956405 0.99834734 0.99934614 0.998668 0.99862295 0.9884871 0.9986964 0.99922544
0.9983802 1.0016266 1.0009768 1.0004225 0.9998352 0.9999627 0.99757034 0.99842715
00000000: aeaa 7e3f 734a 803f 49fa 7f3f bff1 7e3f
00000010: 66c9 7e3f 4702 803f 5234 7d3f dcd5 7f3f
00000020: 7e11 803f b3f5 7e3f 0c95 7f3f 129c 7f3f
00000030: a765 7e3f a833 803f e386 7f3f 2def 7e3f
00000040: 3105 803f ee3d 803f 56ff 7f3f 21aa 823f
00000050: ae1e 7f3f 5c03 7f3f 8108 803f 780f 803f
00000060: e7fb 7c3f 33ea 803f 1fcb 7f3f bf32 803f
00000070: ad93 7d3f e020 803f 220d 803f 4bc1 7f3f
00000080: 5b3c 803f 83d4 7e3f fc6a 803f 371e 803f
00000090: 6ab2 7f3f e703 803f a10e 803f 69ef 7f3f
000000a0: 3246 7b3f de74 803f d312 803f 8bd8 803f
000000b0: c232 803f 6e43 803f 473f 803f b6a2 803f
000000c0: 6ee3 7f3f b193 7f3f 26d5 7f3f b5a8 7f3f
000000d0: c1a5 7f3f 7e0d 7d3f 91aa 7f3f 3dcd 7f3f
000000e0: d895 7f3f 4d35 803f 0220 803f d80d 803f
000000f0: 33f5 7f3f 8efd 7f3f c560 7f3f ec98 7f3f

net.3.base_weight f4 [1, 64]
0.09100443 -0.15541817 -0.0043583764 -0.13380806 0.036787633 0.08882705 -0.14921147 -0.0039971215
-0.07280629 0.0029043006 0.07577265 0.106541745 0.22221927 -0.072246075 0.09016488 0.1083292
-0.049231477 0.041375205 0.13980821 0.083424546 -0.19621201 -0.09775198 0.130788 -0.15318109
-0.06225384 0.11572035 0.06116251 0.03139172 -0.03385116 -0.14091608 -0.08818127 0.014518887
-0.003950804 0.19118461 -0.050722267 -0.031380404 0.14410403 0.022219013 0.090883054 -0.055055734
-0.0042135357 0.037714504 -0.051300067 -0.14413618 -0.16409642 0.07923691 0.087433055 0.023044005
0.059513267 0.06582591 -0.084832646 -0.018325988 0.01948803 0.15103789 0.10361297 0.044814747
0.04849054 0.036099344 -0.13657627 -0.10930887 0.025093118 -0.10746024 -0.110005826 0.0052261846
00000000: 8860 ba3d f125 1fbe b6d0 8ebb fb04 09be
00000010: a1ae 163d f5ea b53d e4ca 18be 49fa 82bb
00000020: 771b 95bd 1456 3e3b b12e 9b3d 8f32 da3d
00000030: 738d 633e c0f5 93bd 5da8 b83d b3db dd3d
00000040: f2a6 49bd 0c79 293d e229 0f3e 7dda aa3d
00000050: cdeb 48be 3132 c8bd 4aed 053e 81db 1cbe
00000060: e2fd 7ebd cafe ec3d 8a85 7a3d 9b94 003d
00000070: 84a7 0abd 4e4c 10be 6298 b4bd a0e0 6d3c
00000080: bf75 81bb e6c5 433e 27c2 4fbd bd88 00bd
00000090: 0290 133e a604 b63c e520 ba3d 1f82 61bd
000000a0: b311 8abb 867a 1a3d 0520 52bd 6f98 13be
000000b0: e408 28be f646 a23d 1a10 b33d c8c6 bc3c
000000c0: 2fc4 733d bccf 863d bdbc adbd 6220 96bc
000000d0: 5ca5 9f3c ada9 1a3e 0933 d43d ab8f 373d
000000e0: 049e 463d e8dc 133d a6da 0bbe 54dd dfbd
000000f0: 1590 cd3c 1d14 dcbd bc4a e1bd 6a40 ab3b

net.3.grid_points f4 [5]
-2.0 -1.0 0.0 1.0 2.0
00000000: 0000 00c0 0000 80bf 0000 0000 0000 803f
00000010: 0000 0040
