data/trained_models/base_mu2_a_snn.pth (torch, 118778 bytes, 5 tensors)

fc1.weight f4 [64, 374]
0	0xbccda8c3	-0.025104886
1	0x3d54663b	0.051855307
2	0xbcbe6d91	-0.023245605
3	0x3d1a5668	0.03768006
4	0x3ba86c0c	0.0051398333
5	0x3cbba12a	0.022903997
6	0x3b1846a1	0.0023235457
7	0x3bfa1923	0.007632391
8	0x3c95b1bf	0.018273233
9	0x3d117a48	0.035517007
10	0xbc9cc972	-0.019139025
11	0xbd041d34	-0.032254413
12	0xbcc422b7	-0.023942335
13	0xbd363ce4	-0.044491664
14	0xbc8fb838	-0.017543897
15	0xbd306bd3	-0.04307158
16	0xbd365f35	-0.04452439
17	0xbd22e2f9	-0.03976724
18	0xbd15874e	-0.03650599
19	0x3d01a93a	0.031655528
20	0x3ce89749	0.02839245
21	0x3d5da68e	0.054113917
22	0x3d117f55	0.035521824
23	0x3b4d4064	0.0031318897
24	0x3d3908e8	0.04517451
25	0xbcabe8e1	-0.020985069
26	0xbd09af74	-0.03361459
27	0x3c94250c	0.018084072
28	0xbc7e4560	-0.01551947
29	0x3d2a2a15	0.04154404
30	0xbcf506fa	-0.029910553
31	0xb984e1f6	-0.00025345356
32	0xbd488ef8	-0.04896447
33	0x3d5b1bb7	0.053493228
34	0x3d60e3a3	0.05490459
35	0xbd3ad5b1	-0.04561395
36	0x3cc50a27	0.024052693
37	0x3ca0ff0c	0.019652866
38	0xbc6e0bf7	-0.01452922
39	0xbd2fce2a	-0.042921223
40	0xbd1a4c98	-0.0376707
41	0xbaa5fdf9	-0.0012664191
42	0x3d2b7e26	0.04186835
43	0xbcdf26f0	-0.027240247
44	0x3cf29a02	0.029614452
45	0xbcb0773d	-0.021541232
46	0x3cc94696	0.02456979
47	0xbd113a44	-0.035455957
48	0x3d5ad85d	0.053428996
49	0x3cc7328c	0.024316095
50	0x3bd24c3c	0.0064177793
51	0x3ce316c9	0.027720826
52	0x3b43cc88	0.0029876549
53	0xbcec8bd1	-0.028875263
54	0xbd0bb953	-0.034112286
55	0x3c9d4c1f	0.019201336
56	0x3cf39ed4	0.029738821
57	0xbc33112c	-0.010929387
58	0xbb902526	-0.0043989597
59	0xbd29bd3e	-0.04144024
60	0x3d4875fd	0.048940647
61	0xbce21dc1	-0.027602078
62	0x3cdffde1	0.027342739
63	0xbc168a5a	-0.009188259
64	0x3d2e339e	0.042529695
65	0x3d65b498	0.05608043
66	0x3d3a1b47	0.04543617
67	0xbd07e0e4	-0.033173457
68	0xbb8c273e	-0.004277139
69	0xba7d4dc0	-0.000966277
70	0x3c9e34bb	0.019312253
71	0xbc16183c	-0.009161051
72	0x3c659e68	0.014014818
73	0xb9ae4976	-0.000332426
74	0x3d07c464	0.033146277
75	0xbbf6c18a	-0.007530396
76	0x3d3f0b14	0.046641424
77	0x3ce20c37	0.027593715
78	0xbcff9e1e	-0.031203326
79	0xbcce1faa	-0.025161583
80	0xbc818e24	-0.015814848
81	0xbd22e5da	-0.039769985
82	0xbd0551ea	-0.032548822
83	0xbc2a6268	-0.010399438
84	0x3d2609ad	0.04053657
85	0x3d41fdda	0.047361232
86	0x3c89790d	0.016781354
87	0x3d20dec9	0.039274964
88	0xbcf8ac13	-0.030355489
89	0xbd2ac5dd	-0.041692603
90	0x3d528d49	0.05140427
91	0x3c9aaa94	0.018880166
92	0x3cad83e0	0.021181047
93	0xbcb43139	-0.021996127
94	0x3c2dcfca	0.010608623
95	0x3c1b259a	0.009469414
96	0xbd23b186	-0.03996422
97	0x3cc5ed7e	0.024161097
98	0x3cdcc4a3	0.026949232
99	0x3d0d3814	0.03447731
100	0xbc5f39df	-0.013624637
101	0x3d2ab9bf	0.041681048
102	0x3ca80365	0.020509431
103	0xbd0955d5	-0.03352912
104	0x3d1e0aea	0.038584627
105	0x3bc749a7	0.006081778
106	0x3d120a2f	0.035654243
107	0xbb88d19b	-0.0041753775
108	0x3bc6ea4c	0.006070411
109	0xbc4675f4	-0.012113083
110	0xbcf45036	-0.029823404
111	0x3b9fdb96	0.0048784716
112	0xbcda58b0	-0.026653618
113	0xbba915ae	-0.005160055
114	0x3d3be3cf	0.045871552
115	0xbd115d3c	-0.035489306
116	0x3d36fbeb	0.04467384
117	0x3d608723	0.054816376
118	0xbd426fd3	-0.047469925
119	0x3cc42f25	0.023948262
120	0xbce0b0ae	-0.027427997
121	0x3b9e71d1	0.0048353453
122	0xbd2f1487	-0.042744186
123	0x3c351b9a	0.011053944
124	0xbc26645a	-0.010155762
125	0x3d327a23	0.04357351
126	0xbc19bdce	-0.009383632
127	0x3b71bfac	0.0036887927
128	0xbcb796f7	-0.022410853
129	0x3ca70e48	0.020392552
130	0xbc7a18c4	-0.015264694
131	0xbd03c764	-0.032172576
132	0x3d1fd448	0.039020807
133	0xbd3be89f	-0.04587614
134	0x3c7ff5d8	0.015622579
135	0xbd4034b3	-0.046925258
136	0x3c9fec48	0.019521847
137	0x3cbfe2d9	0.0234236
138	0xbc9c8def	-0.019110648
139	0x3d209817	0.039207544
140	0x3cff4713	0.03116182
141	0x3d3c5ef0	0.045988977
142	0xbd21ba46	-0.039484285
143	0xbd275f7a	-0.040862538
144	0xbc72f677	-0.01482927
145	0x3c883f35	0.016631702
146	0x3d0b218f	0.03396755
147	0xbaa934e6	-0.0012909442
148	0x3d2aa3b3	0.041660022
149	0xbd28bd9e	-0.041196458
150	0x3cf0b92a	0.029385168
151	0xbcbf10a8	-0.023323372
152	0x3ba98ade	0.005174025
153	0x3d00b9ee	0.031427316
154	0xbd00d7a4	-0.03145565
155	0xbd46aab5	-0.048502643
156	0x3cc3b71d	0.023891026
157	0xbca2de9c	-0.019881539
158	0xbd21cd14	-0.03950222
159	0xbd3a46db	-0.04547773
160	0x3d1307b7	0.03589603
161	0xbc90c9e2	-0.01767439
162	0xbcbf1f11	-0.023330243
163	0x3cc3fe8a	0.023925085
164	0xbc1bae8f	-0.009502067
165	0x3d1bad7c	0.038007244
166	0xbd25b81e	-0.04045879
167	0xbd2eada9	-0.042646084
168	0xbb65cfac	-0.003506641
169	0x3cb4e59c	0.022082143
170	0x3d130749	0.03589562
171	0xbb273926	-0.002551624
172	0x3cb409c8	0.02197732
173	0x3ccbe956	0.024891537
174	0xbc5632a4	-0.013073597
175	0xbcb4b8aa	-0.022060711
176	0x3c059802	0.008153917
177	0xbc15f624	-0.009152923
178	0xbd176d46	-0.036969446
179	0xbc490850	-0.012270048
180	0xbd369f31	-0.04458541
181	0x3c3658ba	0.0111295525
182	0x3d48311f	0.04887497
183	0x3cf47cd6	0.029844683
184	0x3d3fdb3b	0.046839934
185	0xbd0fc02b	-0.035095375
186	0xbd296ab4	-0.041361526
187	0xbcfc8f61	-0.030830087
188	0x3d35be11	0.044370715
189	0x3c6c4208	0.01442004
190	0x3c392bea	0.011301974
191	0xbd049204	-0.032365814
192	0x3c08f7ee	0.008359892
193	0x3c3278a2	0.010893019
194	0x3ac0a9cc	0.0014699041
195	0xbc00e37a	-0.007866735
196	0xbd13dd1d	-0.036099542
197	0xbcabc336	-0.020967107
198	0xbb16d306	-0.0023013963
199	0x3c93846e	0.018007483
200	0x3c17b1f9	0.009258741
201	0x3b9fbc4f	0.004874743
202	0xbd148f9e	-0.036269777
203	0x3d2fe3c1	0.042941812
204	0x3cd9f039	0.026603805
205	0xbc0e8f55	-0.008701165
206	0xbd05e43f	-0.032688376
207	0xbc93bcee	-0.018034425
208	0xbd00d78d	-0.031455565
209	0x3d3f3df0	0.046689928
210	0xbc7dab9b	-0.015482808
211	0xbcef10f2	-0.029182885
212	0x3d1d848b	0.03845648
213	0x3ca868ea	0.02055784
214	0x3c8d2099	0.017227458
215	0x3b6493da	0.0034878165
216	0x3bfc7b7c	0.00770515
217	0xbbcfc203	-0.0063402667
218	0x3d5d2a73	0.05399556
219	0xbce27686	-0.027644407
220	0x3a9466e6	0.001132217
221	0xbc33c575	-0.01097237
222	0xbd20da34	-0.039270595
223	0xbd259470	-0.040424764
224	0xbd460e51	-0.048353497
225	0x3c9367bc	0.0179938
226	0xbd20cd13	-0.039258074
227	0x3d3ed6db	0.04659162
228	0xb8d0c1e4	-9.954328e-05
229	0x3d42d0f3	0.04756255
230	0xbc91f885	-0.017818699
231	0xbc815475	-0.015787343
232	0xbc002f41	-0.007823766
233	0x3ce543a3	0.027986353
234	0xbbca795c	-0.006179018
235	0x3ca560bf	0.020187734
236	0xbccce16a	-0.02500983
237	0xbcf4e495	-0.029894153
238	0xbbbfa1fc	-0.0058481675
239	0x3cf6eafe	0.03014135
240	0x3bb856d4	0.005625585
241	0xbbc4624c	-0.005993163
242	0x3c457a0a	0.012053022
243	0xbd0fa5e8	-0.03507033
244	0x3d33a51d	0.043858636
245	0x3c7d719c	0.015468981
246	0x3cb9120f	0.022591619
247	0x3c8078bc	0.01568257
248	0x3d1c4bcf	0.038158234
249	0xbc800e52	-0.015631828
250	0x3d036002	0.032073982
251	0x3ceb6aef	0.028737513
252	0xbccdceaf	-0.025122968
253	0xbc0f169c	-0.008733418
254	0x3d32251b	0.043492418
255	0x3ce1fa2e	0.027585115

fc1.bias f4 [64]
0	0xbd087cc3	-0.033322107
1	0xbcf0f82a	-0.029415209
2	0xbcc7c03d	-0.024383659
3	0x3c804931	0.0156599
4	0xbd65ce76	-0.0561051
5	0x3c8677d5	0.016414562
6	0x3c32032a	0.010865012
7	0xbc827bf3	-0.015928244
8	0x3d013b47	0.031550672
9	0xbca4bcee	-0.02010962
10	0xbc8c4002	-0.017120365
11	0xbd22e048	-0.039764673
12	0x3cc7d8a0	0.024395287
13	0xbd2a0802	-0.041511543
14	0xbc0ffd6c	-0.008788448
15	0x3cba9d10	0.022779971
16	0xbce7c80f	-0.028293638
17	0xbcf2b265	-0.02962608
18	0xbd1779c3	-0.036981355
19	0x3d360976	0.044442616
20	0xbd4ccc52	-0.049999543
21	0xbd26a63f	-0.04068589
22	0x3ccd0c5a	0.025030304
23	0xbd0f0c50	-0.03492385
24	0x3d4268ad	0.047463108
25	0x3c5ab870	0.013349637
26	0x3d58b21d	0.052904237
27	0x3d44af98	0.04801902
28	0xbcd5d98c	-0.026104711
29	0x3d4102b6	0.047121726
30	0xbd10ff89	-0.035399947
31	0x3d2dd1dd	0.04243647
32	0xbaa2ac24	-0.0012410921
33	0xbd4e4f00	-0.05036831
34	0xbd010193	-0.031495642
35	0x3d4fa503	0.050694477
36	0x3d66df23	0.056365144
37	0xbd564960	-0.05231607
38	0xbc7cd138	-0.015430741
39	0x3ca1b6a5	0.019740412
40	0xbbe031e5	-0.0068418854
41	0x3d27e376	0.040988408
42	0xbc5d3e21	-0.013503582
43	0x3cdea321	0.027177395
44	0xbc558225	-0.013031517
45	0xbd201fc4	-0.039092794
46	0x3d35e612	0.044408865
47	0xbccbcb9f	-0.024877368
48	0xbd506544	-0.050877824
49	0x3d0c52ab	0.034258526
50	0xb9c951a1	-0.00038398526
51	0x3c3ae1f6	0.011406412
52	0xbbb37843	-0.005476983
53	0xbc6ea318	-0.014565252
54	0x3bea325d	0.007147117
55	0x3d2d3a6b	0.04229204
56	0x3b4682d9	0.0030290394
57	0xbcb80454	-0.022463001
58	0xbad551ba	-0.0016274967
59	0xbd1fafb6	-0.03898593
60	0xbc9c72a5	-0.019097636
61	0xbb938159	-0.0045015034
62	0xbc07505d	-0.008258906
63	0x3c840cbf	0.016119359

fc2.weight f4 [64, 64]
0	0x3b86ddf3	0.004115814
1	0xbdc36b53	-0.09541955
2	0xbdd21fad	-0.10259948
3	0xbd273ad0	-0.040827572
4	0x3c96887e	0.018375631
5	0x3d76b18d	0.06022792
6	0x3cb92ffe	0.022605892
7	0x3d66a818	0.05631265
8	0x3d3aaaa7	0.045572903
9	0x3dbc9608	0.09208304
10	0x3d95bf94	0.07311931
11	0x3d79422e	0.06085413
12	0x3d8c8dea	0.068630055
13	0xbd7ace74	-0.061232045
14	0x3cc30384	0.023805387
15	0xbe047227	-0.1293417
16	0x3da18ca2	0.07888152
17	0x3dc29a83	0.09502127
18	0xbd6f924c	-0.05848913
19	0x3dcbc925	0.09950475
20	0xbde0a6d2	-0.109693184
21	0xbd8453a8	-0.06461269
22	0xbdbc2fe9	-0.09188826
23	0x3b80a8cc	0.003926372
24	0xbdcdb1a2	-0.100436464
25	0x3d8bf506	0.06833844
26	0xbdae6754	-0.08515802
27	0x3dfccc22	0.12343623
28	0xbcafd136	-0.021462064
29	0xbd6dfee3	-0.058104407
30	0x3da498fa	0.080369905
31	0xbd6db068	-0.058029562
32	0xbde8c630	-0.11365926
33	0xbdf2a872	-0.11848535
34	0x3c8b3226	0.016991686
35	0x3cc3c348	0.023896828
36	0x3d9b3575	0.075785555
37	0x3d7a0397	0.06103858
38	0x3d86789f	0.065659754
39	0x3da058ea	0.07829459
40	0xbb1817bc	-0.0023207506
41	0xbcb19746	-0.021678578
42	0x3db4e482	0.08832647
43	0xbd104f06	-0.035231613
44	0x3df65ebc	0.12029788
45	0x3d98aab8	0.07454437
46	0xbd85dcc8	-0.06536251
47	0xbcf84872	-0.030307982
48	0x3d070c82	0.032970913
49	0x3d7eae6e	0.062178068
50	0xbde112f4	-0.10989943
51	0xbdb16a46	-0.08662848
52	0xbd96082f	-0.0732578
53	0x3d89c7ec	0.06727585
54	0xbce16610	-0.027514488
55	0x3d4a2c3c	0.04935859
56	0xbd965a21	-0.073414095
57	0xbd730e70	-0.05933994
58	0xbc666994	-0.014063258
59	0xbd85d1ba	-0.06534143
60	0xbda61339	-0.08109135
61	0x3d94641e	0.07245658
62	0x3da92ab3	0.08260097
63	0xbc13fe28	-0.009032764
64	0xbca7f5b4	-0.020502903
65	0x3ddcd8d5	0.10783545
66	0xbc6c16ca	-0.01440973
67	0xbd542541	-0.05179334
68	0xbd4c90bc	-0.049942717
69	0x3dd755c5	0.10514406
70	0x3c9c294e	0.019062664
71	0x3dcc5780	0.09977627
72	0x3cdb8040	0.026794553
73	0x3ddf870c	0.1091443
74	0x3dd03062	0.10165478
75	0x3d4cc012	0.04998786
76	0xbcf67614	-0.0300856
77	0xbd5b7894	-0.05358179
78	0xbd8349ca	-0.064105585
79	0x3da532b1	0.08066309
80	0xbdc1bd50	-0.094599366
81	0xbd04b46a	-0.03239862
82	0xbd1d9a5a	-0.03847728
83	0xbba10b08	-0.004914645
84	0x3d295602	0.04134179
85	0x3d8ff525	0.070291795
86	0x3cefade9	0.029257732
87	0xbdbdee9b	-0.09274026
88	0xbcabeb46	-0.02098621
89	0xbdcbc150	-0.09948981
90	0x3d7b8ad4	0.061411694
91	0xbdfba6bc	-0.122876614
92	0xbd95311c	-0.072847575
93	0x3da0514d	0.07828007
94	0xbd49b460	-0.049244285
95	0x3e04f12a	0.12982622
96	0x3c3da9f6	0.011576166
97	0x3d0d62a2	0.03451789
98	0xbc348fd6	-0.011020621
99	0xbded023c	-0.11572692
100	0x3d12dde8	0.035856158
101	0x3a963534	0.0011459948
102	0x3d17e11e	0.037079923
103	0xbd467f30	-0.04846114
104	0x3d9a005f	0.07519602
105	0x3db54b8c	0.088523
106	0x3d73ebcc	0.059551045
107	0xbd1c7486	-0.038197063
108	0xbc802a66	-0.015645217
109	0xbd41f9ac	-0.047357246
110	0x3d7386a4	0.059454575
111	0xbdb5ee82	-0.088833824
112	0xbda8342a	-0.082130745
113	0xbde63d3f	-0.112421505
114	0x3cd9d6fc	0.02659177
115	0xbd183e56	-0.037168823
116	0x3c6bdb15	0.014395495
117	0xb9496fec	-0.00019210548
118	0xbd2fd8cb	-0.04293136
119	0x3cf52814	0.029926337
120	0xbd605478	-0.054768056
121	0x3d33d756	0.043906532
122	0xbd2fb40f	-0.042896327
123	0x3dc877ee	0.097885
124	0xbde888a2	-0.11354186
125	0x3d99d670	0.07511604
126	0xbd9f1272	-0.0776719
127	0xbd487b06	-0.04894545
128	0xbc7eefa5	-0.015560065
129	0x3d08acb0	0.033367813
130	0xbc86cd38	-0.016455278
131	0x3d278fc4	0.04090859
132	0x3d0b30e2	0.033982165
133	0x3dec80e0	0.115480185
134	0xbbeef4ac	-0.0072923508
135	0xbd3a771a	-0.04552374
136	0xbd07af41	-0.03312612
137	0x3d52da58	0.05147776
138	0x3d3327c2	0.043739088
139	0x3df9e6a4	0.12202194
140	0x3de84c64	0.11342695
141	0x3daa8be4	0.08327463
142	0xbd6de088	-0.058075458
143	0xbd977d1c	-0.073969096
144	0xbdb578d4	-0.08860937
145	0x3d0cf265	0.034410853
146	0xbd4349d0	-0.047677815
147	0xbc078e35	-0.008273651
148	0x3c3bb606	0.011456972
149	0xbc963198	-0.018334195
150	0xbcf2a4a4	-0.029619522
151	0xbdc2af15	-0.095060505
152	0xbde6e7e2	-0.11274697
153	0x3cd6781c	0.02618032
154	0x3dc29be5	0.09502391
155	0xbd87e094	-0.06634632
156	0xbdf6ec98	-0.120568454
157	0x3da42ff8	0.08016962
158	0x3d376342	0.044772394
159	0x3d6c8c91	0.057751242
160	0x3da9e5c8	0.082957804
161	0x3ded1044	0.11575368
162	0x3c0be906	0.008539444
163	0xbd3af19c	-0.045640573
164	0x3cadd94c	0.02122178
165	0x3d9f08a6	0.077653214
166	0x3dd926c2	0.106030956
167	0x3dd22c2a	0.1026233
168	0xbc935352	-0.017984066
169	0x3ceae5cc	0.028674029
170	0xbca2fe06	-0.019896518
171	0xbd1b2736	-0.03787919
172	0xbd24d99e	-0.0402466
173	0x3dad4a1c	0.08461401
174	0xbdd3365c	-0.103131026
175	0xbc66c987	-0.014086134
176	0xbc146d46	-0.009059256
177	0xbdcd4a48	-0.10023934
178	0x3cc3482c	0.023838125
179	0xbda151d8	-0.078769386
180	0xbde0c764	-0.10975531
181	0x3cae0bee	0.021245923
182	0x3ce047fc	0.027378075
183	0xbc8d1c86	-0.017225515
184	0xbde79cd4	-0.113092095
185	0xbdd79032	-0.1052555
186	0x3d68e40c	0.056858107
187	0x3d597034	0.05308552
188	0xbca6685d	-0.020313436
189	0x3da4862c	0.08033404
190	0x3e05d844	0.1307078
191	0xbda85b3b	-0.08220526
192	0x3d3fa7c0	0.04679084
193	0x3dafecdc	0.08590099
194	0xbd287a37	-0.04113218
195	0xbdd43c12	-0.1036302
196	0x3de60c7a	0.112328485
197	0xbd6807b8	-0.056647986
198	0x3d85021c	0.06494543
199	0xbc1720b6	-0.0092241075
200	0x3d522d56	0.051312767
201	0x3decc6ac	0.11561331
202	0xbda2bed2	-0.07946552
203	0x3ccc2795	0.024921218
204	0xbda8ec62	-0.082482114
205	0x3cd8fd54	0.026487984
206	0xbd5fcabc	-0.054636702
207	0xbce6fcb0	-0.028196663
208	0xbda2d8ac	-0.07951483
209	0x3df57006	0.119842574
210	0xbd08d47e	-0.033405773
211	0x3df6c253	0.12048783
212	0xbdf6a942	-0.12044002
213	0x3db09bad	0.08623443
214	0xbd2fd31f	-0.04292595
215	0x3d6fa534	0.05850716
216	0x3d505510	0.050862372
217	0x3d0319e6	0.03200712
218	0xbd3979cb	-0.045282166
219	0x3df60bae	0.120139465
220	0xbc6eff5c	-0.01458725
221	0xbcff40d2	-0.031158838
222	0x3dd5e180	0.10443401
223	0xbd22e76a	-0.039771475
224	0xbd421870	-0.047386587
225	0xbd7b0f20	-0.06129372
226	0x3d740d64	0.059583083
227	0xbcc0f388	-0.023553625
228	0x3d683942	0.05669523
229	0x3dfd38db	0.1236436
230	0xbdea28c9	-0.114335604
231	0x3da7a970	0.081866145
232	0x3d168a44	0.036752954
233	0x3c37f216	0.011227151
234	0xbdbabec6	-0.091184184
235	0x3ca86186	0.020554315
236	0x3c65fb1c	0.01403692
237	0x3d550ce4	0.052014247
238	0x3d40dbd8	0.04708466
239	0xbdac93a8	-0.08426601
240	0x3dbfbb4a	0.093618944
241	0x3df685cb	0.12037238
242	0x3c578346	0.013153857
243	0x3d81fc04	0.06346896
244	0x3d9c2d14	0.076257855
245	0x3d255252	0.04036171
246	0xbc3e73b0	-0.011624262
247	0xbd581bd0	-0.0527609
248	0xbdc43220	-0.09579873
249	0xbd16d8ea	-0.03682796
250	0x3c31bb8b	0.010847936
251	0x3df2eb84	0.11861327
252	0x3d021478	0.0317578
253	0x3da0d220	0.07852578
254	0x3d44fef4	0.048094705
255	0xbdc9d93f	-0.098558895

fc2.bias f4 [64]
0	0x3d837dc6	0.06420474
1	0x3d8847bb	0.066543065
2	0x3d09a3b3	0.03360338
3	0x3d436d9e	0.04771196
4	0x3dee733b	0.11643072
5	0xbd9c49b3	-0.076312445
6	0x3e085a14	0.13315612
7	0x3df853b9	0.12125344
8	0xbda395e5	-0.079875745
9	0xbdb9f532	-0.090799704
10	0x3c7b4427	0.015336073
11	0xbd8fce4d	-0.070217706
12	0x3d4afc3a	0.04955695
13	0x3da68ae4	0.0813196
14	0x3d9d019a	0.07666321
15	0xbd1316cd	-0.035910416
16	0x3bba232a	0.0056804614
17	0xbd9f1dfb	-0.0776939
18	0xbd7615b0	-0.060079277
19	0x3dce01e4	0.10058954
20	0xbd993679	-0.07481093
21	0x3da18318	0.07886332
22	0x3d34ba26	0.044122837
23	0xbc9cf726	-0.019160818
24	0x3d6c86bd	0.057745684
25	0xbd927a43	-0.07152226
26	0xbd20902d	-0.039199997
27	0xbd01b004	-0.031662002
28	0xbb001263	-0.001954221
29	0x3d915ebd	0.07098148
30	0x3cb27d71	0.02178833
31	0x3dd99bdd	0.10625432
32	0x3c9b2c6c	0.01894208
33	0x3d19e9f2	0.037576623
34	0x3d2b6bf1	0.041850988
35	0xbd21534a	-0.03938607
36	0x3db119ce	0.086475
37	0x3ca24fe0	0.019813478
38	0xbd8ff661	-0.07029415
39	0x3b960835	0.004578615
40	0xbc07e0fc	-0.008293387
41	0x3dc3d491	0.09562028
42	0xbddbe57f	-0.10737132
43	0xbac6e8ce	-0.0015175582
44	0xbd0a4ad1	-0.033762757
45	0x3d452a49	0.04813603
46	0x3e079337	0.13239752
47	0xbd4ba5b0	-0.04971856
48	0xbdcddcf8	-0.10051912
49	0x3bd6c75f	0.0065545286
50	0x3d258082	0.040405758
51	0x3d791bd4	0.060817555
52	0x3dee79b6	0.11644308
53	0x3e04c97b	0.12967484
54	0xbdbf4542	-0.09339382
55	0xbdabca12	-0.08388151
56	0xbd1994d5	-0.037495453
57	0xbdd99329	-0.10623772
58	0xbdd2414d	-0.102663614
59	0xbd3d1ca8	-0.046169907
60	0xbdd300fd	-0.10302923
61	0x3d265295	0.0406061
62	0xbddbe94e	-0.10737859
63	0x3dbc512f	0.09195172

fc_out.weight f4 [1, 64]
0	0xbd96c682	-0.07362081
1	0x3db1cc3c	0.08681533
2	0x3d8be2dc	0.06830379
3	0x3dfee458	0.12445897
4	0x3d6dcc79	0.05805633
5	0x3d6f8d44	0.05848433
6	0x3db1e4dd	0.0868623
7	0x3d2f477a	0.042792775
8	0x3d0cfe64	0.034422293
9	0xbd1820cf	-0.037140664
10	0x3d56525e	0.052324645
11	0x3d89bf30	0.06725919
12	0x3d812a6c	0.063069195
13	0x3e070e89	0.13189138
14	0x3d8ae1b7	0.06781333
15	0x3d8eab8a	0.06966312
16	0xbda9991b	-0.08281156
17	0xbcc650f4	-0.024208523
18	0xbd8383be	-0.06421612
19	0x3d95e1ae	0.073184356
20	0x3d4dd264	0.050249472
21	0x3dfd83ba	0.123786405
22	0x3d964e68	0.073391736
23	0x3db75168	0.08951074
24	0xbdcacce6	-0.099023625
25	0x3c9da4c2	0.019243602
26	0x3deaa348	0.11456925
27	0x3db9d9b0	0.09074724
28	0x3de10d24	0.109888345
29	0xbdc16f24	-0.094450265
30	0x3dfa3870	0.12217796
31	0x3d743088	0.059616596
32	0xbdc604ae	-0.09668861
33	0xbd439dbc	-0.04775785
34	0x3dbc73a8	0.09201747
35	0xbd79a389	-0.060946975
36	0xbd84b654	-0.06480089
37	0x3d270a68	0.04078141
38	0xbdad11d6	-0.084506676
39	0xbdd11a07	-0.102100424
40	0x3df50c2d	0.11965213
41	0x3e022153	0.12708025
42	0xbd5b5d08	-0.05355552
43	0x3dd87da8	0.10570842
44	0xbd7b679c	-0.061378106
45	0x3db37d69	0.087641545
46	0x3deac59e	0.11463474
47	0xbd59fbec	-0.053218767
48	0xbd0df49f	-0.034657117
49	0x3d8d0904	0.06886485
50	0xbd524ba0	-0.051341653
51	0x3d065c98	0.032803148
52	0xbd3e96a6	-0.04653039
53	0x3dc7892b	0.097429596
54	0x3c4353fc	0.011921879
55	0xbc316bd6	-0.010828933
56	0xbca7674e	-0.020435002
57	0x3d72d508	0.059285194
58	0xbcd5754c	-0.026056908
59	0xbdeb351e	-0.11484741
60	0xbcc96b3c	-0.024587266
61	0x3db60667	0.0888794
62	0xbd9e37bc	-0.07725474
63	0x3d9a9044	0.07547048
