data/trained_models/base_rho_b_kan.pth (torch, 138786 bytes, 12 tensors)

net.0.coeff f4 [64, 10, 5]
00000000: be68 423d 8a49 5ebd 66a0 c43d 8440 8b3c
00000010: 923e 53bd b855 16be 579d 443e a0ce 78bd
00000020: fa0b 69be 5556 1e3e b96b c53d 6e20 993d
00000030: 3ae8 d03d 9a49 ca3d 7cf7 b4bd 78e9 973d
00000040: 952b 2e3e df95 1a3e 7c8a b73d 2c1a 483e
00000050: 37ff 8fbc fd67 f2bd ef87 033e 07ca d8bd
00000060: 4f99 673d fba3 043e ce10 6e3e 97ce 62bd
00000070: 1f47 d2bd 6c1e 1c3d 9e70 adbd 5f4d 953d
00000080: 04a0 143e e871 a0bc 2c2e 74bc 419a 3ebc
00000090: c6ea a3bd 2bc9 0ebe 0e08 c5bd a5b9 963d
000000a0: 95de 6b3e 237b 2cbd 8b85 b73d 2d13 10be
000000b0: 823c d03d 9427 4e3e b296 42bd 6ced dcbc
000000c0: 2574 dfbd 86d0 ccbc 8490 1a3d b0ac fabd
000000d0: 9797 33be 2923 2abe ee92 be3d 61d4 16be
000000e0: d3cd bd3d b2ad 44bd 6613 633d 81c8 e53d
000000f0: 1d5d 16bd cb22 1fbc b7f8 cebc 9153 33be
00000100: 4749 9c3d 647e 41bc 9f13 913e 9f13 473d
00000110: 03f5 5abd 1256 16bd 0ba8 713d eef0 06be
00000120: b656 edbd 673b 413d 0fc6 b63d 64a7 ce3d
00000130: 089c 8ebd face 2dbd fc38 083e eb98 503c
00000140: 08fc 8e3d 4a5b 0dbd 2b71 5dbd 2208 03bd
00000150: 0ce5 2f3e f711 5b3d a22b 933d 0819 f53b
00000160: e1ba 2b3e dc5d bc39 8c4b cbbd e88f 7a3d
00000170: c87e 0bbe 4f20 d5bc 45ab a7bd 974a 6abc
00000180: 6413 8a3d 8eb8 103e b519 f83c 8d28 2e3c
00000190: adf4 503d 440d 2c3e 7262 d9bd 4306 c0bd
000001a0: 51c0 953d 3e62 27bd b5db 143e bc0e a3bc
000001b0: 4893 f63b 765e 2a3d f9ce d0bd 9a97 b4bd
000001c0: 0285 bb3c 23de 133d fb99 b1bd ad02 513d
000001d0: 1a71 47be ba8b df3c 38b3 1cbe 4363 403c
000001e0: 2491 1d3e 2978 ff3c 4a8c 7f3a 8654 8b3d
000001f0: 04fa 273e e0d2 8bbd c9f3 db3d 3024 96bd
00000200: ec4c eb3d 9ecb 143e dd7e c1bb bfd8 bf3d
00000210: 614b 59bd 0219 cabc e823 27be 23db 03be
00000220: 698a e0bd 0adc deba 4c6a c2bd 68c7 aabc
00000230: 1d88 7fbd 6c93 d2bd af01 81bd 7537 eabc
00000240: f96f 78bd f832 5a3d 7ae4 bc3c b951 8cbe
00000250: f758 523d 4ca5 a63d 13f2 cf3d 5e6a 00be
00000260: 320d 983d 331f 98bd ed31 2bbd b714 88bb
00000270: 6cc8 84bd 026c f93d 0514 543c bce6 09bc
00000280: da01 14bc aa03 9d3b 5582 ca3d a588 0bbd
00000290: 0cf0 94bd 3695 0dbe 553f 3f3d 8486 b1bb
000002a0: e334 063e 92c4 323d 6a21 79bb e9cc bf3d
000002b0: 4004 8e3d 0e5c 813d 8833 8e3d f9a0 01be
000002c0: 26e7 24be 7ec6 84bc fd99 4fbc 6645 79bd
000002d0: a418 b4bc 257d 83bc e380 ec3d 80ce 1f3e
000002e0: 88f5 4b3c 40a9 783d a23c f63b 7938 203e
000002f0: f994 aebd be77 b83a 4b08 1cbc 159b 263e
00000300: 16e0 bebd f66d 733d 9573 21be 0dba 993d
00000310: d500 543c 84b9 033d c4fd 40be 1057 e53c
00000320: cef7 a2bd 567d e43d c523 41bb 2bd7 853c
00000330: ef56 d9bd 6dee c53d 376e db3d 65cb fcbd
00000340: 16b6 c23b 975c e5bd 0ad0 36be ae89 303d
00000350: c0e5 573c 6eb1 77be 0524 9d3d 4ba1 32be
00000360: 0cd9 373e 76ad 6abe b808 20be 0b4b 2cbe
00000370: b45a 20be 5fed fdbd e05b 1a3e ff95 abbd
00000380: e3a6 00bd 4e74 1dbe 4f16 77bd 9a90 203e
00000390: 0d28 85bd 6f97 143e 4105 4cbd b63e a83d
000003a0: 8cd7 febd e3b3 49be 9edf b0bd 30f7 043d
000003b0: eb85 61be 345d 8fbd ac93 53be eb37 72bc
000003c0: cdef 113d 16c9 a8bd 5d0b 293e f488 953c
000003d0: f5f8 9fbd 4e54 ce3d 1b43 ac3d 865f fd3d
000003e0: 5c43 243d c3f4 163e 9605 7dba b11b 20bd
000003f0: c2ec 36bc c7a1 683d 685f 51bd 7e19 803d
0.04746317 -0.05426935 0.09600906 0.016998537 -0.051573344 -0.14681137 0.19200645 -0.060743928
-0.22758475 0.1546262 0.09639687 0.074768886 0.10200544 0.0987732 -0.088362664 0.074175775
0.17008813 0.15096234 0.08961961 0.19541234 -0.01757775 -0.118362404 0.12844823 -0.10585409
0.05654269 0.12953179 0.23248598 -0.0553728 -0.102674715 0.03811495 -0.08468746 0.07290148
0.14514166 -0.019585565 -0.014903586 -0.011633457 -0.08003764 -0.13943927 -0.09620677 0.07359628
0.23034127 -0.04210962 0.08961018 -0.14069815 0.10167791 0.20132285 -0.047506995 -0.02696868
-0.10910825 -0.025001775 0.037735477 -0.12239969 -0.17538296 -0.16614975 0.09305368 -0.14729454
0.092677735 -0.04801721 0.05543842 0.11219884 -0.036709893 -0.009712885 -0.02526508 -0.17512347
0.07631164 -0.011809919 0.28335282 0.048602697 -0.053456318 -0.036703177 0.05899815 -0.13177845
-0.115888044 0.04717579 0.089244954 0.10090521 -0.06963354 -0.042433716 0.13302988 0.012731771
0.06981665 -0.03451089 -0.054063004 -0.031990178 0.17177218 0.05348393 0.07186057 0.0074797906
0.16770507 0.00035928085 -0.09926519 0.061172396 -0.13622582 -0.026016383 -0.08186964 -0.01430001
0.0674198 0.14132902 0.030285696 0.010629785 0.05101459 0.16801935 -0.1061448 -0.09376194
0.07312072 -0.040865175 0.14536937 -0.019904487 0.0075248815 0.04159399 -0.10195727 -0.08817978
0.022890572 0.036100518 -0.086719476 0.051027942 -0.19476739 0.027288307 -0.15302742 0.011742416
0.15387398 0.031185227 0.0009748383 0.06803231 0.16403967 -0.068273306 0.10739858 -0.07331121
0.11489281 0.14530799 -0.005905016 0.09367513 -0.053050403 -0.024670128 -0.16322291 -0.12876563
-0.109639 -0.0017002833 -0.09492931 -0.020847037 -0.062385667 -0.10282025 -0.06299149 -0.028590897
-0.06065366 0.053271264 0.023058165 -0.274061 0.051354375 0.081369966 0.10153594 -0.12540576
0.07424392 -0.07427826 -0.04179566 -0.00415286 -0.0648354 0.12178804 0.012944226 -0.008416828
-0.009033645 0.0047916966 0.0988814 -0.03406586 -0.07272348 -0.1382645 0.046691258 -0.005417647
0.13106112 0.043644495 -0.00380143 0.093652554 0.069344044 0.06316386 0.069434226 -0.12659062
-0.16103801 -0.01620793 -0.012670991 -0.0608572 -0.021984406 -0.016050885 0.11548021 0.15606117
0.012448676 0.060708284 0.007514552 0.15646543 -0.08524508 0.0014073772 -0.009523462 0.16270097
-0.09320085 0.05943104 -0.15766747 0.075061895 0.0129396515 0.032159343 -0.18846804 0.027995616
-0.07957421 0.111567184 -0.0029470783 0.016337952 -0.106122844 0.09664617 0.10714381 -0.12343482
0.0059421165 -0.11199301 -0.17852798 0.04310005 0.013177335 -0.24188778 0.07672886 -0.17444341
0.1795389 -0.22917733 -0.15628326 -0.16825502 -0.156596 -0.123987906 0.1507411 -0.08378219
-0.031409156 -0.15376398 -0.06032401 0.15680161 -0.0650178 0.14510892 -0.049809698 0.08215086
-0.12443456 -0.19697528 -0.086364016 0.0324623 -0.22023742 -0.07000199 -0.20661801 -0.01478384
0.035629082 -0.08241479 0.16508241 0.01825378 -0.07811157 0.100746736 0.08411237 0.12371735
0.0401033 0.14741807 -0.00096520165 -0.03908891 -0.011164846 0.056794908 -0.051116377 0.06254862

net.0.scale f4 [64, 10]
00000000: a089 803f 896b 7d3f df55 803f 0c80 7d3f
00000010: 58bf 7f3f e069 7d3f d275 7e3f a063 7c3f
00000020: b464 7e3f 8f19 7e3f 8826 803f 9d71 7e3f
00000030: c78f 7d3f 7363 803f 1ce0 7d3f f7ed 7c3f
00000040: e0b8 7e3f 6f09 7e3f 6e7b 803f abcf 7e3f
00000050: 0a87 803f bc97 7e3f 73c5 803f a6bf 7f3f
00000060: 6240 803f edda 7d3f 2e77 813f a809 7d3f
00000070: 73bb 7f3f c133 803f 5282 803f 68ef 823f
00000080: 8cae 803f 639b 7e3f d719 7f3f 0e2b 7f3f
00000090: d2bc 7f3f c458 7f3f f4b8 7d3f 6085 7f3f
000000a0: 7901 803f 9846 7e3f 1c9f 803f 2f4c 813f
000000b0: cbb2 803f b0d3 7d3f 9cac 7f3f 5982 823f
000000c0: 0b15 7f3f 3966 7e3f 50ed 7f3f f461 803f
000000d0: 12b2 7d3f ea5e 7e3f e584 803f 586d 7f3f
000000e0: 760f 7c3f 0f1a 813f 2e8b 7f3f d745 803f
000000f0: 84c6 7c3f 9f41 7f3f af88 7e3f 0859 7d3f
00000100: a306 7c3f e8ef 7e3f 3771 7f3f 99f9 7d3f
00000110: b7a2 813f 6c5c 813f 71b0 7f3f 2862 823f
00000120: 0de6 7a3f 6099 803f 642f 7b3f e0d5 823f
00000130: 4a71 813f c64d 7b3f f0a8 823f 2e54 7d3f
00000140: 3707 7d3f f750 803f 5fc5 7c3f f308 813f
00000150: d320 823f 31c6 803f b347 7f3f a6f2 7e3f
00000160: e9bb 7e3f f910 813f 8d83 803f 7d6d 813f
00000170: 4752 7f3f ada4 7e3f a42a 813f 950f 803f
00000180: 994f 7f3f 79a2 803f a804 803f 70ef 7e3f
00000190: dcaa 7b3f 028b 803f 7ebc 803f 894a 803f
000001a0: ae57 7c3f 8936 7e3f f1cb 803f 7223 7f3f
000001b0: 2d31 803f 8a39 7e3f 0a98 7d3f 9038 7f3f
000001c0: a740 7f3f 739d 7d3f 9486 7e3f 0318 7d3f
000001d0: a702 813f c370 803f a821 7f3f 25b0 803f
000001e0: 8397 7f3f a853 813f 3abf 7f3f 5db8 7f3f
000001f0: a097 7e3f 9c6a 7e3f 2104 813f 14ac 7e3f
00000200: 3b2c 803f 77f8 813f 9404 803f eb1d 813f
00000210: ae80 803f 952b 7f3f 92d3 803f 6313 803f
00000220: 2dc8 803f 68f1 7f3f 2051 803f 390b 7d3f
00000230: e589 7f3f 13bd 7c3f 2d02 7f3f 2290 7d3f
00000240: 58f4 803f a7e2 7b3f 8120 7c3f 8a3d 813f
00000250: 082c 7c3f 4a21 813f 0e07 823f 0975 7d3f
00000260: adcd 7c3f 4597 7c3f a3ac 7c3f 31ac 7d3f
00000270: 55a2 7d3f 1376 803f 603f 7d3f 4522 7c3f
00000280: 8e80 7c3f 0566 813f e3b9 813f d336 803f
00000290: f96e 803f 579b 7f3f b070 803f 2d2a 7f3f
000002a0: 8150 803f fb75 803f 6069 803f a1db 7e3f
000002b0: d900 7d3f 2a9e 803f f81c 7c3f afb1 7e3f
000002c0: 2583 803f 34f2 7d3f c1fc 7c3f 61e1 803f
000002d0: e8f1 803f 74e3 7a3f 1464 7e3f edda 803f
000002e0: cb3b 803f 6a91 803f 5d2e 7e3f 0352 7c3f
000002f0: e17d 813f 6543 7c3f 3eec 7d3f 819e 7d3f
00000300: 0d67 7b3f 39a3 7d3f 80a1 7b3f 73df 7f3f
00000310: 2b60 803f 5e83 7e3f 6b87 813f bf35 7e3f
00000320: 53af 7c3f c539 7d3f 887b 7b3f a600 803f
00000330: 1852 803f 650f 7f3f 82e7 7e3f bfa7 7d3f
00000340: 1e94 803f 08bd 7f3f b57e 813f bd15 803f
00000350: 3d9a 803f cee2 7d3f 5386 803f 39e0 803f
00000360: cfb4 7f3f b71a 803f 37c2 803f d032 7f3f
00000370: 8b65 7f3f 60cd 803f 335c 803f 470b 7f3f
00000380: f445 813f 721a 7e3f 527b 803f ac71 7e3f
00000390: 0c87 7f3f 0b7f 7f3f 3302 803f 13b0 7e3f
000003a0: 931c 813f 087a 813f 4a12 803f 96d5 7e3f
000003b0: b20b 7e3f 569e 813f d071 7e3f 5b0a 7d3f
000003c0: 60db 7f3f ab58 7f3f 4745 803f 4aba 7f3f
000003d0: e6e2 813f dbed 803f de03 803f 08a8 803f
000003e0: f980 7e3f 32b3 7e3f 7ae1 813f 5a0b 803f
000003f0: eb3c 813f 1ff7 7b3f 7a0f 7e3f 7d4d 7f3f
1.0042 0.9899221 1.0026206 0.9902351 0.9990134 0.9898968 0.9939853 0.98589516
0.9937241 0.9925775 1.0011759 0.9939211 0.9904751 1.003035 0.9917009 0.98800606
0.99500847 0.99233145 1.0037668 0.99535626 1.0041211 0.9945028 1.0060257 0.9990181
1.0019648 0.9916218 1.0114496 0.9884286 0.998954 1.0015794 1.0039771 1.0229311
1.0053267 0.9945585 0.99648803 0.9967507 0.9989749 0.9974482 0.9911034 0.9981289
1.000045 0.9932647 1.0048556 1.0101374 1.0054563 0.99151134 0.99872756 1.0196029
0.99641484 0.9937473 0.99971485 1.0029893 0.9909984 0.9936358 1.0040556 0.9977622
0.9846109 1.0086077 0.99821746 1.0021313 0.9874041 0.99709505 0.9942731 0.98963976
0.98447627 0.9958482 0.9978213 0.9920898 1.0127782 1.010633 0.99878603 1.0186205
0.9800728 1.0046806 0.9811919 1.022152 1.0112698 0.9816555 1.0207806 0.98956573
0.98839134 1.0024709 0.98738664 1.0080856 1.0166267 1.0060483 0.9971878 0.99589
0.9950548 1.0083305 1.0040146 1.0111538 0.9973492 0.99470025 1.0091138 1.0004755
0.9973083 1.0049583 1.0001421 0.995841 0.98307586 1.0042422 1.0057523 1.0022746
0.9857129 0.99301964 1.0062238 0.9966346 1.0015007 0.9930655 0.9906012 0.9969568
0.99708027 0.99068373 0.994241 0.98864764 1.0078934 1.0034412 0.9966073 1.0053755
0.99840564 1.0103655 0.99901164 0.9989069 0.9945011 0.99381423 1.0079385 0.9948132
1.0013498 1.015395 1.0001397 1.0087255 1.003927 0.99675876 1.0064566 1.0005916
1.0061089 0.9997773 1.0024757 0.9884525 0.99819785 0.98726004 0.99612695 0.99048054
1.0074568 0.9839272 0.984871 1.0096905 0.98504686 1.0088284 1.0158403 0.99006706
0.98751336 0.9866832 0.9870092 0.9909087 0.99075824 1.0036033 0.9892483 0.9848979
0.9863366 1.0109259 1.0134853 1.0016731 1.0033866 0.99846405 1.003439 0.9967373
1.0024568 1.0036005 1.0032158 0.9955388 0.9882942 1.0048268 0.984817 0.99489874
1.0040022 0.991977 0.9882317 1.006878 1.0073824 0.98003316 0.9937146 1.0066811
1.0018247 1.0044377 0.99289495 0.9856264 1.011654 0.98540336 0.991886 0.9906998
0.9820412 0.99077183 0.98293304 0.9995033 1.0029348 0.994192 1.0119451 0.9930076
0.98705024 0.98916274 0.9823537 1.0000198 1.0025053 0.99632865 0.99572 0.99084085
1.0045202 0.99897814 1.0116793 1.0006634 1.004707 0.991742 1.0040992 1.0068427
0.99885267 1.0008153 1.005927 0.9968691 0.9976432 1.0062675 1.0028137 0.9962658
1.0099473 0.992591 1.0037634 0.993922 0.9981544 0.9980323 1.0000671 0.9948742
1.0086845 1.0115366 1.0005581 0.99544656 0.99236596 1.0126445 0.99392414 0.98843926
0.99944115 0.9974467 1.0021142 0.9989363 1.0147369 1.0072588 1.000118 1.0051279
0.99415547 0.9949218 1.0146935 1.0003464 1.0096716 0.9842395 0.99242365 0.9972761

net.0.base_weight f4 [64, 10]
00000000: bd29 c0bd e60f 893d de29 8fbc a054 69be
00000010: 24f9 fdbd 4ecc 0fbd 12db ea3d 089d 6dbd
00000020: 390f 3bbe 1d6f 14bd 5fd6 99bc e2c4 003e
00000030: 21b8 d63d 5b52 43bc 2d99 983d 1d16 2c3e
00000040: 92bf b9bd 6f44 a83d bad5 a4bd 1076 b3bd
00000050: 1b97 e13d e044 4fbe 2ca6 0f3e cefa 80bd
00000060: e53f 253d 7b2a 06bd 644a 9fbd 9b37 a0bc
00000070: 8804 2b3d b2c5 64bd aaea 8e3d f414 9d3d
00000080: 3aa5 363e cb8f aebd 47b9 e03d 0e4f 2abd
00000090: 31d5 683d e0d5 07be e5b6 643d 2ba2 7f3d
000000a0: 8a92 8f3c bdb7 9c3c c1f7 2b3d d7a3 9b3d
000000b0: 8cbb 933d 14da 1ebe 29e9 d93d 3f30 87bd
000000c0: 615d debc c8a3 cfbd fc78 82bc a8f1 ed39
000000d0: d779 d5bd f2fc 1abd de58 423e 95b4 aebc
000000e0: cf23 b43c f037 52bd 9f33 93bb 0a75 aebc
000000f0: e8b0 9bbd c393 97bc a8af e3bd 089e c73c
00000100: b121 1fbb 6d4d 793d 166b 743b 0a72 033e
00000110: e9be f0bd 3819 89bd fdbb c83d 9f20 253e
00000120: d656 cebd e6fc 213e 25b3 22be 36e1 16be
00000130: aafd 933c b03c 56bd 165b 7abd ddbb 2a3e
00000140: 4d20 c43c b54e 3f3d f8f5 73bd 91f3 f8b9
00000150: 099d d6bd e1cd 923e cf3e a6bc 320a 26be
00000160: d65f 233c 91be 323e 4947 9d3d eb61 203b
00000170: 736d 21bd 3be1 3e3e c817 7abd 6884 3abd
00000180: 5b7e 9bbd dfe7 87bc 6b1f dc3c 8abe b6bc
00000190: 9082 82bc 2e34 a4bd 0568 193d 8a8c b3b7
000001a0: da62 843d b50d 0a3e 29ce 7dbe 211e 1ebe
000001b0: 4721 4abd 83c2 f8bd f4af 7ebd ca70 c53d
000001c0: 37ed 4dbd f06b 6fbc 3691 183d 69e5 393e
000001d0: 7f8e b3bd 890f d6bd 8ac8 163c dda3 4f3c
000001e0: 3720 f13d e26c acbd 2fed 383e f6ec 373d
000001f0: 2d60 45be f011 12bc 8125 02bd b660 713d
00000200: bb76 b93d c602 b43d c13c 56bd 4589 283d
00000210: d1d5 e4bc daeb 27bd 7c86 b7bd 5eea 19be
00000220: d14e dbbd 5c96 06be 187e 00be 53a0 333b
00000230: e2f2 3c3c f9f7 6e3c 1a26 26be 7cfd 67bb
00000240: 2124 4a3e 9ee3 acbd ea01 62bc c0a0 78bc
00000250: ce48 1dbd dd67 293d b5eb b93d 9cf7 f0bd
00000260: bbf6 bd3c c29a 16bc 6a56 debd 7a3f c93c
00000270: 4f1b b73d 708d 0ebd 435b 52be 73fa edbd
00000280: 4a97 4e3d 7669 033e 70a8 9c3c 566a 3a3d
00000290: e001 c13d e524 37bd c472 493d 3eae 45be
000002a0: 5239 88be 556b 84be d519 31be b4df cb3d
000002b0: 52cd 903d 8ced 0cbe 6304 493d b9a8 b2bd
000002c0: 2171 3d3d 59d2 75bc 9e60 a83d 27a5 2e3d
000002d0: 993f 6e3b 2ba1 a0bb a943 d9bc c4bd be3d
000002e0: 3bc7 c6bc 7e6a c93d 165d f0bd 3554 84bd
000002f0: 6aa5 4ebd 89c9 bdbd 4234 27be 54e9 053e
00000300: e3e0 eabd c8f2 7b3d e4b8 dc3d 05a1 483d
00000310: 9428 9abd f69b 66bc ad03 a53d 7f7c 45be
00000320: 679e 02bd d951 4f3d 454e ee3c 2699 ddbb
00000330: dfb8 91bd f632 3bbc 51b5 aebd 3a5e 163e
00000340: 1c6c edbd 23d5 08be d33d aebd b588 77bd
00000350: 7782 fbbc 2320 01bd 22c2 da3d d529 33bd
00000360: 19a5 0cbd be69 d13d abc8 943d 1c05 193e
00000370: 860c 1c3d 67dc 1e3d f662 9dbd 4ece c9bc
00000380: 28e1 32bb 4b25 debc a04d fd3d be86 293d
00000390: bf67 533d 400c 8c3d d1ce 6abd a873 0ebe
000003a0: 9b6a fbbd 45d9 b4bd ff17 fd3d 0320 663d
000003b0: 6eb3 353e a45e eebd a006 72bd 2fea d83d
000003c0: 5f3e e73d 5d9d 04be 9edb a5bd 2d2d 34be
000003d0: ae85 403d bebd 07be 01e7 04be 19b9 d53d
000003e0: ae94 eb3d 96a9 e93d 10e8 4f3e 8d59 1b3e
000003f0: c7bb e7bc 06d5 5f3d c24a 3d3c fcaa 93bc
-0.09382961 0.066924855 -0.017476019 -0.22786188 -0.124010354 -0.03510695 0.114675656 -0.058011085
-0.18267526 -0.03623878 -0.018778978 0.12575105 0.104843386 -0.011921491 0.07451091 0.1680531
-0.09069742 0.08216178 -0.080485776 -0.08762753 0.11015149 -0.20241117 0.14028233 -0.06297837
0.040344138 -0.032755356 -0.07777861 -0.019557765 0.04175237 -0.0558526 0.06978352 0.07670012
0.17836466 -0.0852352 0.10972839 -0.0415793 0.05684394 -0.1326518 0.055838484 0.062410515
0.01752593 0.019130582 0.041984323 0.07599609 0.07213506 -0.15512878 0.10640175 -0.06600999
-0.027144136 -0.10138661 -0.01592683 0.0004538421 -0.1042363 -0.037838884 0.18979213 -0.021326343
0.021989731 -0.051322877 -0.0044922377 -0.021296043 -0.076021016 -0.018503075 -0.11117488 0.024367347
-0.0024281556 0.060864855 0.0037295274 0.12836471 -0.11755163 -0.06694263 0.09801481 0.16125725
-0.100751564 0.1581913 -0.1588865 -0.14734349 0.018065292 -0.05230397 -0.061122023 0.16673227
0.023941183 0.04670592 -0.059560746 -0.00047483717 -0.10479171 0.28672698 -0.020293621 -0.16214827
0.00997158 0.17455508 0.07679612 0.0024472426 -0.03941102 0.18640606 -0.061057836 -0.04553643
-0.0759246 -0.016590057 0.02687045 -0.022307653 -0.015931398 -0.08017765 0.037452716 -2.1403906e-05
0.06464167 0.13481791 -0.24785675 -0.15441181 -0.049348142 -0.12146475 -0.06217952 0.096406534
-0.050275054 -0.014613137 0.03724786 0.1815392 -0.08767413 -0.10452182 0.009203086 0.012673345
0.117737226 -0.08419205 0.18059228 0.044903718 -0.1927497 -0.008915409 -0.031774048 0.05893012
0.09055849 0.087895915 -0.052304033 0.041146535 -0.027933987 -0.04099641 -0.08961198 -0.1503081
-0.107083924 -0.13143295 -0.12548101 0.0027408793 0.011532517 0.0145854885 -0.16225472 -0.0035398891
0.19740345 -0.08441852 -0.013794402 -0.015175045 -0.03839951 0.041358817 0.09078161 -0.11765978
0.02318894 -0.009192171 -0.10856326 0.0245664 0.089407556 -0.034802854 -0.20542626 -0.11620035
0.05043725 0.12833199 0.019123286 0.045511566 0.09424186 -0.04471292 0.049181715 -0.1930475
-0.26606232 -0.25863138 -0.1729501 0.09954777 0.07070412 -0.13762492 0.04907645 -0.087235875
0.046250466 -0.015003764 0.08221553 0.04263797 0.0036353825 -0.004902025 -0.02652152 0.09313539
-0.024264922 0.09834765 -0.11736505 -0.06461374 -0.05045072 -0.092669554 -0.16328529 0.13077289
-0.11468675 0.06151083 0.107774526 0.048981685 -0.07527271 -0.01407527 0.08057342 -0.19285773
-0.031889345 0.050615165 0.029090056 -0.0067626415 -0.071153395 -0.011425724 -0.08530677 0.14684382
-0.11592886 -0.13362555 -0.08507886 -0.06043311 -0.030701859 -0.03152479 0.10681559 -0.043741066
-0.034337137 0.10225247 0.07264837 0.14943355 0.03809788 0.03878441 -0.07684891 -0.024634507
-0.0027294848 -0.027117392 0.123683214 0.041388266 0.05161261 0.06838274 -0.05732614 -0.13911307
-0.12276193 -0.088305034 0.123580925 0.056182873 0.17744228 -0.11639145 -0.05908835 0.10591542
0.11291193 -0.12950654 -0.08098529 -0.17595358 0.047002487 -0.13255975 -0.12978746 0.10435695
0.11502968 0.11409299 0.20303369 0.1517088 -0.028287781 0.054646514 0.011553468 -0.018025868

net.0.grid_points f4 [5]
00000000: 0000 00c0 0000 80bf 0000 0000 0000 803f
00000010: 0000 0040
-2.0 -1.0 0.0 1.0 2.0

net.2.coeff f4 [64, 64, 5]
00000000: 6dc7 9639 6888 b23d b226 b5bd 6300 0a3e
00000010: 0423 643d b191 d13d b1e9 47bd 69e1 223d
00000020: fe79 7e3d ccc0 3abd 8618 8e3d af37 fdbd
00000030: 8336 6d3c 2cc7 cdbb 4f97 f53c 069a ccbc
00000040: 1f81 673d 2032 4ebd 2312 42bd ec33 983d
00000050: 23c0 773d 8ced 7fbd f67c 933e cf8f 643c
00000060: 4c8c 573e e67e bfbd 7a50 1cbd f210 613c
00000070: 07dc a43c 8b2f 223e 21b4 203e ccda b93d
00000080: 50e9 02bd 1311 973d 4bdd 423e 6591 1f3d
00000090: 21cc f93c 373c 74bd 7ba1 1b3e 8f00 723d
000000a0: 7ba4 85bc 95d9 113d ef5c 333e a3eb 93bd
000000b0: b4fe 7a3e a1a9 12bd a435 843d 4bb2 31be
000000c0: 1654 853d 683c b53d bcee adbd 5739 b0bd
000000d0: ae12 ef3d 141b f13d 4cc7 32be abe4 03be
000000e0: 8aef 5a3d 2822 87bd e680 45bc 3de6 833d
000000f0: 7c85 50bd 25b9 9dbc b6b8 33bd 4cd5 b9bc
00000100: cee0 4fbd ef22 c13d bfb8 163d f22b 14bd
00000110: 29c4 843d f150 0ebe bb6b 47bb 3d66 a5bd
00000120: cc66 3e3d 6b1d 0b3e d05b adbd 1df4 1f3e
00000130: b681 13bd b196 f03d 2bee babd ae39 58bd
00000140: 962d 5c3d 337f 3e3b 0ee2 70bd 5ee3 473c
00000150: d1fb 363d 35c0 953a 5eb0 47bd ba6a c7bd
00000160: a5de aebc 21d6 5ebc bd96 8d3d 8d8b 2f3e
00000170: e1eb 64bc d822 fa3c be14 62bd cc45 d13c
00000180: f91f 7e3d e910 823d 1e8d 0fbe 5c38 5dbe
00000190: daef 38bd 439c 54bd 3b53 213e fe44 99bc
000001a0: 7c36 e9bd 7cfa e73d 8c6c b0bd 863f 0d3c
000001b0: 1ac4 a6bd e3a9 c0bd 3653 98bd 5e38 a4be
000001c0: 2b2b 373c fe7a 26bd f976 bebd 8ca3 0d3d
000001d0: 6722 d53c 6f37 97bc 6d53 233c 5518 0dbc
000001e0: 9669 273e c707 c7bd 1fb5 82bd 4277 b0b9
000001f0: c3af 6dbe b363 c43d 1a1b a7bd d6ba 203e
00000200: 5405 2a3d 8875 1fbd c6bd ce3d fe27 3b3e
00000210: 9414 06be 0236 1e3e 71a7 003d f4a3 09be
00000220: 2b62 5b3d c476 32be 5339 94bc 41fd 4c3c
00000230: b61b 97bd 31f6 b33b 8ce3 203e 9a74 673d
00000240: aa42 43bd c253 99bd f66d 363e 007c 793e
00000250: ebec d63d b95c a1bc af0b 753d f82c 593d
00000260: 57fa ddbd 786c 2a3e cb3a 423e 64df 763d
00000270: 59ad 9c3e 6ea3 a9bc ed92 a039 5cb6 dabd
00000280: f1c9 92bc 2c25 acbd 82e8 85bc 60e7 283e
00000290: 45c2 9dbd eeca 22bd 4b4e 993d 3bfe afbd
000002a0: 65fc 3ebd 69af 223e 1457 383e b13c 5a3c
000002b0: 82fb e13d 67bf 823d e67c 773d d25c a63c
000002c0: 8757 45ba 1f07 a2bc 9c72 f03d 95a8 a73c
000002d0: c600 343e 5adb 53bd e335 41bd 32de 023c
000002e0: 82fa d33d 84ad f53c 144e 9fbc dcaf 5e3d
000002f0: dd34 59bd 59e0 7f3c bfb0 e9bc cbb8 193d
00000300: 0e4d e63d 5589 65be f458 04bd 7f04 bd3b
00000310: 9159 033e be61 ef3c 4e9f a7bd 393a 643e
00000320: 8c94 6b3d b94e 4cbd eedd 00bd dfdd 673c
00000330: 606a 2f3c 41be 80bc be90 4bbd 5e67 893d
00000340: 65ec 92bd 3b94 f3bd 9ba2 44bd f73b 05bc
00000350: f948 7ebe 8c29 22be 35c8 9cbd 52c4 3cbb
00000360: 6b10 013d caca 31bd bfdb b63d 89a1 aabd
00000370: ff80 823d e367 e1bc 85ba 0fbd 2a9a 5e3c
00000380: 54ac 2c3c 3c84 6ebd 4761 e03c d8af be3d
00000390: ff66 eb3d 4d06 9ebd 6a4c 2dbd 1934 2f3e
000003a0: 3fd3 9d3d 79c4 9f3d 0c06 823d ba77 21be
000003b0: 5636 f2bd 217c a9bd ad2b 34be 0243 0dbe
000003c0: 8352 403d ef0f 87be 8e65 f8bb 1e95 bc3d
000003d0: 6b53 2ebd 0347 00be 50f1 20be ac3c ee3d
000003e0: 0a3c f93d fa27 c5bd 21c9 2b3d b8c0 fbbd
000003f0: d2f7 b23d 6fd7 5f3d cf2a ee3d 5e21 25bd
0.00028758813 0.08717424 -0.08845271 0.1347671 0.055697456 0.102328666 -0.04880685 0.03976575
0.06212806 -0.04559402 0.06938271 -0.123641364 0.014478329 -0.0062798467 0.029979376 -0.024975788
0.056519624 -0.05034077 -0.047380578 0.07431778 0.06048597 -0.0624824 0.28806275 0.013950302
0.21049613 -0.09350376 -0.038162686 0.01373695 0.020124448 0.15838449 0.15693714 0.09074935
-0.031960785 0.073763035 0.19029729 0.03895702 0.030492844 -0.059627738 0.15198319 0.059082564
-0.016313782 0.035607893 0.1751592 -0.072226785 0.24511224 -0.035806302 0.06455544 -0.1735317
0.06510179 0.08849412 -0.084928006 -0.08604687 0.11673485 0.11772743 -0.17458838 -0.12880199
0.0534511 -0.06598312 -0.012054658 0.06440399 -0.05090855 -0.019253323 -0.043877326 -0.022684716
-0.0507515 0.09430491 0.03679728 -0.036174722 0.06482727 -0.13898064 -0.0030429203 -0.08076141
0.046484753 0.13585441 -0.084647775 0.15620466 -0.036012374 0.11747492 -0.09127458 -0.052789383
0.05375441 0.0029067516 -0.058809333 0.012200205 0.044673745 0.001142508 -0.04875218 -0.09737153
-0.0213464 -0.013600857 0.06913517 0.17143078 -0.013972254 0.030534193 -0.055195563 0.025545977
0.06204221 0.063508816 -0.14018676 -0.2160353 -0.045150615 -0.051906835 0.15754406 -0.018709656
-0.11387345 0.11327073 -0.08614454 0.008621102 -0.08142872 -0.09407403 -0.07437746 -0.32074255
0.011179726 -0.04064464 -0.09300036 0.0345798 0.02601738 -0.01845905 0.009968621 -0.008611758
0.16348872 -0.0971828 -0.06382202 -0.0003365819 -0.23211579 0.095893286 -0.08159466 0.15696272
0.041508988 -0.038930446 0.1009479 0.18276975 -0.13093787 0.1545029 0.031409685 -0.1344145
0.053560417 -0.17428118 -0.01809374 0.012511552 -0.07378332 0.005491995 0.15711802 0.056507684
-0.047670998 -0.07486679 0.17815384 0.24363708 0.10494407 -0.019697534 0.059825595 0.0530214
-0.10838764 0.1664294 0.1896774 0.060271636 0.30601004 -0.020707812 0.00030627046 -0.106793135
-0.017918559 -0.084055275 -0.01634622 0.16494513 -0.077030696 -0.03974431 0.07485636 -0.085934125
-0.04662742 0.15887226 0.18001968 0.013320134 0.110342994 0.06384163 0.060421847 0.020307932
-0.0007527996 -0.019778786 0.1174061 0.020466128 0.1757842 -0.05172286 -0.04717053 0.007987546
0.10350515 0.029989965 -0.01944641 0.05436693 -0.05302893 0.0156174535 -0.028526662 0.037529748
0.11245166 -0.2241567 -0.032311395 0.0057683582 0.12827136 0.029221412 -0.08184682 0.22287835
0.057514712 -0.049879763 -0.03146165 0.014152019 0.010706514 -0.01571572 -0.049698584 0.06709169
-0.07173995 -0.11893507 -0.048006635 -0.0081319725 -0.24832524 -0.15836161 -0.07655374 -0.002880354
0.031509798 -0.043406285 0.08928632 -0.08331592 0.0637226 -0.027515357 -0.03508999 0.01358656
0.010539133 -0.058231577 0.027390135 0.09310883 0.11494254 -0.077160455 -0.042309202 0.17109717
0.077063076 0.07801146 0.063488096 -0.15768328 -0.1182677 -0.08275629 -0.17594786 -0.13795093
0.04695369 -0.26379344 -0.0075804656 0.09208129 -0.042560022 -0.12527089 -0.15717053 0.11632666
0.12169655 -0.096267655 0.04193986 -0.122926176 0.08738674 0.054648813 0.11629259 -0.040315025

net.2.scale f4 [64, 64]
00000000: 27e1 813f cbf2 7e3f 0eaf 7f3f 8a31 803f
00000010: c14d 7f3f 34f4 7e3f 1d16 7b3f b579 803f
00000020: e1ae 7f3f d287 803f c2c5 7e3f 687a 803f
00000030: ce5b 803f 14cf 803f cc2a 7f3f ecde 7f3f
00000040: abd1 803f ac3b 803f 2792 7a3f be39 7d3f
00000050: 4665 7f3f 07f0 803f a925 813f 0252 803f
00000060: 08f6 7f3f 6de4 7e3f 40c8 803f 3178 803f
00000070: 468b 7e3f 4af3 7e3f 048b 803f 3437 7f3f
00000080: c15c 7e3f a293 803f bf23 7f3f 1c0f 823f
00000090: fac9 803f e7d2 7e3f 03e9 803f 83c8 7d3f
000000a0: 48ba 803f cb25 7f3f c66e 803f ae5d 803f
000000b0: a254 803f fb14 7f3f 7ff9 7e3f 035d 803f
000000c0: 77d0 7f3f bd4f 7f3f 7e48 7f3f 7479 7f3f
000000d0: 4a2a 7d3f c541 803f 3379 803f ad69 803f
000000e0: 9e30 803f 093e 7f3f 3167 803f 1258 803f
000000f0: c76c 7c3f db7d 803f 0d43 7e3f baf6 7f3f
00000100: 093e 7e3f 6c7d 7f3f 0f2a 803f 90a9 7f3f
00000110: 81db 7f3f f931 803f ebca 7e3f f4cf 7f3f
00000120: 8336 7e3f 7a97 7f3f 3a54 803f 7520 803f
00000130: fc65 803f 9365 7f3f f607 803f ee00 803f
00000140: 0939 7f3f 4ab2 7e3f 3d24 803f 2ebf 7f3f
00000150: d818 803f 578a 7f3f 20f1 7f3f bf01 803f
00000160: 3537 803f 153f 7f3f 47f2 7f3f 7f85 7f3f
00000170: 9dd6 7f3f 5b0a 7f3f 23a6 7f3f e9fd 7f3f
00000180: e71c 803f 9009 803f e685 7f3f 58c7 7e3f
00000190: d5f9 7f3f 8540 803f a59a 7e3f 6d0f 7f3f
000001a0: cf22 803f 7bb8 7f3f 923c 803f eb8e 7f3f
000001b0: dd34 803f 630b 803f 113d 803f 55c0 7e3f
000001c0: 7161 803f 5f90 7e3f d534 803f e895 803f
000001d0: cf01 803f 4624 803f 0bb4 7e3f 518b 7f3f
000001e0: b83e 803f 86de 7f3f bad8 7f3f df66 7d3f
000001f0: babf 7e3f 9d80 7f3f 4756 7d3f aa16 803f
00000200: a2e7 7f3f ff91 813f 416e 7f3f 937a 7f3f
00000210: c86f 803f aa26 803f d94a 803f 6934 803f
00000220: 1dce 7e3f 54ed 7e3f 0480 7f3f bd5f 7f3f
00000230: e3f0 7f3f 440a 803f c17f 803f ca79 7f3f
00000240: b12e 803f 0cbd 7f3f 2c0a 803f e400 7d3f
00000250: 70d3 7f3f 95a9 7f3f 7119 803f a81a 803f
00000260: 5c0a 803f 645d 7f3f 0678 7f3f 5252 803f
00000270: ca62 7f3f 378b 7e3f 206d 803f 926e 7f3f
00000280: 1797 7f3f 4e59 803f a82d 803f 5a85 7d3f
00000290: 5a87 813f 6dbb 7e3f 83e6 7f3f 7644 803f
000002a0: f10c 803f 5c94 7f3f 4367 7f3f 6b61 803f
000002b0: bb7b 7f3f 1702 803f 80cd 803f 1594 7d3f
000002c0: f1f2 803f 302d 7f3f c2c4 7d3f b4c1 803f
000002d0: 7b40 803f abb6 7d3f 570f 7f3f 8274 7f3f
000002e0: 9dba 7f3f 9c2f 7f3f 2c41 803f e485 803f
000002f0: bd64 7f3f 0f51 7d3f 901e 823f 1464 7f3f
00000300: 9594 803f 9e7f 7e3f 809d 7f3f c0aa 7f3f
00000310: 722f 7e3f 4273 803f 8307 813f cf26 7e3f
00000320: cb21 803f 3868 7f3f e6de 803f 2b63 7f3f
00000330: b209 803f 3e99 803f 1701 803f 2fce 803f
00000340: b97d 7f3f aa52 7f3f 543b 7f3f 2a3e 7f3f
00000350: 0f5b 7f3f fd3f 7e3f 85f6 7f3f bd1a 803f
00000360: 63a3 7e3f d287 803f bc35 803f 470c 803f
00000370: f9c5 7e3f a541 7e3f 7c26 803f 303b 7c3f
00000380: 02ba 7f3f 7ca7 7f3f 3f1d 803f e621 803f
00000390: dbd8 803f 6725 803f 7cfb 7f3f 7694 7f3f
000003a0: 243a 803f 2f1e 803f c923 803f 7d24 803f
000003b0: 3e3f 7e3f 65ca 803f 2736 813f 65aa 7f3f
000003c0: 1b02 803f 8091 803f e2d5 7f3f c935 803f
000003d0: 0665 7f3f 691e 803f e932 7f3f b213 803f
000003e0: 034d 803f bf17 803f 9d30 7e3f 7a06 803f
000003f0: fd07 803f e97f 803f 9e75 7f3f 898f 803f
1.0146836 0.9958922 0.9987649 1.0015118 0.9972802 0.99591374 0.9808062 1.0037142
0.9987622 1.0041449 0.99520504 1.0037355 1.0028017 1.0063195 0.9967468 0.99949527
1.0063986 1.001821 0.9787926 0.9891623 0.99763906 1.007325 1.0089618 1.0025027
0.9998479 0.995673 1.0061111 1.003668 0.99431264 0.9958998 1.0042424 0.9969361
0.9936028 1.0045054 0.9966392 1.0160861 1.0061638 0.9954056 1.007111 0.9913408
1.0056849 0.9966704 1.0033805 1.0028589 1.0025828 0.9964139 0.9959945 1.0028385
0.9992747 0.99731046 0.9971999 0.997947 0.98892653 1.0020071 1.0036987 1.003225
1.0014837 0.99704033 1.0031492 1.0026877 0.9860348 1.0038408 0.9932106 0.9998585
0.9931341 0.99800754 1.0012835 0.99868107 0.9994431 1.001525 0.9952838 0.99926686
0.9930193 0.9984051 1.0025704 1.0009905 1.0031123 0.99764365 1.000243 1.0000284
0.99696404 0.994908 1.0011059 0.9990109 1.0007582 0.99820465 0.999773 1.0000533
1.0016848 0.9970563 0.9997906 0.99813074 0.9993685 0.99625176 0.9986288 0.9999681
1.000882 1.0002918 0.9981369 0.99522924 0.9999059 1.001969 0.9945472 0.9963291
1.0010623 0.9989087 1.0018485 0.9982745 1.0016133 1.0003475 1.0018636 0.99512225
1.0029737 0.9943904 1.0016123 1.0045748 1.0000552 1.001107 0.99493474 0.99821955
1.001914 0.9994892 0.99940073 0.98985094 0.995113 0.99805623 0.98959774 1.0006917
0.9996282 1.012268 0.9977761 0.9979641 1.0034113 1.0011799 1.0022842 1.0015994
0.99533254 0.99580884 0.9980471 0.9975546 0.9997694 1.0003133 1.0038987 0.9979521
1.0014249 0.9989784 1.0003104 0.98829484 0.99932003 0.99868137 1.0007764 1.0008135
1.0003161 0.9975188 0.99792516 1.0025122 0.99760115 0.99431175 1.0033302 0.9977809
0.9983992 1.0027254 1.0013933 0.99031603 1.0119431 0.9950474 0.9996111 1.0020893
1.0003949 0.99835753 0.9976694 1.002973 0.9979817 1.0000638 1.0062714 0.9905408
1.007414 0.99678326 0.99128354 1.0059114 1.0019678 0.99106854 0.9963278 0.9978715
0.99894124 0.9968202 1.0019889 1.004086 0.9976309 0.9895181 1.0165577 0.9976208
1.0045344 0.9941348 0.998497 0.9986992 0.99291146 1.0035174 1.0080417 0.9927797
1.0010313 0.997684 1.0068023 0.99760693 1.0002959 1.0046766 1.0000333 1.0062922
0.9980121 0.9973551 0.996999 0.9970423 0.9974832 0.9931639 0.99985534 1.000816
0.9946806 1.0041449 1.0016398 1.0003747 0.9952083 0.99318916 1.0011744 0.9852781
0.998932 0.99864936 1.0008925 1.0010345 1.0066179 1.0011414 0.9999311 0.9983591
1.0017743 1.0009211 1.0010921 1.0011135 0.9931525 1.0061766 1.0094651 0.99869376
1.0000643 1.0044403 0.99935734 1.0016414 0.99763525 1.000928 0.9968706 1.000601
1.0023502 1.0007247 0.9929293 1.0001976 1.0002438 1.0039035 0.99788845 1.0043803

net.2.base_weight f4 [64, 64]
00000000: 4b04 c83c 32ce eabd c00d 883c f1e8 28be
00000010: 9b76 60bb f7e5 7abc fb2a a5bc b075 da3c
00000020: f5d6 3abd df44 423d c4bd 26be ea15 57be
00000030: 49d3 063b a016 153c 0d12 ddbc bdc5 41be
00000040: f28c 8e3c 4a79 87bc 5d32 633a b67c 083d
00000050: 30a0 2cbe 3589 3bbd c069 103e 1220 6abd
00000060: 7dbc e7bc 7091 4b3d e5ed 41be 73e9 0ebe
00000070: 2f43 933c c8c5 353e db6e 2b3d 6ea8 c2bc
00000080: b3b8 20be 7543 453e b593 343e ccbd 71bd
00000090: 4a35 3d3b ce85 15bd a560 7fbe 3e35 013d
000000a0: f3a8 b93d f8cc 7cbb 30dc 863d d097 bc3d
000000b0: b4b0 b6bd e1af 06be 9e3e dbbd 768f 23bc
000000c0: 2f1f 32be 6af4 58bd d2a4 a93d fcd8 8d3d
000000d0: d1b8 38be 4de4 c23d 53b8 a7bd f8f4 e43d
000000e0: 3de1 a93d 7464 8a3d 44c1 6b3e e796 debc
000000f0: 947d 9ebd a57e ce3d 00ce 4d3d f8da 1e3e
00000100: 7198 1b3e 6c06 9d3d 5fe6 823e 3b74 943c
00000110: 579f 993d 64f3 18bd 9f55 f1bc e83f a5bc
00000120: 977d 8cbd 360f 0dbd 9ac1 14be b2d9 d2bd
00000130: 01d2 ac3a 49cc 25bd 6628 003e 8df9 3cbe
00000140: 4f77 39bd 3dcd 16bc 4bd5 073e 2e08 86bd
00000150: 47f2 a23d d1f3 05be cd03 93bd a50a 9abd
00000160: bb9f 1ebc b1ac 523c 6bd4 c73d 946a 9fbd
00000170: e686 acbc 4729 ff3c 27a7 523d 32c9 e43d
00000180: bf30 853b 29d1 643b a2c1 f0bd 9cb4 2e3e
00000190: d23a 7dbd badf 25bb ddbd f3bc f759 9d3d
000001a0: 7f6a 85bd aea5 313e 522f 11be 2260 fbbc
000001b0: 1900 ccbd 65da 173e 34c3 3ebe f64f dabb
000001c0: 424c 693b d6c1 703c 6213 cfbd 4793 783d
000001d0: 9ca5 ebbd a620 843d 9a5e 14be 01ab 033d
000001e0: 3046 0ebd a14b 8f3d b5a7 da3d 5193 303d
000001f0: 8e73 cabd b5e5 4f3e a005 e7bc 88d1 dc3d
00000200: d34b f73c 7c0d 92bc b8ce 3ebe 644b 9dbc
00000210: 2c79 c83d 22b5 943c bc09 023e 1f8e 75be
00000220: 4573 e7bd 5161 8e3d 44e0 33bd 52da 16bd
00000230: 8c1d a7bd 2554 f83c 84c6 abbd 3d30 11be
00000240: ced4 3e3d 950b 103e c0e4 a83d 0dc2 3fbe
00000250: d3f1 193d 85d9 02be ca59 71bc 6cf4 8e3e
00000260: ad06 a13c 9bd6 71bd 702e 6f3c 9935 18be
00000270: 3260 a0bd d633 16bd 687c 38bd 38cb 5abc
00000280: 349a f6bd fc56 123e 72d6 293e 9d39 b7bc
00000290: 25e7 47be f6ee 0e3d dd12 143d 6fce 5dbd
000002a0: 746e 9abd d2f9 833d 1b49 eb3d 2ca3 283e
000002b0: 659a 88bc 3d50 babc a470 d7bd e982 8abc
000002c0: 6237 b03d da05 0a3e 44dd 993b dfd8 b33c
000002d0: 38f7 663c a581 84bc ed0d 663e e6b5 493d
000002e0: 9902 10bd 2ff8 963d 2d23 22bd 98a2 9bba
000002f0: 39e2 d83d b6b1 1abd 7690 85bd 9a64 fcbd
00000300: 58ba 743d 104e cd3d 3571 dd3d 24d2 823d
00000310: 78b0 b7bd 5309 a8bd a04a e9bd c018 653d
00000320: ee0f 8cbd 0307 e2bd 2486 97bd 7b42 efbd
00000330: 9e4a 7bbc 8135 963d be38 14bc 1e59 81bc
00000340: f9ad 22be f5ed 2a3c 006a 853d a12d 073e
00000350: c65a 6fbd 2733 ee3c de81 27be a208 e93d
00000360: cbfa 17be bd14 aa3c dd74 74bc f73f 3f3d
00000370: 13ea 913d bd1c 693d 102f 193e cc68 bbbd
00000380: 09c1 99bb edb4 043d ca43 b6bc 20ea ec3d
00000390: cc05 053e eb4b c63d 44a1 99bd 102e 6ebd
000003a0: 4371 c83c 494e cbb9 b4a0 98bd 55f3 c83d
000003b0: 6172 a23d a0b8 0e3e 2a97 1cbc cedd b6bc
000003c0: 3313 6fbe f86f c9bd 1b52 093e c887 f83c
000003d0: 5acc f1bd 63fb 093d 811e fdbc 7e59 4c3e
000003e0: feb1 853d d062 54bd 9d38 00bd d0dd cdbb
000003f0: b170 0cbe 6e56 f0bb 6c4b 173e 6fbb f9bd
0.02441611 -0.1146511 0.016608119 -0.1649511 -0.0034250382 -0.015313617 -0.020162096 0.026667446
-0.045615155 0.04742896 -0.16283327 -0.21004453 0.0020572713 0.0090996325 -0.026986146 -0.18923087
0.017401192 -0.016537327 0.00086668675 0.03332206 -0.16857982 -0.045785148 0.1410284 -0.05715949
-0.02828812 0.049699247 -0.18938406 -0.13956241 0.017976372 0.17751229 0.041853767 -0.023761954
-0.15695457 0.19264014 0.17634471 -0.059018895 0.0028870874 -0.03650456 -0.2493921 0.031544916
0.09065428 -0.003857432 0.06584966 0.092086434 -0.08920422 -0.1315303 -0.10705303 -0.009982934
-0.17394708 -0.052967466 0.0828339 0.06926152 -0.18039252 0.09516201 -0.08189454 0.111795366
0.08294914 0.06757441 0.23022944 -0.027171565 -0.07738796 0.10082749 0.050245285 0.15513217
0.1519487 0.076672405 0.25566384 0.01812183 0.07501095 -0.03734149 -0.029459773 -0.020172074
-0.06859892 -0.034438334 -0.14526978 -0.10295428 0.0013185145 -0.040478025 0.12515411 -0.18454571
-0.045279797 -0.009204206 0.13264959 -0.06544529 0.07956367 -0.1308129 -0.07178459 -0.075215615
-0.009681637 0.012858556 0.097573124 -0.07784 -0.021060418 0.031147612 0.05142894 0.111711875
0.004064649 0.0034914708 -0.117556825 0.17061085 -0.061823674 -0.0025310353 -0.02975362 0.07683175
-0.06514453 0.17348358 -0.14178208 -0.030685488 -0.09960956 0.14829405 -0.18629152 -0.006662364
0.0035598432 0.014694652 -0.10111119 0.06068733 -0.11506197 0.0645154 -0.14489213 0.032145504
-0.034734905 0.06996847 0.10676519 0.043109242 -0.098853216 0.2030247 -0.028200924 0.107821524
0.030187523 -0.017828695 -0.18633544 -0.019200988 0.09788737 0.018152777 0.12699026 -0.23979996
-0.11301283 0.069521554 -0.04391505 -0.0368293 -0.081599325 0.03031356 -0.08387473 -0.14178558
0.046589665 0.14066918 0.082467556 -0.18726368 0.037584137 -0.1277829 -0.01473088 0.27920854
0.019656504 -0.059042554 0.014598474 -0.14864196 -0.07830848 -0.03667053 -0.045040518 -0.013354115
-0.12041131 0.14290994 0.1658571 -0.02236634 -0.19521768 0.03489586 0.036150802 -0.05415195
-0.075405985 0.06444134 0.11488553 0.16468495 -0.016675184 -0.022743339 -0.10519531 -0.016908126
0.086043134 0.13478795 0.0046955664 0.021953998 0.0140970275 -0.0161751 0.2246625 0.049245737
-0.035158727 0.07371556 -0.039584327 -0.0011874018 0.105900235 -0.037767135 -0.06521694 -0.12323876
0.059748024 0.10024655 0.10812608 0.063877374 -0.089692056 -0.082049035 -0.11391187 0.055931807
-0.06838976 -0.11036494 -0.07398632 -0.11682602 -0.015337614 0.07334424 -0.0090467315 -0.015789565
-0.15886678 0.01043271 0.065143585 0.13201 -0.058436178 0.029077126 -0.16358134 0.113786
-0.14841764 0.020761842 -0.0149204405 0.04669186 0.07124724 0.056912173 0.14959359 -0.09150848
-0.004692201 0.032399107 -0.022249121 0.11568093 0.12990493 0.09682449 -0.07501462 -0.058149397
0.02446807 -0.00038777504 -0.07452527 0.09812037 0.07931972 0.13937616 -0.009557525 -0.022322562
-0.23347168 -0.098358095 0.13410227 0.030338183 -0.11806555 0.033687007 -0.030898334 0.19956014
0.0652809 -0.051852047 -0.03130399 -0.0062825456 -0.13714863 -0.007334522 0.14774865 -0.12193953

net.2.grid_points f4 [5]
00000000: 0000 00c0 0000 80bf 0000 0000 0000 803f
00000010: 0000 0040
-2.0 -1.0 0.0 1.0 2.0

net.3.coeff f4 [1, 64, 5]
00000000: 3f63 c93c 8ce1 e9bc 5513 b83d dae1 4f3d
00000010: 2508 123e 1066 8c3d ca1d 04bc e2a1 53be
00000020: da18 583d 0109 ba3c 1efb fb3c 38d7 153e
00000030: de8b 333d dd0f 083d f6f8 1e3d d9f8 d3bd
00000040: adf4 d63d b889 393c 2194 8a3d b8d3 2f3e
00000050: 0715 ff3d 53a0 83bd e16e 473d c6b8 aebd
00000060: b196 81bc 2102 b83d f75e 85bd 02b0 d13d
00000070: 758d 413c 085e 233c 6655 e53d 25b1 d53d
00000080: 4c93 a03c 7554 72bb 754e 903d c199 263d
00000090: 4629 4b3c d597 3f3e f406 19be ffcd 20bd
000000a0: b6ef 50bd 1666 f8bd 77c8 333d ddd2 c43d
000000b0: f09c 25be 6e2e 7b3e d257 793c d1b4 b1bc
000000c0: 75be 03bd 24fe 90bd 697a 77bd 8f70 703c
000000d0: d609 d13a db6a c33d 5d75 0dbe c957 9e3e
000000e0: 595c 3b3c bd80 293d 2045 27bc f6e0 fa3c
000000f0: aeeb 73bc 7116 f43d a1a7 e53d 2490 fcba
00000100: 8ca9 a03d 0941 b3bc f01c d33c 6ead 8bbd
00000110: b0d0 0e3e 2cf6 f83c 06cd 923d e7df 773d
00000120: 80b4 c13d 3aec 9e3d b403 c6bc f290 25bc
00000130: 5287 c03b b5a2 d63d 80e4 0c3e 27ac dcbd
00000140: a9d8 693d e616 58bb d76f b9bd f8cc 273d
00000150: 955e af3d 6375 423e a8f8 1a3d cad5 fdbd
00000160: 0d93 1e3d 0df5 893e 9081 873d c6bb 013e
00000170: 62fa 863d fb10 8e3b 9c57 6a3d b654 e13c
00000180: 60c4 09be 65a0 063d b5a0 f1bd 8816 84bd
00000190: 93c3 dcbd 9e63 ba3d c31e 283d 77ed 393d
000001a0: bc99 923d e05e c3bd 6e18 19be 5947 1ebe
000001b0: 1436 9fbc 7bc8 77bd 07a9 f53c ca83 093d
000001c0: 60c7 2dbd 2b7f eabd af55 1f3d 9f66 a2be
000001d0: 400d 0dbe 85dc a93c 363d 30bd fb84 d7bd
000001e0: d10c 6a3b 033e 2d3c 2ff5 9cbd 7879 453e
000001f0: 07db 483d 73e8 19bd 512f 43be 52e6 793c
00000200: e588 1b3e c729 283d d864 a83d 9797 cc3d
00000210: a981 8fbe 4784 223e 6008 103d 04ac 993d
00000220: cc76 44bd 09d6 813e 17cf 893d 042c 35bd
00000230: 2bad 0d3e 2a0c dfbd 374d c03c afb5 28be
00000240: 86e2 d3bd 06d6 ccbd 6cf1 85bd 23db 15be
00000250: a69f a5bd cb9e 0cbe 652a b63e 9a75 ffbb
00000260: e6eb 643e 3c9d 5e3e 8afb cfbc d40b 46be
00000270: 1ab9 a53d b5e1 8d3d 8027 e9bc f57d afbd
00000280: df61 913d de95 3d3d 1324 b73c 0059 c5bc
00000290: e759 b63d c4e4 35bd d3d9 973d 66e5 27be
000002a0: 9177 6ebd 198f d43d 4a6d 3cbd 37fd bbbd
000002b0: 1f5c 8c3c bde5 69bd 1f0d 19bc 892c b43d
000002c0: 1009 db3d 9c22 90bd 856f 273e 0696 743c
000002d0: 1e62 f0bb 7302 82bd 99b2 6dba 8981 c6bd
000002e0: 68fb a83d 5577 2e3d 6498 113d dd3c 35be
000002f0: 26e7 d73c 895b bbbd 1f5f 39bd b68e 3d3d
00000300: 0863 1e3e 5348 473e 10d8 3c3d fa3a 08bd
00000310: 52ef 6a3c a0f3 fd3d 8bd1 11bd 44e9 5dbc
00000320: a993 283c 0614 a73c 3a3a dabd 2ab5 ec3d
00000330: c10e 323c cd4a 3eb9 a40a 7c3d dfb2 813d
00000340: 1d02 7c3e 5e59 033d edba 9dbd cc7f 363d
00000350: 7fbc cdbd 5708 0ebc 2054 93bb d5be 1f3e
00000360: 45b4 9c3d fcd2 973d 46e5 0abe 1124 7e3d
00000370: 35bd 0ebc 6e68 9c3c 76d1 fe3d 0064 d1bc
00000380: 115f adbc a458 0abe a4e0 093e 6b0b 4dbd
00000390: 4052 e53b 2a41 3ebe 62cb 74bd 992a 30be
000003a0: 91a2 d3bc 0f12 f3bd 7e7c 12bd de7f 4a3c
000003b0: f6c1 51be 6906 86bd 735d 093e ed6a 093d
000003c0: 9af8 393e f474 3fbc 89e1 eb3d a1da 5fbd
000003d0: 3c77 ec3c 0aca 783d 1a19 0cbe 6660 9c3c
000003e0: fd2f c73d 9905 5bbc 6e2b 8d3d c2f9 1e3e
000003f0: 487e 5cbb 803f 2cbe 27da 873d 9434 4f3d
0.024583457 -0.028549932 0.08988062 0.0507525 0.1426092 0.068554044 -0.008063743 -0.20667222
0.052758075 0.022709372 0.03075939 0.1463288 0.04383456 0.033218253 0.038811646 -0.10350198
0.10495887 0.011324339 0.067665346 0.17170608 0.124551825 -0.06427064 0.048689727 -0.085313365
-0.015818926 0.08984781 -0.06512254 0.10238649 0.011813511 0.009971149 0.11197929 0.10434178
0.019601487 -0.003697661 0.070462145 0.040673975 0.012399977 0.18710263 -0.14944059 -0.039258953
-0.051009856 -0.12128846 0.04389235 0.096105315 -0.16173148 0.2452943 0.015218692 -0.021692665
-0.032164056 -0.070797235 -0.060419474 0.014675274 0.0015948366 0.095418654 -0.13814302 0.3092635
0.011435592 0.04138254 -0.010209352 0.030624848 -0.014887733 0.11918343 0.11213613 -0.0019269031
0.078448385 -0.021881597 0.025770634 -0.068201885 0.13946795 0.030390821 0.07168011 0.060516264
0.09458256 0.077599004 -0.024171688 -0.010105358 0.0058755064 0.10480253 0.13759041 -0.10775023
0.05709139 -0.0032972633 -0.09054535 0.040966958 0.08562962 0.18990092 0.037834793 -0.12394293
0.038714457 0.2694477 0.06616509 0.12669286 0.065907255 0.0043355203 0.057212457 0.027506214
-0.13453817 0.032867808 -0.117982306 -0.0644961 -0.1077949 0.09101032 0.04104496 0.04539248
0.07158229 -0.0953958 -0.14950725 -0.15456904 -0.019434966 -0.060493927 0.029987825 0.03357295
-0.042426467 -0.114500366 0.038900074 -0.3171892 -0.13774586 0.020735035 -0.043027125 -0.10523411
0.0035713206 0.010573867 -0.076639526 0.19284618 0.049037006 -0.037575196 -0.19061019 0.015252667
0.1518894 0.041055467 0.082223594 0.09989851 -0.2802861 0.15870772 0.035164237 0.075035125
-0.047964856 0.25358608 0.067289524 -0.04423143 0.1383559 -0.10890992 0.023474319 -0.16475557
-0.1034594 -0.10001759 -0.06540188 -0.14634375 -0.08087091 -0.1373245 0.3557922 -0.0077960016
0.22355613 0.21739668 -0.025388498 -0.1934045 0.08091946 0.06927816 -0.028461218 -0.08568946
0.070987456 0.046285503 0.022356069 -0.02409029 0.08903866 -0.04440762 0.074145935 -0.16396102
-0.058219496 0.10378856 -0.046002664 -0.09179156 0.01713377 -0.05710386 -0.009341507 0.08797557
0.10695088 -0.07037851 0.16351135 0.0149283465 -0.007335915 -0.063481234 -0.00090674456 -0.096926756
0.08251077 0.042594273 0.03554572 -0.17698999 0.026355337 -0.09148318 -0.04525673 0.046278678
0.15467465 0.19461183 0.04610449 -0.03325937 0.014339285 0.123999834 -0.035600226 -0.013544384
0.010289111 0.02039529 -0.10655637 0.11557992 0.010867775 -0.00018147677 0.061533585 0.06332945
0.24610181 0.03206765 -0.07701669 0.04455547 -0.100457184 -0.008668981 -0.0044961125 0.1560014
0.07651571 0.07413289 -0.13564023 0.062046114 -0.008712103 0.019092765 0.12442295 -0.025560379
-0.021163495 -0.13510376 0.134646 -0.050059717 0.0069983304 -0.18579546 -0.059764273 -0.1720375
-0.025834354 -0.11868679 -0.035763256 0.0123595875 -0.20484146 -0.065441914 0.13414554 0.033549238
0.1816124 -0.011685599 0.11517627 -0.05465186 0.02886545 0.060739554 -0.1368145 0.019088935
0.0972595 -0.013368034 0.06893049 0.15524963 -0.0033644605 -0.16821098 0.06633406 0.05058725

net.3.scale f4 [1, 64]
00000000: 349d 7f3f c973 7e3f 1588 7f3f bdda 7e3f
00000010: df50 803f ef1e 813f 2701 803f abed 7e3f
00000020: ad55 7c3f be34 803f 45a8 7e3f 69d7 7f3f
00000030: 285f 7f3f 93a7 7f3f f907 7f3f 81f0 803f
00000040: 680c 803f fe22 803f af97 7f3f 9dc0 803f
00000050: be77 7f3f 555e 803f 2e94 803f 10b5 803f
00000060: 4492 803f 309b 7e3f 6eaa 7f3f fe8d 7f3f
00000070: ad3a 803f 8d35 803f 2c4a 7f3f e116 7f3f
00000080: a2a2 7f3f cf48 803f b13f 803f 29c3 7b3f
00000090: e1b0 803f 6c82 803f 78d5 7f3f d998 7e3f
000000a0: 0253 803f 5cbc 7f3f a16e 803f 4f2c 7f3f
000000b0: d574 7f3f e110 803f 2c59 803f fc09 803f
000000c0: 1539 7f3f 9632 7e3f e208 803f eb89 7f3f
000000d0: 51a0 7c3f a3ab 7d3f 2623 803f 4fb3 7f3f
000000e0: 15c0 7d3f e180 803f 9c66 7f3f 3532 803f
000000f0: 843c 7f3f 6aa7 7f3f 7cf6 7f3f ee31 7f3f
0.9984925 0.99395424 0.9981702 0.9955252 1.002468 1.0087565 1.0000352 0.995814
0.9856823 1.0016096 0.9947551 0.99938065 0.9975457 0.9986507 0.9962154 1.0073396
1.0003786 1.0010679 0.99840826 1.0058781 0.9979209 1.0028788 1.0045221 1.0055256
1.0044637 0.9945555 0.9986943 0.9982604 1.0017906 1.0016342 0.9972255 0.99644285
0.9985753 1.002222 1.0019437 0.98344666 1.0053979 1.0039802 0.999351 0.99451977
1.0025332 0.9989679 1.0033761 0.99676985 0.99787647 1.0005151 1.0027213 1.0003047
0.99696475 0.9929594 1.0002711 0.9981982 0.98682123 0.9909002 1.0010726 0.9988298
0.9912122 1.0039331 0.99765944 1.0015322 0.99701715 0.9986483 0.9998548 0.9968556

net.3.base_weight f4 [1, 64]
00000000: 09c4 0a3e c5b9 993e b4c4 2d3e 00a3 1a3e
00000010: d99e c93c efaa 533d f5ed 733d b1db 363e
00000020: 57af 563e ab2f 4f3e ce8e 6cbd 8f6f 2fbe
00000030: 0bed d03d b558 a73d 8e76 2a3c f0a9 c9ba
00000040: 15d4 39bc 4f99 d8bd 25f3 bcbd 42be 23be
00000050: 1601 b2bd aa3f 1e3d 8bef 73bd 6efc 36be
00000060: 0068 0cbd b8b5 c6bc 91ae 14bc 807b adbd
00000070: e365 df3d 6024 20bd a867 ccbd 2523 b53c
00000080: 216e f93d e0d8 f03d 142d 303e bf44 893d
00000090: e2a0 e23d 7843 c9bd 4f5d 943d 30fa 66be
000000a0: 978c 1b3e cdb4 03bd db53 dfbc 4748 903d
000000b0: af99 d43c 8a17 d0bd 1b6a c93c dee7 003e
000000c0: 637b 22bd 07e0 c53c 5edf ed3a b835 8f3d
000000d0: 0a69 433e 4bd3 15be fe56 be3b cd8a e53c
000000e0: 4e1c 0cbd 5e3d e5bd e4aa eebd 58a1 30bd
000000f0: 641a 643b 769d c2bd 1fa2 a5bd 4472 fdbd
0.13551344 0.30024543 0.16969568 0.15101242 0.024611877 0.051676687 0.059553105 0.17857243
0.20965324 0.20233028 -0.057753377 -0.171324 0.10201462 0.081712164 0.010404242 -0.0015385728
-0.011342068 -0.10576116 -0.09226064 -0.15990546 -0.086916134 0.038634934 -0.059554618 -0.17869732
-0.03427887 -0.024256572 -0.009074823 -0.084708214 0.10908105 -0.03909719 -0.09980708 0.022111485
0.121792085 0.117601156 0.17204696 0.067025654 0.11065842 -0.09827322 0.0724436 -0.22556376
0.1519035 -0.032154847 -0.027261665 0.07045036 0.025952188 -0.1016074 0.024586728 0.1258845
-0.039668452 0.024154676 0.0018148234 0.06992668 0.19083038 -0.14631383 0.00580871 0.028020287
-0.03420668 -0.111933455 -0.116536885 -0.04312262 0.003480577 -0.095026895 -0.08087563 -0.1237531

net.3.grid_points f4 [5]
00000000: 0000 00c0 0000 80bf 0000 0000 0000 803f
00000010: 0000 0040
-2.0 -1.0 0.0 1.0 2.0
