data/trained_models/base_mu2_a_kan.pth (torch, 138786 bytes, 12 tensors)

net.0.coeff f4 [64, 10, 5]
0.06482572 -0.009106823 0.011037329 0.015762825 -0.096189015 -0.0796716 0.11200512 -0.018788904
-0.19359568 0.15107208 -0.16215613 0.16936363 -0.030942569 -0.105090246 -0.0237971 -0.038156256
-0.026558455 0.048362598 -0.17191748 0.13622454 0.0644549 -0.15961502 0.008208195 -0.07619056
-0.137103 -0.044344272 0.015756965 -0.0022985 -0.13609068 -0.06513442 -0.09768015 -0.009253193
-0.23507853 -0.10316466 -0.031381477 -0.051718194 0.041735493 -0.0075577376 0.07389549 -0.051246565
0.181108 0.11794064 -0.0070630987 0.16403624 0.09258379 0.029041195 0.09847504 -0.07071357
0.011403559 0.08150867 -0.114971265 0.228235 0.010436734 -0.07770216 -0.07959264 -0.20250972
-0.045927066 0.12655793 -0.023990666 -0.20825261 -0.064030714 -0.10717792 0.12328591 0.11365213
-0.004431794 0.056152288 0.03570589 -0.009015971 0.1289177 0.01637632 0.08395069 -0.0155784115
0.117205724 -0.22020836 -0.004006273 -0.027908074 -0.041968174 0.21609367 -0.058165673 0.03727851
0.0146478955 0.0862031 0.06871298 -0.18047453 -0.04071653 -0.046299484 0.0103320945 -0.06273759
-0.073238194 -0.1261441 0.10155495 -0.35852996 0.055694867 0.11311833 0.2972981 0.11654579
0.011009619 0.1852421 -0.020824548 -0.16610198 0.0827409 -0.0018219322 -0.055250946 0.004841811
0.0071607744 0.034361046 -0.15882276 -0.0663493 0.21632823 0.03561721 0.19689776 -0.16207354
-0.024899105 0.061917238 0.00994383 0.016056549 0.00045208394 -0.014772686 -0.087939665 0.024525594
-0.044832647 0.0851135 0.03893185 -0.18831259 0.015927803 -0.013262363 0.08515995 -0.009856732
0.1384286 0.04072366 0.1115954 -0.0398331 -0.036520634 -0.20969212 -0.06936519 -0.18679026
0.082014635 0.1580352 0.0920037 -0.16971447 -0.08010994 -0.05730884 -0.10287347 0.04189717
-0.11237191 -0.14528565 -0.12390894 0.20475985 0.16845824 0.029056445 -0.09264171 -0.023929816
0.20064546 0.042475525 -0.0049324473 0.110286295 -0.08006965 0.037799306 0.046770424 -0.1284334
-0.08743794 0.20084712 -0.09470377 -0.014810923 -0.017743092 0.15743333 0.17535785 0.14024514
0.00024552696 0.024140464 0.023742236 -0.09914675 -0.11072141 -0.008891868 -0.06990357 0.04276838
-0.101112925 0.012480991 0.037827507 -0.19064668 0.1616069 -0.040919006 0.14035386 0.0060231998
0.15990254 0.13894013 -0.11066411 0.041334275 0.14980121 0.12635882 0.0036865717 0.011653683
0.007159303 -0.11588778 -0.2276551 -0.08804676 -0.059343718 0.21530887 0.123023756 0.032607716
-0.16517234 -0.04854757 0.0758231 -0.059283465 -0.012209966 0.0013452461 0.06290186 0.17954902
0.04273733 -0.05452187 -0.09470237 0.035718028 -0.04446689 -0.023191694 0.27905834 0.044348717
0.0053272313 0.1818895 -0.07642964 0.020771934 0.055893604 0.008429104 0.024862835 0.23971009
0.026816672 -0.0034001968 0.12700935 0.13819169 -0.052270193 -0.25908932 0.13155712 0.1313121
-0.20355749 -0.047372647 -0.025042426 -0.071963 0.1606835 0.08573137 -0.0065419152 -0.060283106
0.11762237 -0.114217125 -0.29502824 0.024485134 -0.025102243 -0.021976493 -0.024468057 0.0953261
0.08136834 -0.06212946 0.024335185 -0.10297985 -0.060007494 0.02583463 -0.1292092 -0.0013686828
00000000: 59c3 843d c934 15bc ead5 343c 0a21 813c
00000010: bffe c4bd dd2a a3bd f162 e53d 30eb 99bc
00000020: f23d 46be a4b2 1a3e 420c 26be a96d 2d3e
00000030: 457b fdbc 8e39 d7bd 23f2 c2bc bc49 1cbd
00000040: 1e91 d9bc dc17 463d 230b 30be 727e 0b3e
00000050: ee00 843d 1f72 23be aa7b 063c cc09 9cbd
00000060: bb64 0cbe 57a2 35bd c014 813c 6ea2 16bb
00000070: 5b5b 0bbe 3265 85bd 880c c8bd b49a 17bc
00000080: 6db8 70be fe47 d3bd dd89 00bd 75d6 53bd
00000090: d6f2 2a3d e6a6 f7bb 8556 973d ebe7 51bd
000000a0: 6074 393e dd8a f13d 9171 e7bb 1ef9 273e
000000b0: 929c bd3d cde7 ed3c 48ad c93d 47d2 90bd
000000c0: fed5 3a3c 04ee a63d 0e76 ebbd 70b6 693e
000000d0: d6fe 2a3c 4f22 9fbd 7701 a3bd b55e 4fbe
000000e0: 051e 3cbd 6798 013e 1388 c4bc 2c40 55be
000000f0: 8922 83bd 1980 dbbd 537d fc3d 73c2 e83d
00000100: 9538 91bb f1ff 653d 5740 123d b9b7 13bc
00000110: 0003 043e a227 863c 57ee ab3d 983c 7fbc
00000120: 8e09 f03d 4d7e 61be 0e47 83bb 799f e4bc
00000130: d2e6 2bbd a947 5d3e 213f 6ebd 5ab1 183d
00000140: bafd 6f3c 408b b03d 64b9 8c3d 51ce 38be
00000150: 60c6 26bd 87a4 3dbd f247 293c 917c 80bd
00000160: e8fd 95bd eb2b 01be 0bfc cf3d 3d91 b7be
00000170: 4d20 643d 95aa e73d 7537 983e 8faf ee3d
00000180: b061 343c 1bb0 3d3e 3e98 aabc a316 2abe
00000190: 1074 a93d e6cd eeba d14e 62bd 0ea8 9e3b
000001a0: eea4 ea3b 2bbe 0c3d 6fa2 22be 24e2 87bd
000001b0: 2685 5d3e 5ae3 113d 919f 493e 9bf6 25be
000001c0: 35f9 cbbc ee9c 7d3d 72eb 223c 0689 833c
000001d0: ae05 ed39 2309 72bc b619 b4bd e6e9 c83c
000001e0: 70a2 37bd fd4f ae3d 0177 1f3d 04d5 40be
000001f0: 067b 823c 624a 59bc 5768 ae3d 217e 21bc
00000200: 3ac0 0d3e dacd 263d 218c e43d 0828 23bd
00000210: a996 15bd 88b9 56be 560f 8ebd f245 3fbe
00000220: 4af7 a73d fbd3 213e 706c bc3d a1c9 2dbe
00000230: ae10 a4bd adbc 6abd 53af d2bd 5e9c 2b3d
00000240: 3e23 e6bd c3c5 14be f8c3 fdbd 91ac 513e
00000250: 5180 2c3e c807 ee3c f0ba bdbd 7608 c4bc
00000260: 0176 4d3e d1fa 2d3d 5ea0 a1bb c8dd e13d
00000270: 8ffb a3bd 72d3 1a3d 5892 3f3d 0c84 03be
00000280: aa12 b3bd deaa 4d3e 0df4 c1bd 83a9 72bc
00000290: f659 91bc 3436 213e 0291 333e 6c9c 0f3e
000002a0: 12ba 8039 39c2 c53c 147f c23c 740d cbbd
000002b0: e8c1 e2bd 33af 11bc 9a29 8fbd e62d 2f3d
000002c0: 4b14 cfbd 127d 4c3c 04f1 1a3d e238 43be
000002d0: 477c 253e b09a 27bd ecb8 0f3e 435e c53b
000002e0: 7ebd 233e 5246 0e3e dda3 e2bd 214e 293d
000002f0: 7d65 193e 3564 013e 699a 713b 17ef 3e3c
00000300: 9698 ea3b 9356 edbd 6b1e 69be dc51 b4bd
00000310: 6612 73bd ee79 5c3e e1f3 fb3d ab8f 053d
00000320: f022 29be d1d9 46bd 2449 9b3d 38d3 72bd
00000330: 4f0c 48bc f852 b03a b1d2 803d b3db 373e
00000340: 570d 2f3d 5352 5fbd 51f3 c1bd 114d 123d
00000350: ea22 36bd 82fc bdbc bce0 8e3e 00a7 353d
00000360: 0e90 ae3b 3e41 3a3e 2587 9cbd e729 aa3c
00000370: b1f0 643d 3a1a 0a3c 25ad cb3c 9076 753e
00000380: a3ae db3c d6d5 5ebb bd0e 023e 1f82 0d3e
00000390: 4519 56bd 5ba7 84be e9b6 063e ae76 063e
000003a0: 6071 50be d209 42bd c625 cdbc 5661 93bd
000003b0: 378a 243e ee93 af3d 905d d6bb 6beb 76bd
000003c0: ffe3 f03d abea e9bd f10d 97be 0c95 c83c
000003d0: 38a3 cdbc 0c08 b4bc 3c71 c8bc 553a c33d
000003e0: 72a4 a63d 767b 7ebd 955a c73c 19e7 d2bd
000003f0: 6bca 75bd 25a3 d33c 6b4f 04be 6065 b3ba

net.0.scale f4 [64, 10]
0.9989999 1.0009998 0.999 0.99899995 1.0009998 0.99899995 0.9989999 0.99899995
1.0009998 1.0009997 0.9990006 0.99900013 0.99901044 1.0009989 1.0009992 0.99900186
1.0009956 0.9990003 1.0009993 1.0009993 1.0009995 1.0009998 1.0009996 1.0009997
0.99899995 0.9990001 1.0009998 0.9989999 0.9989999 0.9989999 1.000999 1.0009998
1.0009997 0.9989999 0.999 0.99899995 0.9989999 0.9989999 0.99900067 1.0009998
0.99900013 0.99899995 1.0009999 1.0009998 1.0009998 0.99900067 1.0009998 0.99899995
1.0009998 0.999 1.0009999 0.999 0.9989999 0.9989999 0.9989999 1.0009998
1.0009998 1.0009999 0.9989999 1.0009999 1.0009999 1.0009999 1.0009999 0.9989999
0.9989999 1.0009999 0.9989999 1.0009999 1.0009999 0.9989999 0.999 1.0009997
0.99899995 0.9989999 0.99899995 1.0009997 0.99899995 1.0009997 0.99899995 1.0009998
0.99899995 1.0009999 1.0009999 1.0009998 0.9990005 1.0009998 1.0009998 1.0009998
0.9989999 0.99899995 0.9990001 1.0009995 1.0009998 1.0009998 1.0009998 1.0009997
0.9989999 1.0009992 1.0009998 1.0009998 1.0009997 0.9990002 0.9990027 1.0009997
0.99899995 1.0009997 0.999 0.99899995 0.999 0.9990001 0.99902284 1.0009769
0.9990144 1.0009713 1.0009923 1.0009885 0.9990241 1.0009739 1.0009942 0.999011
1.0009995 0.99899995 0.999 0.999 0.99899995 1.0009995 1.0009998 1.0009998
0.99900013 0.99900013 1.0009999 1.0009998 1.0009998 0.9989999 0.9989999 1.0009995
0.9989999 0.9989999 1.0009999 1.0009999 1.0009997 0.9989999 1.0009997 1.0009998
1.0009997 1.0009996 1.0009998 1.0009993 0.9989999 1.0009998 1.0009999 0.9989999
1.0009999 1.0009999 0.9989999 0.9989999 0.9989999 0.9989999 1.0009999 1.0009998
1.0009992 1.0009998 0.9989999 1.0009998 1.0009998 1.0009998 0.9989999 0.9989999
0.9989999 1.0009998 1.0009998 0.9989999 0.9990001 1.0009997 0.99899995 1.0009998
1.0009998 0.9989999 0.99899995 1.0009998 0.9989999 0.99899995 1.0009999 1.0009999
1.0009999 0.9989999 0.99899995 1.0009998 0.9989999 0.9989999 1.0009998 0.99899995
1.0009984 1.0009996 1.0009998 0.99899995 0.9989999 1.0009997 1.0009996 0.99899995
0.99900013 0.9989999 0.9989999 1.0009999 1.0009998 1.0009998 1.0009998 0.99899995
0.99899995 0.9989999 0.99900204 1.0009979 0.9990012 1.0009985 1.000999 1.0009993
0.99900055 1.0009985 1.000986 0.9990009 0.9989999 1.0009999 1.0009998 1.0009998
0.9989999 0.9989999 1.0009998 0.9989999 1.0009998 0.999 1.0009998 0.9989999
0.9990003 0.99899995 1.0009998 0.99899995 1.0009998 0.9989999 0.9989999 1.0009998
0.9989999 1.0009998 1.0009998 0.9989999 1.0009996 1.0009998 0.9989999 1.0009998
1.0009999 1.0009998 0.9989999 1.0009999 1.0009999 1.0009998 1.0009998 0.9989999
00000000: 75be 7f3f c320 803f 77be 7f3f 76be 7f3f
00000010: c320 803f 76be 7f3f 75be 7f3f 76be 7f3f
00000020: c320 803f c220 803f 81be 7f3f 79be 7f3f
00000030: 26bf 7f3f bb20 803f be20 803f 96be 7f3f
00000040: a020 803f 7cbe 7f3f bf20 803f bf20 803f
00000050: c020 803f c320 803f c120 803f c220 803f
00000060: 76be 7f3f 78be 7f3f c320 803f 75be 7f3f
00000070: 75be 7f3f 75be 7f3f bc20 803f c320 803f
00000080: c220 803f 75be 7f3f 77be 7f3f 76be 7f3f
00000090: 75be 7f3f 75be 7f3f 82be 7f3f c320 803f
000000a0: 79be 7f3f 76be 7f3f c420 803f c320 803f
000000b0: c320 803f 82be 7f3f c320 803f 76be 7f3f
000000c0: c320 803f 77be 7f3f c420 803f 77be 7f3f
000000d0: 75be 7f3f 75be 7f3f 75be 7f3f c320 803f
000000e0: c320 803f c420 803f 75be 7f3f c420 803f
000000f0: c420 803f c420 803f c420 803f 75be 7f3f
00000100: 75be 7f3f c420 803f 75be 7f3f c420 803f
00000110: c420 803f 75be 7f3f 77be 7f3f c220 803f
00000120: 76be 7f3f 75be 7f3f 76be 7f3f c220 803f
00000130: 76be 7f3f c220 803f 76be 7f3f c320 803f
00000140: 76be 7f3f c420 803f c420 803f c320 803f
00000150: 7fbe 7f3f c320 803f c320 803f c320 803f
00000160: 75be 7f3f 76be 7f3f 78be 7f3f c020 803f
00000170: c320 803f c320 803f c320 803f c220 803f
00000180: 75be 7f3f be20 803f c320 803f c320 803f
00000190: c220 803f 7abe 7f3f a4be 7f3f c220 803f
000001a0: 76be 7f3f c220 803f 77be 7f3f 76be 7f3f
000001b0: 77be 7f3f 78be 7f3f f6bf 7f3f 0320 803f
000001c0: 68bf 7f3f d41f 803f 8420 803f 6420 803f
000001d0: 0bc0 7f3f ea1f 803f 9420 803f 2fbf 7f3f
000001e0: c020 803f 76be 7f3f 77be 7f3f 77be 7f3f
000001f0: 76be 7f3f c020 803f c320 803f c320 803f
00000200: 79be 7f3f 79be 7f3f c420 803f c320 803f
00000210: c320 803f 75be 7f3f 75be 7f3f c020 803f
00000220: 75be 7f3f 75be 7f3f c420 803f c420 803f
00000230: c220 803f 75be 7f3f c220 803f c320 803f
00000240: c220 803f c120 803f c320 803f bf20 803f
00000250: 75be 7f3f c320 803f c420 803f 75be 7f3f
00000260: c420 803f c420 803f 75be 7f3f 75be 7f3f
00000270: 75be 7f3f 75be 7f3f c420 803f c320 803f
00000280: be20 803f c320 803f 75be 7f3f c320 803f
00000290: c320 803f c320 803f 75be 7f3f 75be 7f3f
000002a0: 75be 7f3f c320 803f c320 803f 75be 7f3f
000002b0: 78be 7f3f c220 803f 76be 7f3f c320 803f
000002c0: c320 803f 75be 7f3f 76be 7f3f c320 803f
000002d0: 75be 7f3f 76be 7f3f c420 803f c420 803f
000002e0: c420 803f 75be 7f3f 76be 7f3f c320 803f
000002f0: 75be 7f3f 75be 7f3f c320 803f 76be 7f3f
00000300: b720 803f c120 803f c320 803f 76be 7f3f
00000310: 75be 7f3f c220 803f c120 803f 76be 7f3f
00000320: 79be 7f3f 75be 7f3f 75be 7f3f c420 803f
00000330: c320 803f c320 803f c320 803f 76be 7f3f
00000340: 76be 7f3f 75be 7f3f 99be 7f3f b320 803f
00000350: 8bbe 7f3f b820 803f bc20 803f bf20 803f
00000360: 80be 7f3f b820 803f 4f20 803f 86be 7f3f
00000370: 75be 7f3f c420 803f c320 803f c320 803f
00000380: 75be 7f3f 75be 7f3f c320 803f 75be 7f3f
00000390: c320 803f 77be 7f3f c320 803f 75be 7f3f
000003a0: 7cbe 7f3f 76be 7f3f c320 803f 76be 7f3f
000003b0: c320 803f 75be 7f3f 75be 7f3f c320 803f
000003c0: 75be 7f3f c320 803f c320 803f 75be 7f3f
000003d0: c120 803f c320 803f 75be 7f3f c320 803f
000003e0: c420 803f c320 803f 75be 7f3f c420 803f
000003f0: c420 803f c320 803f c320 803f 75be 7f3f

net.0.base_weight f4 [64, 10]
0.061295245 0.034298427 0.010545294 0.058806907 -0.0013014841 -0.17585953 0.04959184 -0.1153294
0.1268543 0.050541937 0.040138327 -0.14987145 -0.08670455 0.019852567 0.019811759 -0.021333702
-0.084894255 0.09224845 -0.029351054 -0.15105037 -0.121957086 -0.21025074 0.027010022 0.0032382417
-0.093229696 -0.089013636 -0.17624041 -0.1528249 0.0590175 -0.10188484 0.0021303417 0.17570077
0.0033995693 0.01616881 -0.16644032 -0.040706784 -0.021165013 -0.067568816 -0.09168375 -0.0742433
-0.017157938 0.11071433 -0.06946312 -0.031980064 -0.053497806 0.18440203 -0.15749791 0.066566944
-0.055707455 -0.08275819 0.032500394 0.08211685 -0.08349311 -0.12029907 -0.09640977 -0.032498118
-0.061510067 -0.03567976 -0.010627241 0.021685462 0.0049732607 0.033078495 -0.109881096 -0.022424104
-0.09470541 -0.11022836 -0.13077793 -0.076749496 0.0054233545 -0.033966582 0.09365275 -0.05472213
0.11052101 0.050311636 0.103008956 -0.11685236 0.08579772 0.046146724 -0.24027778 -0.11923963
0.06476602 0.027836787 -0.054119155 -0.100782596 -0.041934717 0.07473672 0.0028398456 0.063143656
0.14144824 0.05229382 0.023545345 0.061472625 -0.177806 -0.057495456 0.1685663 -0.09189103
0.020180158 0.07375453 0.012438862 -0.17951922 -0.070812896 0.15101361 -0.0840954 0.006534119
-0.0030054455 0.06089838 0.0030934052 0.13738723 -0.24653791 -0.24644247 -0.10304902 -0.09059133
-0.05956739 0.11751689 -0.0063151876 0.051481858 -0.066029325 -0.106877364 0.09724532 -0.09559033
-0.017123513 0.16178775 0.025297495 0.075070366 0.085874245 0.02041606 -0.008382223 -0.21287002
0.033497903 0.03204524 -0.017624922 0.14283213 0.03548337 0.09054515 0.15451403 -0.1655056
-0.05296117 0.07312755 0.058454886 -0.08931863 -0.0940441 -0.033545043 -0.11171638 -0.06349087
0.0677928 0.09118043 -0.059898093 0.07592374 0.10883574 -0.01789667 0.007905565 -0.046508655
0.016111115 -0.01555353 -0.23593037 -0.01217382 -0.09865191 -0.035027582 0.026838873 0.055170517
-0.10650892 0.026003918 -0.024302108 0.04617563 -0.039864484 -0.04065052 0.09387701 0.12808348
0.03866459 -0.0647837 -0.043587543 0.16018778 -0.076665856 -0.11579266 0.009771301 -0.08353101
0.050996028 0.026332851 0.026131222 0.009505446 0.0147895655 -0.09108293 0.023045171 -0.064176306
0.011014822 0.008694339 -0.084556974 -0.050229203 -0.08026177 0.00038905634 -0.03437976 0.021517137
-0.11740052 -0.021605583 -0.03707056 0.095385715 -0.095329486 -0.03772192 -0.069777496 -0.121623516
-0.14774197 -0.044739317 -0.1412346 -0.022083748 0.020029819 -0.041158225 -0.07279623 0.035417587
0.028398795 -0.078507155 0.032271758 0.014701447 0.026879434 -0.02730479 0.16689403 -0.07320156
-0.046789616 -0.08942562 0.08240372 -0.06403464 0.07454503 -0.0862815 0.26310012 0.0657054
0.09490385 0.11762606 0.014702966 0.028706554 -0.078974366 -0.0025459977 -0.021033213 -0.04074179
-0.109214686 -0.12277981 0.09358578 0.097847514 -0.10628184 -0.091064446 -0.09095727 0.11620527
0.055067915 0.12571006 -0.1116869 0.17254438 0.05222114 -0.038239624 -0.079107635 0.14020947
-0.018069958 -0.05312661 -0.032852847 0.25275448 0.023930077 -0.1464954 -0.11814275 -0.007474068
00000000: b910 7b3d 827c 0c3d 2bc6 2c3c 83df 703d
00000010: 8f96 aaba 8514 34be d020 4b3d d231 ecbd
00000020: 18e6 013e 1005 4f3d 1668 243d e777 19be
00000030: 2892 b1bd daa1 a23c 454c a23c 04c4 aebc
00000040: 0add adbd c1ec bc3d 9f71 f0bc f3ac 1abe
00000050: a3c4 f9bd f84b 57be 1f44 dd3c ae38 543b
00000060: 36ef bebd c84c b6bd 5e78 34be 217e 1cbe
00000070: 56bc 713d 00a9 d0bd 349d 0b3b e7ea 333e
00000080: 4fcb 5e3b 7474 843c 556f 2abe 28bc 26bd
00000090: 4062 adbc 8561 8abd b1c4 bbbd df0c 98bd
000000a0: ce8e 8cbc 32be e23d ae42 8ebd 87fd 02bd
000000b0: 8420 5bbd e3d3 3c3e 2247 21be 4054 883d
000000c0: 802d 64bd 207d a9bd 221f 053d e12c a83d
000000d0: 70fe aabd 5c5f f6bd 7c72 c5bd bf1c 05bd
000000e0: fbf1 7bbd f124 12bd e11d 2ebc b6a5 b13c
000000f0: bcf6 a23b 517d 073d 5709 e1bd c1b2 b7bc
00000100: e9f4 c1bd 68bf e1bd a6ea 05be d72e 9dbd
00000110: 65b6 b13b 8b20 0bbd 03cd bf3d 5024 60bd
00000120: d758 e23d 9313 4e3d 5cf6 d23d 4a50 efbd
00000130: b7b6 af3d 5904 3d3d 610b 76be e833 f4bd
00000140: 0ca4 843d f909 e43c 0cac 5dbd 1b67 cebd
00000150: bdc3 2bbd 910f 993d b41c 3a3b 7651 813d
00000160: cfd7 103e 0b32 563d 2be2 c03c b8ca 7b3d
00000170: c712 36be 5b80 6bbd a59c 2c3e 5d31 bcbd
00000180: dc50 a53c 9d0c 973d 5ecc 4b3c e3d3 37be
00000190: 5a06 91bd 50a3 1a3e 363a acbd 2a1c d63b
000001a0: 02f7 44bb 9470 793d baba 4a3b 3daf 0c3e
000001b0: 6f74 7cbe 6a5b 7cbe 5d0b d3bd f287 b9bd
000001c0: effc 73bd b2ac f03d a2ef cebb a4de 523d
000001d0: 623a 87bd 85e2 dabd 8e28 c73d ddc4 c3bd
000001e0: 9c46 8cbc b0ab 253e b13c cf3c 7ebe 993d
000001f0: d6de af3d 953f a73c 9755 09bc 99fa 59be
00000200: 1935 093d df41 033d 2462 90bc 9642 123e
00000210: 0357 113d bc6f b93d ed38 1e3e 4d7a 29be
00000220: d0ed 58bd e6c3 953d 646e 6f3d b0ec b6bd
00000230: 319a c0bd 8766 09bd 8fcb e4bd 8007 82bd
00000240: f4d6 8a3d cebc ba3d b457 75bd e87d 9b3d
00000250: 46e5 de3d 0a9c 92bc 5886 013c dc7f 3ebd
00000260: 75fb 833c 3cd4 7ebc bb97 71be b474 47bc
00000270: 030a cabd 1579 0fbd 32dd db3c 7bfa 613d
00000280: 5921 dabd 2b06 d53c 3715 c7bc a822 3d3d
00000290: f148 23bd 2981 26bd 9742 c03d 5128 033e
000002a0: c35e 1e3d 51ad 84bd da88 32bd 4408 243e
000002b0: fd02 9dbd b424 edbd cf17 203c 4e12 abbd
000002c0: 36e1 503d feb7 d73c 2511 d63c bbbc 1b3c
000002d0: ef4f 723c b089 babd 3ac9 bc3c de6e 83bd
000002e0: 8377 343c b372 0e3c 352c adbd 23bd 4dbd
000002f0: 4860 a4bd 42fa cb39 cbd1 0cbd b544 b03c
00000300: af6f f0bd 31fe b0bc 4dd7 17bd 9659 c33d
00000310: 1b3c c3bd 4d82 1abd 81e7 8ebd c015 f9bd
00000320: ac49 17be 9340 37bd ce9f 10be fae8 b4bc
00000330: 9315 a43c 8795 28bd 3116 95bd 0812 113d
00000340: 97a4 e83c 5cc8 a0bd 642f 043d 57de 703c
00000350: 4232 dc3c 4cae dfbc 45e6 2a3e b3ea 95bd
00000360: 78a6 3fbd c824 b7bd 48c3 a83d 9824 83bd
00000370: 11ab 983d 5bb4 b0bd 0fb5 863e 8e90 863d
00000380: f35c c23d efe5 f03d b6e4 703c 022a eb3c
00000390: 50bd a1bd c1da 26bb d84d acbc dde0 26bd
000003a0: f3ab dfbd fb73 fbbd e7a9 bf3d 4764 c83d
000003b0: 4baa d9bd ff7f babd ce47 babd 07fd ed3d
000003c0: e58e 613d 23ba 003e 1abc e4bd 79af 303e
000003d0: d6e5 553d 27a1 1cbd 2f03 a2bd 1293 0f3e
000003e0: 7307 94bc 4a9b 59bd b590 06bd 0969 813e
000003f0: 0209 c43c e402 16be d3f4 f1bd 07e9 f4bb

net.0.grid_points f4 [5]
-2.0 -1.0 0.0 1.0 2.0
00000000: 0000 00c0 0000 80bf 0000 0000 0000 803f
00000010: 0000 0040

net.2.coeff f4 [64, 64, 5]
0.12493155 -0.104937136 0.05229798 0.15259647 -0.14786263 0.03742432 0.0007831066 0.06407339
-0.04360849 -0.033204336 -0.06875353 0.037104417 0.05780505 -8.773347e-06 -0.030138092 -0.09192039
0.18482646 0.13064751 0.04224902 0.057275012 0.013860658 -0.008437804 -0.11598797 -0.10186029
0.058895748 0.03332632 0.058863126 -0.03707591 -0.0321097 0.010786893 -0.03614547 0.15725659
0.17506059 0.09728602 -0.07436228 -0.22779055 -0.1656871 0.15382664 -0.017614273 0.10272781
-0.049485765 0.048011083 0.11796883 0.15667467 0.07842672 -0.060776513 -0.121783465 0.07777939
0.008946733 -0.09348163 0.031639963 -0.090131834 -0.021187149 -0.044943277 -0.107417546 0.0767298
0.013342152 0.051608343 -0.122645386 -0.03731263 0.082520746 -0.21695985 0.06670639 0.011698394
-0.13197467 -0.08145311 0.03139694 -0.05404994 0.028595107 -0.10324234 -0.12120911 0.10179835
-0.16977319 -0.06321587 0.07565264 -0.000121704776 -0.12512688 -0.18007909 -0.24507399 0.017748345
0.18047132 -0.16141309 0.108080216 -0.049225084 0.088573664 0.012613341 -0.06307166 0.08331791
-0.06344439 0.12472449 -0.03319249 -0.18279783 -0.017316025 -0.072616875 0.03882631 0.028783903
0.069233015 -0.028809246 0.09824198 0.03587306 0.098835595 -0.20640397 -0.020785976 -0.046397522
-0.0018479591 -0.029052954 -0.039628644 -0.04390241 0.07494463 -0.16949621 0.123119876 0.10858471
0.072569326 -0.0053323605 0.20763111 0.06304158 0.024925252 0.09241663 0.007672818 -0.08093231
0.017329333 -0.046464857 -0.10841572 -0.0025605722 -0.103433974 0.16402252 -0.05825777 -0.27594808
0.12044662 -0.064349286 -0.07660187 -0.00544524 -0.02381314 0.1718287 -0.05425075 0.07132359
0.007521412 0.15387133 -0.03663744 -0.036512095 0.068067364 -0.13275751 0.024875408 0.0016651839
0.031718433 0.042601757 0.01458527 0.02233123 0.11534632 0.14275602 -0.063471526 0.026871534
-0.09350918 -0.07051739 -0.1707026 -0.063242584 -0.13753363 0.12362424 0.0358892 -0.07769502
0.12300775 0.13946462 -0.15108094 0.11121869 0.10162698 0.08381806 -0.07009504 0.072366334
-0.0016863781 0.10494232 -0.13533309 0.0921724 -0.003286396 0.026643157 -0.081087 -0.05130143
-0.022845604 -0.10760172 -0.06881298 -0.14134428 -0.0957255 0.18249597 0.15626112 -0.04583352
-0.013097555 0.014542685 -0.029500777 -0.14037338 0.056164395 0.021970067 0.04316863 -0.08836174
-0.0152920475 0.18085402 -0.12664632 0.05804371 0.10763947 0.07589409 0.032947488 -0.18369515
0.02126747 0.01118684 0.03129604 -0.11845716 -0.0829003 0.05613359 -0.09689598 -0.10099652
-0.14110048 0.035148 -0.062489837 -0.12892759 0.018040694 0.30435732 0.023352724 -0.11476005
-0.073655605 -0.08914066 0.022610757 -0.08445847 0.055853724 -0.02802235 0.098655775 -0.010793102
0.06319195 0.10994197 0.00075170683 -0.05163077 0.033514433 -0.14406738 0.014108243 0.026514595
0.044469293 0.21287529 -0.016145056 -0.053675562 -0.0032599445 0.13895361 0.1353439 0.029705143
0.027588215 0.054215007 0.0051194103 -0.09194626 -0.10594332 -0.050716866 -0.13180412 -0.07545301
-0.10600835 -0.036991708 -0.020058181 -0.08735172 0.08907831 -0.19531628 0.08518958 0.12412424
00000000: 1ddc ff3d 48e9 d6bd 6836 563d 4042 1c3e
00000010: 4d69 17be 3e4a 193d 6549 4d3a e938 833d
00000020: d19e 32bd 4501 08bd a7ce 8cbd cdfa 173d
00000030: fdc4 6c3d 3d31 13b7 29e4 f6bc c240 bcbd
00000040: 2643 3d3e 76c8 053e 4f0d 2d3d 3499 6a3d
00000050: d017 633c b73e 0abc 1a8b edbd 219c d0bd
00000060: ab3c 713d 2e81 083d 761a 713d e9dc 17bd
00000070: 7685 03bd 82bb 303c 460d 14bd df07 213e
00000080: 1543 333e e53d c73d 404b 98bd ed41 69be
00000090: e1a9 29be bb84 1d3e cf4b 90bc f562 d23d
000000a0: 96b1 4abd 45a7 443d a499 f13d 536f 203e
000000b0: 309e a03d cbf0 78bd 9c69 f9bd cd4a 9f3d
000000c0: 5195 123c 4c73 bfbd e898 013d 0a97 b8bd
000000d0: ac90 adbc 7116 38bd bbfd dbbd 8324 9d3d
000000e0: 0b99 5a3c 4563 533d 812d fbbd 21d5 18bd
000000f0: a300 a93d b92a 5ebe 5c9d 883d 9faa 3f3c
00000100: 5e24 07be e3d0 a6bd 149a 003d 7863 5dbd
00000110: 4940 ea3c b870 d3bd 7b3c f8bd a77b d03d
00000120: 06d9 2dbe 5277 81bd c5ef 9a3d c13b ffb8
00000130: 4321 00be a766 38be adf4 7abe fa64 913c
00000140: 79cd 383e 7949 25be 2959 dd3d 3ea0 49bd
00000150: 1c66 b53d 30a8 4e3c b72b 81bd 95a2 aa3d
00000160: 22ef 81bd 8e6f ff3d d9f4 07bd 5b2f 3bbe
00000170: 56da 8dbc 28b8 94bd 5608 1f3d 38cc eb3c
00000180: 0aca 8d3d 5e01 ecbc 1733 c93d a1ef 123d
00000190: 516a ca3d 905b 53be 5a47 aabc 540b 3ebd
000001a0: 3837 f2ba 7600 eebc a551 22bd 03d3 33bd
000001b0: 927c 993d 6a90 2dbe 4626 fc3d a961 de3d
000001c0: 3a9f 943d 15bb aebb 409d 543e f21b 813d
000001d0: 0b30 cc3c ee44 bd3d 436c fb3b d7bf a5bd
000001e0: 3ff6 8d3c ef51 3ebd 1009 debd 46cf 27bb
000001f0: 31d5 d3bd 85f5 273e b39f 6ebd 1149 8dbe
00000200: b8ac f63d 8fc9 83bd 71e1 9cbd fc6d b2bb
00000210: c613 c3bc ddf3 2f3e 0936 5ebd 1a12 923d
00000220: 2d76 f63b 7290 1d3e 2411 16bd b58d 15bd
00000230: e766 8b3d 96f1 07be 83c7 cb3c 4d42 da3a
00000240: 30eb 013d 2e7f 2e3d 0ef7 6e3c fcef b63c
00000250: b13a ec3d a22e 123e 5cfd 81bd b121 dc3c
00000260: be81 bfbd 6c6b 90bd aacc 2ebe 5485 81bd
00000270: 9ed5 0cbe b52e fd3d 8e00 133d 911e 9fbd
00000280: 7deb fb3d d0cf 0e3e f6b4 1abe a0c6 e33d
00000290: ce21 d03d cea8 ab3d fd8d 8fbd cd34 943d
000002a0: 7609 ddba 00ec d63d c294 0abe e2c4 bc3d
000002b0: 9360 57bb c042 da3c f110 a6bd 7321 52bd
000002c0: b426 bbbc 4a5e dcbd d2ed 8cbd 8ebc 10be
000002d0: bb0b c4bd 39e0 3a3e ea02 203e eebb 3bbd
000002e0: 2197 56bc 7144 6e3c 9dab f1bc 0abe 0fbe
000002f0: a30c 663d 92fa b33c 97d1 303d 00f7 b4bd
00000300: 7f8b 7abc cc31 393e 93af 01be 3ebf 6d3d
00000310: 1572 dc3d 5c6e 9b3d f2f3 063d 951a 3cbe
00000320: 1e39 ae3c 0249 373c 4730 003d ab99 f2bd
00000330: a2c7 a9bd 56ec 653d 6671 c6bd 43d7 cebd
00000340: a57c 10be 59f7 0f3d 58f5 7fbd 9805 04be
00000350: 14ca 933c b9d4 9b3e 364e bf3c 5107 ebbd
00000360: c0d8 96bd 618f b6bd 323a b93c 90f8 acbd
00000370: e0c6 643d 218f e5bc 0a0c ca3d 8dd5 30bc
00000380: c86a 813d 4129 e13d 310e 453a c97a 53bd
00000390: 6e46 093d 6686 13be 4326 673c 2335 d93c
000003a0: 6f25 363d fbfb 593e a342 84bc e8da 5bbd
000003b0: cba4 55bb db49 0e3e 9797 0a3e 3358 f33c
000003c0: ae00 e23c 8e10 5e3d bac0 a73b 524e bcbd
000003d0: d0f8 d8bd 7dbc 4fbd a9f7 06be 1c87 9abd
000003e0: e81a d9bd 9e84 17bd 0e51 a4bc 75e5 b2bd
000003f0: b06e b63d fe00 48be e077 ae3d d934 fe3d

net.2.scale f4 [64, 64]
0.9989999 0.9989999 0.9989999 0.9989999 1.0009998 1.0009998 0.9989999 1.0009997
0.9989999 0.9989999 1.0009998 0.9989999 0.9990004 1.0009998 1.0009999 1.0009999
0.9989999 0.9989999 1.0009998 1.0009989 1.0009998 1.0009998 0.9989999 0.9989999
1.0009998 0.9989999 1.0009998 0.9989999 1.0009998 0.99899995 1.0009998 0.9989999
1.0009998 0.9989999 1.000999 1.0009998 0.9989999 1.0009998 0.9989999 0.9989999
0.99899995 1.0009998 1.0009989 1.0009998 0.9989999 1.0009998 0.9989999 0.9989999
0.99899995 1.0009998 0.9989999 0.9989999 0.99899995 0.999001 1.0009998 0.9989999
1.0009998 0.9989999 1.0009998 1.0009998 1.0009998 0.9989999 1.0009997 1.0009998
0.9989999 0.9989999 1.0009998 0.9989999 0.99899995 1.0009998 1.0009987 0.9989999
0.9989999 0.9989999 0.9989999 0.9989999 1.0009998 0.99899995 0.99899995 0.99899995
1.0009999 0.9989999 1.0009998 0.9989999 0.9989999 0.99899995 1.0009998 1.0009998
0.9990001 1.0009998 1.0009998 0.99900067 0.999 0.99899995 1.0009998 1.0009998
0.9989999 0.99899995 1.0009998 1.0009997 1.0009999 1.0009998 0.9989999 1.0009997
0.9989999 0.9989999 1.0009997 0.9989999 1.0009998 0.9989999 0.9989999 1.0009998
0.99899995 1.0009998 1.0009998 0.9989999 1.0009998 0.9990002 1.0009998 1.0009968
0.9990003 1.0009998 1.0009998 0.999 0.9989999 0.9989999 0.9989999 1.0009998
1.0009998 1.0009999 1.0009998 0.9989999 0.99900055 0.99899995 0.99899995 1.0009998
1.0009998 0.9990001 0.9989999 0.9989999 0.999 1.0009997 1.0009998 1.0009998
0.99899995 0.9990001 0.99899995 1.0009998 1.0009979 0.99899995 1.0009998 0.99899995
0.99899995 1.0009997 1.0009997 1.0009998 1.0009998 1.0009997 0.99899995 0.9990002
0.9990002 0.9989999 1.0009995 1.0009998 0.999 0.9989999 0.999 0.99899995
1.0009998 0.999 1.0009998 1.0009998 1.0009998 0.99899995 0.99900025 1.0009946
0.99900043 1.0009998 1.0009998 0.99899995 1.0009998 1.0009998 0.99899995 1.0009996
0.9990006 1.0009987 0.9989999 1.0009998 0.99899995 1.0009998 1.0009998 1.0009998
1.0009998 0.9989999 1.0009999 1.0009998 1.0009998 0.9989999 0.9989999 1.0009998
0.99899995 0.9989999 0.9989999 1.0009999 0.9990001 1.0009998 1.0009998 0.99899995
1.0009999 0.99899995 0.9989999 1.0009998 0.9989999 0.9989999 1.0009999 0.99899995
1.0009998 1.0009998 1.0009998 1.0009997 1.0009998 1.0009998 1.0009998 1.0009998
0.9989999 1.0009998 0.9989999 1.0009998 1.0009999 0.9989999 0.99899995 1.0009998
0.9989999 1.0009998 1.0009999 0.9989999 0.99899995 0.9989999 1.0009998 0.9989999
1.0009998 0.99900013 1.0009999 1.0009998 0.9989999 1.0009997 1.0009998 0.9989999
1.0009998 1.0009996 1.0009999 1.0009998 0.99900013 1.0009998 0.999 0.9989999
00000000: 75be 7f3f 75be 7f3f 75be 7f3f 75be 7f3f
00000010: c320 803f c320 803f 75be 7f3f c220 803f
00000020: 75be 7f3f 75be 7f3f c320 803f 75be 7f3f
00000030: 7dbe 7f3f c320 803f c420 803f c420 803f
00000040: 75be 7f3f 75be 7f3f c320 803f bb20 803f
00000050: c320 803f c320 803f 75be 7f3f 75be 7f3f
00000060: c320 803f 75be 7f3f c320 803f 75be 7f3f
00000070: c320 803f 76be 7f3f c320 803f 75be 7f3f
00000080: c320 803f 75be 7f3f bc20 803f c320 803f
00000090: 75be 7f3f c320 803f 75be 7f3f 75be 7f3f
000000a0: 76be 7f3f c320 803f bb20 803f c320 803f
000000b0: 75be 7f3f c320 803f 75be 7f3f 75be 7f3f
000000c0: 76be 7f3f c320 803f 75be 7f3f 75be 7f3f
000000d0: 76be 7f3f 88be 7f3f c320 803f 75be 7f3f
000000e0: c320 803f 75be 7f3f c320 803f c320 803f
000000f0: c320 803f 75be 7f3f c220 803f c320 803f
00000100: 75be 7f3f 75be 7f3f c320 803f 75be 7f3f
00000110: 76be 7f3f c320 803f ba20 803f 75be 7f3f
00000120: 75be 7f3f 75be 7f3f 75be 7f3f 75be 7f3f
00000130: c320 803f 76be 7f3f 76be 7f3f 76be 7f3f
00000140: c420 803f 75be 7f3f c320 803f 75be 7f3f
00000150: 75be 7f3f 76be 7f3f c320 803f c320 803f
00000160: 78be 7f3f c320 803f c320 803f 82be 7f3f
00000170: 77be 7f3f 76be 7f3f c320 803f c320 803f
00000180: 75be 7f3f 76be 7f3f c320 803f c220 803f
00000190: c420 803f c320 803f 75be 7f3f c220 803f
000001a0: 75be 7f3f 75be 7f3f c220 803f 75be 7f3f
000001b0: c320 803f 75be 7f3f 75be 7f3f c320 803f
000001c0: 76be 7f3f c320 803f c320 803f 75be 7f3f
000001d0: c320 803f 7abe 7f3f c320 803f aa20 803f
000001e0: 7cbe 7f3f c320 803f c320 803f 77be 7f3f
000001f0: 75be 7f3f 75be 7f3f 75be 7f3f c320 803f
00000200: c320 803f c420 803f c320 803f 75be 7f3f
00000210: 80be 7f3f 76be 7f3f 76be 7f3f c320 803f
00000220: c320 803f 78be 7f3f 75be 7f3f 75be 7f3f
00000230: 77be 7f3f c220 803f c320 803f c320 803f
00000240: 76be 7f3f 78be 7f3f 76be 7f3f c320 803f
00000250: b320 803f 76be 7f3f c320 803f 76be 7f3f
00000260: 76be 7f3f c220 803f c220 803f c320 803f
00000270: c320 803f c220 803f 76be 7f3f 7abe 7f3f
00000280: 7abe 7f3f 75be 7f3f c020 803f c320 803f
00000290: 77be 7f3f 75be 7f3f 77be 7f3f 76be 7f3f
000002a0: c320 803f 77be 7f3f c320 803f c320 803f
000002b0: c320 803f 76be 7f3f 7bbe 7f3f 9720 803f
000002c0: 7ebe 7f3f c320 803f c320 803f 76be 7f3f
000002d0: c320 803f c320 803f 76be 7f3f c120 803f
000002e0: 81be 7f3f ba20 803f 75be 7f3f c320 803f
000002f0: 76be 7f3f c320 803f c320 803f c320 803f
00000300: c320 803f 75be 7f3f c420 803f c320 803f
00000310: c320 803f 75be 7f3f 75be 7f3f c320 803f
00000320: 76be 7f3f 75be 7f3f 75be 7f3f c420 803f
00000330: 78be 7f3f c320 803f c320 803f 76be 7f3f
00000340: c420 803f 76be 7f3f 75be 7f3f c320 803f
00000350: 75be 7f3f 75be 7f3f c420 803f 76be 7f3f
00000360: c320 803f c320 803f c320 803f c220 803f
00000370: c320 803f c320 803f c320 803f c320 803f
00000380: 75be 7f3f c320 803f 75be 7f3f c320 803f
00000390: c420 803f 75be 7f3f 76be 7f3f c320 803f
000003a0: 75be 7f3f c320 803f c420 803f 75be 7f3f
000003b0: 76be 7f3f 75be 7f3f c320 803f 75be 7f3f
000003c0: c320 803f 79be 7f3f c420 803f c320 803f
000003d0: 75be 7f3f c220 803f c320 803f 75be 7f3f
000003e0: c320 803f c120 803f c420 803f c320 803f
000003f0: 79be 7f3f c320 803f 77be 7f3f 75be 7f3f

net.2.base_weight f4 [64, 64]
0.0107571995 0.16866192 -0.06877185 0.07336047 0.09762688 -0.019992057 -0.022539457 -0.019387694
0.054485828 0.014221843 -0.100144535 0.11507047 -0.13976511 -0.031702273 0.03897377 0.002452049
-0.004523378 -0.07144631 0.0074101244 0.09816626 -0.06363737 0.20150334 -0.17543283 0.055170875
0.048427947 -0.120820716 0.15931495 0.0025238849 -0.24576992 0.12968168 -0.038886536 -0.07331143
0.057122804 0.08997112 0.1261402 -0.059660234 -0.06744004 0.023589268 -0.024150668 0.023517625
-0.21046542 -0.009462939 -0.011370627 0.0126259085 0.18892653 -0.14694035 -0.1734081 0.096229166
-0.23003864 0.074286155 0.050096065 -0.061225258 0.15120235 -0.086220734 0.13674071 0.022949394
-0.078817256 0.06384225 0.15153967 -0.017669145 -0.09237615 0.11007409 -0.013419908 0.11239147
-0.10258376 -0.03930993 0.15614483 -0.07043302 0.06035775 -0.13068874 -0.083552785 -0.10536203
0.04861215 0.15953845 0.17310578 -0.092908 0.010178864 -0.07952957 0.011675297 -0.00012014806
-0.034808334 0.09111037 -0.14473924 0.05536172 0.09897767 0.12295414 -0.020848218 0.11248594
-0.061025545 -0.05054406 0.01884098 0.13260859 -0.0070391377 -0.17923318 0.07696048 0.22161229
0.052469447 -0.24369797 -0.057708427 0.034175742 -0.12452077 -0.032060478 -0.030119717 -0.3167894
0.10733382 0.00042100146 0.14271429 0.022539498 0.027175624 -0.011205602 0.0704077 -0.10635902
-0.0765534 0.060809292 -0.01186968 -0.12786612 0.04749256 0.099195786 0.00016725366 0.0064810696
0.010493809 -0.04821012 0.18128361 0.048738893 0.12682325 -0.25208667 0.11197079 -0.04851521
-0.051222324 -0.005751408 -0.01622757 0.07347549 0.09858497 -0.02437343 -0.007976383 -0.12246427
0.07267208 -0.16094382 -0.01706726 -0.11752071 -0.15480325 -0.032796595 -0.058328576 0.10333526
0.15737589 0.1635337 -0.010823568 -0.088415705 -0.043047737 0.20626123 0.0149536105 -0.21791933
0.06617218 0.13148753 -0.105529316 0.022558594 0.042347655 0.07116562 0.11625568 -0.12926733
0.14880344 -0.006117481 0.008200293 -0.119677745 -0.12548308 0.1596547 0.0473314 -0.029435327
-0.023077372 0.0063299052 0.012061182 -0.042860407 -0.043855064 -0.08330865 -0.07009544 0.11531871
-0.07629545 0.047306255 -0.0062373104 -0.08443951 0.14366563 0.20831364 -0.022583297 -0.071938425
-0.020396069 -0.0412635 0.083947346 0.11957212 -0.020522775 0.22199987 0.029277582 0.055929605
0.0074955197 -0.24263306 0.03405565 0.040835895 0.011929268 0.0049176835 -0.093928605 -0.1694214
0.13071652 -0.21183911 0.034352332 -0.1613024 0.10518539 -0.19851723 0.13399592 0.0051359157
0.28487396 0.10672887 -0.06996928 -0.05703433 0.013086767 0.049084064 -0.08937066 -0.11866136
0.110066235 0.14973082 0.07828524 0.057738632 0.12250288 -0.011516937 0.01630703 -0.14184082
0.079872586 0.03749175 0.01665212 -0.17358977 -0.05412432 0.17148744 -0.10678363 0.045298222
-0.055727087 -0.020954568 -0.051986225 0.029478593 0.030030878 -0.122750424 0.016644567 -0.21301071
0.009497056 0.21006744 -0.07197479 0.14087804 -0.090590335 0.05042129 -0.0607282 0.097929895
-0.026248207 0.13148539 0.05305868 0.13701074 -0.043252204 -0.09212055 0.122055605 0.05329597
00000000: f73e 303c b6b5 2c3e 41d8 8cbd 043e 963d
00000010: 9af0 c73d 62c6 a3bc aba4 b8bc f1d2 9ebc
00000020: 882c 5f3d bc02 693c 9418 cdbd 11aa eb3d
00000030: 961e 0fbe 3eda 01bd f6a2 1f3d 8eb2 203b
00000040: d838 94bb 7152 92bd a1d0 f23b 640b c93d
00000050: 4f54 82bd e456 4e3e aaa4 33be dbfa 613d
00000060: 625c 463d da70 f7bd 7523 233e c367 253b
00000070: 1cab 7bbe 46cb 043e 7d47 1fbd 4e24 96bd
00000080: 9af9 693d c742 b83d e62a 013e 4a5e 74bd
00000090: 011e 8abd 483e c13c 9fd7 c5bc 09a8 c03c
000000a0: 3f84 57be 710a 1bbc de4b 3abc e6dc 4e3c
000000b0: f575 413e 8877 16be e591 31be cc13 c53d
000000c0: 408f 6bbe 5723 983d 8831 4d3d 56c7 7abd
000000d0: cad4 1a3e 7f94 b0bd c205 0c3e 5e00 bc3c
000000e0: f16a a1bd babf 823d 372d 1b3e e2be 90bc
000000f0: b52f bdbd 866e e13d 2cdf 5bbc 802d e63d
00000100: 6f17 d2bd 7303 21bd 6ee4 1f3e 303f 90bd
00000110: b039 773d 45d3 05be b91d abbd 0cc8 d7bd
00000120: 891d 473d 0c5e 233e a442 313e 8d46 bebd
00000130: 40c5 263c 66e0 a2bd bf49 3f3c 00f8 fbb8
00000140: 2f93 0ebd 1398 ba3d 8636 14be f9c2 623d
00000150: ceb4 ca3d 61cf fb3d e2c9 aabc 075f e63d
00000160: ecf5 79bd 4a07 4fbd 6658 9a3c 8cca 073e
00000170: 91a8 e6bb e788 37be 759d 9d3d 55ee 623e
00000180: 34ea 563d f68b 79be ac5f 6cbd ddfb 0b3d
00000190: bf04 ffbd d951 03bd a0bd f6bc 3832 a2be
000001a0: d5d1 db3d dcb9 dc39 b223 123e c1a4 b83c
000001b0: 6a9f de3c b497 37bc ea31 903d c2d2 d9bd
000001c0: 07c8 9cbd 2a13 793d 0c79 42bc 56ef 02be
000001d0: 8f87 423d 2927 cb3d d060 2f39 275f d43b
000001e0: 3aee 2b3c fa77 45bd 69a2 393e 6fa2 473d
000001f0: f4dd 013e 8111 81be f150 e53d e3b7 46bd
00000200: 80ce 51bd 4f76 bcbb aeef 84bc 517a 963d
00000210: ebe6 c93d caaa c7bc 60af 02bc 8cce fabd
00000220: 19d5 943d 75ce 24be a3d0 8bbc b3ae f0bd
00000230: be84 1ebe b955 06bd f2e9 6ebd 70a1 d33d
00000240: 2527 213e 6175 273e 5655 31bc 4b13 b5bd
00000250: d352 30bd 2536 533e fdff 743c 3f26 5fbe
00000260: 4885 873d aba4 063e c11f d8bd cdcc b83c
00000270: bc74 2d3d 48bf 913d 7517 ee3d a85e 04be
00000280: ee5f 183e 2675 c8bb 865a 063c 9b19 f5bd
00000290: a37e 00be 867c 233e 92de 413d 5b22 f1bc
000002a0: c20c bdbc 186b cf3b 449c 453c 658e 2fbd
000002b0: 5ea1 33bd ba9d aabd 338e 8fbd 372c ec3d
000002c0: ca40 9cbd 34c4 413d 5a62 ccbb 9fee acbd
000002d0: 151d 133e 2c50 553e 9b00 b9bc 7454 93bd
000002e0: a815 a7bc ea03 29bd 96ec ab3d 3ae2 f43d
000002f0: 611f a8bc ef53 633e 8ad7 ef3c 7116 653d
00000300: fa9c f53b cd74 78be f07d 0b3d 8a43 273d
00000310: fa72 433c 8524 a13b a45d c0bd ce7c 2dbe
00000320: 8dda 053e 5aec 58be 08b5 0c3d 752c 25be
00000330: 706b d73d 1a48 4bbe 3a36 093e 2f4b a83b
00000340: 00db 913e aa94 da3d 0e4c 8fbd d49c 69bd
00000350: e169 563c 5f0c 493d f707 b7bd ba04 f3bd
00000360: 686a e13d 0953 193e 0354 a03d 587f 6c3d
00000370: cae2 fa3d 89b1 3cbc 5296 853c b83e 11be
00000380: 3d94 a33d f390 193d 076a 883c 84c1 31be
00000390: 77b1 5dbd 679a 2f3e 60b1 dabd a18a 393d
000003a0: 1642 64bd eaa8 abbc 82ef 54bd 177d f13c
000003b0: 5103 f63c 9364 fbbd 305a 883c 7b1f 5abe
000003c0: 8a99 1b3c eb1b 573e 8567 93bd 5542 103e
000003d0: 6d87 b9bd 8e86 4e3d 22be 78bd 788f c83d
000003e0: 7b06 d7bc 1ba4 063e 0f54 593d 8b4c 0c3e
000003f0: 3929 31bd b3a9 bcbd 4af8 f93d e04c 5a3d

net.2.grid_points f4 [5]
-2.0 -1.0 0.0 1.0 2.0
00000000: 0000 00c0 0000 80bf 0000 0000 0000 803f
00000010: 0000 0040

net.3.coeff f4 [1, 64, 5]
-0.07707227 0.04971266 0.062558375 -0.0016721612 0.013225433 -0.13191448 -0.034807287 -0.11031932
-0.06468433 -0.26418185 0.047754977 0.115697816 -0.09336195 -0.103081055 -0.049797866 0.122773714
0.016227879 -0.08507186 0.05330395 -0.10487831 0.0012305212 0.041989148 -0.07210012 -0.18292803
-0.004099413 0.11027428 -0.07975346 0.07093188 -0.1318269 0.1573724 0.15865819 -0.04223199
0.048182465 0.014882984 -0.035766657 0.101697244 0.0821635 -0.028232021 0.06279093 0.031383444
0.038918376 0.15490367 0.019840607 -0.12303096 -0.013780656 0.064304814 0.15952222 0.10397637
0.056778204 -0.067693934 0.03654888 0.06621444 0.006957943 -0.16921815 -0.08081112 0.01490286
-0.08336107 -0.010229608 0.07932061 0.028205173 0.15057561 0.0053817984 -0.006001962 -0.21554716
-0.038381986 0.056188453 0.09062783 -0.13918528 0.17284228 0.14990859 -0.19560824 -0.18895103
0.11319151 0.036420744 0.025145402 0.044585332 0.049821734 -0.009127459 -0.019275788 0.08133575
0.10744989 0.12800673 -0.086686835 -0.15754624 0.010301791 -0.14933221 0.18080668 -0.17350292
0.07515005 0.07948742 -0.0027844487 0.18506615 -0.09936214 -0.11198765 -0.1019122 0.020655379
0.03325834 0.07091215 -0.0062994068 -0.10211194 0.0319975 -0.05749207 0.033292063 0.13691722
-0.18156579 0.052792512 0.036103822 -0.14524606 -0.096681654 0.026175031 -0.14463641 0.16418162
-0.08552086 -0.104832605 -0.045089893 0.10870149 -0.06468916 -0.017754776 -0.086878404 -0.10718565
0.01915904 0.08480994 0.017671045 -0.061679218 -0.043806456 -0.11453905 -0.055859428 0.075776845
0.10205921 -0.0831632 -0.073761486 -0.1390173 -0.12821624 0.003646362 -0.13292125 0.028649107
0.089447886 0.07668037 0.034933485 -0.13485685 -0.02120946 -0.2136244 0.0074076145 0.15034519
-0.17080238 -0.079767406 0.20016599 0.045455053 -0.09657225 -0.05037442 0.034297094 0.08706741
0.111513235 0.13462555 0.061197173 0.22848405 -0.015595396 0.04984583 -0.07552929 -0.0601444
0.14397137 -0.0052303774 -0.0015581095 0.14483397 -0.05305918 -0.0035772317 -0.0090786945 0.15464486
-0.024535943 -0.09339163 0.1355707 -0.17924537 0.25577533 -0.073727384 0.10509104 -0.0032181798
0.23723951 -0.10018443 -0.025738092 -0.08536346 -0.14146803 -0.19470572 0.086411044 -0.011870802
-0.122559726 0.0049619065 -0.043813266 0.036200795 0.09927803 0.06657408 0.26238555 0.146372
-0.1479004 0.1309907 -0.02518779 -0.13117011 0.013766192 -0.036574457 -0.093142174 -0.080185
-0.046330657 0.0005416898 0.022152418 -0.0024991455 0.02768403 -0.04466018 -0.035109233 0.11474441
0.07596191 -0.02162795 -0.07718577 0.0046910094 -0.025329847 0.08405144 -0.10510006 -0.06419233
-0.0012949525 -0.0022287702 -0.060947526 0.11738766 -0.04980355 -0.08757289 -0.12842067 -0.029142711
-0.15080205 -0.014008962 -0.10876074 -0.0010274018 -0.024591267 -0.17309774 0.13660043 -0.059022706
-0.01492445 -0.22846963 0.17559455 0.09862911 0.014503474 0.25895754 -0.12729599 0.07743314
0.055376858 -0.19155361 -0.089552574 -0.21014453 0.095159434 -0.06467437 0.058498483 -0.0076700593
-0.04962019 -0.09633493 -0.038636178 0.04095135 0.0023903786 -0.020361664 0.064058624 -0.08742869
00000000: 11d8 9dbd 819f 4b3d 9b1e 803d 6b2c dbba
00000010: 7daf 583c 9714 07be 1692 0ebd 18ef e1bd
00000020: 3879 84bd d842 87be b99a 433d faf2 ec3d
00000030: 8d34 bfbd 291c d3bd d9f8 4bbd c970 fb3d
00000040: 54f0 843c 283a aebd 3e55 5a3d 70ca d6bd
00000050: 7149 a13a d0fc 2b3d 3aa9 93bd 7c51 3bbe
00000060: 5e54 86bb 7bd7 e13d c855 a3bd bc44 913d
00000070: a2fd 06be 3b26 213e 4b77 223e 73fb 2cbd
00000080: fa5a 453d c2d7 733c 0f80 12bd a546 d03d
00000090: 5645 a83d d746 e7bc 8898 803d ed8b 003d
000000a0: e068 1f3d 119f 1e3e c588 a23c a8f7 fbbd
000000b0: 43c8 61bc 3eb2 833d cb59 233e 90f1 d43d
000000c0: 4390 683d 1ea3 8abd 47b4 153d 709b 873d
000000d0: 75ff e33b 8647 2dbe 4d80 a5bd 202b 743c
000000e0: 35b9 aabd 169a 27bc d872 a23d 890e e73c
000000f0: 7e30 1a3e cc59 b03b 1bac c4bb 65b8 5cbe
00000100: 6e36 1dbd dd25 663d 159b b93d 9686 0ebe
00000110: 91fd 303e a381 193e 874d 48be 617c 41be
00000120: f3d0 e73d eb2d 153d bbfd cd3c 1c9f 363d
00000130: e011 4c3d 568b 15bc 42e8 9dbc 5c93 a63d
00000140: b00e dc3d 3214 033e de88 b1bd cd53 21be
00000150: d8c8 283c 8bea 18be 6325 393e c0aa 31be
00000160: 45e8 993d 4dca a23d 4c7b 36bb fb81 3d3e
00000170: 617e cbbd c859 e5bd 58b7 d0bd 7835 a93c
00000180: e639 083d 643a 913d 416b cebb 1120 d1bd
00000190: d00f 033d ce7c 6bbd 425d 083d 0734 0c3e
000001a0: 62ec 39be f63c 583d 9ae1 133d 62bb 14be
000001b0: 0801 c6bd 056d d63c 911b 14be 3a1f 283e
000001c0: 9025 afbd 7ab2 d6bd 2eb0 38bd e39e de3d
000001d0: c07b 84bd 7772 91bc 4eed b1bd 2684 dbbd
000001e0: 6bf3 9c3c d5b0 ad3d dec2 903c 59a3 7cbd
000001f0: 666e 33bd 7393 eabd dbcc 64bd e430 9b3d
00000200: 6b04 d13d 7851 aabd 4310 97bd 8d5a 0ebe
00000210: 1e4b 03be cef7 6e3b 821c 08be 88b1 ea3c
00000220: 7430 b73d 990a 9d3d 6a16 0f3d ea17 0abe
00000230: 76bf adbc 5bc0 5abe 93bb f23b 17f4 193e
00000240: d2e6 2ebe 185d a3bd 50f8 4c3e 142f 3a3d
00000250: acc7 c5bd 6855 4ebd 1c7b 0c3d 6650 b23d
00000260: 0d61 e43d 48db 093e e3a9 7a3d b9f7 693e
00000270: d583 7fbc 242b 4c3d 1aaf 9abd f959 76bd
00000280: 3b6d 133e 9663 abbb 7b39 ccba 5b4f 143e
00000290: 9554 59bd fd6f 6abb cebe 14bc 395b 1e3e
000002a0: 9aff c8bc 1c44 bfbd 0cd3 0a3e 198c 37be
000002b0: fcf4 823e 62fe 96bd f939 d73d 19e8 52bb
000002c0: eaee 723e 7f2d cdbd b1d8 d2bc 0ad3 aebd
000002d0: ffdc 10be f060 47be 46f8 b03d c17d 42bc
000002e0: 9800 fbbd 7d97 a23b 8a75 33bd 4947 143d
000002f0: 4852 cb3d fe57 883d 6657 863e 8be2 153e
00000300: 3473 17be 6d22 063e a056 cebc 7551 06be
00000310: 988b 613c 19cf 15bd 53c1 bebd 0938 a4bd
00000320: 37c5 3dbd 3000 0e3a fd78 b53c b4c8 23bb
00000330: 9ec9 e23c 98ed 36bd b3ce 0fbd 1eff ea3d
00000340: eb91 9b3d 192d b1bc 9313 9ebd 0ab7 993b
00000350: 8a80 cfbc 2923 ac3d b33e d7bd 4577 83bd
00000360: 65bb a9ba 8f10 12bb 1da4 79bd f168 f03d
00000370: cffe 4bbd 6a59 b3bd b580 03be b2bc eebc
00000380: da6b 1abe d885 65bc f3bd debd e2a9 86ba
00000390: a073 c9bc 8940 31be fce0 0b3e cbc1 71bd
000003a0: ae85 74bc f1f3 69be 0fcf 333e 0ffe c93d
000003b0: fb9f 6d3c 1596 843e e159 02be 4495 9e3d
000003c0: d8d2 623d a126 44be 5767 b7bd 2130 57be
000003d0: f3e2 c23d ff73 84bd 1b9c 6f3d 1f55 fbbb
000003e0: 8a3e 4bbd 3f4b c5bd f840 1ebd 9abc 273d
000003f0: e6a7 1c3b 81cd a6bc 2b31 833d d00d b3bd

net.3.scale f4 [1, 64]
1.0009999 0.9989999 0.9989999 0.9989999 0.9989999 0.9989999 1.0009999 1.0009998
1.0009999 1.0009999 1.0009998 0.9989999 0.99899995 1.0009999 1.0009999 0.99899995
0.9989999 1.0009999 1.0009999 1.0009999 0.9989999 0.9989999 0.9989999 0.9989999
1.0009998 1.0009999 0.9989999 1.0009999 1.0009998 0.9989999 1.0009999 1.0009999
1.0009999 1.0009998 1.0009999 0.9989999 0.9989999 1.0009999 1.0009996 0.9989999
1.0009999 0.9989999 1.0009998 0.99899995 0.9989999 0.99899995 0.9989999 1.0009999
0.9989999 0.9989999 1.0009999 0.9989999 1.0009999 0.9989999 1.0009999 1.0009999
1.0009999 0.9989999 0.9989999 1.0009999 1.0009999 0.9989999 1.0009999 0.9989999
00000000: c420 803f 75be 7f3f 75be 7f3f 75be 7f3f
00000010: 75be 7f3f 75be 7f3f c420 803f c320 803f
00000020: c420 803f c420 803f c320 803f 75be 7f3f
00000030: 76be 7f3f c420 803f c420 803f 76be 7f3f
00000040: 75be 7f3f c420 803f c420 803f c420 803f
00000050: 75be 7f3f 75be 7f3f 75be 7f3f 75be 7f3f
00000060: c320 803f c420 803f 75be 7f3f c420 803f
00000070: c320 803f 75be 7f3f c420 803f c420 803f
00000080: c420 803f c320 803f c420 803f 75be 7f3f
00000090: 75be 7f3f c420 803f c120 803f 75be 7f3f
000000a0: c420 803f 75be 7f3f c320 803f 76be 7f3f
000000b0: 75be 7f3f 76be 7f3f 75be 7f3f c420 803f
000000c0: 75be 7f3f 75be 7f3f c420 803f 75be 7f3f
000000d0: c420 803f 75be 7f3f c420 803f c420 803f
000000e0: c420 803f 75be 7f3f 75be 7f3f c420 803f
000000f0: c420 803f 75be 7f3f c420 803f 75be 7f3f

net.3.base_weight f4 [1, 64]
-0.050399512 0.00094933715 0.1619434 0.021885386 0.07861458 0.19895695 -0.0062767393 -0.20793085
0.08497542 -0.00097104907 -0.06770027 0.057853658 -0.099878035 -0.28023672 -0.16976896 0.13147159
-0.110702604 0.01625141 0.14169286 -0.032376215 0.06098209 0.0047470247 -0.07740789 0.033625156
0.116183 -0.020862237 0.0030421687 -0.0480266 0.042183056 0.1713867 0.18167236 0.0071494915
0.050323747 0.016092895 0.08815542 -0.15840591 0.115901396 -0.043439493 0.09182659 0.05204287
0.0102596795 0.10659227 0.27369928 0.15513851 0.062293723 -0.09769892 -0.12037431 0.02912325
-0.04129917 0.170148 -0.092147924 -0.18407226 -0.043403644 -0.11289572 0.03155826 0.12755139
0.038289167 0.07848085 0.09675434 0.10203328 0.0037076545 0.03799632 0.016836936 0.111518346
00000000: b86f 4ebd f0dc 783a 7ed4 253e fb48 b33c
00000010: ae00 a13d 5fbb 4b3e 1bad cdbb d3eb 54be
00000020: 9807 ae3d 008e 7eba 70a6 8abd f5f7 6c3d
00000030: db8c ccbd 307b 8fbe ead7 2dbe 7da0 063e
00000040: 0cb8 e2bd ad21 853c ef17 113e ec9c 04bd
00000050: 5bc8 793d ee8c 9b3b 0788 9ebd 88ba 093d
00000060: 5af1 ed3d 48e7 aabc 1f5f 473b 8ab7 44bd
00000070: 24c8 2c3d ff7f 2f3e 5208 3a3e 4846 ea3b
00000080: 4620 4e3d 3fd5 833c d48a b43d 2935 22be
00000090: b65d ed3d 9ced 31bd 940f bc3d e82a 553d
000000a0: 3718 283c 0c4d da3d 5022 8c3e a1dc 1e3e
000000b0: b427 7f3d 5f16 c8bd ce86 f6bd e293 ee3c
000000c0: 5229 29bd 473b 2e3e 0db8 bcbd 707d 3cbe
000000d0: 05c8 31bd df35 e7bd 3c43 013d d59c 023e
000000e0: 1ad5 1c3d 91ba a03d 2427 c63d d3f6 d03d
000000f0: 1ffc 723b 07a2 1b3d 9ded 893c bb63 e43d

net.3.grid_points f4 [5]
-2.0 -1.0 0.0 1.0 2.0
00000000: 0000 00c0 0000 80bf 0000 0000 0000 803f
00000010: 0000 0040
