data/trained_models/base_k_b_kan.pth (torch, 138754 bytes, 12 tensors)

net.0.coeff f4 [64, 10, 5]
-0.08237563 -0.024465704 -0.09503319 -0.16340803 0.24643107 0.025179537 0.06706258 -0.210855
-0.21155319 -0.021817936 0.19246769 0.11844912 -0.029167611 0.086727366 0.022849234 0.11567144
0.12750183 0.0573798 0.07396242 -0.07393943 0.047074165 0.038701363 0.13145359 0.10508746
0.02465504 -0.02617283 -0.107872605 0.1086236 0.05162456 -0.024466572 0.07461068 -0.090058796
-0.09437299 -0.14127484 -0.08648778 -0.01942921 0.10185849 0.063093245 0.15455338 -0.089257136
0.08633326 0.06433612 0.1468274 -0.037845343 0.054452218 0.035143927 0.012533714 0.0027301968
0.09600957 -0.06539303 -0.38383356 -0.13013004 -0.0051208865 0.05007353 -0.016673688 -0.16922364
-0.05338003 0.0711544 0.117522046 -0.070455566 0.039645266 -0.013891891 -0.035264708 0.07726912
0.048744 -0.16051863 -0.19232307 0.03963269 -0.15064436 -0.02991396 0.23691817 -0.00029831298
0.029930925 0.06623887 0.00600673 -0.17422593 0.060783595 -0.06682373 0.033791594 0.12468819
0.10583705 -0.05878729 0.008014637 -0.054586615 -0.014198195 -0.004035942 -0.025254525 -0.020268945
-0.12011899 0.13209128 -0.21277495 -0.0791138 0.030588139 -0.1764758 -0.024931164 0.03179893
0.071559876 -0.015401532 -0.22244805 0.04548786 -0.023475332 0.11295391 0.14968054 -0.032465376
0.14245638 -0.077222176 0.06982685 0.09792861 -0.032333314 -0.0862354 0.13049431 0.050339654
0.035105594 0.0055929106 0.19545151 -0.11905588 0.091874905 -0.14948729 -0.22107446 0.07627927
0.0037715486 0.012503024 0.072877884 -0.12029208 0.044222333 0.060168795 0.1311455 0.07985785
-0.08264026 0.047647465 0.07279341 0.09843322 -0.0011553674 0.05578157 0.09213917 0.061731398
0.0373283 0.03499167 -0.041558135 0.11760497 0.10345346 0.008508874 -0.020068593 -0.0327612
0.033914194 0.11149783 0.029292785 -0.044052336 0.0046091774 -0.04440965 -0.03155608 -0.11274442
-0.08887594 -0.032346975 0.012794406 0.15561132 0.09851199 -0.009066182 0.040885665 -0.073517434
-0.068322785 -0.14542148 -0.05277699 -0.0347552 0.14290036 -0.020325914 -0.17106365 0.09394047
-0.07948106 0.016048133 -0.13456811 0.17329563 -0.03892714 -0.1034787 0.02670972 0.18336013
-0.14439057 0.015836092 -0.03158333 0.08790523 0.07760763 -0.07796028 0.06591436 0.105701
-0.06368343 -0.11788727 -0.041754644 0.0897731 0.07238643 0.016082292 -0.06720811 0.28781682
0.04039367 0.085514724 0.09092863 -0.025442965 0.06306751 -0.047631975 0.10176189 0.062530205
-0.025109336 -0.05424606 -0.03316221 -0.008103552 0.21301971 -0.074469194 -0.17217508 0.09505384
0.12525083 0.08149695 -0.20489272 -0.0040436657 -0.25529557 0.01087822 -0.1423101 0.055650745
0.050877273 0.012025728 -0.013769521 -0.07645582 -0.0997473 0.06954128 -0.019746682 0.107079476
0.09309093 -0.20537591 -0.015073359 0.053013343 0.0137433885 -0.072353505 -0.13955396 -0.07611218
0.03384956 0.08415624 -0.12333609 -0.023814887 0.06752747 -0.109134726 -0.04289231 0.11378308
0.03364157 -0.13193862 -0.121150196 -0.07706317 0.049118582 -0.20121028 -0.012392515 0.2084811
0.020604689 0.11882276 -0.09943128 -0.089243725 -0.100782834 0.05137323 0.15844013 0.15574586
00000000: 8eb4 a8bd 4d6c c8bc c3a0 c2bd 6f54 27be
00000010: 6d58 7c3e 5145 ce3c 1b58 893d 60ea 57be
00000020: 66a1 58be 87bb b2bc 4016 453e 7495 f23d
00000030: eaf0 eebc 1e9e b13d 512e bb3c 26e5 ec3d
00000040: d78f 023e 1507 6b3d 9c79 973d 8e6d 97bd
00000050: d7d0 403d 5285 1e3d c59b 063e 1838 d73d
00000060: 5ef9 c93c 6768 d6bc 50ec dcbd 0d76 de3d
00000070: 4674 533d 1f6e c8bc 7ccd 983d bf70 b8bd
00000080: a046 c1bd 5aaa 10be 8120 b1bd 022a 9fbc
00000090: 2f9b d03d 0837 813d 3e43 1e3e 72cc b6bd
000000a0: 7ecf b03d a8c2 833d ec59 163e b803 1bbd
000000b0: 4a09 5f3d 14f3 0f3d 355a 4d3c 1aed 323b
000000c0: aaa0 c43d c8ec 85bd d585 c4be cf40 05be
000000d0: 1ccd a7bb e719 4d3d 4297 88bc f648 2dbe
000000e0: 05a5 5abd 66b9 913d 66af f03d 024b 90bd
000000f0: 1363 223d d09a 63bc ba71 10bd 463f 9e3d
00000100: caa7 473d ff5e 24be 57f0 44be e355 223d
00000110: 8442 1abe 1f0e f5bc ad9a 723e e466 9cb9
00000120: b331 f53c 3fa8 873d 1ad4 c43b 4868 32be
00000130: 38f8 783d e1da 88bd 0e69 0a3d 865c ff3d
00000140: 18c1 d83d f1ca 70bd d34f 033c 3796 5fbd
00000150: 8c9f 68bc ef3f 84bb 94e2 cebc 0f0b a6bc
00000160: f200 f6bd f042 073e ade1 59be 6a06 a2bd
00000170: fa93 fa3c 12b6 34be 713c ccbc 983f 023d
00000180: fc8d 923d b556 7cbc 6cc9 63be 7a51 3a3d
00000190: 574f c0bc 6154 e73d db45 193e 6afa 04bd
000001a0: 16e0 113e a926 9ebd 6101 8f3d cc8e c83d
000001b0: f06f 04bd 2f9c b0bd 4da0 053e f430 4e3d
000001c0: e2ca 0f3d bc44 b73b 7124 483e 92d3 f3bd
000001d0: e928 bc3d 3213 19be 5861 62be 4e38 9c3d
000001e0: 162c 773b 7cd9 4c3c 0041 953d b25b f6bd
000001f0: 7a22 353d 8e73 763d 024b 063e 838c a33d
00000200: 4c3f a9bd fd29 433d b614 953d 5b97 c93d
00000210: b26f 97ba 377b 643d 76b3 bc3d 10da 7c3d
00000220: 8fe5 183d 6d53 0f3d dd38 2abd e0da f03d
00000230: 68df d33d ce68 0b3c e466 a4bc 9c30 06bd
00000240: 9ce9 0a3d f958 e43d 6cf7 ef3c 3970 34bd
00000250: 9508 973b e5e6 35bd f340 01bd 8ce6 e6bd
00000260: 9704 b6bd 437e 04bd a19f 513c 9358 1f3e
00000270: a7c0 c93d 538a 14bc ba77 273d 4f90 96bd
00000280: d1ec 8bbd 5ee9 14be af2c 58bd 785b 0ebd
00000290: 7954 123e 8882 a6bc 4f2b 2fbe dc63 c03d
000002a0: f7c6 a2bd 6077 833c 39cc 09be 6974 313e
000002b0: 1172 1fbd a4ec d3bd 58ce da3c c2c2 3b3e
000002c0: 1fdb 13be b1ba 813c 865d 01bd a807 b43d
000002d0: c0f0 9e3d a4a9 9fbd 1cfe 863d c479 d83d
000002e0: 756c 82bd e26e f1bd eb06 2bbd f6da b73d
000002f0: 563f 943d 03bf 833c 68a4 89bd ba5c 933e
00000300: d573 253d 5822 af3d ca38 ba3d c46d d0bc
00000310: 8a29 813d bf19 43bd 8a68 d03d d60f 803d
00000320: 18b2 cdbc 1e31 5ebd 19d5 07bd c3c4 04bc
00000330: d721 5a3e 4e83 98bd aa4e 30be 96ab c23d
00000340: c141 003e dfe7 a63d 66cf 51be ba80 84bb
00000350: 1ab6 82be 903a 323c bdb9 11be 09f2 633d
00000360: b064 503d 8f07 453c 8f99 61bc de94 9cbd
00000370: 5048 ccbd a96b 8e3d cbc3 a1bc 7c4c db3d
00000380: 75a6 be3d 104e 52be 40f6 76bc 8524 593d
00000390: f32b 613c 132e 94bd 3ce7 0ebe b4e0 9bbd
000003a0: d6a5 0a3d 1b5a ac3d a297 fcbd 7017 c3bc
000003b0: d84b 8a3d 0782 dfbd d9af 2fbd 1a07 e93d
000003c0: becb 093d eb1a 07be 981d f8bd 4cd3 9dbd
000003d0: 9130 493d 110a 4ebe fa09 4bbc 127c 553e
000003e0: 2acb a83c 5959 f33d a0a2 cbbd 6ac5 b6bd
000003f0: 3b67 cebd bc6c 523d 213e 223e d87b 1f3e

net.0.scale f4 [64, 10]
0.98975223 0.9882246 0.98137975 1.0034354 1.0044615 1.0124549 1.0039265 1.0094806
0.98245466 0.9861103 0.99608696 0.99392414 0.99883413 0.9993036 1.0049266 1.0018643
1.0003011 1.0046697 0.99374664 0.9983817 0.98865867 0.9902022 1.0114566 0.98765385
1.0132432 0.985745 1.0055813 1.0060092 0.98432755 0.98699385 1.0018487 1.0131837
0.98109406 1.0073627 0.9819768 1.0066985 0.9957575 1.0104573 0.98265123 0.98082376
0.9914747 1.0062366 1.0072241 0.99403065 0.9956923 1.0113637 1.005739 0.9911606
1.0039672 1.0099168 0.9797867 0.99304134 1.0127629 0.98791045 1.0190085 0.9819121
1.0058435 0.98435557 1.0052048 0.981365 1.0233784 0.99119425 0.9842179 0.976895
0.9822384 1.008839 0.9946615 1.0228983 1.0199567 1.0189084 1.0018944 0.9770469
1.0215546 1.0186965 0.9813116 1.0208628 1.017255 1.0191565 1.0196652 1.0227646
1.0175983 0.98956937 1.0168637 1.0078874 1.0148131 1.0145394 1.0171556 1.0054951
0.99154735 0.99718976 0.99752647 0.9942846 0.9909027 0.990667 1.0095738 1.0187095
1.0153111 1.0006983 0.99187046 0.9940366 1.0158119 1.001361 1.0019354 0.9947895
0.99731964 0.9894018 1.0049999 1.0004231 0.99794304 1.0168923 1.0043243 1.0010241
0.99967283 1.0019573 0.99384856 1.0023259 0.99767613 0.9921224 0.99691033 1.0090863
1.0099174 0.98948056 0.9924762 0.99685884 0.99540067 0.9935602 1.0003061 0.9903639
1.00639 0.992623 1.0251863 1.0253136 1.0252801 1.022872 0.97739464 1.0035278
0.9962046 0.97474366 0.9968963 0.9770619 1.0101835 1.0123394 1.012527 1.0173107
0.9940891 1.0165613 0.9948579 0.99069464 0.9984219 1.0137714 0.99812204 1.0196264
1.0004588 1.0145004 0.9779596 0.9884951 0.97896916 1.016623 0.9846771 1.016624
0.9973476 1.0030959 0.99748796 0.9977277 0.99134874 0.99607944 0.99864113 1.0056833
1.0061024 1.0032948 1.0092375 0.99273956 0.99222136 0.9772431 1.0016453 0.9905999
1.0084834 0.9901138 0.99578655 1.0228472 1.000384 0.9819974 0.99122345 0.9888011
0.9907137 1.0164025 0.9868552 1.0191336 0.99067736 1.0078924 0.98707414 1.0058479
1.0074575 0.9847795 0.99271834 1.0070654 1.0078897 0.9972751 1.0048935 1.0060791
1.0168978 1.0170574 1.0174009 1.017361 1.0171081 1.0172125 0.98280066 1.0153369
0.9824649 0.983683 0.9819429 1.0223235 0.99975634 0.98715025 1.0192097 0.991546
0.9823661 0.98227775 1.004632 1.0166701 1.0223724 1.0230997 0.9852947 1.0140989
1.0165534 0.97742903 0.9838777 1.0178751 0.9934431 0.9918423 0.9770992 1.0182828
1.0049895 0.9801548 1.0195557 1.0011082 0.9836809 1.0165958 1.0226294 0.9854685
0.99455684 0.98997647 0.98903 0.99706477 0.9916731 1.0040364 1.0096744 0.99015653
0.9922592 1.0019115 1.0240631 0.99747837 1.0046408 1.0043324 1.0195358 1.0038235
00000000: 6760 7d3f 4afc 7c3f b43b 7b3f 9270 803f
00000010: 3292 803f 1f98 813f aa80 803f a936 813f
00000020: 2682 7b3f ba71 7c3f 8eff 7e3f d071 7e3f
00000030: 98b3 7f3f 5cd2 7f3f 6fa1 803f 173d 803f
00000040: de09 803f 0499 803f 2e66 7e3f f195 7f3f
00000050: bc18 7d3f e47d 7d3f 6977 813f e2d6 7c3f
00000060: f4b1 813f c959 7c3f e3b6 803f e9c4 803f
00000070: e4fc 7b3f a1ab 7c3f 943c 803f 01b0 813f
00000080: fb28 7b3f 43f1 803f d562 7b3f 7fdb 803f
00000090: f7e9 7e3f aa56 813f 088f 7b3f 4417 7b3f
000000a0: 49d1 7d3f 5ccc 803f b8ec 803f cb78 7e3f
000000b0: b1e5 7e3f 5e74 813f 0ebc 803f b3bc 7d3f
000000c0: ff81 803f f444 813f 4dd3 7a3f f537 7e3f
000000d0: 37a2 813f b3e7 7c3f df6e 823f 975e 7b3f
000000e0: 7bbf 803f bafe 7b3f 8daa 803f bd3a 7b3f
000000f0: 10fe 823f e8be 7d3f b4f5 7b3f ca15 7a3f
00000100: fa73 7b3f a321 813f 23a2 7e3f 55ee 823f
00000110: f18d 823f 976b 823f 133e 803f bf1f 7a3f
00000120: 4dc2 823f a664 823f 3d37 7b3f a2ab 823f
00000130: 6935 823f b873 823f 6484 823f f3e9 823f
00000140: a940 823f 6b54 7d3f 9728 823f 7402 813f
00000150: 65e5 813f 6ddc 813f 2832 823f 10b4 803f
00000160: 0cd6 7d3f d447 7f3f e55d 7f3f 6f89 7e3f
00000170: cdab 7d3f 5a9c 7d3f b739 813f 1365 823f
00000180: b7f5 813f e216 803f 39eb 7d3f 2f79 7e3f
00000190: 2006 823f 992c 803f 6b3f 803f 86aa 7e3f
000001a0: 5750 7f3f 7049 7d3f d6a3 803f dd0d 803f
000001b0: 3279 7f3f 8729 823f b38d 803f 8f21 803f
000001c0: 8fea 7f3f 2340 803f dc6c 7e3f 374c 803f
000001d0: b467 7f3f bcfb 7d3f 8435 7f3f bd29 813f
000001e0: f944 813f 994e 7d3f ec12 7e3f 2432 7f3f
000001f0: 94d2 7e3f f659 7e3f 080a 803f 7d88 7d3f
00000200: 63d1 803f 8a1c 7e3f 4e39 833f 7a3d 833f
00000210: 613c 833f 78ed 823f 8936 7a3f 9973 803f
00000220: 4407 7f3f cd88 793f 9934 7f3f bb20 7a3f
00000230: b14d 813f 5694 813f 7c9a 813f 3d37 823f
00000240: a07c 7e3f ae1e 823f 02af 7e3f 2a9e 7d3f
00000250: 9498 7f3f 43c3 813f ed84 7f3f 1e83 823f
00000260: 090f 803f 26db 813f 8f5b 7a3f 040e 7d3f
00000270: b99d 7a3f b420 823f cc13 7c3f bc20 823f
00000280: 2c52 7f3f 7265 803f 5f5b 7f3f 156b 7f3f
00000290: 08c9 7d3f 10ff 7e3f f2a6 7f3f 3bba 803f
000002a0: f7c7 803f f76b 803f b22e 813f 2e24 7e3f
000002b0: 3802 7e3f 9b2c 7a3f ea35 803f f497 7d3f
000002c0: fc15 813f 1978 7d3f deeb 7e3f a8ec 823f
000002d0: 950c 803f 2e64 7b3f d2c0 7d3f 1222 7d3f
000002e0: 6a9f 7d3f 7a19 823f 8ba2 7c3f f872 823f
000002f0: 089d 7d3f 9e02 813f e4b0 7c3f a0bf 803f
00000300: 5ef4 803f 821a 7c3f ca22 7e3f 85e7 803f
00000310: 8802 813f 6c4d 7f3f 5aa0 803f 33c7 803f
00000320: b529 823f f02e 823f 313a 823f e338 823f
00000330: 9930 823f 0534 823f d398 7b3f 8ff6 813f
00000340: d282 7b3f a6d2 7b3f 9c60 7b3f 7fdb 823f
00000350: 08f0 7f3f e1b5 7c3f 7775 823f f5d5 7d3f
00000360: 587c 7b3f 8e76 7b3f c897 803f 3f22 823f
00000370: 19dd 823f eef4 823f 463c 7c3f fecd 813f
00000380: 6c1e 823f ca38 7a3f 69df 7b3f bb49 823f
00000390: 4952 7e3f 61e9 7d3f 2c23 7a3f 1757 823f
000003a0: 7fa3 803f 6deb 7a3f cd80 823f 5024 803f
000003b0: 83d2 7b3f d01f 823f 85e5 823f aa47 7c3f
000003c0: 479b 7e3f 196f 7d3f 1231 7d3f a33f 7f3f
000003d0: 4ade 7d3f 4484 803f 033d 813f e67a 7d3f
000003e0: b304 7e3f a33e 803f 8014 833f be5a 7f3f
000003f0: 1298 803f f78d 803f 2680 823f 4a7d 803f

net.0.base_weight f4 [64, 10]
0.05198881 0.07844574 0.12263946 0.05009252 0.03744636 0.035739265 0.020180607 -0.040488005
-0.02841893 0.022651197 0.04439213 -0.021464828 0.026895046 -0.058712725 -0.015818406 0.16688283
0.0717857 -0.044936273 0.05394036 -0.08193073 -0.10291085 -0.012895771 -0.079846434 -0.02062208
-0.09578853 0.012907878 -0.06115358 -0.13278563 0.09196018 0.13737613 -0.15972045 -0.051758952
-0.07246192 0.0301956 0.09357071 0.22759424 0.05363957 0.21902962 -0.03264814 -0.13408926
-0.032158826 0.03485728 -0.08227474 0.015629897 -0.09781722 -0.018526498 -0.09099545 -0.21677853
0.006481785 0.114752166 -0.05852712 0.03315627 -0.10527221 0.092631906 0.041324582 -0.2432041
0.002634678 0.011560329 -0.045407422 0.050147027 -0.018385548 -0.20825404 -0.10171323 0.045154117
0.04387278 0.064409666 -0.07884239 -0.061125364 0.14669 -0.07317239 -0.061340332 0.15358146
0.01614166 0.23891246 -0.23514937 0.17001747 0.07474314 0.017736603 0.015124892 0.0522968
0.014941135 -0.07376081 0.022721792 0.14013825 -0.17480275 0.14467767 -0.09164514 0.07442114
0.12844193 0.036055826 -0.08809011 0.03819707 -0.033849668 0.013476037 0.09764274 -0.047779158
-0.09086273 -0.048273962 0.005414308 0.1034033 0.089445546 0.05085258 0.035762407 0.08833094
0.0826785 0.20882721 -0.013250552 0.036314514 -0.051939245 0.10160987 0.0035209383 0.124171406
0.024693096 0.07376966 0.022995478 0.00962965 -0.06875156 0.17177376 0.10004164 -0.044767622
-0.13904715 0.17138721 0.07649078 0.06054921 0.1047729 0.22509013 -0.16869442 0.037666064
0.039452203 0.11491876 0.000959094 0.05003683 0.15802407 -0.0630214 -0.030475227 0.021047335
-0.22417505 0.13993238 0.09258939 -0.11840076 0.058730487 0.08516764 -0.22955875 0.012790103
-0.118819594 -0.013702308 0.0900988 -0.040603507 0.149241 0.00054267276 0.10612074 0.030241385
-0.10154341 0.14743236 -0.038108177 -0.09479299 0.076777466 -0.12718558 -0.11539583 -0.10065554
-0.020928545 0.048779834 -0.024800476 -0.06927479 0.055994403 -0.12323124 0.18546392 -0.029840896
-0.020321589 -0.027165892 -0.2793521 -0.16932471 0.08194048 0.14423516 -0.08241671 -0.047866613
0.1972351 0.06758031 0.00820995 -0.04837765 -0.17031659 -0.05354457 -0.05328613 0.10567997
0.048762433 -0.05512693 -0.022086797 0.08063242 -0.020636844 -0.076922715 -0.082663454 0.12615028
0.12722738 0.10494396 0.18622659 0.0024623068 0.03199403 0.1344816 -0.106982656 -0.110422164
-0.0040477365 0.0067057074 0.09641134 0.11753076 0.11003351 0.19869447 0.0027448796 0.03198378
-0.0799289 0.00012577068 -0.10727146 0.045565743 -0.0557536 0.111776195 -0.0013655475 0.022095395
-0.16485612 0.073057696 -0.060483713 -0.077153444 -0.01642406 0.017909555 -0.023735182 0.08180229
-0.050556123 0.077530816 -0.013864064 0.078239694 0.108154446 0.055365503 0.010960678 0.090128675
0.05135473 -0.32477418 -0.13073815 0.006998921 -0.06727199 0.01937072 -0.043023158 -0.027002443
0.024094982 0.019312432 0.09448924 0.09012585 0.003262835 -0.045126103 0.06311847 -0.052667268
-0.094053276 -0.0845843 0.07616703 0.08298433 -0.012512822 -0.066921264 -0.1857925 -0.16670072
00000000: 38f2 543d 29a8 a03d 662a fb3d d02d 4d3d
00000010: 5b61 193d 5663 123d cd51 a53c c0d6 25bd
00000020: d1ce e8bc 018f b93c 86d4 353d 02d7 afbc
00000030: 0053 dc3c c17c 70bd 9a95 81bc 55e3 2a3e
00000040: 6204 933d 190f 38bd 91f0 5c3d 4ccb a7bd
00000050: ecc2 d2bd c948 53bc 8786 a3bd a3ef a8bc
00000060: c72c c4bd 907b 533c 2d7c 7abd f5f8 07be
00000070: 9e55 bc3d 54ac 0c3e c28d 23be 3201 54bd
00000080: ea66 94bd c35c f73c 00a2 bf3d 770e 693e
00000090: 2ab5 5b3d 4d49 603e 0eba 05bd b24e 09be
000000a0: f9b8 03bd 82c6 0e3d a97f a8bd 450a 803c
000000b0: 6554 c8bd e2c4 97bc d35b babd 31fb 5dbe
000000c0: 2765 d43b 2f03 eb3d 22ba 6fbd dece 073d
000000d0: f598 d7bd ccb5 bd3d f743 293d 7f0a 79be
000000e0: 90aa 2c3b 8967 3d3c 22fd 39bd f866 4d3d
000000f0: 4a9d 96bc 8c40 55be 074f d0bd 86f3 383d
00000100: f2b3 333d 37e9 833d 1e78 a1bd 975e 7abd
00000110: e735 163e 68db 95bd 0040 7bbd 7544 1d3e
00000120: 843b 843c 78a5 743e ffca 70be 0f19 2e3e
00000130: ee12 993d 5a4c 913c 65ce 773c 2b35 563d
00000140: aacb 743c e80f 97bd 0d23 ba3c 6780 0f3e
00000150: 7eff 32be 6226 143e 72b0 bbbd 1c6a 983d
00000160: 4886 033e 46af 133d 9668 b4bd 8874 1c3d
00000170: f3a5 0abd 99ca 5c3c ebf8 c73d 14b4 43bd
00000180: 3d16 babd ebba 45bd 826a b13b 1cc5 d33d
00000190: 3a2f b73d cc4a 503d 9a7b 123d dae6 b43d
000001a0: 5853 a93d cdd6 553e d818 59bc 87be 143d
000001b0: 3fbe 54bd d618 d03d 8bbf 663b 944d fe3d
000001c0: 2d49 ca3c 8c14 973d 0361 bc3c aec5 1d3c
000001d0: 9ecd 8cbd 76e5 2f3e a2e2 cc3d 415e 37bd
000001e0: 6062 0ebe 2180 2f3e 33a7 9c3d 7302 783d
000001f0: 2d93 d63d 077e 663e 3bbe 2cbe bb47 1a3d
00000200: a298 213d 875a eb3d b56b 7b3a 6bf3 4c3d
00000210: 10d1 213e 5d11 81bd 2fa7 f9bc 766b ac3c
00000220: 258e 65be 6f4a 0f3e 829f bd3d 197c f2bd
00000230: 618f 703d 5f6c ae3d 7311 6bbe 958d 513c
00000240: b057 f3bd a57f 60bc b885 b83d dd4f 26bd
00000250: a2d2 183e 2742 0e3a d555 d93d c8bc f73c
00000260: fef5 cfbd 82f8 163e 5217 1cbd d422 c2bd
00000270: 813d 9d3d f03c 02be a654 ecbd 7e24 cebd
00000280: 5772 abbc 5dcd 473d 5e2a cbbc f1df 8dbd
00000290: 635a 653d a960 fcbd 41ea 3d3e e574 f4bc
000002a0: 7679 a6bc 018b debc 3d07 8fbe 7563 2dbe
000002b0: 69d0 a73d 62b2 133e 18ca a8bd c80f 44bd
000002c0: 00f8 493e 8c67 8a3d 0783 063c a527 46bd
000002d0: 7967 2ebe 8d51 5bbd 8f42 5abd bd6e d83d
000002e0: 1ebb 473d c7cc 61bd 5fef b4bc 9c22 a53d
000002f0: 990e a9bc a889 9dbd 754b a9bd 8a2d 013e
00000300: e547 023e dcec d63d 2fb2 3e3e a75e 213b
00000310: 2c0c 033d 8bb5 093e b919 dbbd 0425 e2bd
00000320: e0a2 84bb 8dbb db3b 4f73 c53d f8b3 f03d
00000330: 4059 e13d 9076 4b3e 70e3 333b 6d01 033d
00000340: c3b1 a3bd 4fe1 0339 24b1 dbbd 25a3 3a3d
00000350: e35d 64bd ebea e43d 2cfc b2ba 6701 b53c
00000360: 0bd0 28be 469f 953d c5bd 77bd a002 9ebd
00000370: c08b 86bc 0fb7 923c 4970 c2bc f687 a73d
00000380: f013 4fbd 7ac8 9e3d 1926 63bc 223c a03d
00000390: 1480 dd3d f0c6 623d 6a94 333c 6295 b83d
000003a0: 5659 523d cd48 a6be 39e0 05be 3457 e53b
000003b0: e6c5 89bd 58af 9e3c 0d39 30bd 3a34 ddbc
000003c0: d762 c53c 1b35 9e3c 9383 c13d e793 b83d
000003d0: 4ad5 553b 26d6 38bd 4244 813d a2b9 57bd
000003e0: 019f c0bd 893a adbd 76fd 9b3d b0f3 a93d
000003f0: 9402 4dbc 040e 89bd 6440 3ebe 98b3 2abe

net.0.grid_points f4 [5]
-2.0 -1.0 0.0 1.0 2.0
00000000: 0000 00c0 0000 80bf 0000 0000 0000 803f
00000010: 0000 0040

net.2.coeff f4 [64, 64, 5]
-0.016129777 0.11700494 -0.0715191 0.01968007 -0.0931641 -0.012248675 -0.11990516 -0.057867095
0.04087352 0.082520165 0.04773648 -0.1404744 0.10567493 -0.033059943 -0.06682401 0.16729978
-0.15442471 0.10579849 0.13320287 0.060079295 0.18823032 -0.14495447 0.0686029 0.055027515
-0.002287094 -0.051584765 0.042184096 -0.041793577 -0.048125148 -0.03870651 -0.2556525 0.042601183
-0.021208942 -0.15856387 -0.02712806 0.008228508 0.02906943 -0.06477807 0.06661965 -0.04936514
-0.114498585 0.1644937 0.02525776 0.14635025 -0.06378049 0.13628303 -0.1527218 0.14885356
0.06013819 0.0023156772 0.01657918 0.10506912 0.05935237 -0.038928833 0.08438958 0.05324688
0.011372752 0.11524239 -0.080463886 -0.045165516 0.0072204308 -0.00046588527 0.09202675 -0.039145026
0.060800858 -0.08083616 0.045084845 -0.11059283 -0.05199516 0.013521448 0.033338852 0.07185302
0.13344344 -0.114957675 0.04230368 0.046334688 0.01791511 0.023563413 -0.011930359 -0.11450004
0.006220632 0.04827583 -0.020718755 0.07649604 0.03863614 -0.07121485 -0.13658315 -0.16264534
0.009451298 0.077158466 -0.113221444 0.06486585 0.041344926 0.07204037 -0.24559289 0.0822994
-0.051052567 0.015673498 -0.03141158 0.07724574 0.122874826 -0.14776285 -0.11130087 0.02071004
0.2258209 -0.10989323 0.07002906 0.12300336 -0.08545398 -0.068949506 -0.018787086 -0.020718057
-0.10819615 0.23228866 0.10950887 -0.059854478 0.11144209 0.049052097 -0.1079128 0.03666853
-0.058886275 0.11804119 0.096568994 -0.026974663 -0.16464159 0.057186224 0.19864886 -0.03612549
0.12856877 -0.118185654 -0.14238846 0.016752113 0.030622976 0.051195055 0.006132144 -0.10888614
0.0045624655 0.04166031 -0.033452515 0.05757712 0.0008157985 0.10546341 -0.0823562 -0.14735013
0.1382501 0.021548802 -0.0056445724 0.01750137 -0.19196366 -0.029378287 -0.049501542 -0.12712753
-0.11374261 0.09254267 -0.18421647 -0.011842687 -0.028424526 0.054464836 0.080545776 0.00861513
-0.17478207 -0.018428871 0.11612438 -0.026064474 0.21865232 -0.11752893 0.01537413 -0.19460721
-0.058926456 -0.10607797 0.21297449 0.027513405 0.272331 0.03375802 0.06171083 -0.180759
0.057239678 -0.016140481 -0.015783727 -0.17811136 0.088812366 0.009590083 0.17504287 -0.03640649
0.15218109 -0.061859973 0.18198079 0.077974245 -0.035213366 -0.08321766 -0.11546585 0.062139083
0.07035462 -0.14686821 -0.06834776 -0.101775885 -0.050927833 0.096964486 0.054677993 -0.035648204
-0.051253762 0.05482448 -0.03983214 0.1183755 -0.040968616 0.03687028 0.07596065 -0.02992542
-0.10225329 -0.05791703 0.1863449 0.03120659 0.0396262 0.11560851 0.10387042 -0.14193057
0.033112396 -0.034633473 0.055426598 0.051065173 -0.100203626 -0.22393835 0.15598603 -0.026640827
0.1557514 0.15326887 -0.01505338 0.22871038 -0.0016428668 -0.017583314 -0.13677864 -0.04116016
-0.01692777 -0.118707314 0.19771044 -0.13045545 0.0153071275 0.12973055 0.057956442 0.27144352
0.18780959 0.0462686 0.020775793 0.056639783 0.059952307 -0.028322676 0.12758239 -0.20360936
0.03999783 -0.001508903 -0.11195268 -0.012476912 0.18590637 -0.18886131 -0.20254165 -0.04642944
00000000: 9822 84bc 49a0 ef3d 9b78 92bd 1938 a13c
00000010: d2cc bebd abae 48bc d690 f5bd 0c06 6dbd
00000020: fe6a 273d 5500 a93d 5487 433d 85d8 0fbe
00000030: 196c d83d dd69 07bd 07db 88bd a250 2b3e
00000040: 8321 1ebe e1ac d83d 5566 083e b515 763d
00000050: 73bf 403e f26e 14be ad7f 8c3d 8864 613d
00000060: 12e3 15bb 8c4a 53bd 3bc9 2c3d be2f 2bbd
00000070: e01e 45bd b88a 1ebd e2e4 82be 947e 2e3d
00000080: 60be adbc 915e 22be aa3b debc ddd0 063c
00000090: 0323 ee3c 5daa 84bd e26f 883d 1a33 4abd
000000a0: 3c7e eabd 0971 283e 5de9 ce3c d7dc 153e
000000b0: 589f 82bd c78d 0b3e 1b63 1cbe 116d 183e
000000c0: 7653 763d 9ec2 173b 0fd1 873c 7b2e d73d
000000d0: 791b 733d d773 1fbd 72d4 ac3d 6719 5a3d
000000e0: c754 3a3c 3404 ec3d 40ca a4bd 7aff 38bd
000000f0: 5d99 ec3b 1042 f4b9 8578 bc3d 8956 20bd
00000100: 520a 793d 6e8d a5bd e3aa 383d 7e7e e2bd
00000110: e0f8 54bd 1089 5d3c 528e 083d ad27 933d
00000120: 66a5 083e ee6e ebbd a046 2d3d 71c9 3d3d
00000130: b5c2 923c 0f08 c13c 8d77 43bc ff7e eabd
00000140: 72d6 cb3b e0bc 453d 61ba a9bc f5a9 9c3d
00000150: ee40 1e3d 17d9 91bd 74dc 0bbe 808c 26be
00000160: 9ed9 1a3c 4205 9e3d a5e0 e7bd 63d8 843d
00000170: 4c59 293d e789 933d b47c 7bbe 968c a83d
00000180: 7f1c 51bd b565 803c 6ea9 00bd 0433 9e3d
00000190: cca5 fb3d 254f 17be b6f1 e3bd 1aa8 a93c
000001a0: 983d 673e b40f e1bd 656b 8f3d 30e9 fb3d
000001b0: 7f02 afbd 6635 8dbd 60e7 99bc eab8 a9bc
000001c0: f195 ddbd 14dd 6d3e 3046 e03d f829 75bd
000001d0: c03b e43d daea 483d 6301 ddbd be31 163d
000001e0: bc32 71bd 94bf f13d f7c5 c53d f8f9 dcbc
000001f0: ce97 28be 1a3c 6a3d 9b6a 4b3e 52f8 13bd
00000200: 88a7 033e 520b f2bd 48ce 11be ba3b 893c
00000210: 09dd fa3c e8b1 513d 27f0 c83b b2ff debd
00000220: bc80 953b 00a4 2a3d 8105 09bd fcd5 6b3d
00000230: 50db 553a 33fd d73d 5eaa a8bd f4e2 16be
00000240: 6f91 0d3e 1d87 b03c 1bf6 b8bb 085f 8f3c
00000250: 1f92 44be bcaa f0bc 21c2 4abd b82d 02be
00000260: e3f1 e8bd 0387 bd3d 3ea3 3cbe d407 42bc
00000270: 8dda e8bc 8516 5f3d 2ff5 a43d 7926 0d3c
00000280: 12fa 32be 25f8 96bc 9ed2 ed3d 2a85 d5bc
00000290: 65e6 5f3e 02b3 f0bd c6e3 7b3c 1d47 47be
000002a0: de5c 71bd 683f d9bd fc15 5a3e cb63 e13c
000002b0: f86e 8b3e d945 0a3d 7fc4 7c3d e318 39be
000002c0: 2774 6a3d 0b39 84bc e04c 81bc d362 36be
000002d0: 42e3 b53d b91f 1d3c 703e 333e f91e 15bd
000002e0: 5cd5 1b3e e260 7dbd 2c59 3a3e f6b0 9f3d
000002f0: e43b 10bd 056e aabd 5c79 ecbd 8d85 7e3d
00000300: 1516 903d 9f64 16be e9f9 8bbd e06f d0bd
00000310: b499 50bd 5195 c63d 08f6 5f3d da03 12bd
00000320: 77ef 51bd a28f 603d 0727 23bd db6e f23d
00000330: b5ce 27bd 4a05 173d 4291 9b3d 2826 f5bc
00000340: 2c6a d1bd 683a 6dbd 33d1 3e3e f6a4 ff3c
00000350: 154f 223d 28c4 ec3d 04ba d43d 3f56 11be
00000360: dda0 073d d4db 0dbd 0007 633d b729 513d
00000370: 8f37 cdbd 1850 65be cdba 1f3e dd3d dabc
00000380: 4c7d 1f3e 84f2 1c3e 74a2 76bc 0e33 6a3e
00000390: 7655 d7ba e20a 90bc b30f 0cbe 8e97 28bd
000003a0: 1bac 8abc d21c f3bd 9b74 4a3e 1d96 05be
000003b0: bfca 7a3c 16d8 043e bc63 6d3d a5fa 8a3e
000003c0: 2851 403e 2584 3d3d ff31 aa3c 1eff 673d
000003d0: 8d90 753d f504 e8bc f5a4 023e f97e 50be
000003e0: c4d4 233d 62c6 c5ba 7247 e5bd f66b 4cbc
000003f0: 3d5e 3e3e dc64 41be 1467 4fbe cc2c 3ebd

net.2.scale f4 [64, 64]
0.974504 0.9737617 1.024296 1.0135088 1.0285118 0.9750985 0.9847031 0.9737654
1.0278151 1.0274436 1.0020123 1.0267506 1.0233804 0.9745512 1.0275959 1.0079081
0.9724374 0.97429496 1.0273504 0.9863852 0.9743637 1.0270629 0.97420186 0.97159994
1.0268147 0.98580295 1.027187 1.0079982 0.98078793 0.9810884 1.0003849 1.0266433
1.0261766 0.97403914 1.0267894 0.97518843 1.0272068 1.0283082 1.009757 1.0258774
0.9718541 0.9743511 1.012025 0.97563684 1.0254135 1.0266868 0.9729164 1.024731
1.0283335 0.97335786 1.0262039 0.99973077 1.0019846 1.0236377 1.023553 0.9734089
1.0085934 0.977766 1.0273407 1.0068389 1.0241493 1.0259746 0.973963 0.97447485
1.0099796 1.000035 0.9901986 1.0117704 1.0076947 1.0090541 1.013193 1.010518
1.0068072 1.0091964 0.9924872 1.0057396 0.97732 0.981577 0.9858666 1.0090876
1.0060598 1.0070199 0.9992483 1.0095888 0.9820496 0.99028057 0.98870456 1.0095669
0.9879531 0.9956689 1.0101355 1.0136801 0.9894826 1.005862 0.97906166 1.007852
1.0105276 1.0186566 1.004309 1.0084363 1.0087347 1.0099674 1.0242854 1.0053107
1.0224638 0.9880181 0.98486 0.9920462 0.98933005 0.9873939 1.0164608 0.98921025
1.0007486 0.9826216 0.98563695 0.9784 1.0027983 1.0083154 0.9972822 1.0139581
1.0082719 1.0125207 1.0006149 0.98906296 0.9975127 1.0104629 1.0089377 1.0098257
1.0160403 0.9868343 1.0154518 1.0114857 1.0186669 0.9836269 1.0128918 0.97801805
1.011723 1.0180764 0.98784184 0.98391765 0.98368007 1.0149466 1.0149081 0.9832706
0.99686944 1.0044367 0.98300767 0.9993593 0.9845518 1.0161842 1.0160209 1.0047652
0.98730177 0.9839826 1.01523 0.9864433 1.0151827 1.0161736 1.0039188 0.9838721
1.0158608 0.9828416 1.0142118 1.0091016 1.0053086 1.0159569 1.000483 0.9836494
1.0119791 1.0148715 0.9927372 0.9783241 0.9836014 1.0149225 0.9871993 0.9856908
0.98877937 1.0140179 0.98404175 0.9836289 0.97846437 0.9840245 1.0210096 0.98237514
1.0114673 0.9841918 1.0159428 1.0159414 1.0174854 0.98558444 1.0162581 0.9841627
1.0196663 0.97537124 0.98116136 1.0216202 0.9995606 1.0149268 1.0086381 1.0240091
0.9798902 1.0234295 1.0135233 0.9781631 1.0107191 1.0200534 1.0248958 0.985709
0.9765963 1.0183504 0.9820261 1.0232381 1.0127134 0.987874 1.019934 0.9761397
1.0222809 1.0238745 1.0159545 0.99580383 1.0211191 1.021779 0.9999791 1.0170091
1.0196316 1.0216029 1.0121543 1.0236355 1.0043758 0.98196733 0.97414064 0.98058003
0.9768268 0.980614 0.97612137 0.99736446 0.98118037 0.9746808 1.0005544 1.0016603
1.0250928 0.974761 0.98534834 1.0160079 0.9881774 1.0195254 1.0248005 1.0238504
1.0233085 1.0189145 0.980862 0.9808711 1.0249686 1.0194823 0.98093855 0.98030406
00000000: 1879 793f 7248 793f 221c 833f a8ba 813f
00000010: 46a6 833f 0ea0 793f 8115 7c3f b048 793f
00000020: 728f 833f 4683 833f f041 803f 906c 833f
00000030: 21fe 823f 307c 793f 4388 833f 2203 813f
00000040: a8f1 783f 656b 793f 3880 833f be83 7c3f
00000050: e66f 793f cc76 833f 4b65 793f c6ba 783f
00000060: aa6e 833f 955d 7c3f dd7a 833f 1606 813f
00000070: eb14 7b3f 9c28 7b3f 9d0c 803f 0c69 833f
00000080: c159 833f a15a 793f d66d 833f f3a5 793f
00000090: 837b 833f 9a9f 833f b83f 813f f34f 833f
000000a0: 6ecb 783f 136f 793f 098a 813f 56c3 793f
000000b0: c040 833f 796a 833f 0d11 793f 632a 833f
000000c0: 6fa0 833f fb2d 793f a65a 833f 5bee 7f3f
000000d0: 0841 803f 8f06 833f c903 833f 5331 793f
000000e0: 9719 813f df4e 7a3f e67f 833f 19e0 803f
000000f0: 5317 833f 2353 833f a455 793f 2f77 793f
00000100: 0347 813f 2601 803f a87d 7d3f b181 813f
00000110: 24fc 803f af28 813f 4fb0 813f a758 813f
00000120: 0fdf 803f 592d 813f a413 7e3f 13bc 803f
00000130: a531 7a3f a148 7b3f c161 7c3f c829 813f
00000140: 91c6 803f 07e6 803f bdce 7f3f 353a 813f
00000150: 9a67 7b3f 0783 7d3f be1b 7d3f 7d39 813f
00000160: 7fea 7c3f 28e4 7e3f 1f4c 813f 45c0 813f
00000170: bb4e 7d3f 16c0 803f c9a3 7a3f 4b01 813f
00000180: f858 813f 5763 823f 338d 803f 7114 813f
00000190: 381e 813f 9d46 813f c91b 833f 05ae 803f
000001a0: 18e0 823f c1ee 7c3f c91f 7c3f bdf6 7d3f
000001b0: bc44 7d3f d9c5 7c3f 631b 823f e23c 7d3f
000001c0: 8818 803f 178d 7b3f b452 7c3f 6c78 7a3f
000001d0: b25b 803f 7b10 813f e34d 7f3f 61c9 813f
000001e0: 0e0f 813f 479a 813f 2614 803f 3b33 7d3f
000001f0: fe5c 7f3f d956 813f df24 813f f841 813f
00000200: 9c0d 823f 2ca1 7c3f 53fa 813f 5d78 813f
00000210: ad63 823f f9ce 7b3f 70a6 813f 645f 7a3f
00000220: 2480 813f 5450 823f 34e3 7c3f 07e2 7b3f
00000230: 75d2 7b3f c5e9 813f 82e8 813f 9fb7 7b3f
00000240: d632 7f3f 6291 803f 64a6 7b3f 03d6 7f3f
00000250: 960b 7c3f 5312 823f f90c 823f 259c 803f
00000260: cfbf 7c3f 49e6 7b3f 0ef3 813f 8c87 7c3f
00000270: 82f1 813f fa11 823f 6980 803f 0bdf 7b3f
00000280: ba07 823f 829b 7b3f b1d1 813f 3e2a 813f
00000290: f4ad 803f e00a 823f d40f 803f 72d0 7b3f
000002a0: 8888 813f 4fe7 813f 0624 7e3f 7373 7a3f
000002b0: 4dcd 7b3f fbe8 813f 18b9 7c3f 3b56 7c3f
000002c0: a520 7d3f 57cb 813f 29ea 7b3f 1bcf 7b3f
000002d0: a47c 7a3f 08e9 7b3f 71b0 823f f07c 7b3f
000002e0: c377 813f fef3 7b3f 6a0a 823f 5e0a 823f
000002f0: f63c 823f 434f 7c3f bf14 823f 16f2 7b3f
00000300: 6d84 823f eeb1 793f 642d 7b3f 73c4 823f
00000310: 34e3 7f3f 1fe9 813f 0e1b 813f bb12 833f
00000320: 16da 7a3f bdff 823f 22bb 813f e668 7a3f
00000330: 3e5f 813f 1c91 823f c92f 833f 6d57 7c3f
00000340: 3702 7a3f 4e59 823f 1066 7b3f 77f9 823f
00000350: 98a0 813f 4fe5 7c3f 338d 823f 4be4 793f
00000360: 1ada 823f 520e 833f cc0a 823f 00ed 7e3f
00000370: 08b4 823f a7c9 823f a1fe 7f3f 5b2d 823f
00000380: 4a83 823f e2c3 823f 468e 813f 7d06 833f
00000390: 638f 803f 3662 7b3f 4861 793f 4b07 7b3f
000003a0: 5211 7a3f 8509 7b3f 17e3 793f 4753 7f3f
000003b0: a32e 7b3f ae84 793f 2b12 803f 6836 803f
000003c0: 3e36 833f f089 793f ca3f 7c3f 8c0c 823f
000003d0: 32f9 7c3f cf7f 823f aa2c 833f 880d 833f
000003e0: c6fb 823f ca6b 823f c619 7b3f 5e1a 7b3f
000003f0: 2c32 833f 657e 823f ca1e 7b3f 35f5 7a3f

net.2.base_weight f4 [64, 64]
0.0076003233 0.016288418 -0.02040144 0.002001435 -0.2063854 0.010820362 -0.014201781 0.17176715
0.055261254 0.019932384 0.11043191 -0.06621573 -0.04502995 0.035210785 0.14769155 -0.12430325
0.036343396 -0.066232115 0.17309733 0.061548777 0.0729507 -0.0662758 -0.1116807 -0.035941575
-0.006816064 0.05270776 -0.017547434 0.07380477 -0.07940912 -0.179613 -0.028217021 0.013552392
-0.08584394 -0.0711616 -0.12456723 -0.092735566 0.06066708 0.005547777 -0.011541433 -0.17920707
0.02680462 -0.20855747 0.25075924 -0.16300365 -0.04707641 0.08412295 -0.07759434 0.15904588
-0.102296926 0.05436087 -0.041502625 0.0710439 0.14879887 -0.1455053 0.2300202 -0.047932044
0.056291588 -0.059696317 -0.016119512 -0.050747495 0.03811535 -0.13257596 0.13923717 -0.27575535
0.11916224 -0.08002072 -0.055147 -0.027050888 -0.11570276 0.04788709 -0.04518188 -0.05301368
0.034700844 0.14147969 0.2401711 0.16253273 0.17964156 -0.05588681 -0.11228499 0.0030278799
0.035835348 -0.013596897 -0.06714796 0.15257566 0.039564904 -0.04076654 0.079458944 -0.22835498
0.08781836 -0.12844579 -0.1010513 0.05531016 -0.0006066973 0.06330751 0.1515793 -0.023726879
0.1650589 0.020487271 -0.031337596 -0.07461066 0.15314999 0.048089195 0.083605476 -0.13184626
-0.12510386 -0.00028715102 -0.14759225 0.047562215 0.12822428 0.056343254 -0.070672706 0.037553426
0.074920624 -0.07054026 -0.043133292 -0.07338579 0.11569362 0.015189148 -0.07298559 -0.022154514
0.025478376 0.19490679 0.0039735246 -0.08316706 0.153223 0.0032997706 -0.026329396 0.15319158
0.046480767 0.07244766 -0.043647416 -0.0034969805 -0.08891429 0.11935611 0.07416379 -0.015742645
0.09184394 0.20630404 -0.049385205 -0.08380258 0.17398907 3.8635913e-05 0.044630658 -0.1844518
0.082356885 0.0057929964 0.086072326 -0.123163216 -0.030500682 0.013729671 0.06596203 0.030725433
0.08823978 0.003778815 0.16774441 0.12359433 -0.031178156 -0.07970468 -0.12019558 0.04293161
0.13535197 -0.16854984 0.066266954 -0.121838264 0.018715952 0.026205635 -0.13338587 0.08732273
0.040280584 -0.09287223 -0.13870959 0.081828706 0.21223643 -0.10800193 0.091892 0.007498981
-0.18483657 0.09707064 0.038171317 -0.05031335 0.04915318 -0.024052607 0.055166956 0.094443366
0.050750125 0.16197601 -0.015840828 0.24068816 -0.02557347 0.018112663 -0.032361154 0.14236625
0.10432887 -0.2090753 0.0009328365 -0.09041127 -0.024923086 -0.09237897 -0.00943896 0.01853734
0.11189551 0.067725204 0.03627828 0.055272643 0.11029027 0.16858208 0.17927459 0.009403583
-0.006921144 0.07471935 0.16208066 -0.2015665 -0.045228906 -0.0744938 -0.019975578 0.045493677
-0.029047964 0.041963667 0.08617516 0.1803526 0.06290195 -0.0223404 0.027873931 0.069115184
0.12394818 0.055534076 0.14517951 -0.040154144 0.16608049 0.15042828 0.20304409 -0.01169856
0.00859996 -0.07545622 -0.04577658 0.15628241 0.027855897 -0.016699504 0.1489744 -0.03388662
-0.10018677 -0.035881694 0.010938473 0.027613923 0.049752057 -0.058101796 -0.03537594 0.01563965
-0.028952405 -0.18627755 0.020820728 -0.030400269 0.021774381 0.09660813 -0.023897178 0.15919301
00000000: 220c f93b 4a6f 853c ec20 a7bc 822a 033b
00000010: b256 53be e347 313c 96ae 68bc bae3 2f3e
00000020: a059 623d 3d49 a33c 202a e23d 1d9c 87bd
00000030: 5371 38bd 2f39 103d 743c 173e b492 febd
00000040: d0dc 143d b4a4 87bd 6d40 313e 921a 7c3d
00000050: 2d67 953d 9bbb 87bd dab8 e4bd 7937 13bd
00000060: 4a59 dfbb 18e4 573d a3bf 8fbc f526 973d
00000070: 40a1 a2bd 78ec 37be 6227 e7bc da0a 5e3c
00000080: f3ce afbd 2cbd 91bd 1b1d ffbd 25ec bdbd
00000090: 0b7e 783d 20ca b53b 4718 3dbc 0f82 37be
000000a0: 5d95 db3c 1790 55be 8463 803e 6eea 26be
000000b0: 32d3 40bd a748 ac3d c8e9 9ebd ecdc 223e
000000c0: 0d81 d1bd 81a9 5e3d a8fe 29bd 777f 913d
000000d0: bb5e 183e 57ff 14be 6a8a 6b3e 6454 44bd
000000e0: 0292 663d 2084 74bd 110d 84bc 9bdc 4fbd
000000f0: d71e 1c3d fec1 07be 3094 0e3e ce2f 8dbe
00000100: 550b f43d e7e1 a3bd d2e1 61bd d399 ddbc
00000110: 92f5 ecbd 4125 443d a310 39bd df24 59bd
00000120: 7922 0e3d 0de0 103e 6aef 753e fb6e 263e
00000130: f5f3 373e 91e9 64bd acf5 e5bd 656f 463b
00000140: 16c8 123d 85c5 5ebc df84 89bd cb3c 1c3e
00000150: cf0e 223d d1fa 26bd 5fbb a23d e3d5 69be
00000160: 1dda b33d 4b87 03be fcf3 cebd e88c 623d
00000170: c40a 1fba 5ea7 813d 9b37 1b3e df5e c2bc
00000180: 3305 293e ecd4 a73c da5b 00bd 79cd 98bd
00000190: 5ad3 1c3e 2df9 443d 5939 ab3d b502 07be
000001a0: 3a1b 00be c28c 96b9 6c22 17be 99d0 423d
000001b0: 3a4d 033e 2fc8 663d dabc 90bd 9fd1 193d
000001c0: fc6f 993d 6977 90bd 89ac 30bd 4a4b 96bd
000001d0: c7f0 ec3d e7db 783c 7879 95bd 627d b5bc
000001e0: 07b8 d03c a595 473e 5734 823b 7e53 aabd
000001f0: 7de6 1c3e f740 583b bfb0 d7bc 41de 1c3e
00000200: 9e62 3e3d 705f 943d a2c7 32bd 992d 65bb
00000210: b218 b6bd fa70 f43d 2fe3 973d b8f6 80bc
00000220: ad18 bc3d 5e41 533e 2448 4abd b0a0 abbd
00000230: 312a 323e ff0c 2238 a3ce 363d efe0 3cbe
00000240: baaa a83d 2dd3 bd3b b046 b03d ff3c fcbd
00000250: 91dc f9bc 6af2 603c 1a17 873d e7b3 fb3c
00000260: 0fb7 b43d ffa5 773b 31c5 2b3e 061f fd3d
00000270: 5569 ffbc 353c a3bd 1a29 f6bd 0ed9 2f3d
00000280: b599 0a3e 5498 2cbe f8b6 873d 5786 f9bd
00000290: 3252 993c 33ad d63c 4e96 08be 42d6 b23d
000002a0: 41fd 243d cc33 bebd e309 0ebe cf95 a73d
000002b0: 8254 593e 1e30 ddbd df31 bc3d 03ba f53b
000002c0: cc45 3dbe f9cc c63d 8759 1c3d 5f15 4ebd
000002d0: d854 493d f909 c5bc bff6 613d 866b c13d
000002e0: 5ddf 4f3d 0add 253e a0c4 81bc f576 763e
000002f0: 747f d1bc 0261 943c 218d 04bd 75c8 113e
00000300: 60aa d53d d617 56be 9989 743a 8b29 b9bd
00000310: 802b ccbc 2f31 bdbd dea5 1abc 9fdb 973c
00000320: 7929 e53d 83b3 8a3d 8998 143d 9165 623d
00000330: dddf e13d c8a0 2c3e c293 373e 7c11 1a3c
00000340: c4ca e2bb 7506 993d 79f8 253e 7367 4ebe
00000350: f241 39bd 3590 98bd d3a3 a3bc 9457 3a3d
00000360: fff5 edbc 18e2 2b3d 9a7c b03d 5aae 383e
00000370: bdd2 803d 3703 b7bc df57 e43c 438c 8d3d
00000380: 8bd8 fd3d b377 633d f0a9 143e ac78 24bd
00000390: 0111 2a3e df09 1a3e caea 4f3e 51ab 3fbc
000003a0: d9e6 0c3c ca88 9abd 3980 3bbd 7f08 203e
000003b0: 0d32 e43c 66cd 88bc bf8c 183e b2cc 0abd
000003c0: b92e cdbd aff8 12bd 4837 333c 9836 e23c
000003d0: d0c8 4b3d 26fc 6dbd 5de6 10bd b91e 803c
000003e0: 982d edbc 8bbf 3ebe 3b90 aa3c fc09 f9bc
000003f0: 3060 b23c 7cda c53d 04c4 c3bc 7e03 233e

net.2.grid_points f4 [5]
-2.0 -1.0 0.0 1.0 2.0
00000000: 0000 00c0 0000 80bf 0000 0000 0000 803f
00000010: 0000 0040

net.3.coeff f4 [1, 64, 5]
-0.010011957 -0.053432632 0.0016743701 -0.0914277 -0.00263689 0.17204556 0.12665272 0.2618263
-0.06878127 0.06451504 -0.04970141 -0.23111837 0.07944613 -0.1833944 0.13917044 -0.13661528
-0.022252303 0.028545648 0.0009938492 -0.19520628 0.08672399 -0.18618642 -0.039802358 0.08506735
-0.056600638 0.008502315 0.012539066 0.09238126 0.0021088766 -0.14783792 0.046490215 -0.32876807
-0.056195877 -0.008704763 -0.016608864 0.1446557 0.18816736 -0.18012391 -0.07685622 0.16773562
0.04664699 0.119177625 0.03901703 -0.19577283 0.019088732 -0.17961693 0.12414114 -0.19949564
0.0068151616 0.09501714 0.055471767 -0.031406857 -0.056819987 -0.0780094 -0.10935972 0.19727513
0.040727615 -0.24339862 -0.17760833 0.046918567 0.13638689 0.19142413 0.016815228 -0.18905132
-0.005342512 -0.039276954 -0.07646588 -0.0116631845 0.01685761 -0.16935417 -0.08594144 -0.12262004
-0.16372706 0.12621069 0.02867316 0.21719228 -0.25013104 0.051747736 0.15779366 0.0045126867
-0.009494132 0.07124883 -0.15634453 -0.070442356 0.00093849935 -0.061409056 -0.077966236 -0.06343196
0.06173888 0.08257891 -0.09505208 -0.006875396 0.08560027 -0.08871726 -0.09029483 0.073400296
-0.14462325 -0.09093604 -0.006746041 0.10222229 -0.07303653 0.055814877 -0.061944257 -0.06417777
-0.0109347915 -0.024909176 0.08971316 -0.01474159 -0.0751946 -0.13776715 -0.10634289 -0.23671117
0.037906107 0.017506052 -0.009395769 0.020555003 -0.12525304 0.21115255 -0.03099712 0.090093456
-0.18306504 0.18291254 0.11123309 0.10826879 -0.00273134 -0.06654167 -0.17596494 0.031311598
-0.056377172 0.010472785 -0.029395787 -0.11895488 0.16627884 0.09615018 -0.06192366 -0.12446065
0.19475017 -0.02294106 -0.10304752 -0.10595388 -0.07606065 -0.07383585 0.051419236 -0.08355763
0.0387656 -0.02785033 0.059549306 0.10687577 -0.077945635 0.031130472 0.03674315 -0.0009044753
0.052688424 -0.18327077 0.092573054 0.10395242 -0.08363644 0.06793492 -0.12514837 0.20088024
-0.059210975 -0.029220313 0.06602612 0.021040382 0.091417216 0.020711781 -0.00933242 -0.14034952
0.07478399 -0.17036605 0.058695227 -0.0961673 0.04362526 0.095398806 0.101448335 0.099416375
-0.010706097 -0.16102915 -0.12221848 -0.024580073 0.08526249 -0.21975695 0.020013591 -0.13279054
0.0014558806 0.08781862 -0.17896461 -0.049997732 -0.0477593 0.04114535 -0.045021612 -0.18881156
-0.027464414 -0.19125547 -0.2983827 -0.10013312 -0.19274803 -0.014275799 -0.12524728 -0.08601159
0.09405039 -0.06809704 0.053248905 0.14979011 -0.026085436 0.03532348 -0.06853137 -0.050780024
-0.040958725 0.05901557 0.08293804 -0.021746315 0.01906791 -0.020563211 -0.023204556 0.19205867
-0.10181229 0.07402962 0.06389178 0.10289394 -0.028547898 -0.247265 -0.11178608 0.07845619
0.03786514 -0.13720345 -0.08746343 -0.097668044 -0.126318 -0.015732659 -0.0052577457 -0.11113254
-0.0050244993 -0.049984965 -0.07841253 -0.12236896 -0.18723792 -0.28854784 0.05646237 0.12314128
0.016306201 0.090584 -0.08830762 -0.040682536 -0.023540026 -0.074267 0.06696905 0.06270566
-0.18654963 -0.06717951 -0.19079311 0.07203029 0.08588256 -0.20019078 0.119204916 0.07943763
00000000: 3109 24bc 2ddc 5abd 8a76 db3a 723e bbbd
00000010: accf 2cbb b62c 303e 40b1 013e 190e 863e
00000020: 32dd 8cbd 7620 843d b593 4bbd 4baa 6cbe
00000030: a7b4 a23d becb 3bbe b282 0e3e e0e4 0bbe
00000040: 764a b6bc 90d8 e93c 0c44 823a 28e4 47be
00000050: 599c b13d a7a7 3ebe cc07 23bd ca37 ae3d
00000060: 12d6 67bd 4b4d 0b3c a870 4d3c 6332 bd3d
00000070: 1435 0a3b d362 17be 866c 3e3d 4a54 a8be
00000080: a62d 66bd 6c9e 0ebc 500f 88bc a020 143e
00000090: f2ae 403e 6772 38be cb66 9dbd e3c2 2b3e
000000a0: ea10 3f3d 6613 f43d 52d0 1f3d ac78 48be
000000b0: f95f 9c3c 80ed 37be b63d fe3d 9648 4cbe
000000c0: b851 df3b 5998 c23d 5d36 633d 7aa4 00bd
000000d0: 13bc 68bd 64c3 9fbd fdf7 dfbd 7e02 4a3e
000000e0: 00d2 263d 7d3d 79be f5de 35be af2d 403d
000000f0: 01a9 0b3e b004 443e 17c0 893c ab96 41be
00000100: 3d10 afbb dfe0 20bd 259a 9cbd f116 3fbc
00000110: f818 8a3c 2e6b 2dbe 1102 b0bd 3720 fbbd
00000120: 11a8 27be 603d 013e fae3 ea3c a767 5e3e
00000130: 2d11 80be 6ff5 533d a994 213e 29df 933b
00000140: 478d 1bbc e8ea 913d c818 20be 1544 90bd
00000150: a005 763a 1088 7bbd c3ac 9fbd 9ee8 81bd
00000160: e8e1 7c3d 221f a93d aaaa c2bd 004b e1bb
00000170: 324f af3d 65b1 b5bd 7fec b8bd e552 963d
00000180: 1e18 14be ad3c babd e50d ddbb ec59 d13d
00000190: 2d94 95bd 249e 643d 43b9 7dbd a26f 83bd
000001a0: d727 33bc 540e ccbc 89bb b73d b686 71bc
000001b0: a0ff 99bd d512 0dbe 4dca d9bd 6a64 72be
000001c0: 6f43 1b3d da68 8f3c b6f0 19bc f762 a83c
000001d0: 5542 00be 6038 583e aced fdbc eb82 b83d
000001e0: 6775 3bbe 6d4d 3b3e 2dce e33d 07bc dd3d
000001f0: 4800 33bb 0047 88bd 2730 34be 9740 003d
00000200: c0eb 66bd 0b96 2b3c 6fcf f0bc 9e9e f3bd
00000210: 0045 2a3e 63ea c43d aaa3 7dbd 3ae5 febd
00000220: 976c 473e e4ee bbbc 940a d3bd 59fe d8bd
00000230: b0c5 9bbd 4037 97bd fa9c 523d 4320 abbd
00000240: aec8 1e3d 6026 e4bc f9e9 733d afe1 da3d
00000250: f6a1 9fbd 5505 ff3c fc7f 163d 4f1a 6dba
00000260: d1cf 573d 55ab 3bbe f196 bd3d 02e5 d43d
00000270: 9549 abbd 7721 8b3d e526 00be 8db3 4d3e
00000280: 3587 72bd 705f efbc b438 873d e15c ac3c
00000290: f338 bb3d c1ab a93c 02e7 18bc c9b7 0fbe
000002a0: 5928 993d 7074 2ebe 686a 703d 5df3 c4bd
000002b0: 67b0 323d 7360 c33d 25c4 cf3d d09a cb3d
000002c0: a068 2fbc d3e4 24be af4d fabd 265c c9bc
000002d0: 1a9e ae3d f707 61be 8bf3 a33c 3efa 07be
000002e0: 3fd3 be3a 40da b33d 8042 37be 6cca 4cbd
000002f0: 419f 43bd 0788 283d 9568 38bd d157 41be
00000300: 0dfd e0bc 79d8 43be 9ec5 98be 9812 cdbd
00000310: bd5f 45be 0ae5 69bc d340 00be d826 b0bd
00000320: 7e9d c03d 7676 8bbd 861b 5a3d 9462 193e
00000330: 20b1 d5bc 5aaf 103d 2d5a 8cbd b7fe 4fbd
00000340: 56c4 27bd 4fba 713d 6bdb a93d 5425 b2bc
00000350: 4e34 9c3c 2e74 a8bc 7b17 bebc 07ab 443e
00000360: f682 d0bd d79c 973d b2d9 823d 0fba d23d
00000370: 48dd e9bc 0933 7dbe 1af0 e4bd a4ad a03d
00000380: 7a18 1b3d 107f 0cbe 0720 b3bd 2f06 c8bd
00000390: 8159 01be c7e1 80bc 2b49 acbb 7599 e3bd
000003a0: 8ea4 a4bb 09bd 4cbd c096 a0bd 949c fabd
000003b0: 4cbb 3fbe 8bbc 93be 1645 673d 7f31 fc3d
000003c0: 9594 853c 1b84 b93d a0da b4bd bba2 26bd
000003d0: 03d7 c0bc 4c19 98bd 1227 893d d36b 803d
000003e0: de06 3fbe 6995 89bd 455f 43be 9e84 933d
000003f0: 32e3 af3d d0fe 4cbe b521 f43d 32b0 a23d

net.3.scale f4 [1, 64]
0.98422486 0.9928087 1.0191281 0.99054265 1.0237193 0.9759506 1.0253422 1.0208726
1.0237604 1.0207314 1.0182495 1.0224168 1.0218871 1.0062534 1.0209968 1.0211613
1.0217103 1.0191983 1.0183419 0.9882368 1.0213845 1.0211866 0.9835467 1.0019011
0.9821743 1.022993 1.0227517 1.0212234 1.0222692 1.0010091 0.98604375 0.9914969
0.9835511 1.0215981 0.98195654 1.0164566 1.0230762 1.0241758 1.0217395 1.020455
0.99984926 1.0223606 0.9892952 1.0216286 1.0038476 1.0213326 1.0088588 1.0218873
1.0009161 1.0220684 0.991536 1.012977 1.0165236 1.007665 1.003064 1.0226293
1.0238041 1.01872 1.0156319 1.0197963 1.005974 1.0197884 1.021528 1.0254871
00000000: 29f6 7b3f b628 7e3f ca72 823f 3494 7d3f
00000010: 3c09 833f e6d7 793f 6a3e 833f f4ab 823f
00000020: 950a 833f 54a7 823f 0056 823f 8ede 823f
00000030: 32cd 823f e9cc 803f 06b0 823f 6ab5 823f
00000040: 67c7 823f 1775 823f 0759 823f 16fd 7c3f
00000050: babc 823f 3eb6 823f b7c9 7b3f 4c3e 803f
00000060: c66f 7b3f 6ff1 823f 87e9 823f 73b7 823f
00000070: b8d9 823f 1121 803f 5d6d 7c3f bed2 7d3f
00000080: 01ca 7b3f bac3 823f 8161 7b3f 401b 823f
00000090: 29f4 823f 3118 833f 5cc8 823f 459e 823f
000000a0: 1ff6 7f3f b6dc 823f 7342 7d3f bac4 823f
000000b0: 147e 803f 07bb 823f 4922 813f 34cd 823f
000000c0: 051e 803f 23d3 823f 4ed5 7d3f 3ba9 813f
000000d0: 721d 823f 2bfb 803f 6764 803f 84e5 823f
000000e0: 030c 833f 6b65 823f 3a00 823f af88 823f
000000f0: c2c3 803f 6d88 823f 6ec1 823f 2943 833f

net.3.base_weight f4 [1, 64]
-0.2477641 -0.1776888 0.07184035 -0.031097692 0.11829728 0.0891262 0.027632939 0.00218529
-0.17766389 0.09687806 -0.03702871 0.21316813 -0.025813395 0.19739369 -0.040067308 -0.014354255
0.14734504 -0.075296365 0.03158447 -0.18483113 -0.18697044 0.009350668 -0.015706109 0.097193845
-0.033753607 0.05172242 -0.06857384 -0.20097029 -0.0004095013 0.16140561 0.05898419 -0.17018688
-0.136232 0.11481516 0.08710325 -0.13101482 -0.059372045 0.06887771 -0.22427668 0.04720135
0.1536585 0.0019750565 0.26937288 0.004252918 0.04124088 -0.03942555 -0.053788725 -0.05798481
0.14739189 0.05362155 -0.17506534 0.04077796 -0.13099174 -0.16641434 -0.0020034737 -0.15555324
0.11752498 -0.09424019 -0.064860046 0.022467472 0.16517779 -0.03967354 -0.033615828 -0.0017884726
00000000: dfb5 7dbe 0ef4 35be 0921 933d 96c0 febc
00000010: d845 f23d cc87 b63d 795e e23c 1537 0f3b
00000020: 86ed 35be 0168 c63d 6bab 17bd bf48 5a3e
00000030: 9d76 d3bc 9221 4a3e 9e1d 24bd 1c2e 6bbc
00000040: 9ee1 163e fb34 9abd b85e 013d 5f44 3dbe
00000050: 2e75 3fbe 8b33 193c 19aa 80bc 910d c73d
00000060: 3941 0abd e3da 533d 7170 8cbd 28cb 4dbe
00000070: 56b2 d6b9 8347 253e 6899 713d 7845 2ebe
00000080: 6780 0bbe 3624 eb3d 3063 b23d c028 06be
00000090: 1a30 73bd c20f 8d3d c9a8 65be 3456 413d
000000a0: a758 1d3e f36f 013b 3eeb 893e 105c 8b3b
000000b0: 32ec 283d af7c 21bd 9151 5cbd 7b81 6dbd
000000c0: e6ed 163e 45a2 5b3d 5444 33be ca06 273d
000000d0: b322 06be 8568 2abe b64c 03bb 5949 1fbe
000000e0: f0b0 f03d 0001 c1bd 58d5 84bd b40d b83c
000000f0: 5e24 293e b980 22bd c0b0 09bd 2f6b eaba

net.3.grid_points f4 [5]
-2.0 -1.0 0.0 1.0 2.0
00000000: 0000 00c0 0000 80bf 0000 0000 0000 803f
00000010: 0000 0040
