data/trained_models/base_k_b_snn.pth (torch, 118734 bytes, 5 tensors)

fc1.weight f4 [64, 374]
0.04111466 0.027973924 0.009947201 -0.05828378 0.022855237 -0.0028675552 -0.04532593 -0.0011101292
0.0037659777 -0.004814508 0.019354714 -0.007038085 -0.048872862 0.014277925 -0.025011927 0.05975678
0.015781885 0.047046546 0.03572472 0.047360525 0.042759404 0.062070344 -0.0018524621 0.027723767
0.006332313 0.04951822 0.021143522 -0.022898803 0.0030704055 0.04961738 0.0056576193 -0.03244995
0.067846835 -0.030275267 0.045404956 -0.010548509 -0.02012199 0.0018106126 0.0049403836 -0.02328722
0.061191652 -0.0032465113 -0.018519944 0.038303345 -0.04560524 -0.050938178 0.017100705 0.0056997878
-0.024139037 0.030413903 0.047756314 0.014096053 0.008543504 0.040520467 -0.012360975 0.017565746
0.013401282 -0.034519404 -0.034030493 -0.020716095 0.023149712 -0.022458626 -0.054250572 0.014556906
0.001260228 -0.018059999 0.0032756813 0.01699717 -0.0076249703 0.053708933 -0.0048539555 -0.032538574
0.005562234 -0.019515349 -0.031363703 -0.008746165 -0.03046819 -0.011870977 -0.03659088 0.035941426
0.001282406 -0.018292306 0.045785457 -0.019666368 0.040552028 0.038931563 0.02291975 0.0028579705
0.024739148 -0.019008165 -0.0015725581 -0.023896126 -0.024462773 -0.03579481 -0.022624873 0.051384114
-0.0042090886 0.0389022 -0.012156289 -0.025330758 -0.026988925 0.016290328 0.03252915 -0.050676014
-0.018927898 0.019451031 0.0011010378 0.030882787 -0.04209497 -0.006533993 0.06172763 0.0388577
0.021198547 -0.041290816 -0.0065683513 -0.029685667 -0.015476312 -0.013556125 0.005836914 0.017885473
-0.0076569393 0.009803643 -0.0049327225 0.036905535 0.022644041 0.046118043 -0.0030710015 -0.03385538
0.06403772 -0.0014312655 -0.023378689 0.005619568 0.016533848 0.032425627 0.007853971 0.017547725
-0.0003174035 0.013494946 0.027880345 0.015777832 0.006908795 0.053124543 -0.020375345 0.018974002
0.048430476 -0.016084047 0.03029483 0.0279152 -0.021928543 -0.008065254 0.008070049 -0.047941066
-0.040784936 -0.0051704105 0.04918229 -0.032673843 0.038922593 -0.010855593 0.01526036 0.019260002
-0.01970655 -0.037573647 0.031439632 0.0011576466 -0.02960976 -0.009272893 -0.049548015 0.030981267
0.021529047 -0.02820402 0.016865639 0.0512034 -0.017209334 0.027495006 -0.010422179 0.007231505
-0.026291914 0.03959734 -0.024022821 -0.040352162 -0.0011621095 0.014101124 0.049184904 0.04157917
-0.023861427 -0.028321534 0.040803134 -0.014345101 -0.0371702 -0.023399116 -0.016413284 -0.04186525
0.015151507 -0.04811545 -0.015099223 0.038982898 -0.0049823397 0.026464643 0.044522762 -0.00821384
0.042968772 0.05428005 0.03228511 -0.002287376 -0.029481644 -0.01065704 -0.012906337 -0.0037474204
-0.0075942934 0.008811802 -0.028041411 -0.04610302 -0.039204787 0.06594293 0.0652992 0.025468355
-0.048710927 -0.06386467 0.016623555 0.041726198 -0.021954859 0.029728254 -0.0075297714 -0.012217775
0.014682903 -0.022945698 0.03849466 0.013034082 0.031870134 -0.023645343 0.035871163 0.052184086
0.030378187 0.050223075 -0.019008266 0.045300025 0.06320797 -0.028892275 0.040290266 -0.022642182
-0.022998996 0.01119884 0.031711258 0.00027116857 -0.036723167 0.04498159 -0.006142729 -0.018669112
-0.029504007 0.04140414 -0.024566302 -0.008631309 0.037946768 -0.060347594 -0.0060201525 0.027975993
00000000: d967 283d 9229 e53c 96f9 223c f9ba 6ebd
00000010: e83a bb3c 98ed 3bbb afa7 39bd c181 91ba
00000020: 9fce 763b 05c3 9dbb c78d 9e3c bc9f e6bb
00000030: e92e 48bd f5ed 693c d0e5 ccbc 86c3 743d
00000040: 0349 813c e1b3 403d 1654 123d 1cfd 413d
00000050: 7c24 2f3d 793d 7e3d 50ce f2ba f41c e33c
00000060: 4b7f cf3b 9ed3 4a3d 2e35 ad3c 4596 bbbc
00000070: db38 493b 983b 4b3d 8d63 b93b 3dea 04bd
00000080: 48f3 8a3d d603 f8bc 8cfa 393d a7d3 2cbc
00000090: dfd6 a4bc 1452 ed3a f1e2 a13b d7c4 bebc
000000a0: 19a4 7a3d 6cc3 54bb 23b7 97bc f8e3 1c3d
000000b0: 8fcc 3abd 8da4 50bd c716 8c3c 49c5 ba3b
000000c0: 3bbf c5bc 9426 f93c 209c 433d 22f3 663c
000000d0: 0efa 0b3c caf8 253d b085 4abc 0ae6 8f3c
000000e0: 0d91 5b3c 3864 0dbd 8f63 0bbd cdb4 a9bc
000000f0: 77a4 bd3c 27fb b7bc d935 5ebd 1780 6e3c
00000100: 3c2e a53a 90f2 93bc d0ac 563b a63d 8b3c
00000110: e3da f9bb e6fd 5b3d ee0d 9fbb 2b47 05bd
00000120: 6743 b63b a7de 9fbc 3a77 00bd 134c 0fbc
00000130: 6d98 f9bc 7c7e 42bc 52e0 15bd 5137 133d
00000140: 6816 a83a bfd9 95bc 8889 3b3d 5d1b a1bc
00000150: e219 263d b476 1f3d 33c2 bb3c ca4c 3b3b
00000160: c1a9 ca3c 03b7 9bbc 4b1e ceba cfc1 c3bc
00000170: 2766 c8bc 949d 12bd cc57 b9bc 2678 523d
00000180: 65ec 89bb ea57 1f3d 2c2b 47bc 7382 cfbc
00000190: e117 ddbc 4b73 853c 493d 053d a791 4fbd
000001a0: ae0e 9bbc c557 9f3c b350 903a e6fd fc3c
000001b0: c66b 2cbd 1b1b d6bb 1dd6 7c3d 4029 1f3d
000001c0: 93a8 ad3c 8f20 29bd 533b d7bb 5b2f f3bc
000001d0: 5b90 7dbc 821a 5ebc 9543 bf3b 8e84 923c
000001e0: 10e7 fabb 769f 203c ada2 a1bb 422a 173d
000001f0: ff7f b93c 46e6 3c3d db42 49bb f0ab 0abd
00000200: 3526 833d 4d99 bbba aa84 bfbc 5a24 b83b
00000210: fe71 873c bcd0 043d f1ad 003c 3fc0 8f3c
00000220: 2d69 a6b9 e819 5d3c 5265 e43c 8340 813c
00000230: 2c63 e23b 1f99 593d 32ea a6bc 5e6f 9b3c
00000240: 095f 463d b1c2 83bc dd2c f83c 6bae e43c
00000250: 7da3 b3bc 2124 04bc 3d38 043c da5d 44bd
00000260: 1b0e 27bd 8c6c a9bb 5e73 493d 02d5 05bd
00000270: 4c6d 1f3d a8db 31bc 9706 7a3c 27c7 9d3c
00000280: a16f a1bc d3e6 19bd d8c6 003d 2dbc 973a
00000290: 2b90 f2bc 55ed 17bc dcf2 4abd 6dcc fd3c
000002a0: af5d b03c 1e0c e7bc cf29 8a3c a8ba 513d
000002b0: 97fa 8cbc 353d e13c c9c1 2abc 43f6 ec3b
000002c0: 2462 d7bc d230 223d 82cb c4bc 4f48 25bd
000002d0: ed51 98ba 6708 673c 1c76 493d eb4e 2a3d
000002e0: 0a79 c3bc 9002 e8bc 3021 273d b707 6bbc
000002f0: c83f 18bd 81af bfbc 2775 86bc e57a 2bbd
00000300: 073e 783c b514 45bd bb62 77bc 88ac 1f3d
00000310: e542 a3bb 61cc d83c 805d 363d 5893 06bc
00000320: 0600 303d c254 5e3d 643d 043d cde7 15bb
00000330: 7d83 f1bc de9a 2ebc 1a75 53bc 4897 75bb
00000340: 8dd9 f8bb 605f 103c 1ab7 e5bc 85d6 3cbd
00000350: 3395 20bd 160d 873d 96bb 853d 03a3 d03c
00000360: 1c85 47bd 7bcb 82bd 1f2e 883c 17e9 2a3d
00000370: adda b3bc ab88 f33c 4dbc f6bb 102d 48bc
00000380: 8f90 703c 9ef8 bbbc 94ac 1d3d e78c 553c
00000390: 428a 023d e1b3 c1bc a4ed 123d fbbe 553d
000003a0: addb f83c b6b6 4d3d 39b7 9bbc 858c 393d
000003b0: 2e73 813d 7eaf ecbc 6807 253d 197c b9bc
000003c0: 6468 bcbc 577b 373c aae3 013d a12b 8e39
000003d0: 086b 16bd 9e3e 383d f248 c9bb f7ef 98bc
000003e0: 63b2 f1bc 6397 293d 453f c9bc 556a 0dbc
000003f0: 126e 1b3d 0a2f 77bd b344 c5bb e92d e53c

fc1.bias f4 [64]
-0.06556134 0.015731394 -0.043192226 0.03192491 -0.040507786 -0.031753704 0.025457652 0.037925277
0.032710344 -0.020371176 0.021159785 -0.02712482 0.057014193 0.013199646 -0.017775072 -0.023205759
0.038320903 -0.027743487 -0.0046151956 0.040865574 0.038289435 0.011333147 -0.0021403474 0.05780226
0.0053923167 0.0040377686 0.0033299185 -0.0021381206 -0.018597199 0.030696897 0.025025299 -0.07033554
0.011913651 -0.019580068 0.002046612 0.02259299 0.067788355 0.05030785 0.036363408 0.006470753
0.054681033 0.013035719 0.023466902 0.012441185 0.033237044 0.0533215 -0.009344376 -0.042453893
-0.0012752609 0.023366801 0.04233461 0.014893147 0.00026213753 -0.049892608 0.01491346 0.063188635
0.018877776 0.0093397545 0.055563174 0.025545737 0.020783242 -0.039605167 -0.053150307 -0.05287467
00000000: 0645 86bd 20df 803c 55ea 30bd b2c3 023d
00000010: 7eeb 25bd 2c10 02bd 918c d03c 8957 1b3d
00000020: 48fb 053d 74e1 a6bc 4957 ad3c df34 debc
00000030: b787 693d 5443 583c 079d 91bc 011a bebc
00000040: 61f6 1c3d 4f46 e3bc 113b 97bb a962 273d
00000050: 62d5 1c3d aaae 393c 1245 0cbb 10c2 6c3d
00000060: 08b2 b03b 424f 843b c33a 5a3b b61f 0cbb
00000070: 2759 98bc 0f78 fb3c db01 cd3c 140c 90bd
00000080: 7931 433c 6166 a0bc 7420 063b ef14 b93c
00000090: 9fd4 8a3d 9b0f 4e3d ccf1 143d 9c08 d43b
000000a0: 38f9 5f3d c593 553c a93d c03c 1dd6 4b3c
000000b0: 9123 083d a567 5a3d 2719 19bc 22e4 2dbd
000000c0: a826 a7ba bc6b bf3c 0e67 2d3d 6302 743c
000000d0: 816f 8939 315c 4cbd 9657 743c 0b69 813d
000000e0: 91a5 9a3c c505 193c 3696 633d 4b45 d13c
000000f0: 9e41 aa3c 0739 22bd 23b4 59bd 1c93 58bd

fc2.weight f4 [64, 64]
-0.04054073 0.07673716 -0.08895626 -0.024775237 0.10123473 0.07968981 -0.05400978 0.08200146
-0.010025737 -0.0879304 0.0050090738 -0.013939734 0.09359241 0.13761164 -0.062075432 -0.033305198
0.0415693 0.047144886 -0.02647328 -0.07464679 -0.037734494 -0.026132705 0.017642308 0.12686408
0.051537346 0.12514824 0.1151995 -0.11141798 0.06976833 0.059914697 0.09867662 -0.047079112
0.023137437 -0.0021027722 0.055053283 -0.08453598 -0.052776672 -0.067694426 -0.056375176 -0.021928104
-0.049304582 -0.05119977 0.08868723 0.12865907 0.0112804 -0.0985666 0.0710077 0.13433906
0.06315974 0.016094392 -0.021295093 -0.11108985 0.13161525 -0.0016498984 -0.019912643 0.066662595
-0.009550259 0.0910693 0.11522733 0.10111198 0.07900194 -0.08290867 0.13636959 0.065876804
-0.010539574 0.10598647 -0.11387419 0.10262149 -0.11922189 -0.019862304 -0.06654535 -0.045047473
-0.09707573 -0.11914151 0.055072207 0.12954052 -0.014418128 -0.031062482 -0.040052753 0.12339023
0.102312215 -0.07702961 0.108916126 0.09063342 -0.08041082 0.018042529 0.09009465 0.12986593
-0.08185824 -0.101117164 -0.09024865 -0.054229047 -0.015053253 0.013903693 0.12667008 -0.08835011
0.0172639 0.11381093 -0.03268378 0.07406793 0.08645688 0.0046067378 -0.106418826 -0.06836432
0.057579167 0.041286554 0.014689967 -0.032081377 -0.119671635 -0.08615861 0.0973612 0.04593166
0.020583596 -0.024519127 0.11076773 0.08885512 0.078719474 0.032028344 0.057750557 0.13503356
-0.005020694 -0.0006956708 -0.03461165 0.106832795 -0.08594154 -0.074411415 0.066029616 0.06937603
0.02463763 -0.015189803 -0.067939855 -0.01534954 0.077052705 0.07015977 0.026608435 0.13537341
-0.029346114 0.10248122 0.02908821 -0.040087223 0.104799934 0.121339425 0.023560304 0.010716825
0.042506583 -0.074687965 0.14252362 0.10884359 0.1302552 0.03797802 -0.004110531 0.0068993736
0.06949153 -0.064688005 -0.02802911 -0.09623229 -0.064731985 0.15288162 0.080355965 -0.07401248
0.04840585 -0.06314484 -0.09417581 0.033082265 0.109678805 0.017590672 -0.10273369 0.116033666
0.13668486 0.11118211 0.053449515 -0.0073413127 0.06917641 0.026792465 0.15605868 0.044835303
-0.0076481607 0.104987845 0.12932393 -0.048569594 -0.022677096 0.111522466 0.14104174 -0.049999878
-0.05997997 0.090301506 -0.03695964 0.05107953 0.11329633 0.06454144 -0.012145865 0.040864233
-0.038226936 0.14207685 -0.02334022 0.027777458 0.017142305 0.023646867 -0.036644932 0.15086901
-0.0784174 -0.023580333 0.021842496 0.0777988 0.09124399 0.16890852 0.13047443 0.062660694
0.121958695 -0.063314505 0.10978896 0.094840795 -0.074550614 -0.0424465 0.15193993 0.11187721
-0.12447258 0.028829854 0.0008215307 -0.03273392 0.14734308 0.11887723 0.06540054 -0.09265665
0.019601906 -0.04223994 -0.010987049 -0.040763963 0.036908485 0.07989613 0.120570324 0.12710263
-0.042531554 0.0905938 0.1254769 -0.0734884 -0.011855925 0.052508745 -0.021596108 -0.040754065
-0.040328555 -0.08708611 0.168061 -0.024400558 0.0818749 0.10592506 0.13951148 -0.06487529
0.10260162 -0.086973555 0.115105234 -0.05513986 0.06551596 -0.095055245 -0.057334453 0.025301015
00000000: 090e 26bd 5f28 9d3d b32e b6bd 70f5 cabc
00000010: 2754 cf3d 6934 a33d 5c39 5dbd 62f0 a73d
00000020: fd42 24bc db14 b4bd 2823 a43b 7b63 64bc
00000030: 61ad bf3d 11ea 0c3e cf42 7ebd 086b 08bd
00000040: 9244 2a3d ff1a 413d 7ede d8bc 6be0 98bd
00000050: 7c8f 1abd 4114 d6bc 9a86 903c a8e8 013e
00000060: d318 533d dc26 003e b7ed eb3d 1c2f e4bd
00000070: b3e2 8e3d 1d69 753d f816 ca3d 07d6 40bd
00000080: b98a bd3c aace 09bb 8d7f 613d 3321 adbd
00000090: 5a2c 58bd 60a3 8abd a8e9 66bd 91a2 b3bc
000000a0: 9af3 49bd dab6 51bd a7a1 b53d 34bf 033e
000000b0: 6dd1 383c 49dd c9bd 7c6c 913d 2e90 093e
000000c0: e559 813d 63d8 833c 0c73 aebc 1383 e3bd
000000d0: 26c6 063e 6741 d8ba d71f a3bc 6686 883d
000000e0: b178 1cbc 8b82 ba3d 4efc eb3d cc13 cf3d
000000f0: c5cb a13d 05cc a9bd 78a4 0b3e 6bea 863d
00000100: 2dae 2cbc 6f0f d93d df36 e9bd 372b d23d
00000110: 9b2a f4bd 45b6 a2bc ee48 88bd b383 38bd
00000120: a4cf c6bd 7700 f4bd 6593 613d 45a6 043e
00000130: 033a 6cbc bf76 febc 5b0e 24bd 04b4 fc3d
00000140: 1189 d13d b3c1 9dbd 6b0f df3d 049e b93d
00000150: 6eae a4bd edcd 933c 8b83 b83d 93fb 043e
00000160: 4ba5 a7bd 8416 cfbd 49d4 b8bd 471f 5ebd
00000170: eba1 76bc 51cc 633c cdb5 013e e7f0 b4bd
00000180: 066d 8d3c b415 e93d 6ddf 05bd edb0 973d
00000190: 4e10 b13d 1ef4 963b 1df2 d9bd 9802 8cbd
000001a0: 22d8 6b3d 171c 293d 30ae 703c c367 03bd
000001b0: 6716 f5bd ed73 b0bd 4f65 c73d d622 3c3d
000001c0: ee9e a83c 56dc c8bc 31da e23d acf9 b53d
000001d0: ad37 a13d 2730 033d d98b 6c3d 3d46 0a3e
000001e0: a284 a4bb ad5d 36ba f2c4 0dbd 27cb da3d
000001f0: 1e02 b0bd 0365 98bd 893a 873d 0515 8e3d
00000200: dbd4 c93c a7de 78bc 0d24 8bbd a37c 7bbc
00000210: cfcd 9d3d edaf 8f3d eff9 d93c 549f 0a3e
00000220: 4367 f0bc ade1 d13d 664a ee3c 8032 24bd
00000230: 59a1 d63d ce80 f83d 8a01 c13c 9f95 2f3c
00000240: 621b 2e3d 01f6 98bd b6f1 113e 63e9 de3d
00000250: 9f61 053e d78e 1b3d a2b1 86bb 2414 e23b
00000260: 9351 8e3d 257b 84bd 4e9d e5bc 6f15 c5bd
00000270: 3492 84bd 008d 1c3e ab91 a43d db93 97bd
00000280: 3645 463d 1552 81bd 3fdf c0bd 4581 073d
00000290: 489f e03d 501a 903c 0a66 d2bd 0fa3 ed3d
000002a0: 1ef7 0b3e 72b3 e33d e1ed 5a3d 658f f0bb
000002b0: 5dac 8d3d df7b db3c d9cd 1f3e 39a5 373d
000002c0: 6c9d fabb de03 d73d 7e6d 043e e9f0 46bd
000002d0: 51c5 b9bc e465 e43d 3f6d 103e accc 4cbd
000002e0: 8fad 75bd ffef b83d fe62 17bd c538 513d
000002f0: e807 e83d 4d2e 843d 73ff 46bc 4161 273d
00000300: d993 1cbd 987c 113e fd33 bfbc 8d8d e33c
00000310: 056e 8c3c 13b7 c13c ff18 16bd 687d 1a3e
00000320: 4d99 a0bd 8b2b c1bc 09ef b23c fa54 9f3d
00000330: 21de ba3d 5bf6 2c3e 179b 053e 4054 803d
00000340: 7bc5 f93d 09ab 81bd 09d9 e03d e43b c23d
00000350: fead 98bd 62dc 2dbd 2496 1b3e e11f e53d
00000360: 7beb febd 962c ec3c fe5b 573a 0114 06bd
00000370: 1be1 163e e875 f33d b8f0 853d c5c2 bdbd
00000380: 2d94 a03c ca03 2dbd 0603 34bc 1df8 26bd
00000390: 5a2d 173d 95a0 a33d 93ed f63d 3127 023e
000003a0: 9135 2ebd 3e89 b93d 047d 003e 1681 96bd
000003b0: 5b3f 42bc 6913 573d 52ea b0bc bced 26bd
000003c0: 8e2f 25bd 345a b2bd 2f18 2c3e aee3 c7bc
000003d0: 07ae a73d 3def d83d 19dc 0e3e 56dd 84bd
000003e0: cc20 d23d 311f b2bd 4bbc eb3d 55da 61bd
000003f0: 3b2d 863d 53ac c2bd 88d7 6abd 1344 cf3c

fc2.bias f4 [64]
0.08613756 0.030666595 0.112772815 -0.016912265 -0.082288995 0.015235326 -0.035001 -0.01894317
-0.06432362 0.15642482 0.03253333 0.03916225 -0.075435415 -0.10947235 -0.0002719075 -0.005081831
0.10850693 0.05971008 0.1132515 0.030488813 0.025108159 0.12797047 -0.00026834584 0.004484951
0.043089934 -0.1300738 -0.07991465 0.09499144 0.07904527 -0.128304 -0.08327923 0.074094094
0.06333724 0.09140952 0.085478984 0.030586684 0.1032241 -0.042317443 -0.005159711 -0.007830786
0.07178117 -0.1473386 -0.06937497 -0.14407006 0.058593 0.09573773 -0.07204504 0.100280754
0.051172398 -0.1159874 0.11674669 -0.13101275 -0.043982346 0.04226764 -0.06334434 0.11443996
-0.06256075 0.09255655 -0.05927243 0.007826226 0.10895567 -0.011524457 -0.05901244 -0.035930622
00000000: e468 b03d 8338 fb3c 6ff5 e63d 978b 8abc
00000010: 2287 a8bd 979d 793c 355d 0fbd b52e 9bbc
00000020: 1abc 83bd d42d 203e ab41 053d 9868 203d
00000030: e27d 9abd 0a33 e0bd cf8e 8eb9 7d85 a6bb
00000040: e238 de3d 8f92 743d 67f0 e73d adc3 f93c
00000050: a0af cd3c b10a 033e c5b0 8cb9 7ff6 923b
00000060: 127f 303d 1132 05be 4baa a3bd df8a c23d
00000070: 7de2 a13d 2062 03be 4d8e aabd a5be 973d
00000080: f4b6 813d ea34 bb3d 9b0f af3d ed90 fa3c
00000090: 2867 d33d 0e55 2dbd cb12 a9bb b24c 00bc
000000a0: 0202 933d eedf 16be 7714 8ebd 1a87 13be
000000b0: 37ff 6f3d 2512 c43d 5a8c 93bd ff5f cd3d
000000c0: 269a 513d cd8a edbd e318 ef3d 3528 06be
000000d0: d526 34bd d520 2d3d adba 81bd 7f5f ea3d
000000e0: da1f 80bd 4a8e bd3d a6c7 72bd 9239 003c
000000f0: 2624 df3d 13d1 3cbc 07b7 71bd fd2b 13bd

fc_out.weight f4 [1, 64]
-0.10285776 -0.1493586 -0.11274497 -0.15625659 -0.14519161 0.1183733 0.124712415 0.10671141
-0.13774809 -0.0963459 0.11016285 0.03600619 -0.10213541 0.00050520414 0.09543871 0.034593165
-0.11984994 -0.05707554 -0.0635785 -0.04080743 0.024349025 -0.14151819 0.04884061 0.031136364
0.03833636 0.070707284 0.006692534 0.11742856 0.094906844 0.03856908 -0.12793511 -0.035176832
-0.06869511 0.030650895 -0.09681003 -0.119788036 -0.060489833 -0.10810163 0.07762132 0.09613662
0.014277125 0.11398121 -0.04467972 0.036415637 -0.10446508 -0.07096477 -0.01609122 0.085661404
0.10640559 0.06913195 -0.09685456 0.10551038 0.03460117 0.08544108 0.1039679 0.10452524
-0.13850415 0.10106123 0.04859187 0.044590782 0.0046395124 -0.017810868 -0.12032063 0.08910332
00000000: 17a7 d2bd 76f1 18be d6e6 e6bd ba01 20be
00000010: 1cad 14be b36d f23d 3969 ff3d 838b da3d
00000020: d60d 0dbe 0051 c5bd 0f9d e13d 3a7b 133d
00000030: 5f2c d1bd ad6f 043a 5f75 c33d 90b1 0d3d
00000040: e373 f5bd 0bc8 69bd 7235 82bd b125 27bd
00000050: 9b77 c73c 25ea 10be 170d 483d b011 ff3c
00000060: 9606 1d3d fbce 903d 0b4d db3b 637e f03d
00000070: 855e c23d 9dfa 1d3d 6c01 03be 9515 10bd
00000080: 06b0 8cbd 9617 fb3c 5644 c6bd 6e53 f5bd
00000090: 30c4 77bd 6364 ddbd edf7 9e3d 47e3 c43d
000000a0: 9aea 693c fb6e e93d 1502 37bd 9028 153d
000000b0: caf1 d5bd fa55 91bd bcd1 83bc 3f6f af3d
000000c0: 2deb d93d 0d95 8d3d af5b c6bd d315 d83d
000000d0: f5b9 0d3d bcfb ae3d 1fed d43d 5411 d63d
000000e0: 08d4 0dbe 31f9 ce3d 4508 473d d3a4 363d
000000f0: 0d07 983b 19e8 91bc aa6a f6bd cd7b b63d
