data/trained_models/base_cp_b_snn.pth (torch, 118756 bytes, 5 tensors)

fc1.weight f4 [64, 374]
00000000: b144 883c d26e 323c e660 bfbc 85a0 093d
00000010: c28a 663c c4e8 0b3d dbb4 38bd 7159 e0bb
00000020: ce67 da3c e9bc 333d 2a4b 1cbd 43e6 9fbc
00000030: bc44 debc bb22 f0bc 075a dbbc 6122 273c
00000040: 3a01 96bb 8cae fbbb d25f 2bbd 7c7e 2f3d
00000050: 5cb3 aebc 0f88 653d 3052 8f3c 96c2 493d
00000060: 56a6 6f3d ed6f 4c3d bb5c f23c 7b55 3e3d
00000070: a0be 06bd ca95 40bd f354 2a3d f442 a73c
00000080: 3843 1e3c a4a2 1039 99a3 933c b41f 9c3a
00000090: 8c71 14bd 5d2f 003c 4682 49bb 9377 673d
000000a0: 8664 193b ca7f 433d 5b7d 01bd 6e1b 433d
000000b0: dad2 94ba 3414 06bd 5ad5 de3c 9ca9 7b3c
000000c0: df5c 123d 229f 1d3d 2afd c43c 40e6 cebb
000000d0: 55cf ac3c c83b 4f3d 8ad6 083d 1f03 783d
000000e0: ff79 693d 5014 5b3d 222d 99bb 069d dd3c
000000f0: 929a 94bb 0287 ff3c 2fb9 73bc 387e 6abc
00000100: 4abb 903c 02bb 31bc 787c 4abc e103 643d
00000110: b2fb 173c c97b 4bbc 62cd 4a3d f9ab c63c
00000120: cca4 11bd 3c44 43bd 4852 0c3d 54fb 283d
00000130: 4252 69bd 4369 fbbc 7a89 2abb f03f c53b
00000140: 0547 b13b 2854 373d 20c9 24bd e326 b6bb
00000150: af8c e8bc 2845 e23c 4fdb de3c 9236 653d
00000160: 64d2 b43c 9ae7 093a a632 ca3c 05be b9bc
00000170: 5aaa 073a 4b20 1cbd 085c 77bc d34f 373d
00000180: 04fd 463c 8ee0 023c 1524 693d 8f03 f13c
00000190: 6326 2c3d 72d5 82bc fb90 143d 9afa 00ba
000001a0: 2554 553c c06b 11b7 472b a9bc 3d87 b3bc
000001b0: d921 223d 9868 a13c 3682 66bb 9ed1 d8bc
000001c0: 3aaa 9c3a 1469 bf3c b5e0 093d 5828 d43c
000001d0: 6d18 3f3d 31f4 7d3d e588 3f3d 7a41 103d
000001e0: 1629 303d e481 21bd baa3 b8ba 8772 50bd
000001f0: 6637 03bd d89e 48bb 0835 abbc 82e1 25bd
00000200: bc72 a1bc 8f6d f9bc d356 0b3d 9cd4 5f3d
00000210: 2107 683b 6692 11bd 747e 503c 384f 683b
00000220: 3075 4fbd 6d77 393d 97b1 723d 1eae 08bd
00000230: e277 193d 71ae f8bc bd3c 3dbc 16c8 103c
00000240: 4ec7 733b a43e 2d3d 2049 a53c 7e7f 793d
00000250: 2ec8 883c 17f1 a9bc c3fd 403d b7c7 3c3d
00000260: 1dff 4a3d 7f4c 50bb 368f 303d 6a9b f63c
00000270: 4162 e33c f4f7 d93c 2cbd 8fbc c88f ba3c
00000280: 1d68 1e3d 2705 afbc 3a8d 0abc 9b88 0d3d
00000290: ae45 2b3d 694d 493b 4881 e33b baee 35bd
000002a0: 94de d5bc 3b7e 3e3d feb1 03bc fcf6 6abc
000002b0: ccac 413c 8683 98bc bef5 27bc 6a22 e2bc
000002c0: 8ce8 08bd 5903 c33b b4e2 433c 6aba f33c
000002d0: aa9e e8bc 60f8 45bd 0822 aebc 7ca8 193d
000002e0: 6c59 1fbd 8c70 6d3c 9796 23bd 0852 b7bc
000002f0: 585e cb3b 2a0b 39bd 9e83 33bd 6da4 053d
00000300: cec7 10bd 10c9 8b3c 3caf 11bd 7af8 2fbc
00000310: ec32 be3c 06fb 05bc edb7 3abd 5406 91bc
00000320: 6e7c 383d a434 4fbc eabe 76bd 97ff 8bbb
00000330: c3b2 803c bcf2 c23b 5c1d 5fbd e21d 203c
00000340: a9d4 b23c 21bf 0dbc 2847 a2bb 9ac0 333a
00000350: e131 01bd 9554 373d dfc9 ff3c 2475 3abd
00000360: 963c a1bc babf a6bc ff3b efbc a6fc 083d
00000370: 49c6 cabc 2ed6 343d cf84 a2bb 9249 033d
00000380: 4c3a a93c dace 2039 40cb cd3b d908 533d
00000390: 8c35 2bbd b58f 453d cf83 ff3b d511 8fbc
000003a0: 030d 92bc 2dea 26bc ea4f 3dbc 700d 1b3d
000003b0: f57f ebbc 79bb 053d 73ae 523d 6af2 02bc
000003c0: a43c aeba 5f9b 49bb 7823 68bd dbc1 bcbc
000003d0: fa71 633d dd38 013d 352b f43c cfed bfbc
000003e0: 2566 4f3d c11d b6bb c5a0 bbbc 5289 893c
000003f0: 689b da3b 6e81 63bc e06e 9cbc 1485 09bd
0.016634317 0.010890679 -0.023361634 0.03360035 0.014071168 0.03415753 -0.045094352 -0.0068465997
0.026660826 0.04388133 -0.03815762 -0.019518977 -0.027132384 -0.029313436 -0.026776327 0.010201068
-0.004577783 -0.0076807197 -0.04183943 0.042845234 -0.02132576 0.05603796 0.017495245 0.049257837
0.05850824 0.04991143 0.029585233 0.04646824 -0.032896638 -0.04701785 0.04158492 0.020417668
0.009659581 0.00013793499 0.018022345 0.0011911304 -0.0362411 0.007823792 -0.0030747815 0.05651052
0.0023405864 0.04772929 -0.03161369 0.04763358 -0.0011354343 -0.03273411 0.027201343 0.015360262
0.0357331 0.03848184 0.0240465 -0.006314069 0.021094957 0.05059412 0.033407725 0.06054985
0.05700111 0.05348617 -0.0046745697 0.027052414 -0.004535028 0.031192306 -0.014875694 -0.014312319
0.017667431 -0.010847809 -0.012358777 0.05566776 0.009276317 -0.012419649 0.049512275 0.024251925
-0.035557553 -0.047672495 0.034258157 0.04125531 -0.056963213 -0.030689841 -0.0026021884 0.006019585
0.0054100775 0.044757992 -0.04023087 -0.005558835 -0.028387396 0.027620867 0.027204184 0.055960245
0.022072978 0.00052606466 0.024682354 -0.022673616 0.00051752257 -0.038116734 -0.015097626 0.04475386
0.012145285 0.007988108 0.056919176 0.029420642 0.042028796 -0.01597092 0.036271077 -0.0004920155
0.01302055 -8.667761e-06 -0.020650519 -0.021915073 0.03958306 0.019703194 -0.0035172827 -0.02646714
0.0011952587 0.023365535 0.033661563 0.025898144 0.046654154 0.062000457 0.046761412 0.035218693
0.043007933 -0.039430514 -0.001408688 -0.05089047 -0.032035254 -0.0030612256 -0.02089931 -0.040498264
-0.01970803 -0.03044775 0.03401835 0.05464612 0.003540464 -0.035540007 0.012725461 0.0035447609
-0.050648868 0.04527991 0.059251394 -0.033369176 0.037467845 -0.030356618 -0.011550126 0.008836767
0.0037197652 0.042296067 0.02017647 0.0609126 0.016697016 -0.020744843 0.047117006 0.0460889
0.0495597 -0.0031783876 0.043105327 0.030103404 0.027756812 0.026607491 -0.017546259 0.022773638
0.03867351 -0.021364762 -0.008456523 0.034554105 0.0418145 0.0030716306 0.0069429018 -0.04441712
-0.02610711 0.0465071 -0.008038042 -0.014341112 0.011820983 -0.018617403 -0.010251461 -0.0276043
-0.0334249 0.005951327 0.011955906 0.029751975 -0.02839597 -0.048332572 -0.021256462 0.037514195
-0.03890364 0.014492165 -0.039938536 -0.022377983 0.006206315 -0.045176663 -0.04382669 0.03262751
-0.0353468 0.017063648 -0.035567507 -0.010740394 0.02321764 -0.008177524 -0.04558556 -0.017703213
0.04504054 -0.012646828 -0.060240664 -0.004272412 0.01571024 0.0059493463 -0.05447136 0.00977275
0.02182992 -0.008651526 -0.00495233 0.0006857008 -0.03154171 0.044758398 0.03122419 -0.04552187
-0.01968221 -0.020355094 -0.029203413 0.03344407 -0.024752753 0.04414957 -0.0049596797 0.032052584
0.02065768 0.00015335847 0.006280333 0.05152211 -0.041799113 0.048232753 0.007797695 -0.017464558
-0.01782847 -0.010187668 -0.0115546975 0.037854612 -0.028747538 0.03264949 0.0514359 -0.007992366
-0.0013293219 -0.0030762774 -0.05667445 -0.023041656 0.05552862 0.03154837 0.029805759 -0.023428826
0.050634522 -0.005557746 -0.02290381 0.016789112 0.006671358 -0.013885839 -0.019095838 -0.03357418

fc1.bias f4 [64]
00000000: 6b1e 69bd 253a 2c3a 7516 9abc 4d82 893d
00000010: bf1c 44bd 0e49 15bd 2883 523d 0251 163c
00000020: 3142 7cbc f279 e2bc bdb4 8b3d 16fc 8d3c
00000030: 1ae4 c53c cd23 3c3d 444d 873d 40e2 61bc
00000040: 8623 5a3d 8e01 2d3d f335 2cbc 36f3 53bd
00000050: 1366 a93c 3c98 0dbd 8187 e63a 876d 4f3d
00000060: 3b4d cfbc 637c 1c3d 23cc c63c 6f36 74bd
00000070: 4d37 e8bc 0b26 8bbd 7e4c 40bd 81e1 0bbd
00000080: 3ddc 7b3b abd1 08bd 99a3 8f3d 4df8 23bd
00000090: ee05 033d 37a6 91bb a9b3 91bc 9a25 bebc
000000a0: b98a a03c e12e 803d afa4 9f3c 9d82 a83b
000000b0: 6705 4fbc fa6f 8fbc afb7 d8bc fddb 6b3d
000000c0: 376d 413d d407 4abd 17a7 af3a 0ba5 0abd
000000d0: 56cb 66bc d0ad 663a 2008 6739 eae4 293c
000000e0: e8bf 33bd d4cb 8d3c e881 6ebc 0cb8 02bc
000000f0: 6545 09bd 061c aa3c 061f 823b fba6 b93c
-0.056913774 0.00065699435 -0.018809536 0.06714306 -0.047878977 -0.036446624 0.05139461 0.009174587
-0.015396641 -0.027646039 0.068215825 0.017332118 0.024156619 0.04593258 0.06606534 -0.013786852
0.053256534 0.04223781 -0.010510909 -0.051745616 0.020678556 -0.03456901 0.0017587991 0.050641563
-0.025305381 0.038204562 0.024267262 -0.059622224 -0.028346682 -0.067943655 -0.04694795 -0.034150604
0.0038430833 -0.03340308 0.07013626 -0.04003172 0.031988077 -0.004444863 -0.017785864 -0.02321129
0.019597398 0.062589414 0.019487707 0.0051425234 -0.012635565 -0.01750945 -0.026454775 0.057582844
0.047223296 -0.04932387 0.0013401237 -0.033848803 -0.014086565 0.0008799704 0.00022032904 0.010369519
-0.043884188 0.017309107 -0.014557339 -0.0079784505 -0.033513445 0.020765316 0.0039709834 0.02266263

fc2.weight f4 [64, 64]
00000000: cc85 ecbd 03a5 2b3d 5462 00bc 506c a3bd
00000010: 99e5 8e3d 030f 063d eba4 0b3b fcdd b13d
00000020: f69c 103e 5837 0cbe 5549 233d c73c b2bd
00000030: 2d02 05be 551f 0cbd 8558 b33c b37b 7f3d
00000040: eaa6 693d f058 a0bb 323d 0dbd a97d 33bd
00000050: 922a 65bc 590a 293d a02c 913d 2fc9 a5bb
00000060: 1133 e1bb 4935 683d bf2f 03bc fabc 22bc
00000070: e7ee 57bd 164c 89bd 331f 8e3d c34b 49ba
00000080: 442a a03d abf2 fcbd 6ab3 86bd 8020 0bbd
00000090: d798 b33d f487 b0bd 30f4 67bd 7d0b c1bd
000000a0: 4230 aebd 8773 ecbd b28a 883d 1871 dd3c
000000b0: 9443 de3d 3905 d4bd 0e47 bf3d 53d1 c4bd
000000c0: dbdf 82bc b2c8 eabd ad5c 963c 7aa5 a43d
000000d0: d07e dc3d 2a6f 18bd f2f5 243d 4f3b f73d
000000e0: 1f95 163d e744 c5bc 5403 083e 97ab a9bd
000000f0: ae6d e13d d80b f3bc 9ffa f5bd 86f7 f0bd
00000100: 5b54 d03d 516a 8dbd fe86 193e 8eb8 d03c
00000110: 6a9f 933c 5d8c 84bc be5d f3bc d64b cd3d
00000120: b673 1ebd f133 75bc 1044 45bc cbaa 8fbd
00000130: a372 eb3b 19e2 d3bc 4482 003e b2b1 c8bd
00000140: 33c3 953d cb8f 82bd 2d85 023e fbb5 4ebd
00000150: 3b2b bbbd e135 013e d75a d23d 511b 373d
00000160: 2c0f 65bd c4f6 fa3c e303 a63d 9899 41bd
00000170: a1d9 b1bd 3a6b 05bd 5772 393d e035 913d
00000180: 2a23 5abd 9b7f a4bd 9a2f c33d 2edf 70bc
00000190: d5d8 c4bd 44f1 6fbc 7b57 e93d 1cef c73d
000001a0: a307 2cbd 3e7a cf3d f364 aa3d 3cac 7f3d
000001b0: c81b 64bb 50d5 003e e49e 303d 797d 40bd
000001c0: f629 c03d 046e 823d 76ac e7bd 772b 6e3d
000001d0: 7929 3e3c 514f 5d3d d28a 4dbd 009e bc3c
000001e0: 340b 42bd db1e 23be 9df0 d6bd 8664 e83d
000001f0: 5d29 a4bc e4be 8cbd a376 853b 934a e6bd
00000200: d2ef adbd 4b6a cc3d ea54 5fbd d2f5 283d
00000210: af69 d1bd fa60 753d 83b5 9f3d a963 a0bd
00000220: c19f 6d3d 6ce5 aa3d 7d5b aebc c648 463d
00000230: e512 82bd 126c 8f3d 350d 12be 85d7 86bc
00000240: 06b2 ab3d 95bc 9f3d e176 e4bd b57e e73d
00000250: 384b 673d db84 893d 3c7e 48bc 31b5 a6bc
00000260: c09d 86bd 26e7 873d 02f0 10be 1a11 98bc
00000270: d03f 0f3c 5224 2cbd 5566 2f3d b56d ae3c
00000280: 6914 bcbd 4829 a0bd 9163 c33d 3b1d e43d
00000290: 23c7 b1bd a0bc d43b bb43 3c3d 2fb1 63bd
000002a0: 79db f2bd f045 2ebd 9dfd 85bd 805b 64bd
000002b0: 6b54 83bd da73 b53b 0aa9 1bbc 26dc 8d3d
000002c0: d3f5 883d c6bd 083d 426d 133c f5c7 53bd
000002d0: 1e7d 3b3d a915 4a3d 92ed 843d 10ef 05bd
000002e0: 0403 80bd 49d7 0b3e 45f5 6fbd 7446 a8bd
000002f0: 35b5 193a 150c 013c b598 f5bc afce ad3c
00000300: b4ad f1bc 3091 213c 1f5f c13d db89 fe3d
00000310: fb9b 24bb 1130 ee3d 465d fc3c a8cd b8bd
00000320: ed0a bf3d 7c14 8d3d 7498 d9bc cbd2 803b
00000330: 2ed0 d93c 2950 bd3d fb84 09bc 0040 96bc
00000340: 9538 453d 3d8d a23c 77ef 6abd c5f4 a93d
00000350: a14a a0bd b645 e23c 1551 5dbd 667d c5bd
00000360: 67ac 953d bfa4 bebc 4458 32bd 4824 98bd
00000370: be34 bb3d 78c2 65bc a6d0 68bd 5d2d be3d
00000380: edff 053e 6587 073e a99d 9abd edea bc3d
00000390: 21ce e43d a9f8 dbbc 50b2 b63d c20b f5bb
000003a0: aeb7 203b ad35 9d3c 82a3 a3bd 1ee3 a2bd
000003b0: 08e8 673d d741 4bbc 11be e63d 641e 40bd
000003c0: eca5 9abd 029f 933d 0180 793c a8e1 a53d
000003d0: 7d3f b2bc 3f4b 1e39 5006 cfbc a829 0cbd
000003e0: 8638 2c3d d6d3 5b3d 9179 10be e7e9 243d
000003f0: 78fd 9dbd 2b10 2e3c 3778 773d 319e 3d3b
-0.11548957 0.041905414 -0.007835943 -0.07979643 0.06977386 0.03272916 0.0021308016 0.08684918
0.14122376 -0.13692987 0.039864857 -0.087029986 -0.12989111 -0.034209568 0.021892795 0.06237383
0.057043947 -0.0048934147 -0.03448219 -0.04382101 -0.0139872 0.041269634 0.0708859 -0.0050593833
-0.0068725427 0.05669144 -0.008006989 -0.009932751 -0.05271807 -0.06703965 0.069395445 -0.0007678831
0.078205615 -0.12350973 -0.06577189 -0.03396654 0.08769386 -0.08619681 -0.05662936 -0.09426019
-0.08505298 -0.115454726 0.06667079 0.027031466 0.10852733 -0.10352559 0.093397245 -0.09610238
-0.015975883 -0.11464061 0.018354738 0.08039375 0.10766375 -0.03721539 0.040273614 0.12071859
0.036763307 -0.024080707 0.1328252 -0.08284681 0.11007248 -0.029668733 -0.12010693 -0.11765961
0.101723395 -0.06905044 0.14992902 0.025478628 0.01802035 -0.016180212 -0.029707786 0.1002423
-0.03868457 -0.014965997 -0.012040153 -0.07014998 0.0071852966 -0.025864648 0.12549692 -0.09799518
0.07312622 -0.063750826 0.12746115 -0.05046652 -0.09139105 0.1261821 0.102712326 0.044703785
-0.055922672 0.030635245 0.0810621 -0.04726562 -0.086840875 -0.032572962 0.04527506 0.07090354
-0.05325619 -0.08032151 0.09530564 -0.014701648 -0.0961167 -0.014644925 0.11393639 0.09762403
-0.04199947 0.10130738 0.08320036 0.062420115 -0.0034806598 0.12581372 0.04312028 -0.04699466
0.093830034 0.0636864 -0.11312191 0.05814692 0.011606568 0.05403072 -0.050181217 0.023024559
-0.047373965 -0.15929739 -0.10495112 0.11347298 -0.020039255 -0.06872347 0.0040729805 -0.11244693
-0.08493008 0.09981211 -0.05452434 0.041250058 -0.10225236 0.059906937 0.077982925 -0.07831509
0.05801368 0.0834454 -0.02128386 0.048409246 -0.0635126 0.07003035 -0.1426285 -0.01646019
0.08383565 0.07799641 -0.11155487 0.11303464 0.05646822 0.06714793 -0.012237128 -0.02035007
-0.06573057 0.06635885 -0.14154056 -0.018562842 0.008743241 -0.042026825 0.0428222 0.021292547
-0.091835804 -0.07820374 0.09540475 0.11138388 -0.086805604 0.0064922124 0.04596303 -0.055588897
-0.11858267 -0.042547166 -0.065425135 -0.055751324 -0.06412586 0.005537492 -0.009500751 0.069267556
0.06687512 0.033384107 0.008998217 -0.051704366 0.045773618 0.049337063 0.064906254 -0.03269869
-0.06250575 0.13656344 -0.058583517 -0.08216563 0.0005863489 0.007876416 -0.029980043 0.021216718
-0.029501773 0.009861276 0.09441971 0.124286376 -0.0025117386 0.11630262 0.030806195 -0.09023601
0.09328256 0.06888673 -0.026561953 0.0039313785 0.026588526 0.09243805 -0.008393521 -0.018341064
0.048149664 0.019842738 -0.057357278 0.08298639 -0.07826734 0.027621131 -0.054032404 -0.096430585
0.07308274 -0.023271916 -0.043541208 -0.07428795 0.09140919 -0.014023416 -0.056839608 0.09285996
0.13085909 0.13235243 -0.075496025 0.09224496 0.111721285 -0.026851969 0.08920729 -0.0074782083
0.0024523544 0.019190634 -0.07990171 -0.079534754 0.056617767 -0.012405834 0.11266721 -0.046903983
-0.07551178 0.07208063 0.015228272 0.08099681 -0.02175879 0.00015096086 -0.025271565 -0.034219414
0.042046092 0.05366882 -0.14108874 0.04026213 -0.07714361 0.010623972 0.06041738 0.00289334

fc2.bias f4 [64]
00000000: e19b e3bd b375 29bd 0871 90bd 6614 88bd
00000010: dbeb f2bd 477f 9e3d 76d7 ce3d a3b2 ce3d
00000020: a7f7 cc3d 8f51 8d3c 32aa 4f3d 0396 37bd
00000030: 2ce5 73bc 95fb 9a3c 3439 ddbd 8aae 84bd
00000040: 50db b33d b317 c2bc 7675 013d 9892 c53d
00000050: ce42 8fbc 68f3 0a3e 8eb2 0b3e 9a90 9d3d
00000060: f02d aebd d2fd 203e 251f 11bd 469f 8c3d
00000070: 4130 dd3d ab5c 3a3c 6585 dc3d 961a 00be
00000080: 1a1a b2bd 96be f6bc 7d41 4fbd 5b8f 083d
00000090: ed46 48bd 371c 85bd dadf a23d 5892 cd3d
000000a0: 5f92 723d e73b 7abd f79a 043d 5f61 dc3d
000000b0: f805 ccbd b692 cc3d 1941 2cbd 3d13 ca3d
000000c0: 2bf9 783c 59cb abbd b51d a9bd 7d10 80bd
000000d0: 601b b33c 4576 c83c ecd3 b9bd f464 8cbc
000000e0: 9507 dabc 53d3 e03d ba71 983d 434d 9fbd
000000f0: 46bc 85bd c314 673d 566c d7ba 4e29 233d
-0.11113716 -0.041372012 -0.07052809 -0.06644516 -0.11861392 0.0773912 0.1009969 0.10092666
0.100081734 0.017250804 0.05069942 -0.044820797 -0.014886182 0.018918792 -0.10801926 -0.06478603
0.08782065 -0.023692941 0.03160616 0.09647101 -0.01748791 0.13569415 0.13642332 0.07693596
-0.08504856 0.15721825 -0.035430092 0.068663165 0.10800219 0.011374633 0.107676305 -0.12510142
-0.08696385 -0.030120175 -0.050599564 0.03333984 -0.048895765 -0.06499522 0.079528525 0.100376785
0.05922162 -0.061092284 0.03237435 0.107607596 -0.09962076 0.099889204 -0.04205427 0.09866951
0.015196125 -0.08388395 -0.08257619 -0.06253145 0.02186364 0.024470458 -0.09073624 -0.017137982
-0.026614944 0.10977807 0.074435666 -0.077784084 -0.06530051 0.056416284 -0.0016435485 0.039834313

fc_out.weight f4 [1, 64]
00000000: 0def 1c3d 7ed7 90bd 0a2c 283d b28d 8bbd
00000010: 705e e53c 3cb6 db3c 2504 1fbe b657 c4bd
00000020: 36e5 6ebd 19d5 18be 1254 05bd baea cf3d
00000030: 041b 483d 6cee 7ebd eca1 063d 686f 9c3d
00000040: 5cd9 9c3d 8b01 063e 9aee 71bd 5858 0abe
00000050: d6ac 19bd 426a 423d ba5f 15be 44a6 39bd
00000060: c56c 0fbe 2daa b03d d145 31bd 235d d83d
00000070: 79cf 0f3e e065 0abe c7bc cdbd 6d6e 9c3d
00000080: a492 05be 0aff c23c e33f 0f3e 3662 0dbe
00000090: 2185 9dbd baa1 143c de1e 263d 20f8 233e
000000a0: 155e 89bd 3a46 943b bd13 113e 1693 c33d
000000b0: 859d 0cbe 2840 b3bd de53 febd 48ab e93d
000000c0: a672 fcbd f619 28bd cea8 c73d 1ec8 283d
000000d0: da43 593d bd81 aebd 20c2 13be 8e34 fcbd
000000e0: 70d4 80bd 4b1c aabd ad24 c0bc 08b4 fc3d
000000f0: 83f5 8ebc ce1e f33d 1329 f63b 0ccd dfbd
0.038313914 -0.07072352 0.041057624 -0.068141356 0.027999133 0.026820295 -0.15528925 -0.09587042
-0.05832406 -0.1492504 -0.03255088 0.101521924 0.04885389 -0.062239096 0.032869264 0.076384366
0.076586455 0.13086526 -0.05906544 -0.13510263 -0.037518345 0.047464617 -0.14587298 -0.04532458
-0.14006336 0.086262085 -0.043279473 0.105646394 0.14043988 -0.13515425 -0.10045772 0.076382495
-0.1304422 0.023803253 0.13989215 -0.13806996 -0.07691408 0.009071762 0.04055678 0.16012621
-0.06707398 0.004524973 0.14167686 0.09549539 -0.13731964 -0.08752471 -0.1241834 0.114096224
-0.12326555 -0.041040383 0.09748994 0.04120647 0.053043224 -0.08520839 -0.14429522 -0.123147115
-0.06290519 -0.08306178 -0.023454988 0.12339026 -0.017451053 0.1187111 0.0075122206 -0.109277815
