data/trained_models/meta_snn.pth (torch, 29302 bytes, 6 tensors)

fc1.weight f4 [64, 13]
0	0xbe7f1161	-0.24908973
1	0xbe882788	-0.2659266
2	0xbe290fd9	-0.16509952
3	0xbe292391	-0.16517474
4	0x3e28606a	0.16443029
5	0x3e8d1ded	0.27561894
6	0x3e80030e	0.2500233
7	0x3e014265	0.12622984
8	0xbcac9147	-0.021065367
9	0xbd678ae3	-0.056528937
10	0xbd1d7245	-0.038439054
11	0xbddbeed2	-0.10738911
12	0xbe2339ec	-0.15940064
13	0x3d987b72	0.0744542
14	0xbe649448	-0.2232219
15	0x3e24b1cb	0.16083448
16	0x3e7320ef	0.23743032
17	0xbe0d6f1f	-0.1381192
18	0x3dd9534e	0.10611592
19	0xbd2c96a5	-0.042135853
20	0xbcc15be4	-0.023603387
21	0xbe74ab83	-0.23893552
22	0x3e84b414	0.2591864
23	0xbe71b452	-0.23603943
24	0xbdbd5546	-0.0924478
25	0x3e744f7a	0.23858443
26	0xbbaba599	-0.0052382466
27	0xbda4f6de	-0.08054899
28	0x3e48b9a1	0.19602062
29	0x3e87e0a2	0.2653857
30	0x3cd49cd7	0.025953693
31	0xbce41b31	-0.027844997
32	0x3e4895f4	0.19588453
33	0x3dddfea2	0.10839583
34	0x3e56a60c	0.2096178
35	0x3e3f24fb	0.1866645
36	0x3df04360	0.11731601
37	0x3e5b2edd	0.21404596
38	0x3cbf0b89	0.02332093
39	0xbe0ecb95	-0.13944848
40	0x3da88c20	0.08229852
41	0x3e66486f	0.22488569
42	0x3d2176a1	0.039419774
43	0x3dfb2847	0.12263542
44	0xbd587a6d	-0.05285113
45	0xbdf4d64f	-0.119549386
46	0x3ded03ec	0.11573014
47	0x3d06a03f	0.032867666
48	0x3e696f1a	0.22796288
49	0xbe413c9b	-0.18870775
50	0x3e2a1db0	0.16612887
51	0xbda26be2	-0.07930733
52	0xbd4fae57	-0.050703373
53	0xbe1a6984	-0.15079314
54	0x3e79a988	0.24381077
55	0x3e44ce68	0.19219363
56	0x3e184d64	0.14873272
57	0xbe3a3c00	-0.1818695
58	0x3d778ad2	0.060435124
59	0x3d5ebddc	0.054380283
60	0xbcfe313f	-0.031029342
61	0xbe2ad90f	-0.16684364
62	0xbe81b650	-0.25334406
63	0x3e7ed514	0.2488597
64	0x3de93a84	0.11388114
65	0xbc470cb1	-0.012149022
66	0xbe7ca993	-0.24674062
67	0xbe0c2f0b	-0.1368982
68	0x3dd32d52	0.103113785
69	0x3e3223bf	0.17396449
70	0xbde1872a	-0.110121086
71	0x3c10ec00	0.008845329
72	0xbe1e6b48	-0.15470612
73	0x3e50390e	0.20334265
74	0xbd66a844	-0.056312814
75	0x3da3c772	0.079970255
76	0xbcccceaf	-0.025000898
77	0x3d503e77	0.05084082
78	0xbe2d3b6d	-0.169172
79	0x3d810258	0.06299275
80	0xbe1c578b	-0.1526777
81	0xbda9806f	-0.0827645
82	0xbd60ea77	-0.054911103
83	0x3c8b299d	0.016987616
84	0x3d8b3072	0.067963496
85	0x3d9759b4	0.073901564
86	0xbdc23cd3	-0.094842575
87	0xbd32679c	-0.04355584
88	0xbe2a2a71	-0.16617753
89	0xbe7f0666	-0.24904785
90	0xbb18ebe7	-0.0023333968
91	0x3c06fc61	0.008238883
92	0xbe89e8a4	-0.26935303
93	0x3e6b7494	0.2299369
94	0xbcbb4400	-0.022859573
95	0x3da1bf10	0.078977704
96	0xbe901b6e	-0.28145927
97	0x3e092d7b	0.13396256
98	0x3ce189ee	0.02753159
99	0x3d806e73	0.062710665
100	0x3e799cb3	0.24376182
101	0x3b0887c4	0.0020832876
102	0x3cd4c632	0.025973413
103	0xbe6d19e4	-0.23154408
104	0xbe70976b	-0.23495261
105	0x3e3c6a5c	0.18399948
106	0xbe207189	-0.1566831
107	0xbd683799	-0.056693647
108	0x3e18809f	0.14892815
109	0x3c17a943	0.009256664
110	0xbc74e1ae	-0.014946384
111	0xbdc1ab71	-0.09456528
112	0x3e6efd98	0.23338926
113	0x3c67b5c4	0.014142457
114	0x3c2fa336	0.010720065
115	0x3e2842b0	0.1643169
116	0xbe946f0d	-0.28990975
117	0xbdba8235	-0.09106866
118	0xbe48b592	-0.19600514
119	0xbe7c9dab	-0.2466952
120	0xbe365235	-0.17804797
121	0x3de59f3b	0.112120114
122	0x3d4d7402	0.05015946
123	0x3dbe6452	0.09296478
124	0x3df1ae58	0.118008316
125	0xbbba5866	-0.0056868074
126	0x3dc5be86	0.0965548
127	0x3e56a477	0.20961176
128	0x3e2c6d67	0.16838609
129	0x3e879c06	0.26486224
130	0xbe08af31	-0.1334808
131	0xbe55e9b0	-0.20889926
132	0xbe00a48a	-0.12562767
133	0xbe3a8b3f	-0.1821718
134	0xbe69d64d	-0.22835656
135	0xbe37af70	-0.17938018
136	0xbe149357	-0.1450933
137	0xbe67dc4b	-0.22642629
138	0x3e843282	0.25819784
139	0x3e702bf4	0.23454267
140	0xbe0603ec	-0.13087434
141	0xbdf1b555	-0.118021645
142	0x3e89c079	0.26904657
143	0xbd5856ba	-0.052817084
144	0x3d9809e8	0.074237645
145	0x3d9a6d52	0.075403824
146	0x3e3aad51	0.18230177
147	0xbe5e311e	-0.21698424
148	0x3e103526	0.14082775
149	0xbe6f85d5	-0.23390897
150	0xbde4efce	-0.111785516
151	0x3e4c55f5	0.19954665
152	0xbe7fb694	-0.24971992
153	0xbe41ec9c	-0.18937916
154	0x3dea375b	0.114363395
155	0xbe0e6c1e	-0.13908431
156	0xbd4b4317	-0.04962453
157	0xbe1761c6	-0.14783391
158	0x3e2efe00	0.17089081
159	0x3e443d8e	0.19164106
160	0x3d6f6d86	0.05845406
161	0xbd65838a	-0.05603365
162	0xbe2a917d	-0.16657062
163	0x3c600dbe	0.013675151
164	0xbdeb6191	-0.11493219
165	0x3e624606	0.22097024
166	0xbd90c70d	-0.07069216
167	0xbe0e2c23	-0.13884024
168	0x3e0041fa	0.12525168
169	0xbe46c023	-0.19409232
170	0x3dcf11dc	0.10110828
171	0x3d27f260	0.04100263
172	0xbe2fde00	-0.1717453
173	0x3d7cd7f6	0.061729394
174	0x3e7ce360	0.24696112
175	0x3d3c7c40	0.04601693
176	0xbc92acce	-0.017904665
177	0xbe3abf2f	-0.18236993
178	0xbdaf5ad0	-0.08562243
179	0x3e4d270a	0.20034423
180	0x3e694f31	0.22784115
181	0xbd1a2e11	-0.03764159
182	0xbe483b52	-0.19553879
183	0x3e8301f1	0.2558742
184	0x3dc711bd	0.0972018
185	0x3e5775de	0.21041057
186	0x3e116947	0.14200316
187	0xbddad212	-0.10684599
188	0xbe239bbc	-0.15977377
189	0xbe094ff8	-0.13409412
190	0x3e784dd4	0.24248439
191	0xbe3b0791	-0.18264605
192	0xbd98245e	-0.074288115
193	0x3e842ff4	0.25817835
194	0x3ca9a20a	0.020707149
195	0xbdc2b648	-0.09507424
196	0x3de183d8	0.11011475
197	0xbe258c15	-0.16166718
198	0x3e71c53c	0.23610395
199	0xbe49dfd4	-0.1971429
200	0x3d28b45a	0.04118762
201	0x3e555f65	0.20837171
202	0x3e3ab438	0.1823281
203	0xbd951a71	-0.07280434
204	0x3e454207	0.19263469
205	0x3e8135e1	0.2523642
206	0x3d16a647	0.03677967
207	0xbc7984f5	-0.015229453
208	0xbe456c33	-0.19279556
209	0xbe611936	-0.21982273
210	0x3d8576a3	0.06516769
211	0x3deda71f	0.116041414
212	0x3df0fc13	0.11766829
213	0xbca3dd9b	-0.02000313
214	0x3df3403c	0.11877486
215	0x3cb882f7	0.022523386
216	0x3d8de39a	0.06928177
217	0x3dfba006	0.122863814
218	0xbe8bdb2a	-0.27315646
219	0x3d90d112	0.07071127
220	0x3cc9d538	0.024637803
221	0x3d32885b	0.04358707
222	0x3e7812ad	0.24225874
223	0x3e8978a4	0.26849854
224	0xbd9cdf69	-0.076597996
225	0xbe6f7089	-0.23382773
226	0x3e1c2240	0.1524744
227	0x3e88894d	0.26667252
228	0xbe66c641	-0.22536565
229	0x3e1a5839	0.15072717
230	0x3e8146a8	0.2524922
231	0x3e021212	0.12702206
232	0x3d50a1a7	0.050935414
233	0xbe7c32a7	-0.24628697
234	0xbdd629d6	-0.10457198
235	0xbe4de3fe	-0.20106503
236	0xbe853b6e	-0.26021904
237	0xbda7e542	-0.08198024
238	0x3e05005b	0.12988417
239	0xbd41846c	-0.047245428
240	0xbe6da1db	-0.23206274
241	0xbe4e95be	-0.2017431
242	0xbe52e9b9	-0.2059697
243	0xbd8f919a	-0.07010193
244	0xbdf2999b	-0.11845704
245	0x3da0b263	0.078465246
246	0x3df5bea0	0.119992495
247	0xbdea14ff	-0.11429786
248	0xbe3ab373	-0.18232517
249	0xbe13ca94	-0.14432746
250	0x3e8311a3	0.25599393
251	0xbd83ce45	-0.06435827
252	0x3e82820e	0.2548985
253	0xbdcf9046	-0.1013494
254	0x3e060ae1	0.13090087
255	0xbb2c1f14	-0.0026263641

fc1.bias f4 [64]
0	0x3d955c16	0.072929546
1	0x3e27b8c1	0.16379072
2	0xbcec1e03	-0.028822904
3	0xbe7f2175	-0.24915107
4	0x3e680503	0.22658162
5	0x3e23c10e	0.15991613
6	0xbe6f5941	-0.23373891
7	0x3d58103f	0.05274987
8	0xbdbabb14	-0.091177136
9	0x3d8826ad	0.06648002
10	0xbdca4c31	-0.098778136
11	0x3e380b62	0.17973092
12	0xbe7dc31f	-0.24781464
13	0xbd14258f	-0.03616863
14	0x3e884952	0.2661844
15	0x3d56dbe8	0.052455813
16	0x3dce99be	0.10087918
17	0x3d7cae85	0.061689872
18	0x3e274e20	0.16338396
19	0x3cf7c566	0.030245494
20	0x3ce5e688	0.028064027
21	0x3e660309	0.22462095
22	0xbe04a528	-0.12953627
23	0x3d9736cb	0.07383498
24	0xbe86456a	-0.26224834
25	0x3e80d417	0.25161812
26	0xbe12a4b3	-0.1432064
27	0x3e4c7334	0.19965822
28	0x3e40e54f	0.18837474
29	0xbdc6f2f7	-0.097143106
30	0x3c7f0884	0.015565995
31	0xbe855ed9	-0.26048926
32	0x3b25404e	0.002521533
33	0x3e9a7c68	0.3017304
34	0xbda1eee8	-0.07906896
35	0xbe5e7acf	-0.21726535
36	0xbe03fe5d	-0.1289
37	0xbe84bd7d	-0.25925818
38	0x3d0e5f0e	0.03475862
39	0x3e2c5a1f	0.16831253
40	0xbd932eb4	-0.07186642
41	0x3e4dc145	0.20093258
42	0x3e79afcb	0.24383466
43	0x3e596282	0.21228984
44	0xbe2ff9a0	-0.17185068
45	0x3e4e1c5d	0.20128007
46	0x3e2293b7	0.15876661
47	0xbe13afe3	-0.14422564
48	0xbd8ec48d	-0.06971083
49	0xbd2a17c0	-0.041526556
50	0x3b3f929c	0.0029231673
51	0xbe7264ac	-0.23671216
52	0xbde9e69c	-0.114209384
53	0x3e7ac1f0	0.24488044
54	0x3e3b5d45	0.18297298
55	0xbde31d5b	-0.110895835
56	0x3e8a543e	0.27017397
57	0x3c876099	0.016525554
58	0xbe8aba59	-0.27095297
59	0x3e0c4bd5	0.13700803
60	0x3e4c931c	0.19977993
61	0x3e8114e9	0.25211266
62	0x3e5342f9	0.20631017
63	0xbde65fa7	-0.11248713

fc2.weight f4 [64, 64]
0	0x3db3f898	0.0878765
1	0xbd4ec970	-0.050485075
2	0x3d8f9159	0.07010145
3	0xbdb2558f	-0.08707725
4	0x3e14718a	0.14496437
5	0x3c823323	0.015893525
6	0xbdd661d9	-0.10467882
7	0x3de7f929	0.113268204
8	0x3cbd16a3	0.023082083
9	0xbda1ce23	-0.079006456
10	0x3d87c449	0.06629235
11	0xbd9b8b72	-0.075949565
12	0xbda9f129	-0.08297951
13	0x3d254e65	0.040357966
14	0x3b835b24	0.0040086675
15	0x3d37ecaf	0.044903453
16	0x3d3134ec	0.04326336
17	0xbdcbd178	-0.09952062
18	0x3d9cf77a	0.0766439
19	0xbc8549c5	-0.016270528
20	0x3de5b7c6	0.112166926
21	0x3d54efe8	0.051986605
22	0x3e017b99	0.12644805
23	0xbe09d35b	-0.13459532
24	0xbda121e1	-0.0786779
25	0xbc07a306	-0.008278614
26	0xbbb170ab	-0.0054150424
27	0x3dd2d7b3	0.102950476
28	0xbc174a04	-0.009233955
29	0xbddea349	-0.10870988
30	0x3df5c0f6	0.11999695
31	0x3d1eeee2	0.038802035
32	0x3d8c6faa	0.06857236
33	0x3e003bd1	0.12522818
34	0x3d04b357	0.032397594
35	0xbdec28b8	-0.11531204
36	0xbdaa427b	-0.083134614
37	0x3d40cee9	0.047072325
38	0x3ce4a9ec	0.027913056
39	0x3ddb1944	0.106981784
40	0xbd1db5f4	-0.038503602
41	0xbd2d0fd5	-0.042251427
42	0xbd1fc51e	-0.039006345
43	0x3db793ce	0.089637384
44	0x39a5d987	0.00031633323
45	0xbd365a0b	-0.044519465
46	0x3e094b9f	0.13407753
47	0x3b5d8160	0.0033799037
48	0xbde1cb16	-0.11025064
49	0x3d169741	0.03676534
50	0xbdf293b9	-0.11844582
51	0xbc9a2e0b	-0.018820783
52	0xbca15c87	-0.01969744
53	0xbdec6c92	-0.11544146
54	0x3d735a57	0.059412327
55	0xbcc8b9a1	-0.024502577
56	0xbd921254	-0.07132402
57	0x3dd689b4	0.104754835
58	0xbd204526	-0.039128445
59	0xbd62fd69	-0.055417452
60	0x3c2f5aea	0.010702828
61	0xbd56b07e	-0.05241441
62	0x3df7dfbe	0.12103222
63	0xbd7fffb6	-0.062499724
64	0x3ca5d542	0.02024329
65	0x3cec5da9	0.028853254
66	0x3d181055	0.03712495
67	0xbe0e6f44	-0.13909632
68	0xbd319f51	-0.043364827
69	0x3d9ef42d	0.077614166
70	0x3d8e0346	0.06934218
71	0xbe08a20c	-0.13343066
72	0xbcc9e00b	-0.024642965
73	0xbca63894	-0.02029065
74	0xbd98d592	-0.0746261
75	0xbd855a1b	-0.06511327
76	0x3d9865b4	0.07441273
77	0x3e0867dd	0.1332087
78	0x3d882059	0.06646795
79	0xbdb97700	-0.090559006
80	0xbdfccf69	-0.12344248
81	0x3dcf8842	0.10133411
82	0xbd647cfc	-0.055783257
83	0x3d90495f	0.070452444
84	0x3d74d9ed	0.059778143
85	0x3da6120b	0.0810891
86	0x3d915075	0.07095424
87	0xbd7513cb	-0.05983333
88	0xbe0421c0	-0.129035
89	0x3d968fff	0.07351684
90	0xbd4aff6e	-0.049560003
91	0xbd1d57d4	-0.038413838
92	0x3d4c9099	0.049942587
93	0x3d0567f4	0.03256984
94	0xbd9ff6d4	-0.078107506
95	0x3e013fe3	0.12622027
96	0xbd54b113	-0.051926684
97	0x3ddc8b70	0.10768783
98	0x3ce9c2b1	0.028535219
99	0x3d112f7e	0.035445683
100	0x3d1e6c8f	0.03867775
101	0xbdfd1dca	-0.123591974
102	0xbdb32b1f	-0.08748459
103	0xbd6bae8e	-0.057539515
104	0x3ba88630	0.0051429495
105	0xbc9927cd	-0.018695736
106	0x3da8cee2	0.08242585
107	0x3ceca500	0.028887272
108	0x3d12c95a	0.035836555
109	0xbdb516ea	-0.08842261
110	0xbdcfa3bd	-0.101386525
111	0x3db74521	0.08948732
112	0x3d68cf55	0.056838352
113	0x3dd8c19c	0.10583803
114	0xbd49ec7b	-0.04929779
115	0xbd26dfd2	-0.040740795
116	0xbd88656b	-0.06659969
117	0x3d7a18d4	0.061058834
118	0x3ddf806f	0.10913169
119	0xbd6b50e1	-0.05745018
120	0xbd448f65	-0.047988314
121	0xbd390e88	-0.045179874
122	0xbd9494db	-0.072549544
123	0x3c845d1d	0.016157681
124	0xbe04f8a4	-0.12985474
125	0x3d7ff945	0.06249358
126	0x3dc99729	0.09843285
127	0x3c0a0569	0.008424141
128	0x3d693d8c	0.05694346
129	0x3dd4e85c	0.103958815
130	0x3dd6eb76	0.10494129
131	0xbdb325ec	-0.087474674
132	0x3dc9e3c8	0.09857899
133	0xbd6bb5eb	-0.057546537
134	0x3e05950f	0.13045143
135	0x3d9cd4eb	0.076577984
136	0x3e053d70	0.13011718
137	0x3c784826	0.01515392
138	0x3dd14cfd	0.102197625
139	0x3dda2d9e	0.10653232
140	0xbdde0cd0	-0.108422875
141	0xbd52c76e	-0.051459722
142	0xbcf5faeb	-0.030026874
143	0x3d9c903e	0.076446995
144	0xbcf063de	-0.029344495
145	0x3dffc904	0.124895126
146	0x3dde2efd	0.10848806
147	0x3cdc7f44	0.026916154
148	0xbd801a08	-0.06254965
149	0x3d55e250	0.05221778
150	0xbd424420	-0.04742825
151	0xbd4c7228	-0.049913555
152	0xbd11f8b2	-0.035637565
153	0x3ca1de63	0.019759363
154	0xbc9ed858	-0.01939027
155	0x3d96dd3a	0.07366414
156	0x3d09e2bc	0.033663496
157	0xbbc6f359	-0.00607149
158	0xbda3244e	-0.07965909
159	0xbd7be444	-0.061496988
160	0x3e0b27ea	0.13589445
161	0xbccfc9e9	-0.025364833
162	0xbc31fdc0	-0.010863721
163	0x3de93c56	0.11388461
164	0xbcb37cae	-0.021910038
165	0xbd542269	-0.05179063
166	0x3b1118bf	0.0022139994
167	0x3cc3328a	0.02382781
168	0x3d37bf1f	0.04486
169	0xbdd2f6d5	-0.10300986
170	0xbc1ba6b4	-0.009500194
171	0xbd00fc78	-0.031490773
172	0x3dd5606a	0.1041878
173	0xbda29d00	-0.079401016
174	0x3d3024f8	0.043004006
175	0xbd8de998	-0.0692932
176	0xbd6d585e	-0.0579456
177	0xbdce43c3	-0.10071518
178	0x3d7a1e3c	0.06106399
179	0xbb694e4c	-0.0035599647
180	0x3c9e4c99	0.019323634
181	0x3d4e78dc	0.05040823
182	0xbac60817	-0.0015108612
183	0x3d743fec	0.059631273
184	0xbd0ef022	-0.034896977
185	0xbd84785a	-0.06468268
186	0x3de681b7	0.1125521
187	0x3d8dc820	0.069229364
188	0xbc200724	-0.009767327
189	0x3d2efa0f	0.042718943
190	0xbd3b26f9	-0.045691464
191	0x3de52c7f	0.111901276
192	0x3daf78d5	0.08567969
193	0x3c36d852	0.011159973
194	0x3d93a63a	0.072094396
195	0xbde9d189	-0.11416919
196	0x3bb42505	0.005497577
197	0xbe1171ed	-0.14203615
198	0xbd00b4e8	-0.031422526
199	0x3d0d5f78	0.034514874
200	0x3dc1b465	0.09458236
201	0x3d398b4d	0.045298863
202	0x3c3f3d05	0.011672263
203	0xbd931a02	-0.07182695
204	0xbd0ce715	-0.034400064
205	0x3d587176	0.05284258
206	0xbc052d25	-0.008128439
207	0x3c268e19	0.010165715
208	0xbdf88389	-0.12134463
209	0xbdc00946	-0.09376769
210	0xbd107f26	-0.03527751
211	0x3df8764b	0.121319376
212	0xbc76dde0	-0.015067548
213	0x3d3a018c	0.04541163
214	0x3ba70d80	0.005098045
215	0x3d3e2bc2	0.04642845
216	0x3c7e90ca	0.01553745
217	0x3da559b8	0.08073753
218	0x3e07ade9	0.13249935
219	0xbdfa0af1	-0.12209118
220	0x3d8cd1b8	0.06875938
221	0x3d59a684	0.053137317
222	0xbccc53d1	-0.02494231
223	0xb8931a41	-7.0143964e-05
224	0xbded9b87	-0.1160193
225	0xbde117c2	-0.109908596
226	0x3dc5eb02	0.09663965
227	0x3d1c2c4b	0.03812818
228	0x3d5586fa	0.052130677
229	0x3dd28391	0.102790006
230	0xbdda3980	-0.106554985
231	0xbdf48fdf	-0.11941504
232	0x3d60e299	0.0549036
233	0xbc07bf8d	-0.008285415
234	0xbc1920fd	-0.009346244
235	0x3ceb9a18	0.028760001
236	0xbdb99e11	-0.09063352
237	0x3d1e9755	0.03871854
238	0xbc95ff3c	-0.018310182
239	0xbca26542	-0.019823674
240	0x3d419b46	0.04726722
241	0x3ddab04f	0.106781594
242	0x3d85a02d	0.06524692
243	0xbd04cea4	-0.03242363
244	0x3dbfdca3	0.09368255
245	0xbdcaaf34	-0.098966986
246	0xbe0b770a	-0.13619629
247	0x3dcf39cf	0.10118448
248	0xbd5db8fc	-0.054131493
249	0xbbd21b5c	-0.006411953
250	0xbd09e403	-0.033664715
251	0xbdf2525a	-0.118321136
252	0x3b303413	0.0026886507
253	0x3c37d8ec	0.011221152
254	0xbe129cf3	-0.14317684
255	0x3da22ff1	0.079193

fc2.bias f4 [64]
0	0x3cbecc35	0.023290733
1	0xbdedcce2	-0.11611344
2	0xbcb23f2e	-0.021758642
3	0xbde0aee7	-0.1097086
4	0x3db32406	0.08747105
5	0x3d06e7ed	0.032936025
6	0xbce03797	-0.027370257
7	0xbd491fd6	-0.049102627
8	0x3db8fdc0	0.09032774
9	0x3d7f287c	0.06229447
10	0x3c719737	0.014745525
11	0xbd4f9701	-0.050681118
12	0xbda9c62e	-0.08289753
13	0x3da463f2	0.080268756
14	0x3ca6a8d6	0.02034418
15	0x3b40abba	0.0029399232
16	0x3db49856	0.08818118
17	0xbce2566c	-0.0276291
18	0x3d02fa0b	0.03197674
19	0xbdbc9784	-0.09208587
20	0xbd8d4292	-0.06897463
21	0xbddc0c53	-0.10744538
22	0xbe00b1a1	-0.1256776
23	0x3dc2c963	0.09511068
24	0xbcdfeb1d	-0.02733379
25	0xbd1f35ee	-0.03886979
26	0xbda91702	-0.082563415
27	0x3dd5cba7	0.10439234
28	0x3de0af18	0.109708965
29	0x3cc8054e	0.024416592
30	0x3d2bd4f7	0.041951146
31	0xbd1f088c	-0.03882651
32	0x3dc05eb9	0.09393067
33	0x3dfd65b5	0.12372915
34	0x3dea393a	0.11436696
35	0xbd898ad6	-0.06715934
36	0x3dbc9930	0.09208906
37	0xbdc2fb34	-0.095205694
38	0x3d753fdf	0.059875365
39	0x3dfe8fdc	0.12429783
40	0xbc49b7f3	-0.012311923
41	0x3db11954	0.08647409
42	0xbddf6cc3	-0.109094165
43	0xbd1420f4	-0.03616424
44	0x3dae3144	0.085054904
45	0x3de56774	0.11201373
46	0xbd49584c	-0.049156472
47	0xbca0ba15	-0.01961998
48	0x3d26d18f	0.040727194
49	0x3d693ed2	0.056944676
50	0x3da8a0a9	0.082337685
51	0x3d90c3db	0.070686065
52	0x3da366a2	0.0797856
53	0x3c764174	0.015030254
54	0x3d549df7	0.05190846
55	0xbd489577	-0.048970666
56	0xbd49a7e1	-0.049232367
57	0xbdbac9c6	-0.091205165
58	0xbdc97557	-0.09836834
59	0xbdf63006	-0.120208785
60	0x3dabcfec	0.08389267
61	0x3da69899	0.081345744
62	0xbcb7023a	-0.022339929
63	0x3d2a78f3	0.041619252

fc_out.weight f4 [13, 64]
0	0x3d91a9f1	0.07112492
1	0xbd9bcbdc	-0.076072425
2	0xbbc1f7aa	-0.0059194164
3	0xbde96dd5	-0.11397902
4	0x3cc20a80	0.023686647
5	0x3d1d98ab	0.038475674
6	0x3c09939d	0.00839701
7	0xbdb60587	-0.08887773
8	0xbdb2f037	-0.087372236
9	0xbe15b36a	-0.14619222
10	0x3dcf0910	0.101091504
11	0xbce75584	-0.02823902
12	0xbc5ac6b2	-0.013353037
13	0xba954a1f	-0.0011389888
14	0xbd8b3dc4	-0.0679889
15	0x3d961ec2	0.07330085
16	0x3cc65ab3	0.02421317
17	0xbb0d6f87	-0.0021581368
18	0xbd21b1ba	-0.039476134
19	0xbd5972a7	-0.053087857
20	0xb975e125	-0.00023448894
21	0x3c104b2d	0.008806986
22	0xbd5cb7aa	-0.053886093
23	0x3d105a51	0.035242382
24	0x3dbb864a	0.09156473
25	0x3d877ff9	0.06616206
26	0xbc8e70aa	-0.017387707
27	0x3d5b10eb	0.05348293
28	0x3d4d0111	0.050049845
29	0x3c09fb0e	0.0084216725
30	0xbd93ae6a	-0.07211001
31	0x3ca347fd	0.019931788
32	0x3da54753	0.08070245
33	0x3cc6a81d	0.024250085
34	0x3d1cca8e	0.03827911
35	0x3cac235d	0.021012956
36	0xbd77c342	-0.060488947
37	0x3d89036a	0.06690104
38	0xbd1e5035	-0.03865071
39	0x3da951ed	0.08267579
40	0x3d00d1cb	0.031450074
41	0xbd9b0589	-0.07569415
42	0x3c8c544d	0.017130041
43	0xbe016ea0	-0.12639856
44	0x3de9e0eb	0.11419853
45	0x3db37b77	0.087637834
46	0x3cd7e135	0.026352504
47	0x3d88f846	0.066879794
48	0xbd128268	-0.035768896
49	0xbcacdb85	-0.021100769
50	0xbd9fdd6c	-0.07805905
51	0xbd0c5bbc	-0.034267172
52	0xbb9db803	-0.0048131957
53	0x3d59dbc2	0.053188093
54	0xbdb51700	-0.088422775
55	0xbd9540d7	-0.07287758
56	0x3d8a6593	0.06757655
57	0xbd78bedd	-0.060728896
58	0x3d857bb1	0.06517733
59	0x3d92ecd1	0.071740754
60	0x3ca14f40	0.01969111
61	0xbdaf88d5	-0.085710205
62	0x3d9cd391	0.076575406
63	0x3dc8f906	0.098131225
64	0x3d43896d	0.04773848
65	0x3d97ae2d	0.07406268
66	0xbc8965a5	-0.0167721
67	0xbcd9a69d	-0.026568705
68	0xbe1c3856	-0.15255865
69	0x3dcc3199	0.099703975
70	0xbd80522a	-0.062656716
71	0xbd7ef62d	-0.06224649
72	0x3be72750	0.007054247
73	0x3d0258e3	0.03182305
74	0xbd20d631	-0.03926677
75	0xbd57a28e	-0.05264526
76	0xbe0c9930	-0.13730311
77	0x3dd88628	0.10572463
78	0x3c490163	0.012268397
79	0xbb9cde6a	-0.004787256
80	0x3ca3fdc7	0.020018471
81	0xbc4b09ab	-0.012392442
82	0xbdba54a6	-0.09098177
83	0x3db46ffa	0.0881042
84	0x3df3ddb5	0.11907522
85	0x3d31304d	0.043258954
86	0xbddc41f1	-0.10754765
87	0xbe00bf6a	-0.12573019
88	0x3e118025	0.1420904
89	0xbd08d6f0	-0.033408105
90	0xbd8ec4eb	-0.06971153
91	0x3daea342	0.08527233
92	0xbd3d0748	-0.046149522
93	0xbd7a9fa8	-0.061187416
94	0x3daf52ff	0.08560752
95	0xbbeaa201	-0.0071604257
96	0xbd839118	-0.06424159
97	0xbde1c9a1	-0.11024786
98	0xbcd9f02b	-0.026603779
99	0x3c799bed	0.0152349295
100	0xbdbdccfe	-0.09267615
101	0x3d1f15b4	0.038839057
102	0xbcc6cf15	-0.024268666
103	0x3d55d58c	0.052205607
104	0xbd20a127	-0.039216187
105	0x3df62ffd	0.12020872
106	0x3ab1421d	0.0013523732
107	0x3c7fa856	0.015604099
108	0x3dc52128	0.09625465
109	0x3d197151	0.037461583
110	0xbca4f628	-0.020136908
111	0x3e1d4df9	0.15361775
112	0x3de55bda	0.1119916
113	0x3dca8c42	0.09890033
114	0x3dba0f6f	0.09084975
115	0xbd77bd45	-0.060483236
116	0xbb3efb63	-0.0029141537
117	0xbd33570b	-0.043784183
118	0x3ca05df8	0.019576058
119	0xbdda26a4	-0.10651901
120	0x3d4faefd	0.05070399
121	0x3dd02adb	0.10164424
122	0xbddcc641	-0.107800014
123	0x3cbd15c8	0.023081675
124	0x3c46c990	0.012133017
125	0xbde41a01	-0.11137772
126	0xbc64dd7d	-0.013968823
127	0xbd007d69	-0.0313696
128	0xbc0ed726	-0.008718288
129	0x3d551b50	0.052028
130	0xbd89dd0b	-0.06731614
131	0x3df86c4f	0.12130033
132	0xbd855920	-0.0651114
133	0xbd78b882	-0.060722835
134	0xbd114579	-0.035466645
135	0xbc4eb053	-0.012615281
136	0x3dc3afb9	0.09555001
137	0xbc3c8d8c	-0.011508357
138	0x3c84c240	0.016205907
139	0xbc5335ac	-0.012891214
140	0x3d933cb3	0.07189312
141	0x3dc0f85a	0.09422369
142	0xbc4fa251	-0.012672977
143	0xbd490b6a	-0.04908315
144	0xbc6a62e8	-0.014305808
145	0xbc24a493	-0.010049003
146	0x3d89675a	0.06709166
147	0xbd21b0f8	-0.03947541
148	0x3da8de5e	0.08245538
149	0x3d0dfd79	0.03466556
150	0xbc3e328e	-0.011608733
151	0xbd65de00	-0.05611992
152	0xbdf2054f	-0.11817419
153	0xbd2eae5d	-0.042646755
154	0x3b1da026	0.0024051755
155	0xbd73f2f2	-0.059557863
156	0xbc1604d9	-0.009156429
157	0x3d03170c	0.0320044
158	0x3dc0c95a	0.09413405
159	0xbd7f75d7	-0.06236824
160	0xbd3831cc	-0.044969365
161	0x3dbc477e	0.091933236
162	0x3d95a998	0.07307738
163	0xbc4658b1	-0.012106107
164	0x3d9e89d6	0.07741134
165	0x3c52d2e1	0.01286766
166	0xbdaa288a	-0.083085135
167	0x3de32a48	0.11092049
168	0xbce8b3b3	-0.028406
169	0x3c9f4d25	0.019445965
170	0x3d8e9cc3	0.06963494
171	0x3da396c8	0.079877436
172	0x3dbdfee8	0.09277135
173	0xbc984b20	-0.01859051
174	0xbd627f8c	-0.05529742
175	0xbd662333	-0.056185912
176	0x3d6070db	0.054795127
177	0xbc43d447	-0.011952466
178	0x3df1bf52	0.118040696
179	0x3bd0d2c5	0.006372782
180	0xbd392ec3	-0.04521061
181	0xbdfe4ec6	-0.124173686
182	0xbd208f73	-0.039199304
183	0x3d4bd96e	0.049767904
184	0x3d663f25	0.056212563
185	0x3dedc199	0.116091914
186	0xbd3b7ad5	-0.04577144
187	0x3c719987	0.014746076
188	0xbd6f7f90	-0.058471262
189	0x3b6c1539	0.0036023392
190	0xbdc11631	-0.09428061
191	0x3cfdedf7	0.03099726
192	0xbd96b175	-0.07358066
193	0xbce2d2b8	-0.02768837
194	0xbda5abb3	-0.0808939
195	0xbd4e1265	-0.05031051
196	0x3c1566fd	0.009118793
197	0x3c7fb253	0.015606481
198	0xbd76fd5b	-0.060300212
199	0x3d656fe0	0.056014895
200	0x3d307033	0.04307575
201	0x3def7dab	0.11693891
202	0x3d77344c	0.06035261
203	0xbdc6da25	-0.097095765
204	0xbdbbfc65	-0.09179
205	0xbd181805	-0.03713228
206	0x3d914da0	0.07094884
207	0x3cc12695	0.023577968
208	0xbd978903	-0.0739918
209	0x3d803dad	0.06261764
210	0xbda29466	-0.07938461
211	0xbdf232ee	-0.1182612
212	0xbd0909c4	-0.03345658
213	0x3d6ec26d	0.058290888
214	0x3d9b5659	0.07584829
215	0xbd310bb2	-0.043224044
216	0xbd6291ed	-0.055314947
217	0xbd4c293a	-0.049844004
218	0xbc11402a	-0.008865396
219	0xbce26ad8	-0.027638838
220	0xbe20f2a6	-0.15717563
221	0xbd9533d7	-0.07285278
222	0x3ca3893d	0.019962901
223	0xbd84b6a1	-0.06480146
224	0xbd5b3c29	-0.05352417
225	0xbdb418c3	-0.087937854
226	0x3d8f3311	0.06992162
227	0x3d0ec247	0.034853246
228	0x3d9ed52c	0.07755503
229	0xbd0e80ab	-0.034790676
230	0x3dc72921	0.097246416
231	0xbd5bdee6	-0.05367937
232	0x3dc90184	0.09814742
233	0xbda5b955	-0.0809199
234	0x3c9cc185	0.019135246
235	0xbd4de810	-0.05027014
236	0x3d11525d	0.03547894
237	0xbdc6ca12	-0.097065106
238	0xbd88fe97	-0.06689184
239	0xbd2d02be	-0.042238943
240	0xbdc46d4a	-0.09591158
241	0x3bc8a8b8	0.0061236285
242	0xbc60e652	-0.013726788
243	0x3d88ffcf	0.066894166
244	0x3c9901d3	0.018677628
245	0x3deaa420	0.114570856
246	0x3de3fe6d	0.11132512
247	0x3d6b58b0	0.057457626
248	0x3d78db29	0.060755882
249	0x3dd8035f	0.10547518
250	0xbd720ce5	-0.05909433
251	0x3db64437	0.0889973
252	0xbdafec2e	-0.085899696
253	0xbd48d465	-0.04903068
254	0x3c15286d	0.009103877
255	0x3db9e7e5	0.090774335

fc_out.bias f4 [13]
0	0xbd017dec	-0.03161423
1	0xbba6e24e	-0.0050928956
2	0xbd07e031	-0.03317279
3	0x3db62ec5	0.08895639
4	0xbcc80192	-0.024414811
5	0xbd32cb31	-0.04365081
6	0xbd826146	-0.0636621
7	0xbe1131b2	-0.14179114
8	0xbdf06efe	-0.1173992
9	0xbd58a73d	-0.052893866
10	0xbda9ded4	-0.08294454
11	0xbdd342cb	-0.10315474
12	0x3ccd69c9	0.025074856
