data/trained_models/meta_resnet.pth (torch, 282546 bytes, 12 tensors)

net.0.weight f4 [128, 13]
0	0xbe219372	-0.15778902
1	0xbe17c8ee	-0.14822742
2	0x3e517759	0.20455684
3	0xbd7d5f52	-0.061858483
4	0xbe2fc9a2	-0.1716676
5	0xbe3e4ee6	-0.18584785
6	0xbe8bdd75	-0.27317396
7	0x3d8500d7	0.06494301
8	0xbe0c3b12	-0.13694409
9	0x3e587e2f	0.21141885
10	0xbe41936e	-0.18903896
11	0xbe7c6f7d	-0.24651904
12	0xbe0ddff6	-0.13854966
13	0xbd7ed5b4	-0.062215522
14	0x3c9f9907	0.019482149
15	0x3db7f7f5	0.08982841
16	0x3e65697c	0.2240352
17	0x3e51c575	0.2048548
18	0x3d1d9812	0.038475104
19	0xbe1edca1	-0.15513851
20	0x3e36eb43	0.17863183
21	0xbd91bcf0	-0.07116115
22	0x3e263eaf	0.1623485
23	0x3d1ed41c	0.038776502
24	0x3e14a2fb	0.14515297
25	0xbe8189a8	-0.25300336
26	0xbad3c59f	-0.0016156918
27	0x3d96ba94	0.07359806
28	0x3df41130	0.11917341
29	0xbe99c909	-0.3003619
30	0xbe82e78f	-0.2556729
31	0xbc5111d3	-0.012760597
32	0x3e6ff039	0.23431481
33	0x3d4019d5	0.046899635
34	0x3dd77960	0.10521197
35	0xbe473788	-0.19454777
36	0x3e19b489	0.15010275
37	0xbe865919	-0.2623985
38	0x3e9303cb	0.2871383
39	0x3d073835	0.033012588
40	0xbe65eb92	-0.22453144
41	0xba6b05a3	-0.00089653785
42	0x3e06658b	0.13124673
43	0xbe454d69	-0.19267811
44	0x3cb28834	0.021793462
45	0x3c839dae	0.016066398
46	0x3e472124	0.19446236
47	0xbe519f50	-0.20470929
48	0x3c257113	0.01009776
49	0xbe815668	-0.25261235
50	0xbe866ff5	-0.2625729
51	0x3e5999e7	0.21250115
52	0xbe5c8478	-0.21534908
53	0x3e6d9223	0.23200278
54	0x3e98dcdf	0.2985601
55	0xbdadb47c	-0.0848169
56	0x3e019cdf	0.12657498
57	0xbe401f49	-0.18761934
58	0xbe0d9b54	-0.13828784
59	0x3d9e6198	0.07733458
60	0x3e3c3076	0.18377861
61	0x3da77e3e	0.08178376
62	0x3cb070bd	0.021538133
63	0x3d333cd1	0.04375917
64	0x3dcb5816	0.099289104
65	0x3e750816	0.23928866
66	0x3da9844e	0.08277188
67	0xbcd058ec	-0.025433026
68	0x3d1b7cb2	0.037960716
69	0xbe66a5c3	-0.2252417
70	0x3e9b215c	0.3029889
71	0xbdcab2c3	-0.09897377
72	0xbe2bcf59	-0.16778316
73	0xbcb5f84a	-0.02221312
74	0xbd9d7ef5	-0.07690231
75	0x3deb2008	0.11480719
76	0xbe76513b	-0.24054424
77	0xbe8dde83	-0.27708825
78	0x3e485a40	0.19565678
79	0xbb7fd8cb	-0.003903913
80	0xbe747efc	-0.23876566
81	0xbe6d0c8d	-0.23149319
82	0x3e0f355e	0.13985202
83	0x3d31556b	0.04329435
84	0x3ddd69a3	0.10811164
85	0x3d896cd5	0.06710211
86	0x3e933933	0.28754577
87	0x3d7b890d	0.06141
88	0xbd5e34ea	-0.05424968
89	0x3e6f2e8e	0.23357603
90	0xbd5eabb1	-0.054362956
91	0xbe68fc91	-0.22752596
92	0xbb93b5f4	-0.0045077745
93	0x3e13352c	0.14375752
94	0x3e27f519	0.16402091
95	0x3d915ba2	0.07097556
96	0x3d128fd7	0.035781708
97	0x3e6e80a4	0.2329126
98	0xbe6aaf76	-0.22918496
99	0xbd823307	-0.06357389
100	0xbe86a225	-0.2629558
101	0x3e18c9ce	0.14920732
102	0x3e8e083d	0.2774066
103	0xbcd9d2d2	-0.026589785
104	0x3de78ea2	0.11306502
105	0xbe6da9b9	-0.23209275
106	0xbda9ffbd	-0.08300731
107	0xbd8c6107	-0.06854444
108	0x3e38fbaf	0.1806476
109	0x3e24f0ea	0.16107526
110	0xbd8b19a8	-0.06792003
111	0xbd785f4c	-0.060637757
112	0xbe4b3a53	-0.19846468
113	0x3e546234	0.20740587
114	0xbe78488a	-0.24246421
115	0xbe52adff	-0.20574187
116	0x3e8f9104	0.28040326
117	0x3e42e9b8	0.19034469
118	0x3d252d75	0.040326554
119	0x3e396f84	0.18108946
120	0xbcf75374	-0.03019116
121	0x3e37c441	0.17945959
122	0xbe0258a8	-0.12729132
123	0xbd91932f	-0.07108151
124	0x3c764452	0.015030937
125	0xbe831ec9	-0.25609425
126	0x3e5d0566	0.2158409
127	0x3e473170	0.19452453
128	0xbe093a37	-0.13401113
129	0xbe6fd033	-0.23419265
130	0x3e3d555c	0.18489593
131	0x3e383305	0.17988212
132	0x3c146f08	0.009059675
133	0x3e8a5285	0.27016082
134	0xbc86b1a9	-0.016442137
135	0x3e13c6b1	0.14431264
136	0xbd9dfa58	-0.07713765
137	0xbc732ee0	-0.014842719
138	0x3d982fde	0.07431005
139	0x3da20a67	0.0791214
140	0x3d0de4e8	0.03464213
141	0x3e928ffe	0.28625482
142	0xbe6eef5c	-0.23333496
143	0xbe5efb8d	-0.21775647
144	0xbdb4da7f	-0.08830737
145	0xbe4ca23d	-0.19983764
146	0x3b025efd	0.0019893043
147	0x3e472a99	0.19449843
148	0xbca5d9dc	-0.020245485
149	0x3e5afaac	0.21384686
150	0x3dcfe0e4	0.10150316
151	0xbe58bbfa	-0.21165457
152	0x3dea1127	0.11429053
153	0xbd06f742	-0.032950647
154	0xbe5aa3ee	-0.21351597
155	0xbe975595	-0.2955748
156	0xbcfec89a	-0.031101514
157	0xbdd46bed	-0.10372148
158	0x3d030e7c	0.031996235
159	0xbd056418	-0.03256616
160	0x3d48f365	0.049060244
161	0x3c50c3cd	0.012741995
162	0xbe62ada5	-0.22136553
163	0x3c707859	0.014677131
164	0x3e844603	0.25834665
165	0xbe1d096e	-0.15335628
166	0xbe4804b4	-0.19533044
167	0xbe307f98	-0.17236173
168	0xbe79d516	-0.24397692
169	0x3e31e7e5	0.17373617
170	0xbe83500f	-0.25647017
171	0x3d56e8a2	0.05246795
172	0xbe94e64e	-0.2908196
173	0x3dde9c5b	0.10869666
174	0x3e85a0d6	0.2609927
175	0xbe17291b	-0.14761774
176	0xbe74d340	-0.2390871
177	0x3e462f99	0.19354095
178	0x3e7801fc	0.24219507
179	0x3b7fb8fa	0.0039020167
180	0xbe746dc9	-0.23870005
181	0x3bb77dd6	0.0055997176
182	0xbe287df7	-0.16454302
183	0xbdc11e62	-0.09429623
184	0xbe285ca8	-0.16441596
185	0x3e8546a5	0.2603046
186	0x3c8c8247	0.017151965
187	0x3e47cdc3	0.19512086
188	0xbdff877e	-0.12477015
189	0x3d7d6fd1	0.061874215
190	0xbdc885e7	-0.09791165
191	0xbe4a895b	-0.1977896
192	0xbd74a0a9	-0.05972353
193	0x3e2e8de6	0.17046317
194	0x3d976c07	0.073936515
195	0x3e0f72eb	0.14008681
196	0x3e94bfdf	0.29052636
197	0xbd7bb9d0	-0.0614565
198	0xb9f3e2f7	-0.00046517674
199	0xbb2f69c3	-0.002676592
200	0x3e8d9acb	0.2765716
201	0x3e02a35c	0.12757629
202	0xbe4234ac	-0.18965405
203	0x3e559a68	0.20859683
204	0x3e8f5e64	0.28001702
205	0x3c3ac3fe	0.011399267
206	0x3e742130	0.23840785
207	0xbc532c65	-0.012889002
208	0x3d98098e	0.074236974
209	0xbe3d6735	-0.18496402
210	0xbe216b2a	-0.15763536
211	0xbd2e4cdc	-0.042553768
212	0x3e4de902	0.20108417
213	0xbe108bd0	-0.14115834
214	0x3d2672c9	0.04063681
215	0x3e2cbfa3	0.16869979
216	0xbe459979	-0.19296826
217	0x3db144da	0.086557105
218	0xbe5adb67	-0.21372758
219	0xbe70ef85	-0.2352887
220	0xbdfd27fa	-0.123611405
221	0xbe1b7eb1	-0.15185048
222	0x3e82d95c	0.25556457
223	0x3e56407b	0.20923035
224	0xbe405184	-0.18781096
225	0x3e671ae4	0.22568852
226	0xbe686cf2	-0.2269781
227	0xbe4dab3a	-0.20084849
228	0xbd792b3b	-0.060832243
229	0x3c4a5cb2	0.012351202
230	0x3e5bc924	0.21463448
231	0xbe31b7de	-0.17355296
232	0xbe8468f7	-0.25861332
233	0xbe81f907	-0.25385305
234	0x3e97cd12	0.29648644
235	0x3e451755	0.19247182
236	0x3e47c596	0.19508967
237	0x3dd78100	0.10522652
238	0xbda52580	-0.08063793
239	0xbe5f7c8f	-0.21824859
240	0x3e75bd4c	0.23997992
241	0x3d0df8fd	0.03466128
242	0x3db90189	0.09033496
243	0x3e8f1e37	0.2795274
244	0xbd8b2c3f	-0.06795549
245	0x3c8bc7ff	0.017063139
246	0xbe720790	-0.23635697
247	0xbe4066c2	-0.18789199
248	0x3c3824ff	0.011239289
249	0x3d268897	0.040657606
250	0x3e709080	0.23492622
251	0xbe38ff76	-0.180662
252	0xbcd43ea0	-0.025908768
253	0x3e0d0425	0.13771112
254	0x3e0689d1	0.1313851
255	0x3e5c3b64	0.2150703

net.0.bias f4 [128]
0	0xbbb2a979	-0.0054523316
1	0x3e84e1e5	0.25953594
2	0xbd24b112	-0.04020793
3	0x3e56fc96	0.20994791
4	0xbda87041	-0.08224536
5	0xbe7f0738	-0.24905097
6	0xbdb00e4c	-0.08596477
7	0x3e139366	0.14411697
8	0x3e8087c1	0.25103572
9	0x3dc07b77	0.09398549
10	0xbe650d91	-0.22368456
11	0x3df8d5f9	0.12150187
12	0xbd91be2c	-0.071163505
13	0xbd05205e	-0.03250157
14	0x3e0396c4	0.12850481
15	0xbe43b5a1	-0.19112255
16	0x3e274098	0.16333234
17	0xbd9095df	-0.07059836
18	0x3db31297	0.0874378
19	0x3e436407	0.19081126
20	0x3dabfd00	0.08397865
21	0xbdb86813	-0.090042256
22	0x3e088342	0.13331321
23	0x3a9b2d0e	0.0011838989
24	0xbbf6c474	-0.0075307433
25	0x3e49d262	0.19709161
26	0x3e4d2066	0.2003189
27	0xbcac4d5d	-0.021032983
28	0x3e13e29d	0.14441915
29	0x3e5029cd	0.20328446
30	0xbe1af7d3	-0.151336
31	0xbe6dd89e	-0.23227164
32	0xbe68778b	-0.22701852
33	0xbd4a8829	-0.04944626
34	0xbdd107d5	-0.10206572
35	0xbdd7a6c9	-0.105298586
36	0x3debe9fd	0.11519239
37	0xbd476afc	-0.048686013
38	0x3e81143a	0.25210744
39	0x3d1a8101	0.037720684
40	0x3e10c7a0	0.14138651
41	0x3e2d30ba	0.16913119
42	0xbc5a3551	-0.013318376
43	0xbe16f4e6	-0.14741859
44	0xbe42dee2	-0.19030336
45	0xbded4df2	-0.115871325
46	0xbe61d4bc	-0.22053808
47	0xbc44f432	-0.012021111
48	0x3e53224e	0.20618555
49	0xbe73cf5d	-0.23809572
50	0x3e795cf6	0.24351868
51	0x3e7298e3	0.23691134
52	0xbe376010	-0.17907739
53	0x3e0c95bc	0.13728994
54	0xbda7de2d	-0.081966735
55	0x3dd4158c	0.10355672
56	0xbe8a14d4	-0.26969016
57	0x3e4ed0b1	0.20196797
58	0xbe2012e1	-0.15632202
59	0xbe1e11d0	-0.15436482
60	0xbde46697	-0.1115238
61	0xbd0fb23f	-0.035082098
62	0x3e3a567c	0.18197054
63	0xbd42974d	-0.047507573
64	0x3e923560	0.28556347
65	0xbc4dd797	-0.012563608
66	0xbc545243	-0.012959066
67	0x3e13d6a4	0.14437348
68	0x3e562dd3	0.20915918
69	0x3df28cc1	0.11843253
70	0xbdbd832d	-0.092535354
71	0x3e5ac8d3	0.21365671
72	0xbe472384	-0.19447142
73	0xbe700c9e	-0.23442313
74	0x3c818725	0.015811512
75	0xbe7c75ab	-0.24654262
76	0xbe86ab70	-0.2630267
77	0x3e6a222a	0.22864595
78	0xbba0e53c	-0.0049101394
79	0xbd164169	-0.036683474
80	0xbe8de5b2	-0.27714306
81	0xbd8059d9	-0.06267137
82	0xbe2d90fd	-0.1694984
83	0xbd16f062	-0.03685034
84	0xbdb0cf2a	-0.086332634
85	0xbd9c52d3	-0.07632985
86	0xbe07ee68	-0.13274539
87	0xbd82b8af	-0.06382882
88	0x3e9d56bb	0.30730233
89	0x3e168b77	0.14701639
90	0xbe4278b5	-0.18991359
91	0x3e8787fe	0.2647094
92	0x3ddde87f	0.10835361
93	0x3da2d908	0.07951552
94	0xbe306dd4	-0.17229396
95	0x3e6ca107	0.23108302
96	0x3d140a98	0.036142915
97	0xbe1549c6	-0.14578924
98	0x3e21e4ed	0.15809985
99	0x3e16c295	0.14722665
100	0xbe47b4ad	-0.19502516
101	0xbe2f31b0	-0.17108798
102	0x3da3d4d2	0.07999577
103	0x3d3f49ff	0.046701428
104	0xbd44d7bd	-0.048057307
105	0xbd461820	-0.04836285
106	0xbd66d04c	-0.05635099
107	0xbdbc7fc1	-0.092040546
108	0xbdb2206e	-0.08697592
109	0x3e8542f6	0.2602765
110	0xbd3c92e9	-0.046038542
111	0x3d8c3c40	0.06847429
112	0xbe02867e	-0.12746617
113	0x3d37ccec	0.044873163
114	0xbe44d94d	-0.19223519
115	0x3e81c448	0.25345063
116	0xbe0e9ead	-0.13927718
117	0xbcf9034e	-0.030397084
118	0xbe6f2687	-0.23354541
119	0xbd5a468f	-0.053289946
120	0xbe6efcdb	-0.23338644
121	0x3d21e3db	0.03952394
122	0xbe25bc69	-0.16185154
123	0xbdc15e63	-0.09441831
124	0xbe081efe	-0.13293073
125	0xbe4a7f39	-0.19775094
126	0xbdb80aeb	-0.089864574
127	0x3d71a47b	0.05899475

net.2.lin1.weight f4 [128, 128]
0	0x3d880ac9	0.06642682
1	0xbc2aa49c	-0.0104152225
2	0xbd5b295f	-0.05350625
3	0xbcb21c2a	-0.021741945
4	0x3c8c1c7a	0.017103422
5	0xbc237e47	-0.009978837
6	0xba884b65	-0.0010398446
7	0x3cf5bf91	0.029998573
8	0x3d006582	0.031346805
9	0x3d1732bb	0.036913615
10	0xbd56f8d6	-0.052483402
11	0xbd3215ce	-0.043477826
12	0x3d3fa378	0.046786755
13	0xbd524a55	-0.05134042
14	0x3ccefaf9	0.025266157
15	0xbc4b409a	-0.012405539
16	0xbd840781	-0.06446744
17	0xbd2d3766	-0.04228916
18	0xbd6538cc	-0.05596237
19	0x3b17abb3	0.0023143112
20	0xbd3b3ff5	-0.04571529
21	0x3c4da36a	0.012551168
22	0x3d5c928d	0.0538507
23	0x3d3e61c5	0.04647996
24	0xbd5ffe84	-0.054686084
25	0xbd6ebef1	-0.058287565
26	0xbbca1ee5	-0.0061682337
27	0xbd5ece12	-0.054395743
28	0xbdb6ae04	-0.089199096
29	0x3d153224	0.03642477
30	0x3de518ae	0.11186348
31	0x3d3cc9f4	0.046091035
32	0x3b8c0448	0.0042729713
33	0xbdd7710f	-0.10519611
34	0xbdaadfc4	-0.08343461
35	0xbd5ca9ec	-0.053872988
36	0xbd34b982	-0.044122227
37	0xbd844bb6	-0.06459753
38	0xbd767f0b	-0.06017975
39	0xbcec803f	-0.028869746
40	0x3c85cb0f	0.016332177
41	0xbda43d89	-0.080195494
42	0xbda8d5b6	-0.08243887
43	0x3d106f11	0.03526217
44	0xbdd7a68b	-0.105298124
45	0xbc48b23b	-0.012249525
46	0x3d1460c3	0.03622509
47	0xbdb069a3	-0.086138986
48	0xbd8e84e9	-0.06958944
49	0xbd3a4458	-0.045475334
50	0xbcee7b0e	-0.029111411
51	0xbd20d50f	-0.03926569
52	0x3c9bbe31	0.019011589
53	0xbdb72f8f	-0.08944618
54	0xbc61fbd8	-0.013792954
55	0xbb1ac182	-0.0023613875
56	0x3d332bfa	0.04374311
57	0x3d1d9662	0.038473494
58	0xbd6e56b7	-0.058188166
59	0xbcdedeb0	-0.027205795
60	0xbd39fbb2	-0.04540605
61	0xbde8003b	-0.11328169
62	0xbdbe87a5	-0.09303216
63	0xbdd1b769	-0.10240061
64	0xbb7711f4	-0.003769991
65	0x3bd355b1	0.006449424
66	0xbc4f7a8a	-0.012663493
67	0xbd08bda1	-0.03338397
68	0x3d3d488c	0.046211764
69	0x3cdb6d53	0.026785528
70	0xbc203f68	-0.009780742
71	0xbdc7395f	-0.097277395
72	0x3c3e435a	0.011612738
73	0x3d347e63	0.044065844
74	0x3d6330b9	0.055466387
75	0xbb9d6638	-0.004803445
76	0x3d3c7d0d	0.046017695
77	0xbd6751f0	-0.056474626
78	0x3d3bec70	0.04587978
79	0xbd120438	-0.035648555
80	0x3d2948d4	0.04132922
81	0xbd92194e	-0.07133733
82	0xbdbb7079	-0.09152312
83	0x3cd59c0d	0.026075387
84	0xbd24ef42	-0.040267237
85	0x3c6cf2c2	0.014462175
86	0x3bbc6cb7	0.0057502645
87	0xbdc43efd	-0.095823266
88	0xbd4c00a9	-0.049805317
89	0x3c82bae2	0.015958253
90	0x38e5cbdc	0.00010957543
91	0xbde1a3c2	-0.110175624
92	0xbd549afe	-0.051905625
93	0x3da0d94f	0.07853948
94	0x3b44210a	0.002992692
95	0xbdad8dc2	-0.08474304
96	0xbb235c37	-0.002492679
97	0x3d49ac50	0.049236596
98	0x3da9bdde	0.082881674
99	0xbc536179	-0.012901657
100	0xbc974d3b	-0.018469444
101	0xbd2c8020	-0.042114377
102	0xbcec9c83	-0.028883224
103	0xbccdf02c	-0.025138937
104	0x3d0d3ab0	0.034479797
105	0xbda794be	-0.08182667
106	0xbd678a70	-0.05652851
107	0x3d8138f6	0.063096926
108	0xbd8b2786	-0.06794648
109	0x3d7e2d61	0.062054995
110	0xbd952763	-0.07282903
111	0x3ba16eff	0.004926562
112	0xbdb743e5	-0.08948497
113	0xbb083236	-0.0020781881
114	0xbd1f08e3	-0.038826834
115	0x3c01db25	0.007925783
116	0x3cddc756	0.02707259
117	0xbd87626c	-0.06610569
118	0x3c594483	0.013260963
119	0x3d1891e4	0.037248507
120	0x3cef72fb	0.029229632
121	0x3c1107fd	0.008852002
122	0xbd673aa5	-0.056452412
123	0x3d6d2ca3	0.057903897
124	0x3ccccc30	0.024999708
125	0xbdc8b946	-0.09800963
126	0xbda8a3b3	-0.08234348
127	0xbd917fe5	-0.07104472
128	0xbd839904	-0.0642567
129	0xbd7bfb9f	-0.06151926
130	0x3d275ace	0.040858082
131	0xbdafefeb	-0.085906826
132	0x3dca4a7d	0.09877489
133	0xbdcc1669	-0.09965212
134	0xbb0726e6	-0.002062255
135	0x3d95d177	0.07315343
136	0xbd46ce5b	-0.04853664
137	0xbdd47dac	-0.103755325
138	0x3dabd04d	0.083893396
139	0xbdb924ac	-0.09040198
140	0xbda009ca	-0.07814367
141	0x3c910e5a	0.017707039
142	0x3cbf142d	0.02332505
143	0xbc92ea16	-0.017933886
144	0xbda3ec8a	-0.080041006
145	0xbc6ef7d5	-0.014585455
146	0xbca3199f	-0.019909678
147	0xbc8c0ff6	-0.017097455
148	0x3d0e0663	0.03467406
149	0xbca5aba9	-0.020223456
150	0x3d0db672	0.03459782
151	0xbc85a821	-0.016315522
152	0xbdcf4503	-0.10120585
153	0x3d968023	0.07348659
154	0x3d4ec537	0.050481047
155	0xbd445f59	-0.047942493
156	0xbcc47012	-0.02397922
157	0x3d7d63d1	0.06186277
158	0xbcec0b52	-0.028813992
159	0xbc460bfb	-0.012087817
160	0x3c8ceaa5	0.017201731
161	0x3b7b00bc	0.0038299998
162	0x3c10ec98	0.008845471
163	0xbd5be4aa	-0.053684868
164	0x3dd1e557	0.10248821
165	0xbca5880f	-0.02020648
166	0xbc1e6f5d	-0.009670106
167	0xbd7cbe05	-0.061704654
168	0x3d7884e1	0.0606736
169	0x3bdc8486	0.006729665
170	0xbd7e5284	-0.06209041
171	0xbbd95a29	-0.0066330624
172	0xbc2aeb6f	-0.010432108
173	0xbd92ba3b	-0.07164427
174	0xbc481be1	-0.012213678
175	0xbb122aba	-0.00223033
176	0x3d308176	0.043092214
177	0x3cca192b	0.024670204
178	0x3d054c3a	0.0325434
179	0xbd217da5	-0.039426465
180	0x3ccedc44	0.025251515
181	0x3a1a8b88	0.00058954256
182	0xbd50c332	-0.050967403
183	0x3b02c3af	0.0019953062
184	0x3c879738	0.016551599
185	0x3d6f522c	0.058427975
186	0xbd6596d9	-0.056052063
187	0xbca2add1	-0.019858273
188	0xbd8fd2cc	-0.07022628
189	0x3d77e1f0	0.060518205
190	0x3d80fa9b	0.06297799
191	0x3d03b873	0.032158326
192	0xbd05d876	-0.032677136
193	0x3d649c25	0.055812974
194	0xbdb0fd14	-0.08642021
195	0xbd023908	-0.03179267
196	0x3c738824	0.014864001
197	0x3dab137c	0.08353326
198	0xba41c7c0	-0.0007392131
199	0xbd589e8a	-0.05288557
200	0xbd0603c3	-0.03271843
201	0x3d2bec62	0.04197348
202	0xbd771a91	-0.06032807
203	0xbcea7c61	-0.028623762
204	0xbcd796d5	-0.02631704
205	0x3c82ba15	0.015957871
206	0x3ca7de45	0.020491729
207	0x3ccb1e12	0.024794612
208	0xbd9f81ba	-0.07788415
209	0xbd8ddc0f	-0.069267385
210	0x3db5c49f	0.08875393
211	0x3d9b0905	0.0757008
212	0xbcbd2e39	-0.02309333
213	0x3dcc7df2	0.0998496
214	0x3da2270d	0.079176046
215	0xbc5e6ce5	-0.013575767
216	0x3d699ced	0.05703442
217	0x3d594115	0.053040583
218	0xbd7224f9	-0.05911729
219	0xbd8aea4f	-0.06782972
220	0xbd316baf	-0.043315586
221	0xbdd4cffe	-0.10391234
222	0x3d9c93ef	0.076454036
223	0xbb8ddb16	-0.0043290956
224	0x3da3d983	0.080004714
225	0x3c9e2467	0.019304467
226	0x3ca9c0ea	0.020721871
227	0x3d90e262	0.07074429
228	0x3cd0cb8d	0.025487686
229	0xbcf15f7c	-0.029464476
230	0xbd8e73d4	-0.06955686
231	0xbd3a26b4	-0.045447066
232	0xbd914c5d	-0.07094643
233	0xbd73dbc9	-0.059535775
234	0xbd2c731f	-0.042101976
235	0xbd226b5f	-0.03965318
236	0xbd70bf5a	-0.058776237
237	0x3d596e7c	0.05308388
238	0x3d750a5b	0.05982433
239	0x3d98ec92	0.07466997
240	0x3c53aea6	0.012920057
241	0xbd35bb4f	-0.044368085
242	0x3d5869b0	0.052835166
243	0xbc999d92	-0.018751893
244	0xbcf2e507	-0.029650224
245	0xbd370e32	-0.044691272
246	0xbd537b99	-0.051631544
247	0xbc91e33a	-0.017808545
248	0x3d905434	0.070473105
249	0xbd111272	-0.03541798
250	0xbcebd339	-0.028787242
251	0xbdc88273	-0.09790506
252	0x3c6318a8	0.013860859
253	0x3bffddf5	0.0078084418
254	0x3d99d7eb	0.07511886
255	0x3d9c26b2	0.07624568

net.2.lin1.bias f4 [128]
0	0x3bbec9b8	0.0058223866
1	0x3cbcae26	0.02303226
2	0xbd29cd02	-0.041455276
3	0x3ca73a3a	0.020413507
4	0x3c95fcc7	0.01830901
5	0x3d0952e2	0.03352631
6	0x3d43597c	0.04769276
7	0xbdbf6015	-0.09344498
8	0x3d0b7ba6	0.034053467
9	0x3bff20ae	0.007785878
10	0xbb0f37bc	-0.0021853289
11	0xbd1c149e	-0.0381056
12	0x3d5c8599	0.053838346
13	0xbd835d40	-0.064142704
14	0x3c95e8aa	0.01829942
15	0x3b60934f	0.003426749
16	0xbcccde01	-0.025008203
17	0x3d8347b3	0.0641016
18	0xbd2fcb5f	-0.04291856
19	0x3d168b21	0.036753777
20	0xbd1edd95	-0.038785536
21	0x3c36baef	0.011152967
22	0xbc1f4300	-0.009720564
23	0xbd2e75de	-0.042592876
24	0x3c9666ee	0.018359628
25	0xbd693b44	-0.056941286
26	0xbbb405d2	-0.005493858
27	0x3d261c94	0.040554598
28	0xbc861abe	-0.016370174
29	0x3b7929ee	0.0038019377
30	0x3c267cb9	0.010161572
31	0xbd93f2ca	-0.07224043
32	0x3d5917e4	0.0530013
33	0x3dc62d85	0.09676651
34	0x3da0275d	0.07820008
35	0xbda5874a	-0.08082445
36	0xbd9f8fd3	-0.07791104
37	0x3dba6546	0.091013476
38	0x3d80365f	0.062603705
39	0xbcf7870c	-0.030215763
40	0xbd0703b2	-0.03296251
41	0xbcfe12cc	-0.031014822
42	0x3d7c4b3d	0.06159519
43	0x3c35b912	0.0110914875
44	0xbd3e5f23	-0.04647745
45	0xbd531761	-0.051535968
46	0xbc400b9d	-0.011721519
47	0x3d94c50d	0.07264147
48	0x3dd0f136	0.10202257
49	0x3d323e0f	0.043516215
50	0x3cdd6eea	0.027030427
51	0x3b30e823	0.0026993833
52	0x3d8bb13f	0.068209164
53	0xbd0840cd	-0.033264924
54	0xbd95afa5	-0.07308892
55	0x3d8d83ae	0.069098815
56	0xbd9578b0	-0.0729841
57	0x3db951cd	0.090488054
58	0xbd5dca68	-0.054148108
59	0x3cc0419e	0.023468789
60	0xbc836b61	-0.016042413
61	0xbd35bcec	-0.044369623
62	0xbd0c8acd	-0.03431206
63	0x3db62664	0.08894041
64	0xbccee852	-0.025257263
65	0xbdc03a1d	-0.09386084
66	0x3d6aef0e	0.057356887
67	0xbd066c9c	-0.03281842
68	0x3d2967a7	0.041358616
69	0xbc4735e6	-0.0121588465
70	0x3af10c6e	0.0018390545
71	0xbd30bd11	-0.043149058
72	0x3d2893ef	0.041156705
73	0xbdb16f85	-0.08663849
74	0x3d00b91a	0.031426527
75	0xbdc517ab	-0.09623655
76	0xbda91e2f	-0.0825771
77	0xbd872935	-0.065996565
78	0xbd416e28	-0.047224194
79	0xbd6c4cb1	-0.057690326
80	0x3d724a2d	0.05915277
81	0xbcc89d88	-0.02448918
82	0x3b873711	0.0041264375
83	0xbb644c26	-0.0034835427
84	0xbbabacd2	-0.0052391076
85	0xbbe4cc3b	-0.006982354
86	0x3d34934a	0.04408578
87	0xbd1a66b4	-0.0376956
88	0x3d1e3824	0.03862776
89	0x3d68bdf2	0.05682177
90	0xbdecf6d4	-0.11570516
91	0xbc19209d	-0.0093461545
92	0x3dcc2011	0.09967054
93	0x3d8e7ae2	0.06957032
94	0x3dc04d3a	0.0938973
95	0xbd5390cc	-0.05165176
96	0xbd83d12d	-0.064363815
97	0xbd866d60	-0.065638304
98	0x3d859e5a	0.06524344
99	0x3dd6de9d	0.10491679
100	0xbced3c7c	-0.028959505
101	0xbdb1c6f6	-0.08680527
102	0xbaaf3e1d	-0.0013369952
103	0xbbdc5096	-0.006723474
104	0xbd8ac182	-0.0677519
105	0xbd726057	-0.059173908
106	0xbd335e68	-0.043791205
107	0xbcd308cb	-0.025761029
108	0x3d587378	0.052844495
109	0x3da1dc23	0.07903316
110	0xbdc17baa	-0.09447415
111	0x3d5e4653	0.054266285
112	0xbd20b2ae	-0.039232902
113	0xbd8c85c0	-0.06861448
114	0x3c8ed7df	0.01743692
115	0xbc936f5d	-0.017997438
116	0xbda28a35	-0.07936517
117	0x3d7d41c1	0.061830286
118	0xbd8e4957	-0.06947582
119	0x3d5a9c9e	0.053372018
120	0x3d0e91c6	0.03480699
121	0x3cc6af65	0.024253557
122	0x3d34b489	0.044117484
123	0x3d8ea1f1	0.069644816
124	0x3c8e8f6f	0.017402379
125	0x3d330e20	0.043714643
126	0x3da62ab2	0.08113612
127	0xbd8bb506	-0.06821637

net.2.lin2.weight f4 [128, 128]
0	0xbd7b6458	-0.061374992
1	0x3d63df45	0.05563285
2	0xbd8ec702	-0.069715515
3	0xbb1f55f0	-0.0024312697
4	0x3cc9eac0	0.02464807
5	0xbd120da7	-0.03565755
6	0x3c9a2044	0.018814214
7	0x3c9dd348	0.019265786
8	0x3d9adc3e	0.07561539
9	0x3db4e149	0.08832032
10	0xbd8afa75	-0.06786052
11	0x3d3291ea	0.043596186
12	0x3da4d2d7	0.08048027
13	0x3d9b1b33	0.07573547
14	0x3d14f23d	0.03636383
15	0xbd66d46d	-0.05635493
16	0xbc931a3a	-0.017956842
17	0x3d0a4709	0.03375915
18	0x3bc2d7c1	0.00594613
19	0xbd1a58d4	-0.03768237
20	0xbd1c4d9c	-0.03815995
21	0xbd6da593	-0.058019232
22	0xbaeb40a6	-0.0017948344
23	0xbd8289fb	-0.06373974
24	0x3d09402c	0.033508465
25	0xbda9e522	-0.08295657
26	0x3d25a83c	0.040443644
27	0x3da4ec0a	0.080528334
28	0xbd46b0ec	-0.04850857
29	0xbcb782c2	-0.022401217
30	0x3d3bd946	0.045861505
31	0xbd87f091	-0.06637681
32	0xbc6606ab	-0.014039676
33	0x3c90f6e0	0.017695844
34	0xbd66c58b	-0.056340735
35	0x3cda589b	0.026653579
36	0x3c8f6ca7	0.017507864
37	0xbd6295af	-0.05531853
38	0xbd09b583	-0.03362037
39	0x3d56ff04	0.052489296
40	0xbd1af954	-0.037835434
41	0x3cdac6cc	0.026706122
42	0x3d8c248e	0.0684291
43	0x3d375e14	0.044767454
44	0x3d553ffd	0.052062977
45	0xbd121979	-0.035668824
46	0x3cd3a76e	0.025836673
47	0x3c98484a	0.018589158
48	0xbce352c4	-0.027749427
49	0x3cd637b3	0.026149606
50	0x3d20e0a3	0.03927673
51	0x3d350751	0.04419643
52	0xbd8e57c0	-0.06950331
53	0xbcc9814c	-0.024597786
54	0xbd9ec22a	-0.077518776
55	0xbd4704f1	-0.048588697
56	0xbd118bec	-0.03553383
57	0x3db7b87e	0.08970736
58	0x3d30b6da	0.04314313
59	0xbd0660d5	-0.03280719
60	0x3d5e9f4d	0.05435114
61	0x3dadee32	0.08492698
62	0xbd8ab904	-0.0677357
63	0xbd80b745	-0.06284956
64	0xbd8d4110	-0.06897175
65	0xbd98fbd4	-0.074699074
66	0x3d8b0b9e	0.06789325
67	0x3d42a66e	0.047522
68	0xbd4aadbb	-0.04948209
69	0x3d971e4a	0.07378824
70	0xbdb209b7	-0.08693259
71	0x3da2393c	0.07921073
72	0xbd1f33a4	-0.038867608
73	0xbd693d66	-0.05694332
74	0xbcc6aacd	-0.024251366
75	0x3d26f008	0.040756255
76	0xbce657e8	-0.028118089
77	0x3c2bf278	0.010494821
78	0xbd2e525a	-0.042559005
79	0x3cbb0d4e	0.022833493
80	0xbce43f2c	-0.027862154
81	0xbd9ce821	-0.076614626
82	0xbda401e9	-0.08008177
83	0x3d3ba3ed	0.04581063
84	0xbd657b65	-0.05602588
85	0x3d6a14e7	0.05714884
86	0xbd47362e	-0.048635654
87	0xbce3d1ac	-0.02780994
88	0xbd9ab88d	-0.075547315
89	0xbd1e3373	-0.038623285
90	0xbd7e12b3	-0.06202955
91	0xbd30dd82	-0.043179996
92	0x3c71bd49	0.014754602
93	0xbdba2089	-0.09088237
94	0x3ce6817d	0.028137917
95	0xbcf40fa0	-0.029792607
96	0x3cee41c6	0.029084098
97	0xbd18a072	-0.037262388
98	0x3cce1cae	0.02516016
99	0xbbfb5e35	-0.0076711425
100	0xbd6c88e2	-0.05774773
101	0x3d5b6821	0.053566102
102	0xbd946fe9	-0.07247908
103	0xbd9db19b	-0.07699891
104	0x3ac1cc82	0.001478568
105	0x3a07663d	0.0005165076
106	0x3d7b611d	0.06137191
107	0x3da499d2	0.080371514
108	0xbce7bb0f	-0.028287439
109	0x3d502fa3	0.05082668
110	0x3d065f4d	0.03280573
111	0xbd96b743	-0.07359173
112	0xbd586a8d	-0.05283599
113	0x3d5a1cf2	0.05325026
114	0xbd60c6b8	-0.054877013
115	0x3cdf8f24	0.027289934
116	0xbc7f0dfb	-0.015567298
117	0xbd90be31	-0.07067526
118	0x3cdf468d	0.02725532
119	0xbb8c0795	-0.004273365
120	0x3dd493a2	0.10379721
121	0xbce2ac40	-0.027670026
122	0xbd8afc7b	-0.06786438
123	0xbace1dd5	-0.0015725443
124	0xbcabf712	-0.020991836
125	0xbd1ee2f7	-0.03879067
126	0x3bc58235	0.006027485
127	0x3ce61479	0.028085934
128	0xba32f465	-0.0006826579
129	0xbabbdc7e	-0.001433268
130	0xbb474dd1	-0.0030411372
131	0xbd9efb1d	-0.0776274
132	0xbd12ba41	-0.035822157
133	0x3d4dafb1	0.05021638
134	0xbd47aab2	-0.048746772
135	0x3c1a93a1	0.009434612
136	0x3d2941c0	0.04132247
137	0xbd83bd1c	-0.06432554
138	0xbd1b982b	-0.037986916
139	0xbd6e3b84	-0.058162227
140	0xbdb91ed5	-0.09039084
141	0xbd851da4	-0.06499794
142	0xbd9486ae	-0.072522506
143	0xbd58cce9	-0.052929793
144	0x3d038b76	0.032115422
145	0x3d52b744	0.051444307
146	0x3d8605ca	0.06544073
147	0xbb718921	-0.0036855417
148	0xbd78b5a1	-0.06072009
149	0xbceebdda	-0.029143263
150	0xbd7dfe99	-0.06201038
151	0xbd038551	-0.032109562
152	0xbdb9da71	-0.090748675
153	0x3d323477	0.043507066
154	0xbdb098f0	-0.086229205
155	0x3cd5dd74	0.026106574
156	0xbcb9580a	-0.022624988
157	0x3cf8b617	0.030360265
158	0x3d4beba6	0.04978528
159	0x3cd8748e	0.026422765
160	0xbd857f2a	-0.06518395
161	0xbd8a3301	-0.067480095
162	0x3d15cb4c	0.036570832
163	0xbd4becb5	-0.04978629
164	0xbbd61c3f	-0.006534129
165	0xbd81aa67	-0.0633133
166	0x3d3db5a1	0.046315793
167	0xbc70ac3f	-0.014689504
168	0xbda6ad86	-0.08138566
169	0x3d6d2542	0.05789686
170	0xbd7aef7e	-0.061263554
171	0x3dce0320	0.1005919
172	0xbd47890c	-0.048714682
173	0x3b78ccb9	0.003796382
174	0x3cc709c2	0.024296645
175	0x3d6e02b3	0.058108043
176	0xbd8e98b9	-0.06962723
177	0x3d3b67f6	0.04575344
178	0x3d959737	0.073042326
179	0xbbd3ad11	-0.00645984
180	0xbcaa2553	-0.02076975
181	0x3d95284b	0.07283076
182	0xbcb0b2a4	-0.021569557
183	0xbd43e362	-0.04782427
184	0xbd340ff1	-0.043960515
185	0xbd03ef01	-0.032210354
186	0xbd87fe44	-0.06640294
187	0x3c155366	0.009114122
188	0xbd8b77a0	-0.06809926
189	0x3d4303b5	0.047610957
190	0x3d67f540	0.056630373
191	0xbd965043	-0.073395275
192	0xbda2a153	-0.079409264
193	0xbdb6a4e4	-0.08918169
194	0xbd9c8799	-0.07643051
195	0xbda1c974	-0.07899752
196	0xbd714f97	-0.058913793
197	0x3d71d17f	0.05903768
198	0xbc6cadf6	-0.014445772
199	0x3d3f7a9e	0.046747796
200	0x3d65a1d0	0.05606252
201	0x3d8fff03	0.070310615
202	0xbd13c9c1	-0.03608108
203	0xbdc71e60	-0.097225904
204	0x3d9b4364	0.07581213
205	0xbcb1d728	-0.02170904
206	0xbd27d432	-0.04097385
207	0x3c534827	0.01289562
208	0xbbb30b95	-0.005464027
209	0xbd803e39	-0.06261868
210	0x3d15ece7	0.03660288
211	0xbc94cdb6	-0.018164497
212	0xbcb6edf8	-0.02233027
213	0x3bfe9e73	0.0077703535
214	0xbb5f4e49	-0.0034073761
215	0xbc86d24f	-0.016457705
216	0xbd24fa4e	-0.04027777
217	0xbd0a5332	-0.033770747
218	0xbd6483c8	-0.05578974
219	0xbc225f14	-0.009910364
220	0xbd76d3dd	-0.060260642
221	0xbcd5c6d8	-0.026095793
222	0x3c491572	0.012273179
223	0x3d656297	0.056002226
224	0x3c9c9f11	0.019118818
225	0x3d28c0c6	0.041199468
226	0xbce79f34	-0.028274156
227	0x3b95efc6	0.0045757024
228	0x3d998ce9	0.074975796
229	0x3b0756b4	0.0020651044
230	0xbc22b1cb	-0.009930084
231	0x3d4fe290	0.050753176
232	0x3cb23af6	0.02175663
233	0x3d322bef	0.04349893
234	0x3bc6c09f	0.0060654427
235	0x3d1c2f45	0.038131017
236	0x3cd82a01	0.026387217
237	0xbcb66072	-0.022262786
238	0x3d4d0b79	0.05005977
239	0x3d91a0ff	0.07110786
240	0xbd2b7e76	-0.04186865
241	0xbd3d738d	-0.046252776
242	0x3d610d49	0.05494431
243	0x3cddb78f	0.027065067
244	0x3d1241e7	0.03570738
245	0xbc61b309	-0.013775595
246	0x3d4b7494	0.049671724
247	0x3d0b82db	0.03406034
248	0xbd5df014	-0.054184034
249	0x3d1c9b2d	0.038233925
250	0x3c110abc	0.008852657
251	0xbda8cbd3	-0.082420014
252	0x3d3db9bf	0.04631972
253	0xbd91724d	-0.07101879
254	0xbc6d9dbb	-0.014502938
255	0xbd904587	-0.07044511

net.2.lin2.bias f4 [128]
0	0xbdb8ea62	-0.0902908
1	0x3d25a83e	0.04044365
2	0xbd350d61	-0.044202212
3	0x3c193c6b	0.009352784
4	0xbd7196a3	-0.05898155
5	0x3d27c236	0.0409567
6	0x3d2f8ff4	0.042861894
7	0x3d016b53	0.031596493
8	0x3d89bfd5	0.06726042
9	0x3d14c72b	0.036322754
10	0x3dabf942	0.083971515
11	0x3da6da96	0.08147161
12	0x3bf7c95c	0.0075618457
13	0x3d3403f8	0.043949097
14	0xbd81706a	-0.063202694
15	0xbd55f0f9	-0.052231763
16	0xbd696be4	-0.05698766
17	0x3db5b749	0.088728495
18	0x3d98eb3f	0.07466745
19	0xbd2cffb4	-0.042236045
20	0x3d45baf1	0.048273984
21	0x3d60ad4e	0.054852776
22	0xbd58f7b0	-0.05297059
23	0x3a63f304	0.0008695575
24	0xbd15e111	-0.036591593
25	0xbcaa137d	-0.020761246
26	0xbce72301	-0.028214933
27	0x3dce58d9	0.1007554
28	0x3af8bc01	0.0018976928
29	0xbd5eb52e	-0.054372005
30	0xbc9546b9	-0.0182222
31	0xbd4376e5	-0.04772081
32	0x3ddd6db6	0.10811941
33	0x3d7023a7	0.05862775
34	0x3c8199b4	0.015820362
35	0xbd820cfd	-0.063501336
36	0xbc08abb1	-0.008341716
37	0x3d8521a0	0.06500554
38	0xb99df6fa	-0.00030129385
39	0xbc457d00	-0.012053728
40	0x3d71b7a5	0.059013028
41	0xbd12a0b6	-0.035797797
42	0x3d8d88db	0.06910869
43	0x3c469929	0.012121477
44	0x3d03485e	0.032051437
45	0x3c418d70	0.0118135065
46	0x3d148bf3	0.03626628
47	0x3c43056b	0.011903147
48	0x3d546775	0.051856477
49	0x3d291cb6	0.041287147
50	0x3c059aa1	0.008154542
51	0xbb824261	-0.003975198
52	0x3d92e7fc	0.07173154
53	0x3da7b95f	0.081896536
54	0xbda35b20	-0.07976365
55	0xbcb2436c	-0.021760665
56	0x3cdaa910	0.026691943
57	0x3d04cedc	0.03242384
58	0x3db4a812	0.08821119
59	0xbd58bca5	-0.05291428
60	0x3d553446	0.052051805
61	0x3c7e2460	0.015511602
62	0x3dad86f0	0.08473003
63	0xbc4fd3b8	-0.012684755
64	0x3dcc9e22	0.09991099
65	0xbd11405d	-0.035461772
66	0xbd0ed1e9	-0.034868155
67	0xbcc5621d	-0.024094636
68	0x3d5ce460	0.053928733
69	0xbcd910bf	-0.026497243
70	0xbc4fca38	-0.01268249
71	0xbde03db2	-0.109492674
72	0x3d747946	0.059685968
73	0x3d5699e2	0.052392848
74	0x3d9bc9d1	0.07606853
75	0xbc884fea	-0.016639668
76	0x3c871562	0.016489688
77	0x3d7e71c4	0.062120214
78	0xbb2b7d4e	-0.0026167217
79	0x3cad5cf1	0.021162482
80	0x3be98377	0.0071262675
81	0xbdae3e8d	-0.08508024
82	0x3bd6f2d0	0.006559707
83	0xbdc2cc7f	-0.09511661
84	0xbd9fdbf7	-0.07805627
85	0x3d36d8d8	0.044640392
86	0x3d4d1c8f	0.050076064
87	0x3d3f1e43	0.04665972
88	0x3b05b4e1	0.0020402002
89	0x3c84edde	0.016226705
90	0xbd06f705	-0.03295042
91	0x3d991087	0.074738555
92	0x3cb78b5c	0.022405319
93	0xbd6840f5	-0.056702573
94	0x3d627979	0.055291627
95	0x3cc2be9a	0.023772527
96	0x3ce771fb	0.028252592
97	0x3d1243b9	0.035709117
98	0xbd08f483	-0.03343631
99	0x3d09ace8	0.033612162
100	0xbc9a6a20	-0.018849432
101	0x3bbe7352	0.005812087
102	0x3d8196e1	0.06327606
103	0xbde16cc0	-0.110070705
104	0xbc18b5d5	-0.009320696
105	0xbb8b25c2	-0.0042464444
106	0xbd99238c	-0.07477483
107	0xbc9e5765	-0.019328782
108	0x3a950b73	0.001137121
109	0x3d22e7d9	0.03977189
110	0x3d4be519	0.04977903
111	0x3d740e7b	0.059584122
112	0x3c9d86d5	0.019229332
113	0x3d852ac2	0.06502296
114	0xbc7ac7cc	-0.015306424
115	0x3d3959bb	0.04525159
116	0xbdbf7a02	-0.09349443
117	0xbd0ffa39	-0.03515074
118	0xbd7950e4	-0.06086816
119	0x3deaea38	0.11470455
120	0xbd2df9b8	-0.04247448
121	0x3da79aa0	0.08183789
122	0xbd6c08f4	-0.057625726
123	0xbc9f8c56	-0.019476097
124	0xbba27bbd	-0.0049585984
125	0x3da7ec5a	0.08199377
126	0x3d1732dd	0.03691374
127	0x3d945c23	0.07244136

net.3.lin1.weight f4 [128, 128]
0	0xbdb9ae01	-0.09066392
1	0xbc370ce6	-0.011172509
2	0xbc78063c	-0.015138205
3	0xbdabc532	-0.083872214
4	0xbc29a252	-0.010353642
5	0x3b407955	0.0029369195
6	0xbd674928	-0.05646625
7	0xbced38bf	-0.028957723
8	0xbdc17894	-0.094468266
9	0x3ccaaf8f	0.024741916
10	0x3d027802	0.03185273
11	0xbdaa1654	-0.0830504
12	0xbd6d7d3c	-0.05798076
13	0xbc0895db	-0.00833651
14	0x3d4a336a	0.04936544
15	0xbbb7496f	-0.0055934708
16	0x3d899416	0.06717698
17	0xbd062671	-0.032751504
18	0x3c928ed0	0.017890364
19	0xbd5fdd0d	-0.05465417
20	0xbd47728e	-0.048693232
21	0xbda6919d	-0.08133242
22	0x3c94f094	0.018181123
23	0xbd08bf4f	-0.03338557
24	0x3d5c50b8	0.053787917
25	0xbd4c84cd	-0.049931336
26	0x3d163ff9	0.036682103
27	0xbd75821d	-0.05993854
28	0xbd7af9f5	-0.061273534
29	0x3d6fb2ee	0.05852025
30	0x3aeb6ff5	0.0017962443
31	0x3c9d2d72	0.01918671
32	0xbd8a5271	-0.06754006
33	0x3d9ff16e	0.07809721
34	0xbd9e63c3	-0.07733872
35	0x3d65daf8	0.056117028
36	0xbd049de7	-0.03237715
37	0xbd1908c7	-0.037361886
38	0x3d5154aa	0.051106133
39	0x3caa8bbf	0.02081859
40	0xbc618122	-0.013763698
41	0x3d88bebd	0.066770054
42	0x3d92de61	0.07171322
43	0x3b4de539	0.0031417145
44	0xbda1806e	-0.07885824
45	0xbd2d7c00	-0.042354584
46	0xbd9808ee	-0.07423578
47	0xbd15e750	-0.03659755
48	0x3b3c26c2	0.0028709625
49	0xbcdf3a36	-0.027249437
50	0xbb19c723	-0.0023464642
51	0xbd9116a8	-0.070843995
52	0x3ca06e77	0.019583924
53	0xbda5fb2d	-0.081045486
54	0xbd1cde73	-0.03829808
55	0xbdcb734a	-0.09934099
56	0x3d0df9a3	0.0346619
57	0x3dca60bf	0.09881734
58	0x3d6f0330	0.05835265
59	0xbd9f6510	-0.07782948
60	0x3d03bfb6	0.03216525
61	0x3d5fa322	0.054598935
62	0x3d3c3d1d	0.04595672
63	0xbb1ad3db	-0.002362481
64	0x3c1fa0fe	0.009742973
65	0x3b929e3c	0.0044744294
66	0x3cf56e5c	0.02995985
67	0xbd98a479	-0.07453246
68	0xbd222222	-0.039583333
69	0xbcb33a56	-0.021878403
70	0x3c65c829	0.014024773
71	0x3cd8a5a9	0.02644618
72	0xbda15404	-0.07877353
73	0x3d29e437	0.04147741
74	0x3d1992db	0.037493568
75	0xbd40a2d9	-0.047030304
76	0xbd93846c	-0.07202992
77	0xbd56d906	-0.052453063
78	0xbdbec870	-0.09315574
79	0x3d53490a	0.051583327
80	0x3d27de88	0.040983707
81	0xbd31ec01	-0.04343796
82	0xbb7254a6	-0.0036976724
83	0xbb57af51	-0.0032910893
84	0x3c0d71fc	0.008633133
85	0x3d7926f9	0.060828183
86	0xbcce7fc6	-0.025207411
87	0x3cd4cb3b	0.025975814
88	0xbd90365c	-0.07041618
89	0x3c60a481	0.013711096
90	0x3d2b8d52	0.04188282
91	0xbcb3c105	-0.021942625
92	0x3da37208	0.07980734
93	0xbd988e47	-0.07449012
94	0xbcb56cce	-0.022146609
95	0x3d33ef5f	0.043929454
96	0xbd92c43b	-0.07166334
97	0x3ae1c790	0.0017225612
98	0xbda15749	-0.078779764
99	0x3da13cc7	0.078729205
100	0x3d8bf81c	0.068344325
101	0xbd1af89f	-0.03783476
102	0x3da8726b	0.082249485
103	0x3d284986	0.041085742
104	0x3b93ba3d	0.0045082853
105	0xbd975e06	-0.073909804
106	0xbdb67a4a	-0.089100435
107	0x3ce28c17	0.02765469
108	0x3d74905c	0.059707984
109	0xbd3b3835	-0.0457079
110	0x3d6ab8b0	0.057305038
111	0x3d8d26b8	0.06892151
112	0x3cc23769	0.023708062
113	0x3d03da72	0.032190748
114	0xbc8d21cc	-0.01722803
115	0xbd443669	-0.047903452
116	0xbda151c8	-0.07876927
117	0x3c7faad0	0.01560469
118	0xbca5ab9b	-0.02022343
119	0x3b9150d0	0.0044346824
120	0xbc936ea9	-0.017997103
121	0x3d2af4a8	0.04173723
122	0xbd3b4fec	-0.045730516
123	0x3cab39a0	0.020901501
124	0x3d8ee1e2	0.069766775
125	0x3b397d80	0.0028303564
126	0x3cb39af1	0.021924468
127	0xbb4bbf08	-0.0031089205
128	0x3d38734c	0.04503183
129	0x3dc48011	0.09594739
130	0x3d82e5b5	0.063914694
131	0x3c83bd0d	0.016081357
132	0xbd7ca3b0	-0.061679542
133	0xbc78ece5	-0.015193199
134	0x3d593298	0.053026766
135	0xbd8cce4d	-0.06875286
136	0xbd536006	-0.051605247
137	0x3ae6f813	0.0017621539
138	0x3dcd0d9b	0.10012361
139	0xbbde22d5	-0.0067790546
140	0xbd053298	-0.032518953
141	0x3dbe8408	0.09302527
142	0xbd8abdc4	-0.06774476
143	0x3d6b2b13	0.057414126
144	0x3cd2fc76	0.025755148
145	0xbc7a7b9a	-0.015288258
146	0xbd87c823	-0.0662997
147	0xbd949a61	-0.07256008
148	0xbd479c3e	-0.04873299
149	0x3da65d76	0.08123295
150	0x3db864d0	0.090036035
151	0x3d8c0db5	0.06838552
152	0xbd05c2a4	-0.032656327
153	0xbda93c82	-0.08263494
154	0x3d0fdbe7	0.035121825
155	0xbba002d3	-0.004883149
156	0xbd247b19	-0.040156458
157	0xbc3535cb	-0.0110601885
158	0xbd0266c1	-0.031836275
159	0xbd9da5e9	-0.076976605
160	0x3c70dc0d	0.014700902
161	0xbd1aa82c	-0.037758037
162	0x3dd337be	0.10313366
163	0x3dc7127e	0.09720324
164	0xbd6dc85d	-0.05805241
165	0xbc5d6085	-0.013511782
166	0xbd881181	-0.066439636
167	0xbd81198a	-0.06303699
168	0xbd176b31	-0.03696746
169	0xbd2a39cc	-0.041559026
170	0xbd88e600	-0.06684494
171	0x3d3ce860	0.046120048
172	0x3dd4f096	0.103974506
173	0xbd1b5e83	-0.03793193
174	0xbda46bda	-0.080283836
175	0x3d83fc6c	0.0644463
176	0x3db4a71f	0.08820938
177	0xbcb91325	-0.022592137
178	0x3d58ef38	0.05296251
179	0x3cf4bd18	0.029875323
180	0xbc043643	-0.008069578
181	0xbd0b18e2	-0.033959277
182	0x3caaf484	0.020868547
183	0x3d7a9556	0.061177574
184	0x3d200bf2	0.039073892
185	0xbc92fc23	-0.017942494
186	0x3cf5b9f1	0.02999589
187	0xbd74d52e	-0.059773616
188	0xbd922926	-0.07136755
189	0x3d25c8a0	0.040474534
190	0x3d16de21	0.036832932
191	0x3d9d83a3	0.07691123
192	0xbd6c55f8	-0.057699174
193	0xbcf80b1d	-0.030278737
194	0x3cd7324a	0.026269097
195	0x3d78c8a1	0.06073821
196	0x3c815858	0.015789196
197	0x3c610412	0.013733881
198	0x3d7fb794	0.062430933
199	0xbbc3aa80	-0.005971253
200	0x3c518097	0.012787006
201	0xbc76b7b0	-0.015058443
202	0x3cee43ae	0.029085007
203	0xbd98231a	-0.0742857
204	0xbc148c66	-0.009066677
205	0x3b9f6d33	0.0048653125
206	0xbdb8efc7	-0.09030109
207	0x3da82840	0.08210802
208	0xbd9671d5	-0.073459305
209	0xbd9bfe75	-0.07616893
210	0x3d80ffc5	0.06298784
211	0x3d20eb37	0.03928682
212	0xbcd79454	-0.026315846
213	0x3d4119ee	0.04714387
214	0xbdad3382	-0.0845709
215	0x3d9b486c	0.07582173
216	0xbbec9093	-0.007219383
217	0xbd23be32	-0.039976306
218	0x3c756861	0.014978499
219	0x3db1c24d	0.08679638
220	0xbc83f45e	-0.016107734
221	0x3d8aa944	0.06770566
222	0x3da55169	0.080721684
223	0xbd6481dd	-0.05578791
224	0xbc9bebb3	-0.019033289
225	0xbd872f2a	-0.06600793
226	0x3b8cbad2	0.0042947317
227	0x3d1da7ba	0.038490035
228	0xbbfbe640	-0.00768736
229	0xbd0c43e0	-0.03424442
230	0xbd2fabb5	-0.042888362
231	0xbda28ff1	-0.07937611
232	0x3cbee61c	0.023303084
233	0x3d356a48	0.04429081
234	0xbd51f92f	-0.05126303
235	0xbb751906	-0.0037398948
236	0xbd97a2ea	-0.0740412
237	0xbcc23c00	-0.02371025
238	0xbcb2a631	-0.021807762
239	0x3d007ebe	0.03137087
240	0x3dbbb69e	0.09165691
241	0x3c51723b	0.012783582
242	0xbbc1db83	-0.0059160604
243	0x3d77436b	0.06036703
244	0x3d6e21d1	0.05813772
245	0xbd1ac7ee	-0.037788324
246	0x3c989935	0.018627742
247	0xbc7a118d	-0.0152629735
248	0xbd3d0e01	-0.046155933
249	0x3d7e9bb5	0.062160213
250	0xbd8352a4	-0.06412247
251	0x3da46e74	0.0802888
252	0xbd7aa953	-0.061196636
253	0xbd824ec6	-0.06362681
254	0xbd0f6a02	-0.035013206
255	0x3ce8eda0	0.02843362

net.3.lin1.bias f4 [128]
0	0x3d825215	0.06363312
1	0xbcbc259c	-0.022967152
2	0xbda04c80	-0.07827091
3	0x3d59e648	0.05319813
4	0xbd3fff2c	-0.04687421
5	0xbc94cd58	-0.018164322
6	0x3d12ff90	0.035888255
7	0xbd4db848	-0.050224572
8	0x3c8ec70f	0.017428903
9	0x3a51830e	0.0007992246
10	0xbcaf2e2d	-0.021384323
11	0x3db2ca8a	0.087300375
12	0x3d921d49	0.07134492
13	0xbda9899b	-0.08278199
14	0xbd71c795	-0.059028227
15	0x3bbaf468	0.005705405
16	0xbd8ed6a8	-0.06974536
17	0xb9bd7698	-0.00036137248
18	0xbd23af67	-0.0399622
19	0x3d31bc0c	0.043392226
20	0x3d99fd9b	0.075190745
21	0x3d754a8f	0.059885558
22	0x3d2c494a	0.04206208
23	0x3d884ba2	0.06655051
24	0x3d8df1bf	0.06930875
25	0x3c9a784e	0.018856194
26	0x3dda6e1a	0.106655315
27	0xbd9a37b3	-0.07530155
28	0xbdacd3af	-0.08438813
29	0xbc81b328	-0.015832499
30	0x3d44a3b7	0.048007693
31	0x3d9fdc3d	0.07805679
32	0xbcb74c3d	-0.02237522
33	0xbdedd01e	-0.11611961
34	0xbaf744c0	-0.0018865094
35	0x3b098efe	0.002098977
36	0x3d67a4c1	0.056553606
37	0xbdabc574	-0.083872706
38	0xbda6b778	-0.08140463
39	0xbd893f3e	-0.067015156
40	0x3d4b0f39	0.049575064
41	0x3d88d140	0.06680536
42	0x3cc27f2b	0.023742279
43	0xbcbdc598	-0.02316551
44	0xbc04d73d	-0.008107957
45	0x3d9c0fcb	0.076202
46	0x3bb9be4a	0.005668436
47	0xbd528ef2	-0.051405855
48	0xbdb25d5e	-0.08709215
49	0x3da1beee	0.07897745
50	0xbd9834bd	-0.07431934
51	0x3d1cdcf3	0.03829665
52	0xbd617006	-0.055038475
53	0x3d7809fc	0.060556397
54	0x3c1595b8	0.009129934
55	0x3d9315f5	0.07181922
56	0x3d8c695f	0.068560354
57	0x3d474b2e	0.04865568
58	0x3cd059d3	0.025433457
59	0x3d4ed514	0.050496176
60	0xbd6a557a	-0.057210423
61	0x3dc75ec1	0.0973487
62	0xbc299c0e	-0.010352148
63	0x3d857cad	0.06517921
64	0x3cc362c3	0.023850804
65	0x3b252d1f	0.0025203896
66	0xbd94ac98	-0.07259482
67	0xbc664534	-0.014054585
68	0xbda34232	-0.0797161
69	0x3da8b552	0.08237709
70	0x3c8a65d2	0.016894255
71	0x3d2d9b6c	0.04238455
72	0xbda7e0d9	-0.08197183
73	0x3dc77584	0.09739211
74	0xbb8d539c	-0.0043129455
75	0x3da6e553	0.08149209
76	0x3b65187b	0.0034957218
77	0xbcc879b4	-0.024472095
78	0x3bd531b9	0.0065061715
79	0x3bd0a47c	0.0063672643
80	0x3d227c4b	0.039669316
81	0xbc5d7a4f	-0.01351793
82	0xbc4acc4b	-0.012377809
83	0x3d0f4df5	0.034986455
84	0xbae16861	-0.0017197245
85	0xbd885620	-0.06657052
86	0xbda140a4	-0.07873657
87	0x3da9244e	0.08258878
88	0x3cbe62da	0.023240495
89	0x3d29c539	0.04144785
90	0xbb9f5962	-0.00486295
91	0xbd5bcbce	-0.05366116
92	0xbd9faf00	-0.077970505
93	0xbb9f807c	-0.0048676115
94	0xbd5c11c5	-0.053727884
95	0x3c9961dc	0.01872342
96	0xbd401e09	-0.046903644
97	0x3ddd4c62	0.108055845
98	0xbd285f5a	-0.04110656
99	0xbd4af577	-0.0495505
100	0xbd3bef04	-0.04588224
101	0x3d86692c	0.06563029
102	0x3c888b14	0.01666788
103	0xbc86a6c9	-0.016436951
104	0xbd82d562	-0.06388356
105	0x3d65cfec	0.056106493
106	0xbd99d13c	-0.075106114
107	0xbd82b274	-0.063816935
108	0xbcefcbfb	-0.02927207
109	0xbd273c75	-0.04082914
110	0xbd833d7b	-0.06408211
111	0xbd0b8aa5	-0.03406777
112	0x3d8c79b6	0.06859152
113	0x3d7d7049	0.06187466
114	0xbd1d15ac	-0.038350746
115	0xbd7da77c	-0.061927304
116	0xbca55be5	-0.02018542
117	0xbca02676	-0.01954959
118	0xbd3a4f76	-0.045485936
119	0xbd6c6d9e	-0.057721727
120	0xbd284438	-0.041080683
121	0xbb57b558	-0.0032914486
122	0xbcde5af9	-0.027142989
123	0xbd5953fe	-0.053058617
124	0x3d9fe168	0.07806665
125	0xbd86938d	-0.06571112
126	0xbd916a06	-0.071003005
127	0xbd92658c	-0.07148275

net.3.lin2.weight f4 [128, 128]
0	0x3c8b5fa6	0.017013382
1	0x3db57f48	0.088621676
2	0xbda48a72	-0.08034219
3	0x3d051598	0.032491297
4	0x3da7df03	0.08196833
5	0xbd1f2507	-0.03885367
6	0x3d13e5a8	0.03610769
7	0xbd9b1816	-0.075729534
8	0x3d3b4e65	0.04572906
9	0xbd9a7f0d	-0.07543764
10	0x3d928116	0.071535274
11	0x3d801930	0.06254804
12	0x3cfc2c2a	0.030782778
13	0xbd899221	-0.06717325
14	0x3d63a603	0.055578243
15	0xbd4d4313	-0.050112795
16	0xbd66fb22	-0.056391843
17	0x3c6547ca	0.013994167
18	0x3d83520f	0.06412136
19	0xbd6773af	-0.05650681
20	0xbc4a2849	-0.012338706
21	0x3d0ef193	0.034898352
22	0xbd9bcb89	-0.076071806
23	0x3d3cb993	0.046075415
24	0xbc4b6a0a	-0.012415418
25	0x3d3e036a	0.046389975
26	0xbbd150b5	-0.006387795
27	0xbd7a2755	-0.061072666
28	0xbdac1d07	-0.08403974
29	0x3d97ec43	0.0741811
30	0xbc38f572	-0.0112889875
31	0xbda7ccdd	-0.081933714
32	0xbd34d959	-0.04415259
33	0xbce63efe	-0.028106209
34	0xbcb9735e	-0.02263802
35	0x3da1fbba	0.07909341
36	0xbd68d882	-0.056847103
37	0x3cd3e818	0.025867507
38	0x3c1e708c	0.009670388
39	0xbd5b88aa	-0.05359713
40	0x3d236cf2	0.03989882
41	0xbd7d6504	-0.061863914
42	0xbd5c4ed6	-0.05378612
43	0xbd04c06e	-0.032410078
44	0x3d021d3f	0.031766172
45	0xbd2f7c7e	-0.042843334
46	0xbc48e6ba	-0.012262041
47	0xbd908a45	-0.07057623
48	0xbc59f239	-0.013302379
49	0x3d54f0df	0.051987525
50	0x3d803ad1	0.06261218
51	0x3bec4fc3	0.007211657
52	0xbd3b3719	-0.045706842
53	0x3d62ed37	0.055402007
54	0xbd8b0987	-0.067889266
55	0xbbadc0a1	-0.005302504
56	0xbd9e3ec2	-0.07726814
57	0xbd980a9d	-0.07423899
58	0x3cb41e2a	0.02198704
59	0xbb0f0222	-0.002182134
60	0x3d7ae7a9	0.061256085
61	0x3d297ba3	0.041377675
62	0xbd7017a7	-0.058616307
63	0x3d9a60cd	0.075379945
64	0x3d1740d8	0.036927074
65	0x3c5ae6db	0.013360704
66	0x3b993eec	0.0046766903
67	0xbd50309a	-0.0508276
68	0x3d62c013	0.055358957
69	0xbdae810f	-0.0852071
70	0x3ca01a6d	0.01954385
71	0xbcff004c	-0.031128071
72	0xbd735b8f	-0.05941349
73	0x3d2407eb	0.040046614
74	0x3b94fa16	0.004546414
75	0x3dce564a	0.10075052
76	0xbd8d6356	-0.069037125
77	0xbd821dbf	-0.0635333
78	0x3d35e842	0.04441095
79	0x3d45a575	0.048253495
80	0xbd8a5cf4	-0.06756011
81	0xbcfeb320	-0.031091273
82	0x3c4e3e26	0.0125880595
83	0xbd0949cd	-0.033517648
84	0xbd9c7628	-0.07639724
85	0x3d02e10a	0.031952895
86	0x3c6b251a	0.014352107
87	0xbda5382f	-0.08067357
88	0xbd54f6aa	-0.05199305
89	0xbd98dbdd	-0.074638106
90	0xbd3390db	-0.043839317
91	0x3bb659ef	0.00556492
92	0x3d8f7a44	0.07005742
93	0x3da34aed	0.07973275
94	0xbc9c395c	-0.01907032
95	0x3c859d8e	0.01631048
96	0x3d89bf7b	0.06725975
97	0x3dc68c09	0.09694678
98	0xbd27468d	-0.040838767
99	0xbd651fbf	-0.05593848
100	0xbda991b2	-0.08279742
101	0xbc48e3f6	-0.012261381
102	0x3d7085e9	0.058721457
103	0x3d6c5f14	0.05770786
104	0xbd6fd0ee	-0.05854886
105	0x3cbdf685	0.023188839
106	0x3d140721	0.03613961
107	0xbb1fe6cb	-0.0024399038
108	0x3d722b9c	0.05912362
109	0x3d97f526	0.07419805
110	0xbd809c01	-0.062797554
111	0x3d5e0e6f	0.054212984
112	0x3cf56dd6	0.0299596
113	0xbc24008e	-0.010009898
114	0x3d1be120	0.038056493
115	0x3c9c8446	0.019106042
116	0xbd35d2b6	-0.044390403
117	0xbd636f7f	-0.055526253
118	0xbdc1f75e	-0.0947101
119	0x3db21581	0.08695508
120	0xbd181d20	-0.03713715
121	0x3d001f93	0.03128011
122	0xbd9d344d	-0.07675991
123	0x3d13ea25	0.03611197
124	0xbb0e6a22	-0.002173074
125	0xbda4d755	-0.08048884
126	0x3c1d9c04	0.009619717
127	0x3d8fcdb9	0.0702166
128	0xbd0ec8ee	-0.03485959
129	0xbdeb6bac	-0.11495146
130	0xbd336198	-0.043794245
131	0xbd663888	-0.056206256
132	0xbc0c174a	-0.008550474
133	0x3b991592	0.004671761
134	0xbccf8ceb	-0.02533575
135	0x3d052581	0.03250647
136	0x3d4d839d	0.050174344
137	0xbb748bd1	-0.0037314782
138	0xbd8bc6db	-0.06825038
139	0x3d8a013f	0.06738519
140	0xbd823391	-0.06357492
141	0xbce5b5ff	-0.028040884
142	0x3d0ccae9	0.034373198
143	0xbda44b88	-0.08022219
144	0x3d0c8c89	0.034313712
145	0x3d946fb0	0.07247865
146	0x3c89a1ca	0.01680078
147	0x3d4d3f3c	0.050109133
148	0xbd853d93	-0.06505885
149	0xbdb98c4d	-0.090599634
150	0xbdb8451e	-0.08997558
151	0xbd1b50c0	-0.037918806
152	0xbd1bed14	-0.038067892
153	0x3d6fc327	0.05853572
154	0xbd956b0a	-0.07295807
155	0x3d8d3053	0.06893983
156	0xbd4793e7	-0.048725035
157	0xbd394c04	-0.04523851
158	0x3c810ad3	0.015752232
159	0xbcd9fe92	-0.026610646
160	0xbd44844a	-0.047977723
161	0x3bae3f99	0.00531764
162	0x3d031e33	0.032011222
163	0xbc90494b	-0.017613074
164	0xbd92bb4b	-0.071646295
165	0x3ce3c96c	0.027806006
166	0xbda5506e	-0.08071981
167	0xba98067b	-0.0011598611
168	0x3c828dc4	0.01593674
169	0xbd386e50	-0.045027077
170	0xbd1a886e	-0.037727766
171	0x3da13deb	0.07873138
172	0x3d9abeca	0.075559214
173	0xbd6c49d9	-0.057687614
174	0xbd41ecde	-0.047345035
175	0x3d857a5d	0.065174796
176	0xbd81effd	-0.06344602
177	0x3d2eb2ab	0.04265086
178	0xbda4579c	-0.08024523
179	0xbd40f018	-0.04710397
180	0xbb7d0422	-0.00386072
181	0xbd848a2a	-0.06471665
182	0xbcb30a45	-0.021855483
183	0xbdb80ba1	-0.08986593
184	0xbdd9f9e2	-0.106433645
185	0xbcfe49cb	-0.031041047
186	0xbc9f373b	-0.019435516
187	0xbdd2d84b	-0.10295161
188	0xbd651b27	-0.055934098
189	0xbbbc2470	-0.0057416484
190	0x3cdf4e0b	0.027258893
191	0xbda2705c	-0.07931587
192	0x3b3be61d	0.0028671094
193	0x3cc848bd	0.024448747
194	0x3d4ae1e6	0.04953184
195	0xbdc88f74	-0.097929865
196	0x3b9c33bd	0.00476691
197	0x3c20a987	0.0098060435
198	0x3d8bc2ab	0.06824239
199	0x3ccb5c71	0.024824353
200	0xbc85742d	-0.016290748
201	0x3c1c941c	0.009556796
202	0xbd16c611	-0.036809985
203	0xbb009f84	-0.0019626329
204	0x3d3b5748	0.045737535
205	0xbdbc2a52	-0.091877595
206	0x3c5bb786	0.013410455
207	0xbbb04c99	-0.005380225
208	0x3d5fa59f	0.054601308
209	0x3d8bae24	0.06820324
210	0x3ba11b52	0.004916587
211	0x3c77aacb	0.015116404
212	0xbdc10ff8	-0.09426874
213	0x3bafd4ef	0.00536596
214	0xbd84da61	-0.06486965
215	0xbdb254de	-0.087075934
216	0x3d923a70	0.07140052
217	0x3d291faf	0.04128998
218	0x3d1ca1cf	0.03824025
219	0x3d54ecfd	0.051983822
220	0x3db28eac	0.08718619
221	0x3d1ade84	0.037809864
222	0xbd1d3a9c	-0.038385972
223	0xbd823b7e	-0.063590035
224	0xbc70686c	-0.014673334
225	0x3caa85f5	0.020815829
226	0xbcb8e299	-0.022568988
227	0x3d23f604	0.04002954
228	0x3c8a3cf8	0.016874775
229	0x3cbfe884	0.023426302
230	0x3ba84220	0.005134836
231	0x3c72b3dd	0.014813391
232	0xbd9cce59	-0.07656545
233	0xbd9168dd	-0.07100079
234	0x3d98e8d5	0.07466284
235	0x3d0eb2a4	0.034838334
236	0xbd9e9c6c	-0.07744679
237	0x3d9e7c58	0.077385604
238	0xbdaebde9	-0.08532316
239	0xbdaa0c84	-0.083031684
240	0x3d7fac9f	0.062420484
241	0xbc4b9c2a	-0.012427369
242	0x3c127de5	0.008941148
243	0xbdb11434	-0.086464316
244	0xbd98ea15	-0.074665226
245	0xbcae55be	-0.02128112
246	0x3c60effe	0.013729094
247	0xbd812052	-0.06304993
248	0xbc69609c	-0.014244225
249	0xbc5d0c39	-0.013491684
250	0xbca56816	-0.020191234
251	0xbb29d141	-0.0025912079
252	0x3d2f97c6	0.04286935
253	0xbc77b45c	-0.015118685
254	0x3cefd9b8	0.029278621
255	0x3c75ac71	0.0149947265
