data/trained_models/meta_kan.pth (torch, 56258 bytes, 12 tensors)

net.0.coeff f4 [32, 13, 5]
0.0075867944 0.09168822 -0.08116354 0.022310037 -0.17642896 -0.119709924 0.044920053 0.045841314
-0.075883806 -0.10366263 0.07054287 0.008476894 -0.011795787 0.2074204 0.14680675 0.3339226
-0.118510135 -0.07492317 0.10479981 0.0146577535 -0.11007589 0.027678395 -0.17150503 0.09326528
-0.029519692 -0.13159543 0.03736874 0.058379866 -0.092285946 0.051502466 0.18252891 -0.05338126
-0.015102229 0.0126639735 -0.16934115 -0.010567596 0.11599471 -0.14582856 -0.033738486 -0.24517305
-0.10645837 0.0037141782 0.02148848 -0.13930416 0.032883015 -0.043529782 0.15119438 -0.050790142
0.08581288 -0.021260004 0.048630383 -0.05481429 -0.21947114 -0.041855097 -0.13303249 -0.07772904
-0.10139977 0.06427684 -0.122577906 -0.034030255 0.053186998 0.19900344 -0.011708638 -0.10231811
-0.08545554 0.12932052 0.13292794 -0.1847471 0.08408049 -0.20143704 0.04418401 0.12235127
0.02152066 -0.17602172 0.046203762 -0.020656407 -0.18926257 0.13405031 0.055151854 0.057131745
-0.08075842 -0.035427667 -0.02099209 0.081015855 -0.09591637 -0.032311052 -0.02714644 -0.024345899
0.03615625 -0.07866346 0.17235297 -0.24542888 -0.037958678 -0.12273907 -0.08619341 -0.023054995
0.009015954 -0.031583063 -0.17234701 -0.09693741 -0.09335796 0.051016126 -0.0031648523 0.05913731
0.14826147 -0.22180463 -0.006556972 0.013885668 0.069446735 -0.0018430318 0.02972053 -0.07005396
-0.034020256 0.0279771 -0.09143798 0.036886167 -0.0032177602 -0.047616504 -0.03149239 -0.20493637
-0.074382536 -0.076294184 0.06405565 -0.058850467 0.07695992 -0.06110371 0.121662445 0.057974182
-0.040070582 -0.16664827 -0.17658892 -0.1524984 0.08981544 0.044899795 -0.026746858 0.022073826
-0.061882365 0.06127801 -0.046751145 0.18017559 -0.03922845 0.016024182 0.018499818 0.08597695
0.08742686 0.13380207 0.26849857 -0.1069144 -0.11581419 0.0056320475 0.14729492 -0.007162852
0.25104657 -0.015225065 -0.12932114 0.014071713 -0.031923883 -0.22226514 -0.06002755 -0.19979583
-0.11758683 0.058236346 -0.02155367 0.1969061 0.029430136 -0.015731717 0.07823711 0.109726794
-0.12907653 0.019744908 0.17585783 -0.06578236 0.16207364 0.121673524 0.08909889 -0.1099963
0.05975619 -0.06751885 -0.07487813 0.039476063 -0.10888961 -0.039135497 -0.103378855 0.03898431
-0.019776404 -0.04153374 0.12946917 0.0694078 -0.28308305 0.16241466 -0.016861388 -0.20173223
0.11878469 0.013186933 0.070154436 0.0999237 -0.14180422 0.05879333 0.036404405 -0.007361439
0.031099245 -0.09098112 0.02038113 0.019359931 -0.09812646 0.25402424 -0.09412202 -0.0077510015
0.1629046 0.004029136 0.026535757 0.11794119 -0.15756549 -0.088304944 0.013456916 0.06373371
0.06253884 -0.24536276 -0.051839203 0.070306174 0.06621944 0.07945708 -0.001445794 0.092288904
0.11844866 -0.19541894 -0.1562903 0.08266552 0.010655605 0.011971428 -0.010688361 -0.072333895
-0.06990347 0.054196794 -0.17750162 -0.072892115 -0.10173701 -0.018521281 0.08139213 -0.001533885
-0.019295849 -0.050741594 -0.07257162 0.108412825 -0.08399404 -0.0046664444 -0.02137032 -0.04115979
-0.15187271 -0.03243063 -0.116463125 0.124999225 0.08084624 -0.12865883 0.039780453 0.114843406
00000000: a59a f83b 09c7 bb3d 1239 a6bd 8ac3 b63c
00000010: cba9 34be 7a2a f5bd 17fe 373d 1ac4 3b3d
00000020: f868 9bbd 134d d4bd c878 903d ace2 0a3c
00000030: 1e43 41bc 0366 543e 8254 163e e7f7 aa3e
00000040: 71b5 f2bd 5271 99bd 48a1 d63d 1327 703c
00000050: 786f e1bd cdbd e23c 049f 2fbe de01 bf3d
00000060: 48d3 f1bc f4c0 06be f70f 193d ba1f 6f3d
00000070: 6a00 bdbd 40f4 523d dce8 3a3e 4fa6 5abd
00000080: 576f 77bc 8e7c 4f3c c467 2dbe b623 2dbc
00000090: a28e ed3d 1554 15be 5e31 0abd a50e 7bbe
000000a0: d906 dabd 9269 733b 9c08 b03c c0a5 0ebe
000000b0: 57b0 063d 494c 32bd b3d2 1a3e 5309 50bd
000000c0: aabe af3d 7629 aebc a730 473d f384 60bd
000000d0: 0bbd 60be 4070 2bbd ab39 08be 6730 9fbd
000000e0: afaa cfbd 93a3 833d 200a fbbd 4f63 0bbd
000000f0: 9cda 593d 8fc7 4b3e 96d5 3fbc 288c d1bd
00000100: 5003 afbd 996c 043e 431e 083e 582e 3dbe
00000110: 6432 ac3d 8345 4ebe 4bfa 343d 4d93 fa3d
00000120: 184c b03c 0a3f 34be 2840 3d3d a037 a9bc
00000130: 0cce 41be 7c44 093e e9e6 613d fa02 6a3d
00000140: ac64 a5bd 9a1c 11bd 9bf7 abbc a4eb a53d
00000150: cd6f c4bd 9858 04bd 3662 debc 0d71 c7bc
00000160: 9318 143d 4f1a a1bd 4c7d 303e b551 7bbe
00000170: 8f7a 1bbd 9f5e fbbd 2c86 b0bd d4dd bcbc
00000180: a7b7 133c 3e5d 01bd bc7b 30be 1f87 c6bd
00000190: 7532 bfbd 49f6 503d 6969 4fbb f739 723d
000001a0: dbd1 173e c120 63be dedb d6bb b680 633c
000001b0: 173a 8e3d e391 f1ba 7878 f33c 7378 8fbd
000001c0: d358 0bbd 3b30 e53c d643 bbbd f315 173d
000001d0: 0fe1 52bb 8609 43bd 2afe 00bd d7da 51be
000001e0: df55 98bd 2040 9cbd 9c2f 833d 300d 71bd
000001f0: 2a9d 9d3d e247 7abd 292a f93d 5676 6d3d
00000200: 0d21 24bd d8a5 2abe bad3 34be 8a28 1cbe
00000210: 28f1 b73d d9e8 373d 3a1c dbbc 2bd4 b43c
00000220: 5d78 7dbd a7fe 7a3d 217e 3fbd f37f 383e
00000230: 03ae 20bd 2545 833c ee8c 973c af14 b03d
00000240: db0c b33d 6903 093e a578 893e f0f5 dabd
00000250: fd2f edbd 0a8d b83b 7bd4 163e 5cb6 eabb
00000260: 2d89 803e 8d72 79bc c36c 04be 0b8d 663c
00000270: 9ec2 02bd 7999 63be 73df 75bd 4797 4cbe
00000280: 5dd1 f0bd 3c89 6e3d 5291 b0bc c1a1 493e
00000290: 7817 f13c cddf 80bc c73a a03d 71b8 e03d
000002a0: a32c 04be 13c0 a13c 1314 343e e7b8 86bd
000002b0: a2f6 253e f82f f93d 7b79 b63d bd45 e1bd
000002c0: e8c2 743d 5347 8abd b459 99bd a7b1 213d
000002d0: 8401 dfbd 8b4c 20bd 4bb8 d3bd 03ae 1f3d
000002e0: 2002 a2bc 481f 2abd 9193 043e ad25 8e3d
000002f0: 43f0 90be 0750 263e e520 8abc e592 4ebe
00000300: 6345 f33d 010e 583c 21ad 8f3d cca4 cc3d
00000310: 2035 11be 46d1 703d c91c 153d 3a38 f1bb
00000320: d8c3 fe3c 4f54 babd 54f6 a63c b898 9e3c
00000330: 87f6 c8bd 770f 823e 0cc3 c0bd 1dfc fdbb
00000340: 77d0 263e d806 843b 8461 d93c 278b f13d
00000350: d958 21be 39d9 b4bd 667a 5c3c d286 823d
00000360: 5d14 803d 6040 7bbe 5855 54bd affc 8f3d
00000370: 0f9e 873d 65ba a23d cc80 bdba f701 bd3d
00000380: 3695 f23d e71b 48be 900a 20be 8a4c a93d
00000390: d994 2e3c cf23 443c 3c1e 2fbc cb23 94bd
000003a0: 8d29 8fbd 75fd 5d3d fcc2 35be 7648 95bd
000003b0: 7e5b d0bd f1b9 97bc ebb0 a63d a40c c9ba
000003c0: 5412 9ebc 6bd6 4fbd 6ea0 94bd 8b07 de3d
000003d0: 1105 acbd f9e8 98bb cf10 afbc 2b97 28bd
000003e0: 8584 1bbe fbd5 04bd 3884 eebd 98ff ff3d
000003f0: b792 a53d 24bf 03be d4f0 223d 0533 eb3d

net.0.scale f4 [32, 13]
1.0015955 1.021321 0.9744015 0.9660702 1.0008479 1.0314204 1.0164716 1.0042961
1.0174922 1.020965 0.9789714 1.0208682 0.97933215 0.9936186 0.98352945 0.9842759
0.99456185 0.99089074 1.004127 1.0199289 0.9793324 0.98488 1.0164495 0.98353094
0.98379976 1.001446 0.98785776 0.99377805 1.001425 1.0032437 0.9853883 1.0093021
0.9785048 0.9967686 0.9918255 0.9934957 1.0060085 0.99385285 1.0063366 0.99614906
1.0059597 0.9947648 1.0074761 1.0083466 0.98847437 1.0098537 0.990305 0.989368
1.0059837 0.99754494 0.99432385 0.98784125 1.0162266 1.0002885 1.0005889 0.9786344
1.006158 0.99639827 0.9976558 0.9919031 0.98214585 1.0000846 1.0001304 0.99584746
1.0243138 0.99266946 0.9967916 1.0167501 1.0220454 0.9974241 0.9996812 1.0069363
1.0000715 0.9968095 1.0016903 1.0029908 0.99687743 0.99845237 0.999525 1.0075201
1.0092477 0.98414963 1.008215 1.0121752 0.9928172 1.0045398 0.9955119 0.99185306
0.9922512 1.007222 0.976458 1.0175371 0.9971324 1.025524 1.0233858 1.0137388
1.0062344 1.0264184 0.9854648 0.9958055 1.0026675 1.0027632 1.0016057 0.99774194
0.9952982 0.9952488 0.99443007 0.9901977 0.9988593 0.9995459 1.0049285 0.9832287
0.99149656 1.0045897 1.0045874 1.0043936 1.0066923 1.0027282 1.002203 0.97354835
1.0246278 0.9864459 1.0118058 0.9928994 0.9976229 1.0204667 1.0022959 1.002343
1.0024805 1.0062996 0.9954492 0.98752815 1.0035527 0.9912965 1.0142684 1.0010164
1.0184188 1.0151693 0.99777806 1.012214 0.9876796 0.9877088 0.97750777 0.99094963
1.0077983 1.0138209 0.9904052 0.9959836 1.012559 1.0089494 1.011804 1.0042373
1.0075332 1.0077544 1.0074797 0.988186 0.99631107 1.0063968 0.9924648 1.0102801
0.987955 0.9746507 0.99708706 0.9804344 1.0023348 0.9935045 0.99345696 1.006649
1.0111945 0.9790413 1.0101546 0.9945839 0.9725387 0.99353313 0.9917721 0.9973464
1.0212361 0.9946132 1.0101761 1.0095954 0.9887717 0.97028077 0.99470395 0.9903741
1.0068165 1.0075357 1.0113027 1.0011393 0.9851472 0.9923455 1.0105698 0.9893394
0.9904447 0.98998505 1.0122104 1.0018055 0.9924881 0.9858341 1.0064479 1.0042783
1.0056311 0.9943906 0.9962566 0.99437827 1.007376 1.0074362 1.0076631 1.0181559
1.0052607 0.9958537 0.9898997 1.0084945 0.98920476 1.0141145 0.985552 1.0105973
1.0137752 1.0040219 0.99568146 1.0031428 0.9855688 0.96511674 1.0099071 0.977798
0.98401207 1.0113177 0.9809408 0.9758885 1.0132186 1.0094419 0.98880523 0.98901117
1.0109566 1.0238687 1.0097461 0.98658943 1.0297558 1.0267575 1.0178347 1.0238179
1.0046433 1.0106847 1.0053346 1.0153748 0.9976119 1.0142384 1.008648 0.9842677
1.0018525 0.9814324 1.0186738 1.0027918 1.0074806 1.0014868 1.0112401 1.0121876
00000000: 4834 803f a6ba 823f 6072 793f 6050 773f
00000010: c91b 803f 9505 843f be1b 823f c68c 803f
00000020: 2f3d 823f fbae 823f df9d 7a3f cfab 823f
00000030: 83b5 7a3f ca5d 7e3f 96c8 7b3f 81f9 7b3f
00000040: 9b9b 7e3f 04ab 7d3f 3c87 803f 088d 823f
00000050: 87b5 7a3f 1821 7c3f 041b 823f afc8 7b3f
00000060: 4dda 7b3f 622f 803f 3fe4 7c3f 3d68 7e3f
00000070: b22e 803f 4a6a 803f 6842 7c3f d030 813f
00000080: 4a7f 7a3f 3a2c 7f3f 47e8 7d3f bc55 7e3f
00000090: e3c4 803f 246d 7e3f a3cf 803f a003 7f3f
000000a0: 4ac3 803f e8a8 7e3f faf4 803f 8011 813f
000000b0: a80c 7d3f e342 813f a184 7d3f 3947 7d3f
000000c0: 13c4 803f 1b5f 7f3f 028c 7e3f 2ae3 7c3f
000000d0: b713 823f 7409 803f 4c13 803f c987 7a3f
000000e0: c9c9 803f f513 7f3f 5f66 7f3f 5ded 7d3f
000000f0: e96d 7b3f c602 803f 4604 803f dcef 7e3f
00000100: b71c 833f 961f 7e3f bc2d 7f3f de24 823f
00000110: 62d2 823f 3057 7f3f 1beb 7f3f 4ae3 803f
00000120: 5802 803f e82e 7f3f 6337 803f 0162 803f
00000130: 5c33 7f3f 939a 7f3f dfe0 7f3f 6bf6 803f
00000140: 072f 813f 3bf1 7b3f 300d 813f f58e 813f
00000150: 4529 7e3f c394 803f ded9 7e3f 15ea 7d3f
00000160: 2d04 7e3f a7ec 803f 27f9 793f a83e 823f
00000170: 1244 7f3f 5f44 833f 4efe 823f 31c2 813f
00000180: 4acc 803f ae61 833f 6c47 7c3f 1ced 7e3f
00000190: 6957 803f 8b5a 803f 9e34 803f 046c 7f3f
000001a0: ddcb 7e3f a0c8 7e3f f892 7e3f 997d 7d3f
000001b0: 3eb5 7f3f 3de2 7f3f 7fa1 803f e0b4 7b3f
000001c0: b8d2 7d3f 6596 803f 5296 803f f88f 803f
000001d0: 4bdb 803f 6659 803f 3048 803f 773a 793f
000001e0: 0127 833f b887 7c3f da82 813f a82e 7e3f
000001f0: 3764 7f3f a79e 823f 3b4b 803f c74c 803f
00000200: 4851 803f 6dce 803f c2d5 7e3f a5ce 7c3f
00000210: 6a74 803f 9cc5 7d3f 8cd3 813f 4e21 803f
00000220: 8c5b 823f 11f1 813f 626e 7f3f 3a90 813f
00000230: 92d8 7c3f 7cda 7c3f f33d 7a3f e0ae 7d3f
00000240: 89ff 803f e2c4 813f 328b 7d3f c8f8 7e3f
00000250: 899b 813f 4125 813f cb82 813f d98a 803f
00000260: d9f6 803f 19fe 803f 18f5 803f c2f9 7c3f
00000270: 3e0e 7f3f 9cd1 803f 2c12 7e3f dc50 813f
00000280: 9eea 7c3f b582 793f 1941 7f3f c0fd 7a3f
00000290: 824c 803f 5056 7e3f 3253 7e3f e0d9 803f
000002a0: d26e 813f 73a2 7a3f bf4c 813f 0d9d 7e3f
000002b0: 4cf8 783f 3058 7e3f c7e4 7d3f 1852 7f3f
000002c0: ddb7 823f f89e 7e3f 734d 813f 6c3a 813f
000002d0: 2420 7d3f 5264 783f eba4 7e3f 2889 7d3f
000002e0: 5ddf 803f eef6 803f 5e72 813f 5525 803f
000002f0: 9b32 7c3f 5b0a 7e3f 5a5a 813f 5945 7d3f
00000300: c98d 7d3f a96f 7d3f 1c90 813f 2a3b 803f
00000310: b313 7e3f a05f 7c3f 49d3 803f 318c 803f
00000320: 85b8 803f 6290 7e3f ac0a 7f3f 938f 7e3f
00000330: b2f1 803f abf3 803f 1bfb 803f ef52 823f
00000340: 62ac 803f 45f0 7e3f 116a 7d3f 5916 813f
00000350: 863c 7d3f 81ce 813f 234d 7c3f 415b 813f
00000360: 63c3 813f ca83 803f fbe4 7e3f fc66 803f
00000370: 3d4e 7c3f e411 773f a344 813f f850 7a3f
00000380: 37e8 7b3f dc72 813f f01e 7b3f d4d3 793f
00000390: 26b1 813f 6435 813f 5722 7d3f d62f 7d3f
000003a0: 0767 813f 210e 833f 5c3f 813f 2091 7c3f
000003b0: 0acf 833f ca6c 833f 6848 823f 770c 833f
000003c0: 2798 803f 1e5e 813f ceae 803f cdf7 813f
000003d0: 7e63 7f3f 90d2 813f 611b 813f f8f8 7b3f
000003e0: b43c 803f 273f 7b3f e763 823f 7b5b 803f
000003f0: 20f5 803f b830 803f 5170 813f 5d8f 813f

net.0.base_weight f4 [32, 13]
-0.032851905 -0.1868303 0.11714773 -0.055507675 -0.16976975 0.04024672 0.07270085 0.06975105
0.0834369 -0.028225726 -0.08153051 0.096993245 0.09989077 0.22736393 -0.07652992 -0.09489119
0.10139508 0.054720134 0.11070713 0.11227748 -0.045962248 -0.04408611 -0.074963994 0.15107656
0.041656733 0.034206945 -0.1290903 0.0025530993 0.05749661 -0.088859536 -0.06297032 0.2029257
0.079221934 0.08429909 -0.009105384 -0.025740247 0.054261368 0.017611563 0.17045364 -0.10322287
-0.10531244 0.05689879 0.051174548 0.05826273 -0.03058787 0.089097634 0.19561127 0.0033015502
0.0034671165 0.28919196 -0.03777633 -0.03152896 0.04753096 -0.053116266 0.009785645 -0.04407091
0.15329711 0.13581105 -0.018356116 -0.08881399 -0.09145096 0.033146482 0.084214106 -0.039422996
-0.13733894 0.07813948 -0.088123575 0.024448425 -0.048341356 0.043540273 0.12622687 -0.13922729
-0.09212746 0.023304489 -0.1073288 0.06301748 -0.10520154 0.08410874 0.06389575 0.13570271
-0.010341221 0.11226589 0.084621705 -0.08492586 0.05903267 -0.12279366 -0.07331904 -0.064325824
0.016959017 0.04219726 -0.09814777 0.0062115784 -0.13967699 -0.023555223 -0.018025203 0.16331567
0.1557715 0.0603847 -0.053932767 0.14814973 0.04729137 0.0017626372 -0.092042424 -0.028031107
0.034954686 -0.06053951 -0.05202241 0.013880208 -0.012727981 -0.112896696 0.016966525 -0.045237754
0.059200652 -0.06289695 -0.1539585 -0.09877752 0.09146057 0.0983254 0.14272086 -0.19851701
-0.026677467 0.07418308 -0.0025231158 -0.015117781 -0.026795108 -0.031804383 -0.24445109 -0.083564766
0.30243775 0.090194255 0.105007686 0.069074914 0.016298639 0.049846888 0.123841465 0.10310462
-0.0925556 -0.106121235 0.06501995 -0.015259415 0.05517864 0.052144457 0.09411699 -0.0019036438
0.0141433785 0.10748561 -0.059679568 -0.027595662 -0.026068782 0.03898358 -0.024279702 -0.014499028
-0.15793794 0.011994494 0.098595366 0.13253519 0.048615064 -0.06516098 0.019905858 0.04632575
-0.030816916 -0.22185822 -0.023337109 0.06250391 0.0069065355 0.10801231 -0.089005366 0.16421764
-0.0796898 0.034518618 0.10292601 0.11522319 0.010203372 -0.1145187 -0.11420965 -0.12050284
0.04742404 -0.010371172 -0.015482568 0.0337011 0.039770726 0.085776426 -0.12119937 -0.025253354
0.08568583 -0.1648962 0.057465088 -0.041517083 -0.038437653 0.1406229 0.18496467 -0.11521391
0.17734636 -0.10752896 0.025080131 -0.00255371 0.11998998 0.1551138 -0.1584678 -0.060713872
0.00979533 0.071343035 0.055368382 0.16181967 0.12550233 0.068962544 -0.083295085 -0.16176409
0.0017322998 -0.08075342 -0.0405897 -0.014322036 0.25863495 0.020105721 -0.031448722 -0.16010731
0.08227714 -0.086293556 0.13896972 0.0109072635 -0.12927742 -0.22245596 -0.024463465 -0.155231
0.10334671 -0.13032572 0.10820556 -0.15159842 -0.04613575 -0.017098777 0.10266294 0.08917877
0.01259559 0.025910214 0.025491338 0.017026035 0.11162214 -0.07887831 0.16114518 -0.2356411
-0.08986523 -0.07294685 0.20086162 0.0023992097 -0.09720054 -0.11802399 0.09587683 0.020525128
0.029648094 -0.01734877 0.13906679 -0.01507599 -0.0058814287 -0.13256732 -0.3764919 0.053538904
00000000: b88f 06bd 7150 3fbe 26eb ef3d 045c 63bd
00000010: 1fd8 2dbe bfd9 243d 2fe4 943d a3d9 8e3d
00000020: f7e0 aa3d a339 e7bc 78f9 a6bd 65a4 c63d
00000030: 8893 cc3d 17d2 683e b8bb 9cbd 5056 c2bd
00000040: 39a8 cf3d 3822 603d 6bba e23d bcf1 e53d
00000050: e942 3cbd a393 34bd b986 99bd d0b3 1a3e
00000060: 40a0 2a3d 951c 0c3d 3f30 04be e651 273b
00000070: 9181 6b3d fdfb b5bd 95f6 80bd c1cb 4f3e
00000080: 1c3f a23d 00a5 ac3d c02e 15bc 36dd d2bc
00000090: 2b41 5e3d 2046 903c 668b 2e3e 8366 d3bd
000000a0: 0cae d7bd b50e 693d 679c 513d e6a4 6e3d
000000b0: 6a93 fabc d278 b63d 524e 483e d25e 583b
000000c0: 9038 633b f810 943e 5abb 1abd 8324 01bd
000000d0: d3af 423d 7190 59bd f853 203c b383 34bd
000000e0: ebf9 1c3e 0d12 0b3e 915f 96bc 1ce4 b5bd
000000f0: a44a bbbd 9bc4 073d 7278 ac3d 027a 21bd
00000100: 94a2 0cbe 9707 a03d 227a b4bd 1048 c83c
00000110: 9601 46bd 4957 323d 9e41 013e 9991 0ebe
00000120: 52ad bcbd 0ee9 be3c 34cf dbbd 4f0f 813d
00000130: e873 d7bd 3441 ac3d c6db 823d a7f5 0a3e
00000140: 396e 29bc a9eb e53d 254e ad3d 9ced adbd
00000150: 3ecc 713d 3e7b fbbd 4b28 96bd 42bd 83bd
00000160: a3ed 8a3c 09d7 2c3d b301 c9bd 7f8a cb3b
00000170: 7c07 0fbe e2f6 c0bc 97a9 93bc 393c 273e
00000180: 9082 1f3e f255 773d 9be8 5cbd 90b4 173e
00000190: 98b4 413d 4a08 e73a bd80 bcbd 7ea1 e5bc
000001a0: a52c 0f3d 47f8 77bd 7315 55bd d069 633c
000001b0: 0689 50bc 6236 e7bd 62fd 8a3c 394b 39bd
000001c0: 627c 723d 1ed0 80bd 4ca7 1dbe de4b cabd
000001d0: ae4f bb3d d45e c93d 6b25 123e 0b48 4bbe
000001e0: b48a dabc 4ced 973d dc5a 25bb 92b0 77bc
000001f0: 6a81 dbbc 5045 02bd 6351 7abe 0124 abbd
00000200: 1fd9 9a3e c4b7 b83d 450e d73d 2677 8d3d
00000210: b984 853c 402c 4c3d 98a0 fd3d 8428 d33d
00000220: ca8d bdbd 1756 d9bd 2e29 853d a002 7abc
00000230: ff02 623d 6d95 553d 69c0 c03d b083 f9ba
00000240: a1b9 673c 6a21 dc3d 9072 74bd 4c10 e2bc
00000250: 338e d5bc 3fad 1f3d 3ae6 c6bc 558d 6dbc
00000260: 7cba 21be 8e84 443c 5eec c93d 4eb7 073e
00000270: 9720 473d 1f73 85bd 9c11 a33c 12c0 3d3d
00000280: c273 fcbc cd2e 63be 772d bfbc 0d02 803d
00000290: 3850 e23b 8f35 dd3d 7248 b6bd ab28 283e
000002a0: 6834 a3bd 6563 0d3d dfca d23d 23fa eb3d
000002b0: 0b2c 273c c888 eabd c0e6 e9bd 31ca f6bd
000002c0: b63f 423d d9eb 29bc 99aa 7dbc 2a0a 0a3d
000002d0: a1e6 223d 8dab af3d 6037 f8bd 1fe0 cebc
000002e0: 0d7c af3d 8dda 28be 8360 6b3d d10d 2abd
000002f0: cd70 1dbd 73ff 0f3e 6167 3d3e 45f5 ebbd
00000300: 499a 353e 2538 dcbd d974 cd3c 255c 27bb
00000310: 4ebd f53d 27d6 1e3e 6245 22be 1caf 78bd
00000320: 987c 203c 4c1c 923d f5c9 623d 0eb4 253e
00000330: af83 003e 3c3c 8d3d 9d96 aabd 7ca5 25be
00000340: 560e e33a 0d62 a5bd 6341 26bd f9a6 6abc
00000350: cd6b 843e c1b4 a43c 60d0 00bd 2cf3 23be
00000360: eb80 a83d adba b0bd 144e 0e3e 61b4 323c
00000370: 4d61 04be 7fcb 63be 9b67 c8bc e0f4 1ebe
00000380: 71a7 d33d 1b74 05be e09a dd3d 9e3c 1bbe
00000390: d7f8 3cbd bc12 8cbc f340 d23d 5ca3 b63d
000003a0: bc5d 4e3c a841 d43c 36d3 d03c 2f7a 8b3c
000003b0: 269a e43d f48a a1bd 3e03 253e e74b 71be
000003c0: 430b b8bd 2865 95bd abae 4d3e 0f3c 1d3b
000003d0: 1411 c7bd 90b6 f1bd 125b c43d 5024 a83c
000003e0: 8fe0 f23c 021f 8ebc 8667 0e3e 4901 77bc
000003f0: 00b9 c0bb babf 07be 8cc3 c0be 9c4b 5b3d

net.0.grid_points f4 [5]
-2.0 -1.0 0.0 1.0 2.0
00000000: 0000 00c0 0000 80bf 0000 0000 0000 803f
00000010: 0000 0040

net.2.coeff f4 [32, 32, 5]
0.09535893 0.11020772 0.15104593 0.041536976 -0.00054876495 0.055255283 -0.15647835 0.19091366
0.0751573 -0.060220808 -0.067345046 0.023481358 -0.07281932 -0.17951971 0.053708065 -0.023351127
-0.16770437 -0.10746142 -0.10526842 -0.101729274 0.05672679 -0.094798505 -0.10913322 0.13354436
0.021504572 0.09477348 0.11740506 0.026568059 0.047490902 -0.08211175 0.011890757 -0.11847977
0.016787954 0.12882093 0.010800566 0.107214205 -0.0021911138 -0.12097538 0.029345734 0.061318856
0.0015937829 0.12056445 -0.30414036 0.022158839 0.17270146 0.049534272 0.027590005 0.21814448
0.023519013 -0.027556956 0.037314374 0.0033280887 0.25648597 0.17768136 0.046696242 0.054545708
0.09218583 -0.030560484 -0.027668191 -0.15883966 0.01593071 0.06309967 -0.0020795343 -0.1567228
-0.06455283 0.074443854 0.11747011 0.084455244 -0.17908368 -0.11920746 -0.15437739 0.0635139
-0.09681563 -0.14023164 -0.12136743 -0.09301036 -0.15326172 0.0070292363 -0.082214884 0.03802775
0.045727182 0.012963566 -0.093362264 -0.09070041 -0.12647426 0.011293015 0.046362247 -0.016754735
-0.024948295 0.02802947 0.037206482 -0.12567304 0.14261557 0.02086822 0.045808397 0.008303353
0.13379785 -0.00891886 0.030570427 0.18144248 -0.04406896 -0.11736354 -0.015410297 0.16054359
-0.099584855 -0.013433658 0.018359259 -0.17157519 0.011881257 0.014940189 0.017403224 -0.007525445
-0.108468 0.12910192 0.28491887 0.013256304 -0.061741374 -0.09676076 -0.06038838 -0.08051371
0.057998713 0.08391141 -0.052152187 -0.02047611 -0.11994463 -0.25258574 0.13520086 0.09776195
-0.08997618 -0.26791695 -0.06235562 -0.08278048 0.0253227 -0.14328039 -0.08542927 -0.13238855
0.031732187 -0.045173753 -0.00020931588 -0.10567271 -0.037597783 0.19050387 0.14371558 -0.1296665
0.028720973 0.09778564 -0.11483117 0.07473477 0.11709496 -0.025582785 0.077499524 -0.06372462
-0.047506135 -0.101254545 0.06496191 -0.009092059 -0.108158246 -0.02370457 -0.01835394 0.15409133
-0.14256565 -0.02831497 -0.062409144 0.1381624 0.037835486 0.06434305 0.0049634837 -0.094817854
-0.035284344 -0.033602025 -0.15445374 -0.1403912 0.1995966 0.035495926 -0.040482577 -0.021116912
-0.07008043 -0.012476684 0.059239205 0.03289665 -0.055706788 -0.057302676 0.008673526 -0.04792936
0.12636699 0.034639996 0.12503578 -0.14790529 -0.024367532 0.04355231 -0.042824633 0.3296665
-0.10239493 -0.17639337 -0.07680138 -0.025005309 0.10472007 0.04483895 0.08125826 -0.022504268
0.026426697 0.07881821 -0.13394369 0.038600855 -0.023031669 -0.0023629193 -0.09832227 0.10396488
0.07663701 0.0046568825 -0.024482924 0.027484123 0.07756556 0.045300376 -0.13527687 -0.13900164
-0.11596316 -0.052234218 -0.10974887 0.01921428 -0.0008951286 0.11885228 0.023699045 0.08469682
0.021567423 0.07695126 0.19729684 -0.012849467 -0.15097181 -0.09007879 0.043873336 -0.1439353
0.17010169 -0.086532585 -0.15397096 -0.060751557 -0.093425475 -0.2300942 -0.11690887 -0.06558453
0.109333314 0.07264065 0.03607989 0.01670095 0.07163641 0.055705767 0.036948796 0.08216504
-0.06409042 -0.0053616147 0.14428584 0.03153569 -0.065332405 0.12610558 0.038777385 -0.041744474
00000000: 8b4b c33d 96b4 e13d c9ab 1a3e ad22 2a3d
00000010: feda 0fba 5d53 623d dc3b 20be df7e 433e
00000020: 12ec 993d 18aa 76bd 33ec 89bd fa5b c03c
00000030: 4c22 95bd 04d4 37be fdfc 5b3d dd4a bfbc
00000040: b2ba 2bbe bc14 dcbd f896 d7bd 7057 d0bd
00000050: 5a5a 683d b825 c2bd 3d81 dfbd dabf 083e
00000060: 5b2a b03c 9918 c23d 1072 f03d 42a5 d93c
00000070: d285 423d 352a a8bd 73d1 423c 86a5 f2bd
00000080: e486 893c a2e9 033e dbf4 303c 1f93 db3d
00000090: ca98 0fbb f1c1 f7bd 7766 f03c 7b29 7b3d
000000a0: 7be6 d03a 7fea f63d 49b8 9bbe 7486 b53c
000000b0: a7d8 303e 73e4 4a3d 6f04 e23c 4461 5f3e
000000c0: f2aa c03c 20bf e1bc f5d6 183d 101c 5a3b
000000d0: 2152 833e 1af2 353e 8f44 3f3d 526b 5f3d
000000e0: edcb bc3d fb59 fabc 67a8 e2bc dda6 22be
000000f0: 1f81 823c 663a 813d cc48 08bb f17b 20be
00000100: 4634 84bd 0576 983d 2b94 f03d dff6 ac3d
00000110: b661 37be 0a23 f4bd 1b15 1ebe 9313 823d
00000120: 4647 c6bd e298 0fbe 7d8f f8bd 377c bebd
00000130: a4f0 1cbe 8255 e63b 4760 a8bd fcc2 1b3d
00000140: 6d4c 3b3d 2365 543c b734 bfbd 23c1 b9bd
00000150: 7882 01be 5706 393c 57e6 3d3d 3a41 89bc
00000160: 5e60 ccbc 0f9e e53c d365 183d 6fb0 00be
00000170: d109 123e d4f3 aa3c 96a1 3b3d c90a 083c
00000180: 4e02 093e 6920 12bc d56e fa3c 0fcc 393e
00000190: a781 34bd 4c5c f0bd 787b 7cbc 8a65 243e
000001a0: 25f3 cbbd d818 5cbc 2866 963c 68b1 2fbe
000001b0: 9ba9 423c b2c7 743c 3591 8e3c 0298 f6bb
000001c0: 7924 debd 4b33 043e e3e0 913e f830 593c
000001d0: 86e4 7cbd 812a c6bd ce59 77bd 5fe4 a4bd
000001e0: 0f90 6d3d bfd9 ab3d 889d 55bd 84bd a7bc
000001f0: 88a5 f5bd eb52 81be 1872 0a3e 6b37 c83d
00000200: 6e45 b8bd 692c 89be 9b68 7fbd d088 a9bd
00000210: 8d71 cf3c 18b8 12be 8bf5 aebd dd90 07be
00000220: 9cf9 013d 1d08 39bd ce7b 5bb9 ef6a d8bd
00000230: 2200 1abd 7213 433e 2d2a 133e 4cc7 04be
00000240: 3f48 eb3c d643 c83d 9b2c ebbd 8b0e 993d
00000250: 7bcf ef3d fd92 d1bc 12b8 9e3d 0e82 82bd
00000260: cb95 42bd 8b5e cfbd c00a 853d dcf6 14bc
00000270: 1282 ddbd 1630 c2bc 015b 96bc 1eca 1d3e
00000280: bbfc 11be ccf4 e7bc bba0 7fbd 727a 0d3e
00000290: 62f9 1a3d 4ac6 833d b8a4 a23b dd2f c2bd
000002a0: 5186 10bd 47a2 09bd 1f29 1ebe b6c2 0fbe
000002b0: 0d63 4c3e 2d64 113d 0fd1 25bd 60fd acbc
000002c0: 5486 8fbd 016b 4cbc cfa4 723d a3be 063d
000002d0: cd2c 64bd 36b6 6abd 681b 0e3c 9451 44bd
000002e0: 5966 013e abe2 0d3d 6109 003e 7c74 17be
000002f0: 6b9e c7bc e863 323d e268 2fbd 0cca a83e
00000300: 6fb4 d1bd 77a0 34be 0b4a 9dbd efd7 ccbc
00000310: 7a77 d63d 0ca9 373d bb6a a63d df5a b8bc
00000320: cd7c d83c 716b a13d 8928 09be ee1b 1e3d
00000330: e9ac bcbc 35db 1abb 305d c9bd 8aeb d43d
00000340: ddf3 9c3d c398 983b 6a90 c8bc 6226 e13c
00000350: b1da 9e3d e38c 393d 0586 0abe 7256 0ebe
00000360: 187e edbd 8cf3 55bd 04c4 e0bd 4467 9d3c
00000370: 10a7 6aba d368 f33d 8024 c23c 8775 ad3d
00000380: 2aae b03c 9f98 9d3d 2f08 4a3e 9286 52bc
00000390: 5b98 1abe 3b7b b8bd 87b4 333d c663 13be
000003a0: 232f 2e3e ff37 b1bd 90aa 1dbe a0d6 78bd
000003b0: db55 bfbd d09d 6bbe eb6d efbd 2f51 86bd
000003c0: 25ea df3d 9fc4 943d 82c8 133d 6ed0 883c
000003d0: 1cb6 923d bb2b 643d 9f57 173d 2546 a83d
000003e0: d741 83bd 7cb0 afbb abbf 133e 912b 013d
000003f0: ffcc 85bd d221 013e 09d5 1e3d 41fc 2abd

net.2.scale f4 [32, 32]
1.0142107 1.0147903 0.9902363 0.9858077 0.9883348 1.0133594 1.0208278 0.98534805
0.98580015 1.0150702 1.013132 0.9828757 0.98478335 1.0136945 0.9857878 0.984408
0.9842898 0.9902162 1.0100809 1.0207883 1.0074 0.9848509 1.0108696 0.9858881
0.9812316 1.0140604 0.98043007 0.9925552 1.0143868 1.0152817 0.98545444 0.983462
0.9903535 0.99205554 1.0037241 0.9910649 1.0121958 0.9922532 0.9940843 1.0093169
0.9899781 1.0083592 1.0099027 0.9903813 1.0104264 0.9895102 1.0089424 0.98990697
1.0098311 1.0093821 0.969801 1.0341882 1.0067104 1.0066593 1.0093216 1.0124155
1.0020299 0.991113 0.99009067 0.98098564 1.0313935 1.0010375 0.99215704 1.0034922
1.0113294 1.0129589 0.99590355 1.0125766 1.0108888 1.0128877 1.0156342 0.9869843
1.0067362 1.0097752 1.0101966 0.9900308 1.0261753 1.0099823 1.0127343 1.0138487
0.9868009 0.98611516 1.0151675 0.99228686 1.0136111 0.9914429 1.0245752 0.99605966
1.0005486 0.9874839 1.0135149 1.013898 0.99542063 1.0002357 0.98737925 0.990524
0.9935106 1.0059296 1.00154 1.0062984 1.0049036 0.99374664 0.97781754 0.99362785
1.0106387 0.994382 1.0041295 1.0079869 1.0013431 1.0058745 0.99375814 0.9946245
0.9940538 0.99369854 0.9702155 1.0023849 0.9987335 0.9936518 0.9859588 1.0065907
0.99358773 1.0047964 0.9925354 0.99369395 0.99992925 0.99728173 0.9926908 0.99444187
0.9973937 1.0008216 1.0108454 1.0017889 1.0153397 0.99627274 1.0023482 1.0020722
0.99269104 0.99312204 0.99835104 1.0005045 1.010811 0.9998238 1.00107 0.99990195
0.9977784 1.0013152 0.997988 1.002074 1.0003691 0.9988521 1.0207783 1.000557
0.99867815 0.9851135 0.99933314 0.9924285 1.0132339 0.99338603 0.9990314 0.9989556
1.0045383 1.0040337 1.0039843 1.002956 0.9954532 1.0029825 0.9968003 0.9959746
0.9950126 0.99580777 1.0058403 1.0004748 0.9970438 1.0041038 1.0029316 0.9976275
1.0151167 1.0038849 1.0012715 1.024678 0.9924371 0.9970745 0.99690664 1.0063167
1.0049931 0.9967734 1.004152 1.0037335 0.9971747 1.0021812 1.0028886 1.0053482
1.0028732 1.0029367 0.9900992 0.9973904 0.9929593 0.9944337 1.0176082 0.9980729
1.0089445 1.0038743 1.0054313 1.008212 1.006137 1.0049189 1.0033357 1.0043997
1.0005318 0.9947781 0.98474324 1.0060741 0.9960427 0.99717695 0.9721066 0.993262
1.0036922 1.0069659 1.0137113 0.9893238 0.9966626 1.0187465 1.007672 1.0019126
1.0058724 0.99199927 0.9933032 1.0082022 0.9942613 1.0085287 1.0015639 1.0070177
0.99241626 0.98597145 1.013088 0.98951215 1.0080075 0.996112 1.0061908 1.0097495
1.0078785 1.0140768 1.0066309 0.9919793 0.9866975 0.9899646 1.0083247 0.98953986
1.0087448 0.99205095 1.0106778 0.9950567 0.9837206 1.0150185 0.9927634 1.0193938
00000000: a8d1 813f a6e4 813f 2080 7d3f e55d 7c3f
00000010: 8203 7d3f c3b5 813f 7caa 823f c53f 7c3f
00000020: 665d 7c3f d2ed 813f 4fae 813f be9d 7b3f
00000030: c31a 7c3f bec0 813f 975c 7c3f 2a02 7c3f
00000040: 6bfa 7b3f cf7e 7d3f 554a 813f 31a9 823f
00000050: 7cf2 803f 301f 7c3f 2d64 813f 2a63 7c3f
00000060: fe31 7b3f bbcc 813f 77fd 7a3f 1918 7e3f
00000070: 6dd7 813f c0f4 813f be46 7c3f 2ac4 7b3f
00000080: cf87 7d3f 5af7 7d3f 087a 803f 6eb6 7d3f
00000090: a28f 813f 4e04 7e3f 4f7c 7e3f 4c31 813f
000000a0: 346f 7d3f ea11 813f 7e44 813f a189 7d3f
000000b0: a755 813f 8a50 7d3f 0625 813f 8b6a 7d3f
000000c0: 2542 813f 6f33 813f e144 783f 4760 843f
000000d0: e3db 803f 36da 803f 7331 813f d596 813f
000000e0: 8442 803f 95b9 7d3f 9576 7d3f e021 7b3f
000000f0: b404 843f ff21 803f 01fe 7d3f 6f72 803f
00000100: 3e73 813f a3a8 813f 89f3 7e3f 1c9c 813f
00000110: ce64 813f 4ea6 813f 4d00 823f 01ab 7c3f
00000120: bbdc 803f 5040 813f 1f4e 813f a972 7d3f
00000130: b659 833f 1a47 813f 47a1 813f cbc5 813f
00000140: fc9e 7c3f 0b72 7c3f 02f1 813f 8306 7e3f
00000150: 02be 813f 34cf 7d3f 4825 833f c4fd 7e3f
00000160: fa11 803f bfcb 7c3f dbba 813f 69c7 813f
00000170: e3d3 7e3f b907 803f e3c4 7c3f fb92 7d3f
00000180: b656 7e3f 4dc2 803f 7632 803f 63ce 803f
00000190: aea0 803f 2e66 7e3f 4052 7a3f 655e 7e3f
000001a0: 9c5c 813f d28f 7e3f 5187 803f b705 813f
000001b0: 032c 803f 7fc0 803f ef66 7e3f b69f 7e3f
000001c0: 4f7a 7e3f 0763 7e3f 0b60 783f 264e 803f
000001d0: 00ad 7f3f f75f 7e3f cc67 7c3f f7d7 803f
000001e0: c45b 7e3f 2b9d 803f cd16 7e3f ba62 7e3f
000001f0: 5dfb 7f3f db4d 7f3f fc20 7e3f be93 7e3f
00000200: 3255 7f3f ec1a 803f 6263 813f 9e3a 803f
00000210: a7f6 813f bb0b 7f3f f24c 803f e743 803f
00000220: 0021 7e3f 3f3d 7e3f ef93 7f3f 8810 803f
00000230: 4162 813f 74f4 7f3f 1023 803f 93f9 7f3f
00000240: 686e 7f3f 192b 803f 247c 7f3f f643 803f
00000250: 180c 803f c5b4 7f3f dda8 823f 4012 803f
00000260: 5fa9 7f3f 6630 7c3f 4cd4 7f3f cb0f 7e3f
00000270: a6b1 813f 8c4e 7e3f 86c0 7f3f 8ebb 7f3f
00000280: b694 803f 2d84 803f 8f82 803f dd60 803f
00000290: 05d6 7e3f bb61 803f 4e2e 7f3f 31f8 7e3f
000002a0: 25b9 7e3f 42ed 7e3f 60bf 803f 8f0f 803f
000002b0: 433e 7f3f 7986 803f 1060 803f 8464 7f3f
000002c0: 58ef 813f 4d7f 803f aa29 803f a628 833f
000002d0: 5c10 7e3f 4640 7f3f 4635 7f3f fcce 803f
000002e0: 9da3 803f 8b2c 7f3f 0e88 803f 577a 803f
000002f0: d746 7f3f 7947 803f a75e 803f 40af 803f
00000300: 265e 803f 3b60 803f 2477 7d3f fa54 7f3f
00000310: 9532 7e3f 3593 7e3f fc40 823f b581 7f3f
00000320: 1825 813f f47e 803f f9b1 803f 170d 813f
00000330: 19c9 803f 2fa1 803f 4e6d 803f 2b90 803f
00000340: 6d11 803f c7a9 7e3f 2218 7c3f 09c7 803f
00000350: a8fc 7e3f fd46 7f3f fadb 783f 6b46 7e3f
00000360: fc78 803f 42e4 803f 4bc1 813f 5344 7d3f
00000370: 4825 7f3f 4966 823f 65fb 803f ac3e 803f
00000380: 6dc0 803f aaf3 7d3f 1e49 7e3f c50c 813f
00000390: e987 7e3f 7817 813f 3f33 803f f5e5 803f
000003a0: fe0e 7e3f a068 7c3f deac 813f ab50 7d3f
000003b0: 6406 813f 3201 7f3f dcca 803f 793f 813f
000003c0: 2a02 813f 45cd 813f 48d9 803f 5bf2 7d3f
000003d0: 3598 7c3f 526e 7d3f c910 813f 7c52 7d3f
000003e0: 8d1e 813f 0df7 7d3f e45d 813f 09bc 7e3f
000003f0: 1dd5 7b3f 20ec 813f be25 7e3f 7f7b 823f

net.2.base_weight f4 [32, 32]
-0.29954046 0.047542367 0.061127063 -0.019285202 0.06384022 0.06457504 0.13572112 -0.06934248
0.04568305 0.037514616 0.15103339 0.115743205 0.11936764 -0.07287177 -0.3131095 0.12608993
-0.050042205 -0.059866026 -0.1395415 -0.002735761 -0.035739604 0.13270338 -0.05238777 0.09858452
0.20661378 -0.24142301 -0.018060667 -0.18499903 -0.14334162 -0.061577976 0.11368819 0.06060969
-0.04274948 0.04539317 -0.2016217 -0.0027467948 -0.0364692 -0.036333155 0.22799218 0.10319751
-0.024198957 0.19665362 -0.089058 0.0039116126 0.036171947 0.09093181 0.02303806 -0.04719072
-0.089964665 0.045399215 0.049946923 -0.17552693 0.010959389 0.0746919 0.008991916 -0.06850824
-0.05237172 -0.041788027 0.11388021 0.017560132 -0.039216794 -0.010991837 0.03501007 -0.14182934
0.006027779 -0.047164023 -0.17284337 -0.0030106695 -0.056362055 0.17262253 -0.1488941 0.25946
0.02550839 0.077999644 -0.05128353 -0.073675156 -0.024551123 0.1618116 0.052383345 0.07160213
-0.0398556 0.044910185 0.11636001 -0.06676322 -0.06130705 0.07192382 -0.03913317 -0.025599357
0.23713441 -0.10984664 -0.16319485 0.015343884 0.15100467 -0.01159176 -0.12613204 0.13651732
-0.007363314 -0.0009076124 -0.11326612 0.23508929 -0.040686127 -0.023437645 0.01689642 -0.10189971
0.051679738 -0.02808438 0.046312235 -0.13391541 0.19703087 -0.029542815 0.04171716 -0.1335959
0.14209384 -0.09963279 0.12408087 0.14222878 0.05566042 0.01735515 -0.029121151 -0.046229307
0.099283054 0.03448412 -0.02862337 -0.23887683 -0.018507475 -0.08691306 0.046033632 0.18509674
-0.21214633 -0.073535636 0.060387783 -0.07589488 0.023686716 0.16286549 -0.07588789 -0.076420344
-0.016333425 -0.014434961 -0.027514815 -0.07515848 0.10798355 -0.17204416 -0.12788768 0.016988434
0.035063203 0.008393815 -0.18074487 -0.013551214 -0.11490195 -0.13380633 0.039468393 0.11263548
0.053687803 0.0049220016 0.09937044 0.0042791534 -0.2968921 -0.020039286 -0.06007564 -0.085698724
-0.023607112 0.03492216 -0.034108944 0.099158034 -0.023565 -0.012690917 0.083197474 0.0036335967
-0.03642727 -0.10839863 0.0072911666 0.08433018 0.053412385 -0.064880826 0.038273323 0.07555667
0.029216485 0.02425855 0.019689253 -0.09187887 0.0031802638 -0.10669322 -0.08238453 -0.01686817
0.06606618 0.085717924 0.06194496 0.07264433 -0.028526472 0.18628441 -0.16362515 0.08221693
0.014905942 -0.049374793 -0.07745657 0.0026107004 -0.11521915 -0.23965493 0.12091152 -0.1202936
-0.119663335 -0.145695 -0.1066522 0.11959999 0.16825837 0.020027034 0.057490937 -0.05457797
-0.044519745 -0.09065054 -0.113702476 -0.042527393 0.0073131644 0.007150582 -0.015024453 0.14566621
0.022806138 -0.123440795 -0.18880187 -0.22584993 -0.14047046 0.075206034 0.038024165 0.00091125676
0.023498751 -0.06694014 0.06843311 -0.10354006 0.05739124 -0.04582545 0.0016212292 -0.049303565
0.022034638 -0.009453056 0.16587989 -0.019191705 0.015294034 0.08350171 0.016739424 0.025472837
0.024318064 0.09828609 -0.03876896 -0.058138758 0.042771533 -0.018729204 0.13828881 -0.03421465
-0.027042497 0.045632903 -0.04077917 0.036960494 0.030355155 0.13593626 -0.0046658157 -0.12841363
00000000: 5e5d 99be c9bb 423d 5f60 7a3d 00fc 9dbc
00000010: a9be 823d eb3f 843d 7afa 0a3e 6e03 8ebd
00000020: 261e 3b3d eda8 193d 7fa8 1a3e c60a ed3d
00000030: 0577 f43d cb3d 95bd e34f a0be b81d 013e
00000040: 0ef9 4cbd 1436 75bd f8e3 0ebe 744a 33bb
00000050: b163 12bd 65e3 073e 8f94 56bd aee6 c93d
00000060: 9092 533e 9837 77be f7f3 93bc 6370 3dbe
00000070: 25c8 12be 3039 7cbd 5bd5 e83d de41 783d
00000080: 141a 2fbd 30ee 393d eb75 4ebe 9203 34bb
00000090: ba60 15bd 13d2 14bd c876 693e 3759 d33d
000000a0: e43c c6bc 915f 493e 0a64 b6bd fc2c 803b
000000b0: 0929 143d 753a ba3d 50ba bc3c 0e4b 41bd
000000c0: 653f b8bd 87f4 393d 2595 4c3d 55bd 33be
000000d0: 028f 333c 11f8 983d d452 133c 0c4e 8cbd
000000e0: bb83 56bd ec29 2bbd 073a e93d 44da 8f3c
000000f0: caa1 20bd 1b17 34bc b866 0f3d b63b 11be
00000100: ad84 c53b 102f 41bd dafd 30be a74e 45bb
00000110: e6db 66bd f6c3 303e b277 18be f1d7 843e
00000120: f9f6 d03c 47be 9f3d ae0e 52bd 00e3 96bd
00000130: 701f c9bc f1b1 253e eb8f 563d 23a4 923d
00000140: a03f 23bd bef3 373d 284e ee3d 28bb 88bd
00000150: 1a1d 7bbd cc4c 933d 1a4a 20bd beb5 d1bc
00000160: 5dd3 723e 46f7 e0bd 8d1c 27be ea64 7b3c
00000170: f8a0 1a3e 5eeb 3dbc c228 01be 32cb 0b3e
00000180: f447 f1bb d6ec 6dba 11f8 e7bd 3fbb 703e
00000190: 7fa6 26bd 4e00 c0bc 5c6a 8a3c ccb0 d0bd
000001a0: 22ae 533d 3711 e6bc e6b1 3d3d 1f21 09be
000001b0: 76c2 493e c603 f2bc 9ddf 2a3d 5dcd 08be
000001c0: 0c81 113e 470c ccbd 1c1e fe3d 6ca4 113e
000001d0: 2efc 633d 632c 8e3c 7b8f eebc f15a 3dbd
000001e0: ea54 cb3d 383f 0d3d 8f7b eabc 219c 74be
000001f0: fd9c 97bc 79ff b1bd c38d 3c3d 008a 3d3e
00000200: e33c 59be da99 96bd 2e59 773d c66e 9bbd
00000210: a50a c23c 36c6 263e 1c6b 9bbd 4582 9cbd
00000220: adcd 85bc 9d80 6cbc c066 e1bc b0ec 99bd
00000230: 7b26 dd3d 582c 30be fdf4 02be 542b 8b3c
00000240: 6f9e 0f3d 3686 093c 2f15 39be e905 5ebc
00000250: b751 ebbd 8704 09be 9ca9 213d 6ead e63d
00000260: bee7 5b3d be48 a13b bb82 cb3d 2438 8c3b
00000270: 3e02 98be 6e29 a4bc e011 76bd d082 afbd
00000280: b463 c1bc 8a0a 0f3d d2b5 0bbd 5e13 cb3d
00000290: 630b c1bc 90ed 4fbc 7063 aa3d a321 6e3b
000002a0: c334 15bd 1a00 debd bdea ee3b 4db5 ac3d
000002b0: f2c6 5a3d 3de0 84bd 7dc4 1c3d 75bd 9a3d
000002c0: 6957 ef3c deb9 c63c 5b4b a13c fd2a bcbd
000002d0: f96b 503b fa81 dabd 38b9 a8bd 1e2f 8abc
000002e0: b54d 873d e18c af3d 00ba 7d3d 8dc6 943d
000002f0: 59b0 e9bc 57c1 3e3e 5a8d 27be 5a61 a83d
00000300: 0d38 743c 393d 4abd 8da1 9ebd 4918 2b3b
00000310: 05f8 ebbd 1a68 75be 76a0 f73d 7e5c f6bd
00000320: 0d12 f5bd 1231 15be 786c dabd d7f0 f43d
00000330: ec4b 2c3e bc0f a43c 9e7b 6b3d 268d 5fbd
00000340: 565a 36bd fea6 b9bd d8dc e8bd 3431 2ebd
00000350: 45a3 ef3b 6e4f ea3b 2029 76bc 8629 153e
00000360: f0d3 ba3c 87ce fcbd 4755 41be 3445 67be
00000370: 7dd7 0fbe 9f05 9a3d 3abf 1b3d 68e1 6e3a
00000380: 7480 c03c ea17 89bd a926 8c3d d00c d4bd
00000390: 1413 6b3d 78b3 3bbd 6d7f d43a 89f2 49bd
000003a0: fc81 b43c fee0 1abc 6bdc 293e ec37 9dbc
000003b0: d493 7a3c f202 ab3d 1e21 893c 69ac d03c
000003c0: ad36 c73c 384a c93d 33cc 1ebd e822 6ebd
000003d0: 3431 2f3d fd6d 99bc 959b 0d3e a924 0cbd
000003e0: 3a88 ddbc 91e9 3a3d 0f08 27bd e363 173d
000003f0: 60ab f83c e032 0b3e b3e3 98bb dd7e 03be

net.2.grid_points f4 [5]
-2.0 -1.0 0.0 1.0 2.0
00000000: 0000 00c0 0000 80bf 0000 0000 0000 803f
00000010: 0000 0040

net.3.coeff f4 [13, 32, 5]
0.086181246 0.070605166 0.009799238 -0.07395609 -0.10424274 0.0069454997 0.0065776873 0.06377886
-0.103583515 0.05222475 -0.18549483 0.00834117 0.02514292 0.02623708 0.1036301 -0.10295171
0.14750323 -0.111344784 0.032515995 0.08532199 -0.06632646 -0.09288672 -0.09497801 -0.036194947
-0.016222103 -0.107309364 -0.0050736205 -0.03231175 0.112711415 0.012370645 -0.12148454 0.07490197
0.014641872 -0.019755673 0.014270413 0.25475746 -0.09949549 0.0003567177 0.07716106 -0.1856539
-0.118074104 -0.14575459 -0.1316157 -0.024209693 -0.048265744 -0.24127582 0.0049257465 -0.01629146
0.097188145 0.066241615 -0.10652059 0.2674262 -0.052213486 -0.10625512 0.06150445 -0.10489495
-0.030449163 -0.09151113 -0.0610945 -0.105570905 0.11837629 0.14436153 -0.005053666 -0.0006107636
-0.14020102 -0.08125696 0.12791854 0.012813334 -0.04838323 0.088922076 -0.071241274 -0.03852957
-0.18996324 -0.14342283 -0.08655638 0.006419399 -0.068300135 -0.046169117 -0.04481071 -0.15214393
0.1598334 0.02424457 -0.12989658 -0.12990607 0.07001842 -0.023617415 0.05070765 -0.12892415
0.24670514 0.03264108 -0.11705396 -0.19334768 -0.09351705 0.13578838 -0.038647667 0.046836734
-0.05345529 0.1483243 -0.14901559 -0.038838822 0.21600409 -0.056882303 -0.005574949 0.049832996
0.13059114 0.037664663 -0.008395655 -0.03143309 -0.1187574 0.10978641 0.08792817 -0.050118603
0.061002716 0.004802983 0.15120816 0.079967245 -0.23368643 0.10750005 0.12789549 -0.16978097
-0.0053672446 -0.039498754 0.13065316 -0.23005722 -0.0233887 0.052021768 -0.053406227 0.045543585
0.10043344 0.103062026 0.107277565 -0.020681102 -0.11229855 -0.0011360518 0.09613546 0.054376204
-0.112741806 -0.05250894 -0.011855577 -0.0903078 -0.09680817 0.0030296354 -0.018127406 -0.06720394
-0.10390838 -0.14695601 0.09467557 0.12223891 0.10407402 0.15072604 0.003910029 -0.06800782
-0.043915104 -0.007213402 -0.09665675 -0.090351485 0.013644147 0.03730075 0.024402637 0.2043875
-0.16432334 -0.17618304 -0.051430747 0.0428902 -0.12118121 0.13738047 -0.011158997 0.03936836
-0.041979548 0.11152941 0.004834804 0.12637672 0.19438867 -0.02101913 0.21367149 0.11399191
0.15793498 -0.18497801 -0.09059988 -0.030055737 0.089133784 0.040909994 0.14811693 -0.007556975
0.06574436 0.072610565 -0.17759743 -0.118506216 0.046956975 -0.1569572 -0.0042501744 0.034349114
-0.075646535 -0.105131194 0.011897311 0.046128478 0.014456195 -0.13466762 0.0036486026 0.055439707
0.008256544 0.10255463 -0.17731611 -0.08774384 0.031615194 0.06342839 -0.005466139 0.058946855
0.09160885 -0.0011563367 -0.0032913832 -0.06510491 -0.054950967 0.12964039 0.11113173 0.08112423
0.055284973 -0.07098585 -0.029878689 0.10037507 0.105551414 0.0067383954 0.14725406 -0.011930772
0.0711756 0.12897721 -0.14289846 0.034917813 0.0029669509 0.1116102 -0.050327886 -0.028726002
-0.014862156 0.085513555 0.14251237 0.06153434 -0.016184486 0.15302855 0.015788853 0.0018243724
0.030170282 0.069655456 0.10823927 0.031781964 0.2449234 -0.007609369 -0.13143098 -0.109294586
-0.11852424 0.07310347 0.13297664 -0.080548085 -0.094864 -0.09666101 0.053830594 -0.1096427
00000000: cb7f b03d 7199 903d fc8c 203c 4a76 97bd
00000010: 387d d5bd 1397 e33b a489 d73b 7e9e 823d
00000020: 9823 d4bd 9fe9 553d 5bf2 3dbe 67a9 083c
00000030: 86f8 cd3c 25ef d63c 053c d43d 59d8 d2bd
00000040: 160b 173e bc08 e4bd 7e2f 053d 4cbd ae3d
00000050: 2bd6 87bd 653b bebd d583 c2bd 2741 14bd
00000060: 37e4 84bc 03c5 dbbd 9d40 a6bb 5359 04bd
00000070: 3ed5 e63d 3fae 4a3c e3cc f8bd 3466 993d
00000080: 76e4 6f3c a6d6 a1bc 73ce 693c 926f 823e
00000090: 4bc4 cbbd d705 bb39 9e06 9e3d 0e1c 3ebe
000000a0: d6d0 f1bd b140 15be 44c6 06be 6853 c6bc
000000b0: 4db2 45bd 0211 77be 2868 a13b ab75 85bc
000000c0: 940a c73d afa9 873d 7827 dabd 16ec 883e
000000d0: cfdd 55bd 499c d9bd 17ec 7b3d 2ad3 d6bd
000000e0: 8670 f9bc 306a bbbd 3a3e 7abd 8f35 d8bd
000000f0: 456f f23d 82d3 133e 3999 a5bb a71b 20ba
00000100: db90 0fbe 0d6a a6bd 14fd 023e 05ef 513c
00000110: 7e2d 46bd c71c b63d f2e6 91bd 2fd1 1dbd
00000120: b985 42be 6fdd 12be 7944 b1bd d259 d23b
00000130: f1e0 8bbd d41b 3dbd 6f8b 37bd 9ecb 1bbe
00000140: 5eab 233e 8c9c c63c 9c03 05be 1906 05be
00000150: d165 8f3d 4f79 c1bc d3b2 4f3d b104 04be
00000160: 46a0 7c3e a7b2 053d fdb9 efbd effc 45be
00000170: de85 bfbd 1c0c 0b3e 044d 1ebd e0d7 3f3d
00000180: eff3 5abd 53e2 173e 8b97 18be 7515 1fbd
00000190: 2d30 5d3e 6bfd 68bd 10ae b6bb af1d 4c3d
000001a0: afb9 053e 4346 1a3d ee8d 09bc fcbf 00bd
000001b0: 1437 f3bd b3d7 e03d af13 b43d 2a49 4dbd
000001c0: fcdd 793d 5762 9d3b 50d6 1a3e dec5 a33d
000001d0: 7f4b 6fbe fc28 dc3d 09f7 023e 10db 2dbe
000001e0: b6df afbb 72c9 21bd f1c9 053e 1f94 6bbe
000001f0: a999 bfbc c714 553d 7dc0 5abd e98b 3a3d
00000200: 0cb0 cd3d 2f12 d33d 57b4 db3d 6a6b a9bc
00000210: c8fc e5bd 93e7 94ba abe2 c43d 95b9 5e3d
00000220: 2de5 e6bd 9d13 57bd e53d 42bc 4cf3 b8bd
00000230: 5d43 c6bd d98c 463b ed7f 94bc 38a2 89bd
00000240: ebcd d4bd a37b 16be 44e5 c13d 6558 fa3d
00000250: c324 d53d ed57 1a3e b31f 803b af47 8bbd
00000260: 53e0 33bd 675e ecbb f9f3 c5bd 330a b9bd
00000270: b38b 5f3c acc8 183d 0ae8 c73c f54a 513e
00000280: 6144 28be 5469 34be 0ca9 52bd a2ad 2f3d
00000290: db2d f8bd 77ad 0c3e 3ad4 36bc b840 213d
000002a0: bff2 2bbd 8869 e43d 476d 9e3b e668 013e
000002b0: d30d 473e 4f30 acbc b3cc 5a3e 9774 e93d
000002c0: b5b9 213e e06a 3dbe 6e8c b9bd 7337 f6bc
000002d0: c68b b63d 3d91 273d f7ab 173e 80a0 f7bb
000002e0: fba4 863d d9b4 943d 1adc 35be 63b3 f2bd
000002f0: f555 403d 63b9 20be 0c45 8bbb a8b1 0c3d
00000300: 92ec 9abd 064f d7bd f0ec 423c 37f1 3c3d
00000310: add9 6c3c 4fe6 09be 651d 6f3b bf14 633d
00000320: 7546 073c 2908 d23d 5b92 35be 0bb3 b3bd
00000330: ef7e 013d bee6 813d 4c1d b3bb 4272 713d
00000340: 6c9d bb3d 3990 97ba 3fb4 57bb b955 85bd
00000350: 4414 61bd 73c0 043e 0899 e33d 7624 a63d
00000360: 7f72 623d 0861 91bd 27c4 f4bc 7291 cd3d
00000370: 572b d83d c2cd dc3b c5c9 163e 4979 43bc
00000380: 83c4 913d 9a12 043e f953 12be fb05 0f3d
00000390: 2d71 423b e393 e43d 9d24 4ebd cb52 ebbc
000003a0: 6680 73bc bb21 af3d c3ee 113e 6f0b 7c3d
000003b0: 5495 84bc 84b3 1c3e a057 813c c81f ef3a
000003c0: ab27 f73c 85a7 8e3d 8dac dd3d ce2d 023d
000003d0: 33cd 7a3e 0358 f9bb d895 06be d7d5 dfbd
000003e0: d6bc f2bd 46b7 953d 072b 083e 65f6 a4bd
000003f0: 0f48 c2bd 35f6 c5bd 787d 5c3d 5a8c e0bd

net.3.scale f4 [13, 32]
1.0205945 1.0085784 1.0091286 1.0059203 0.9898458 0.9903169 1.0017469 1.0098304
0.9898892 0.9844444 0.9884471 0.9865444 1.0079025 0.9813113 0.99007714 0.9893164
0.9908097 0.9899081 0.989613 0.9971747 1.006689 0.9919802 1.0108314 1.0107561
1.0061092 1.0036098 0.9906347 0.9861672 0.98937476 1.0100695 0.9883553 1.0096565
0.99888635 1.0028898 1.0040226 0.9811457 1.002855 0.99726814 0.99641985 0.99784374
0.9936885 1.0023435 0.9887506 0.9945876 1.0092422 1.0047483 1.0032803 1.0052677
1.0032859 0.9961471 0.9962281 0.9962662 0.99565536 1.0030885 0.9950996 1.0086868
0.9962241 0.997903 1.0031562 0.97695136 1.0037491 0.99110484 0.9912228 0.99499106
1.0086831 1.0094962 1.0101641 0.9909499 0.98954505 0.9918503 0.9744325 0.9908462
0.9896921 0.9832616 1.0090613 0.99115264 1.0089562 0.980327 1.0131525 0.99195534
1.0038824 1.0028067 0.98876023 0.9811382 0.9862828 0.9889933 1.0023268 1.0100224
0.99031776 0.9916482 0.9922114 0.98913443 1.0083888 0.98231363 1.0087059 1.007458
1.0077282 1.0130035 0.97595143 0.9926938 1.0062336 0.992603 1.0070164 0.9720399
1.0079663 0.9901461 1.0037799 0.99371743 1.0147827 0.9723557 0.9927482 0.99023986
0.9929662 1.007568 1.0050838 0.98659843 1.0044351 0.9913264 1.0097563 1.0063783
0.99424785 1.0078796 1.0074619 0.99222755 0.9918591 0.98579043 0.99142325 1.0068247
1.0085657 0.9858639 0.999952 1.0004827 1.0190828 1.0015854 1.0011739 0.9988429
1.0027556 0.9962561 0.9960013 1.0005713 1.002476 0.9968417 1.000656 1.0048246
0.994179 1.0133904 0.9796113 1.0068322 1.0036055 0.9988601 1.001109 1.0056326
1.0066364 1.0271468 0.9961622 0.9940822 1.000109 0.9823572 0.98147124 0.9937386
1.008299 1.0087593 0.99422663 0.9998331 0.98821545 0.9932933 1.0066684 1.0057944
1.008037 0.9950752 0.9871421 0.99298066 1.00601 1.0098401 1.0041007 1.0041202
0.99440444 1.0115048 0.9964018 1.0034137 0.99372464 1.0070661 0.99059176 0.9860859
0.99157447 1.0015457 1.0061301 1.0045136 0.9953108 1.0064685 1.0085464 0.9984218
1.0132698 1.012514 1.0119534 0.9830039 1.0150836 0.9903968 1.0105838 1.015769
0.98842394 1.0006158 0.9869595 1.0047121 0.9752023 1.0160216 0.9871791 0.99049413
0.99060035 1.0123783 1.0123006 0.98828 1.0129448 1.0076698 1.013522 0.98873514
0.9992009 1.0249584 1.0089371 1.0109458 1.0123942 0.9859038 0.9863448 0.98949397
1.0086989 0.9978988 1.0010661 0.9908166 1.0072101 1.008358 0.9988491 1.0066293
0.9917756 0.990922 0.99200493 1.0080277 0.9886215 1.0136586 1.0100554 0.99171114
0.9897361 0.99194384 0.9938708 0.9879289 0.99088734 1.0098488 1.0107685 0.9912881
0.9869165 1.0092974 0.98943645 0.9906401 1.0086298 1.0215786 1.006934 0.9932736
00000000: d7a2 823f 1919 813f 202b 813f ffc1 803f
00000010: 8966 7d3f 6985 7d3f 3e39 803f 1f42 813f
00000020: 6169 7d3f 8c04 7c3f df0a 7d3f 2c8e 7c3f
00000030: f302 813f 3837 7b3f b275 7d3f d743 7d3f
00000040: b4a5 7d3f 9e6a 7d3f 4757 7d3f d746 7f3f
00000050: 2fdb 803f 6af2 7d3f ec62 813f 7560 813f
00000060: 30c8 803f 4976 803f 3c9a 7d3f 7475 7c3f
00000070: aa47 7d3f f549 813f da04 7d3f 6d3c 813f
00000080: 04b7 7f3f b15e 803f d083 803f 5d2c 7b3f
00000090: 8d5d 803f f74c 7f3f 5f15 7f3f b072 7f3f
000000a0: 5f62 7e3f cb4c 803f c21e 7d3f 4b9d 7e3f
000000b0: d92e 813f 989b 803f 7d6b 803f 9dac 803f
000000c0: ac6b 803f 7f03 7f3f ce08 7f3f 4d0b 7f3f
000000d0: 45e3 7e3f 3465 803f d9be 7e3f a61c 813f
000000e0: 8b08 7f3f 9276 7f3f 6c67 803f 7c19 7a3f
000000f0: da7a 803f 0cb9 7d3f c7c0 7d3f bcb7 7e3f
00000100: 871c 813f 2c37 813f 0f4d 813f e5ae 7d3f
00000110: d352 7d3f e7e9 7d3f 6974 793f 19a8 7d3f
00000120: 765c 7d3f 08b7 7b3f ec28 813f 2ebc 7d3f
00000130: 7a25 813f b6f6 7a3f fbae 813f c9f0 7d3f
00000140: 387f 803f f85b 803f 641f 7d3f e02b 7b3f
00000150: 087d 7c3f aa2e 7d3f 3f4c 803f 6a48 813f
00000160: 7785 7d3f a8dc 7d3f 9101 7e3f ea37 7d3f
00000170: e212 813f e878 7b3f 461d 813f 62f4 803f
00000180: 3dfd 803f 19aa 813f f4d7 793f 2e21 7e3f
00000190: 43cc 803f 3b1b 7e3f eae5 803f 9bd7 783f
000001a0: 0a05 813f 377a 7d3f dc7b 803f 4464 7e3f
000001b0: 66e4 813f 4eec 783f bf24 7e3f 5c80 7d3f
000001c0: 0833 7e3f fdf7 803f 96a6 803f b791 7c3f
000001d0: 5491 803f 91c7 7d3f b23f 813f 01d1 803f
000001e0: 0787 7e3f 3302 813f 83f4 803f a002 7e3f
000001f0: 7aea 7d3f c35c 7c3f eacd 7d3f a2df 803f
00000200: ae18 813f 9461 7c3f dbfc 7f3f d10f 803f
00000210: 4e71 823f f333 803f 7726 803f 2bb4 7f3f
00000220: 4c5a 803f a40a 7f3f f1f9 7e3f b812 803f
00000230: 2251 803f 0531 7f3f 7f15 803f 189e 803f
00000240: 8482 7e3f c7b6 813f cec7 7a3f e1df 803f
00000250: 2576 803f 4cb5 7f3f 5724 803f 92b8 803f
00000260: 76d9 803f 8c79 833f 7c04 7f3f 2c7c 7e3f
00000270: 9203 803f c37b 7b3f b341 7b3f a765 7e3f
00000280: f10f 813f 061f 813f a385 7e3f 10f5 7f3f
00000290: b0fb 7c3f 7848 7e3f 83da 803f dfbd 803f
000002a0: 5b07 813f 40bd 7e3f 58b5 7c3f fb33 7e3f
000002b0: f0c4 803f 7142 813f 5f86 803f 0387 803f
000002c0: 4a91 7e3f fd78 813f 3014 7f3f dc6f 803f
000002d0: bd64 7e3f 8be7 803f 6c97 7d3f 2070 7c3f
000002e0: d3d7 7d3f a632 803f dfc8 803f e793 803f
000002f0: b0cc 7e3f f6d3 803f 0c18 813f 9298 7f3f
00000300: d3b2 813f 0f9a 813f b087 813f 25a6 7b3f
00000310: 42ee 813f a58a 7d3f cf5a 813f b804 823f
00000320: 5a09 7d3f 2e14 803f 61a9 7c3f 689a 803f
00000330: dca6 793f ff0c 823f c5b7 7c3f 0691 7d3f
00000340: fc97 7d3f 9d95 813f 1193 813f ebff 7c3f
00000350: 2da8 813f 53fb 803f 17bb 813f bf1d 7d3f
00000360: a1cb 7f3f d631 833f da24 813f ac66 813f
00000370: 2296 813f 3164 7c3f 1881 7c3f 7a4f 7d3f
00000380: 0c1d 813f 4c76 7f3f ef22 803f 28a6 7d3f
00000390: 43ec 803f e011 813f 93b4 7f3f 3bd9 803f
000003a0: 01e5 7d3f 10ad 7d3f 09f4 7d3f 0d07 813f
000003b0: 4c16 7d3f 91bf 813f 7f49 813f c8e0 7d3f
000003c0: 585f 7d3f 08f0 7d3f 516e 7e3f e9e8 7c3f
000003d0: cbaa 7d3f ba42 813f dd60 813f 0fc5 7d3f
000003e0: 8fa6 7c3f a830 813f b54b 7d3f 979a 7d3f
000003f0: c81a 813f 16c3 823f 37e3 803f 2e47 7e3f
